Assets/OpponentAI/OpponentL.onnx (onnx, 125740 bytes, 5 tensors)

action_model._continuous_distribution.mu.weight f4 [1, 128]
-0.062841184 -0.06516026 0.06367821 -0.05263404 0.06639221 0.11986154 0.09591752 -0.0667616
0.14970222 -0.08993652 -0.065724745 0.07888767 -0.050437015 0.044645097 -0.09044414 -0.14008905
0.15414874 0.09419587 0.084364906 -0.06464767 -0.10072509 0.09827798 -0.05685552 0.07063568
-0.04190043 0.06024261 0.12549564 -0.026957441 0.092072055 0.053644568 -0.07455071 -0.00265507
0.15003292 -0.006595751 0.17275208 0.04699448 -0.09870855 -0.046888895 -0.065869115 -0.05785843
0.077985816 0.03263245 0.1110559 0.05769479 -0.024794796 -0.043428805 -0.12346798 0.12184124
0.1041601 0.08207265 -0.09478387 -0.057116218 -0.03651784 0.08210705 0.07794043 -0.03808118
-0.08615829 0.15431477 -0.13331498 -0.062073305 0.15034565 0.018759456 0.071963266 0.08311804
-0.11196592 0.089320146 -0.063289545 -0.1218589 -0.0324507 -0.056833506 0.07121497 0.120149836
-0.028744092 -0.10705917 -0.087448955 0.0995015 0.10236026 -0.015605564 -0.07510095 0.061085623
0.10950573 0.0041977107 0.07673233 -0.07245074 -0.06748759 0.04229239 -0.091652215 -0.093117855
-0.045595683 -0.11662501 -0.0002876445 0.08342326 -0.1070744 -0.057543777 0.05911421 -0.02758622
0.049740825 -0.030247878 -0.09213829 -0.040875345 0.08788364 0.066581935 -0.041485146 -0.062172968
0.018936919 -0.14136256 0.15190619 -0.06975896 0.07092777 -0.049830407 0.090293095 -0.02772659
-0.039647907 0.113676295 -0.06717429 0.06167592 0.08629856 -0.04631572 0.06344457 0.042682763
0.07554827 0.08859386 0.15045331 0.07366898 0.07985786 0.069010615 -0.062225595 0.09333479
00000000: e1b2 80bd be72 85bd b969 823d cb96 57bd
00000010: a4f8 873d f879 f53d 6870 c43d 4eba 88bd
00000020: 8a4b 193e a330 b8bd b29a 86bd dc8f a13d
00000030: 0b97 4ebd c7dd 363d c73a b9bd 8173 0fbe
00000040: 2bd9 1d3e c4e9 c03d 82c7 ac3d ff65 84bd
00000050: f548 cebd f745 c93d 55e1 68bd 70a9 903d
00000060: c99f 2bbd f4c0 763d ee81 003e dad5 dcbc
00000070: 4690 bc3d 68ba 5b3d 0bae 98bd af00 2ebb
00000080: 3ba2 193e 2b21 d8bb ece5 303e 497d 403d
00000090: b527 cabd 920e 40bd 63e6 86bd f6fc 6cbd
000000a0: 07b7 9f3d 9ba9 053d 4771 e33d 5f51 6c3d
000000b0: 751e cbbc 67e2 31bd c8dc fcbd e687 f93d
000000c0: e451 d53d b515 a83d 0c1e c2bd b2f2 69bd
000000d0: bb93 15bd be27 a83d 3b9f 9f3d 03fb 1bbd
000000e0: c273 b0bd b104 1e3e b983 08be 9440 7ebd
000000f0: 36f4 193e 6ead 993c 7a61 933d ca39 aa3d
00000100: 634e e5bd 7bed b63d f39d 81bd 2991 f9bd
00000110: 06eb 04bd 40ca 68bd 27d9 913d 1e11 f63d
00000120: bb78 ebbc d741 dbbd 7018 b3bd 71c7 cb3d
00000130: 42a2 d13d 7bae 7fbc 87ce 99bd eb34 7a3d
00000140: 8a44 e03d f38c 893b d725 9d3d 0e61 94bd
00000150: ef36 8abd c93a 2d3d 28b4 bbbd 93b4 bebd
00000160: 8ac2 3abd 18d9 eebd fece 96b9 d0d9 aa3d
00000170: d349 dbbd 06b3 6bbd be21 723d 7ffc e1bc
00000180: 09bd 4b3d 66ca f7bc 00b3 bcbd e86c 27bd
00000190: 56fc b33d 1c5c 883d 54ec 29bd 15a9 7ebd
000001a0: 9921 9b3c 59c1 10be 4c8d 1b3e c9dd 8ebd
000001b0: 9442 913d f81a 4cbd 96eb b83d e022 e3bc
000001c0: d865 22bd 1ecf e83d ad92 89bd e49f 7c3d
000001d0: 4dbd b03d 8db5 3dbd 3aef 813d 1fd4 2e3d
000001e0: 0db9 9a3d b370 b53d 6f10 1a3e c3df 963d
000001f0: 858c a33d 7055 8d3d 44e0 7ebd 4f26 bf3d

network_body._body_endoder.seq_layers.0.bias f4 [128]
0.020354247 0.006379495 -0.05852284 0.008422178 0.008093766 0.015810193 0.01446166 0.031582896
0.010462414 0.003922252 2.7064227e-05 0.0017197472 -0.027809165 0.020794945 0.013130121 0.018260406
0.012558425 0.007965467 0.023093792 0.014492234 0.024301121 0.024200225 0.030870257 -0.008236324
-0.016434653 0.009354422 0.04636882 0.025418231 0.03427573 0.0066178762 0.010455713 -0.0071316366
0.01247269 0.0055311685 0.01488379 0.006426996 -0.008529466 0.019356277 0.02799546 0.0023953228
0.007978264 -0.007650513 0.0052450043 -0.017891182 0.023130108 -0.0034901896 0.007184823 0.01392071
-0.027471218 0.0048722783 0.015517795 -0.010815057 0.0050694593 -0.021017991 0.004263059 0.020317506
-0.015151662 0.00056252157 0.0009744682 -0.026307965 0.028326808 -0.008057832 -0.042680014 -0.0067971996
-0.004818344 0.0035159972 0.04112881 0.008783203 0.016442643 0.01650421 0.015493648 -0.00025815447
0.008899824 0.0048952475 -0.004594434 0.039030142 -0.016381025 0.01778678 0.0071715894 0.027454099
-0.031232005 0.016987776 -0.014338232 0.016417192 0.012891177 -0.021444764 0.017480845 0.012607705
1.054597e-05 0.012880509 -0.0062469984 -0.015138344 -0.0016614547 0.015551684 0.03836483 0.026322443
0.014497342 0.027667085 0.035866376 -0.007481049 0.0022130932 0.0024028164 0.03238987 -0.018243538
-0.008867062 -0.003548975 -0.016844744 -0.004196752 0.004594668 0.029123658 0.023713063 -0.004126314
-0.010202079 -0.0020773392 0.033454232 0.002764325 0.020750606 0.015560958 0.0038142377 0.019009238
0.006675645 -0.0065164017 0.006331763 -0.0015479991 -0.00077078026 0.0131009165 0.052709516 0.004527845
00000000: f3bd a63c 150b d13b a5b5 6fbd 2dfd 093c
00000010: b79b 043c 6184 813c 99f0 6c3c 115d 013d
00000020: 8b6a 2b3c 3c86 803b fc07 e337 2469 e13a
00000030: 0cd0 e3bc 295a aa3c b81f 573c d996 953c
00000040: dac1 4d3c 9781 023c 312f bd3c d670 6d3c
00000050: 2513 c73c 8d3f c63c 9fe3 fc3c a6f1 06bc
00000060: f7a1 86bc 4a43 193c 3bed 3d3d e539 d03c
00000070: b564 0c3d c5da d83b 704e 2b3c 81b0 e9bb
00000080: 415a 4c3c ce3e b53b 24db 733c 8d99 d23b
00000090: 2cbf 0bbc 0e91 9e3c bc56 e53c d9fa 1c3b
000000a0: 44b7 023c 28b1 fabb 49de ab3b 8790 92bc
000000b0: 5a7b bd3c aabb 64bb aa6e eb3b b113 643c
000000c0: 520b e1bc a2a7 9f3b 5a3e 7e3c a331 31bc
000000d0: b51d a63b ec2d acbc 21b1 8b3b e670 a63c
000000e0: ad3e 78bc 2f76 133a 7473 7f3a cd83 d7bc
000000f0: 9f0d e83c ff04 04bc 3dd1 2ebd 0bbb debb
00000100: 33e3 9dbb a56c 663b af76 283d 6ce7 0f3c
00000110: b9b2 863c d633 873c 12d9 7d3c e858 87b9
00000120: 91d0 113c 5068 a03b e88c 96bb 12de 1f3d
00000130: 8031 86bc 95b5 913c a7ff ea3b 6be7 e03c
00000140: 43da ffbc f329 8b3c e7ea 6abc 597d 863c
00000150: 8435 533c eeac afbc fd33 8f3c 8c90 4e3c
00000160: 99ee 3037 c508 533c 9fb3 ccbb d106 78bc
00000170: 2bc5 d9ba 7ecc 7e3c 7124 1d3d 2aa2 d73c
00000180: 4286 6d3c 15a6 e23c 9fe8 123d 9623 f5bb
00000190: 8b09 113b 9278 1d3b 3eab 043d 7973 95bc
000001a0: 2747 11bc ec95 68bb fdfd 89bc e884 89bb
000001b0: de8e 963b bd94 ee3c e641 c23c 0836 87bb
000001c0: 9f26 27bc f823 08bb 4e07 093d ad29 353b
000001d0: 2dfd a93c 63f3 7e3c 4af8 793b 43b9 9b3c
000001e0: 5ebf da3b 8a87 d5bb ae7a cf3b 3be6 caba
000001f0: 300e 4aba 3aa5 563c efe5 573d 515e 943b

network_body._body_endoder.seq_layers.0.weight f4 [128, 111]
-0.009772064 0.12946644 -0.32457402 0.18622883 -0.024601571 0.23627327 0.017695855 0.03405179
0.0890104 0.058648437 -0.14734465 -0.08962793 -0.10069868 0.10868829 -0.17378265 0.058092527
-0.1701905 0.050818548 0.13400398 -0.104488574 -0.05702149 0.10105535 0.13553718 -0.13579367
-0.09224299 -0.024596207 0.08083142 -0.0242299 0.116724715 -0.02781262 -0.15686367 0.22848187
0.04051471 0.058294732 0.09639644 0.03799004 -0.12928699 -0.17733653 -0.043621104 -0.07435169
0.22877146 0.041986838 0.14596304 -0.10086141 0.075061746 0.07869728 -0.03930585 -0.028850093
0.1253281 0.017742224 -0.06826633 0.19871907 -0.069480985 -0.011234149 -0.07590249 -0.098525316
0.07163621 -0.0053627603 0.06544937 0.20027465 0.047696058 0.03887978 0.0074124336 0.0038859819
0.025076792 0.18602389 -0.19819179 -0.08226145 0.02938974 -0.018725019 -0.012743938 0.20036992
0.08973871 0.0040170876 -0.012016469 0.12376227 -0.22884792 0.023235993 -0.008228473 0.04840131
0.12849149 -0.025376936 -0.08100933 0.0030869597 -0.013364992 0.044864465 -0.014530328 0.17047378
0.06451082 -0.0320417 -0.052602664 -0.028335191 -0.13260505 0.06356801 -0.0019999845 0.29910335
-0.17625025 0.11179224 -0.19169219 -0.055900488 0.15698068 -0.13376176 0.2610677 0.04651773
0.11152438 0.13753736 0.15233271 -0.20014322 0.050875627 0.06809686 -0.18571696 -0.10120776
-0.050566055 0.041085888 0.057145532 -0.20468621 -0.10555812 0.11834806 0.035033014 -0.21612367
0.03941228 -0.13941437 -0.12656868 0.0054680905 0.011413771 0.11860157 -0.06490413 0.0027299973
0.018635018 -0.13284086 -0.009335308 0.014301661 0.031049779 0.14260957 0.031150931 0.0028249987
0.16854174 -0.025269784 0.031862885 -0.060353253 -0.093156405 -0.052502114 0.0028925042 0.12425769
-0.0090162335 0.18449326 0.042816978 -0.0092268605 -0.032676417 -0.20283984 0.09065902 0.00063428504
-0.13024583 -0.01928751 0.0013025402 0.083739296 0.1124016 0.04027899 -0.17298114 0.030146645
0.07580169 0.115602165 0.29731402 0.13429497 0.07411448 -0.15391064 -0.02251872 0.04151853
0.041798953 -0.19436595 -0.21265991 -0.16497543 -0.04457421 -0.033964746 0.07829198 0.08814939
0.0827496 0.15641682 0.13223659 -0.013189052 0.04609028 -0.06607243 0.14461425 -0.12772937
-0.12918061 -0.044835128 0.0065601724 0.03904196 0.27073476 -0.028514614 0.121940345 0.05472926
-0.12994424 0.007525677 -0.013867775 0.11647223 -0.019886255 -0.030467624 -0.20356506 -0.094528764
-0.02780634 0.013584838 0.042638652 0.08575458 -0.08620714 0.09326147 -0.022443453 -0.10236482
-0.06572232 -0.07067028 0.034157846 -0.0985731 -0.032170888 0.0051814136 0.100593 -0.0852345
0.052085053 -0.052517284 -0.0026497454 -0.11032599 -0.12752846 0.06965286 0.0076825973 0.017930103
0.00022775924 -0.14055832 -0.10525209 -0.1616932 -0.07142533 -0.17861442 -0.11795957 -0.0969547
0.13243034 -0.01885039 -0.13757834 -0.002476674 0.14594294 -0.044022907 -0.10386095 -0.0036651515
-0.02144645 0.079057276 0.003236461 -0.12303067 0.007558072 0.023878401 -0.116822384 -0.2724876
-0.07918202 0.04729733 0.12650092 0.007168369 0.045522656 -0.23304439 0.057246707 0.0387058
00000000: 021b 20bc da92 043e 912e a6be c5b2 3e3e
00000010: 3c89 c9bc 9ff1 713e e6f6 903c e479 0b3d
00000020: 164b b63d 5839 703d 84e1 16be d98e b7bd
00000030: 1c3b cebd f797 de3d 14f4 31be 6ef2 6d3d
00000040: 6b46 2ebe 1c27 503d 5738 093e 1bfe d5bd
00000050: 5e8f 69bd 1bf6 ce3d 42ca 0a3e 7f0d 0bbe
00000060: e5e9 bcbd fc7d c9bc f28a a53d c97d c6bc
00000070: 5e0d ef3d 4bd7 e3bc dfa0 20be 27f7 693e
00000080: c1f2 253d 75c6 6e3d 7f6b c53d 729b 1b3d
00000090: cf63 04be b597 35be 0bac 32bd b345 98bd
000000a0: 1143 6a3e 64fa 2b3d 5677 153e 6d90 cebd
000000b0: f9b9 993d 0a2c a13d 2cff 20bd 0857 ecbc
000000c0: 0256 003e 2458 913c 38cf 8bbd 037d 4b3e
000000d0: 0c4c 8ebd 700f 38bc c472 9bbd a4c7 c9bd
000000e0: 01b6 923d 18ba afbb 520a 863d cc14 4d3e
000000f0: f15c 433d 6740 1f3d 00e4 f23b f5ab 7e3b
00000100: d86d cd3c 0c7d 3e3e caf2 4abe b178 a8bd
00000110: c1c2 f03c 3665 99bc f3cb 50bc c62d 4d3e
00000120: eec8 b73d c6a1 833b b9e0 44bc 1377 fd3d
00000130: 1c57 6abe 6959 be3c b8d0 06bc 7440 463d
00000140: 4693 033e 4be3 cfbc 38e8 a5bd 974e 4a3b
00000150: d7f8 5abc cdc3 373d 9d10 6ebc ae90 2e3e
00000160: 401e 843d 283e 03bd e475 57bd 341f e8bc
00000170: 9ec9 07be f22f 823d 2c12 03bb 1324 993e
00000180: f27a 34be 54f3 e43d f54a 44be e9f7 64bd
00000190: 8bbf 203e d8f8 08be aaaa 853e 6089 3e3d
000001a0: e566 e43d 98d6 0c3e 1bfd 1b3e 58f2 4cbe
000001b0: f662 503d 5e76 8b3d 962c 3ebe 0446 cfbd
000001c0: 5a1e 4fbd ad49 283d 6f11 6a3d 4399 51be
000001d0: db2e d8bd 7860 f23d c77e 0f3d 864f 5dbe
000001e0: c56e 213d a4c2 0ebe 389b 01be ab2d b33b
000001f0: d300 3b3c 61e5 f23d 75ec 84bd c1e9 323b
00000200: 77a8 983c 6f07 08be 1ff3 18bc 8451 6a3c
00000210: 1b5c fe3c 3e08 123e 3d30 ff3c 9d23 393b
00000220: 3596 2c3e 9402 cfbc a882 023d f934 77bd
00000230: c9c8 bebd 750c 57bd 2b90 3d3b d17a fe3d
00000240: d3b8 13bc cdeb 3c3e db60 2f3d 422c 17bc
00000250: b5d7 05bd 3fb5 4fbe 70ab b93d 2646 263a
00000260: 2a5f 05be d700 9ebc ffb9 aa3a 827f ab3d
00000270: cf32 e63d 95fb 243d f821 31be 19f6 f63c
00000280: eb3d 9b3d d4c0 ec3d 8b39 983e 9f84 093e
00000290: 55c9 973d c09a 1dbe 2e79 b8bc 560f 2a3d
000002a0: 6135 2b3d de07 47be 85c3 59be 52ef 28be
000002b0: 7293 36bd 9e1e 0bbd 8c57 a03d ab87 b43d
000002c0: 9f78 a93d bb2b 203e 0769 073e e516 58bc
000002d0: 29c9 3c3d fb50 87bd c215 143e 7dcb 02be
000002e0: ec47 04be 0aa5 37bd b7f6 d63b 76ea 1f3d
000002f0: bf9d 8a3e 7b97 e9bc dcbb f93d ca2b 603d
00000300: 1a10 05be f499 f63b aa35 63bc fe88 ee3d
00000310: 80e8 a2bc 3d97 f9bc 5c73 50be 4c98 c1bd
00000320: 1fca e3bc f192 5e3c dea5 2e3d 19a0 af3d
00000330: 5e8d b0bd dfff be3d 55db b7bc a6a4 d1bd
00000340: 6c99 86bd 94bb 90bd 19e9 0b3d b2e0 c9bd
00000350: 9fc5 03bd d9c8 a93b b403 ce3d 6d8f aebd
00000360: 2357 553d 5d1c 57bd 5aa7 2dbb 98f2 e1bd
00000370: d296 02be 29a6 8e3d 4cbe fb3b 27e2 923c
00000380: a8d2 6e39 85ee 0fbe 688e d7bd e792 25be
00000390: 7247 92bd b3e6 36be c994 f1bd 3090 c6bd
000003a0: d29b 073e 226c 9abc 56e1 0cbe b24f 22bb
000003b0: 1172 153e 5d51 34bd 0db5 d4bd 0a33 70bb
000003c0: 77b0 afbc c8e8 a13d ce1a 543b 81f7 fbbd
000003d0: b4a9 f73b a39c c33c 9340 efbd 7f83 8bbe
000003e0: 2f2a a2bd d8ba 413d 7589 013e a3e4 ea3b
000003f0: f775 3a3d 30a3 6ebe 867b 6a3d f989 1e3d

network_body._body_endoder.seq_layers.2.bias f4 [128]
0.012992909 0.007862865 0.008785812 0.014110412 0.011784856 0.0143546555 0.047931816 0.022990169
0.033560514 0.018856067 0.007115988 0.014415905 0.0012486473 0.015268476 0.015006312 0.031381976
0.042217378 0.017296078 0.024488535 0.016429575 0.033285808 0.021077719 0.016180715 0.025756376
-0.0012602507 0.0087477015 0.040071856 0.018481363 0.020402083 0.014729121 0.0074622193 0.027145214
0.03770938 0.008830677 0.039220925 0.018005308 0.021538015 0.019522633 0.017409576 0.010699707
0.022342822 0.0102979345 0.040348172 0.0107895015 -0.002896582 0.0061218455 0.02259217 0.03968334
0.033040613 0.01693569 0.045491587 0.008616712 0.013717805 0.020711113 0.036553204 0.0021396591
0.028082848 0.027995083 0.037592582 0.013729935 0.044496763 -0.012298279 0.02403321 0.02149269
0.01690393 0.030377077 0.027771093 0.027169345 0.02272464 0.018036073 0.024077076 0.026178343
0.0014706431 0.019002667 0.018680979 0.021708408 0.030750338 -0.016156102 0.0024082682 0.031129006
0.017792847 0.0023579902 0.032897793 0.02116898 0.01421208 0.023182608 0.029228326 0.032894343
0.0026707775 0.025208324 0.013512866 0.029154558 0.028409297 0.0051424676 0.01263537 -0.0026927444
0.011089862 0.0032425467 0.020786006 -0.0008514184 0.019677866 0.018666258 0.0010280178 0.021480123
0.014656697 0.040805984 0.02855434 0.013076539 0.030091597 0.0054002427 0.032080777 0.0016848107
0.004304912 0.033602346 0.018054202 0.015951918 0.03150781 0.009728546 0.027121933 -0.009206509
0.021898903 0.024874609 0.046670727 0.017270146 0.01965581 0.026110755 0.012884693 0.020642571
00000000: 36e0 543c 3fd3 003c 5ef2 0f3c 5c2f 673c
00000010: 4515 413c ca2f 6b3c 2754 443d e155 bc3c
00000020: c076 093d 0a78 9a3c 3c2d e93b b030 6c3c
00000030: a7a9 a33a a128 7a3c 09dd 753c 638a 003d
00000040: 21ec 2c3d 81b0 8d3c 2e9c c83c 5197 863c
00000050: b356 083d 2eab ac3c 6b8d 843c 09ff d23c
00000060: ff2e a5ba 8552 0f3c 6322 243d 3a66 973c
00000070: 4522 a73c 6952 713c a285 f43b a45f de3c
00000080: 2775 1a3d 8bae 103c 1fa6 203d de7f 933c
00000090: 7e70 b03c eeed 9f3c 879e 8e3c d34d 2f3c
000000a0: 4b08 b73c abb8 283c 2044 253d 73c6 303c
000000b0: 95d4 3dbb c399 c83b 3713 b93c ff8a 223d
000000c0: 9855 073d b7bc 8a3c 6355 3a3d 1c2d 0d3c
000000d0: a5c0 603c 5aaa a93c d0b8 153d 8639 0c3b
000000e0: 000e e63c f255 e53c aefa 193d 85f3 603c
000000f0: 3d42 363d b97e 49bc 4be1 c43c 7011 b03c
00000100: 1c7a 8a3c 59d9 f83c 3480 e33c 3f92 de3c
00000110: 0629 ba3c 63c0 933c 4a3d c53c f773 d63c
00000120: 98c2 c03a 7bab 9b3c da08 993c d5d5 b13c
00000130: 22e8 fb3c cd59 84bc 09d4 1d3b 4202 ff3c
00000140: 4ec2 913c 8388 1a3b d6bf 063d 926a ad3c
00000150: c9d9 683c 74e9 bd3c 3e70 ef3c 38bc 063d
00000160: 3608 2f3b b081 ce3c 1165 5d3c 8ad5 ee3c
00000170: 9dba e83c 2582 a83b 9504 4f3c c178 30bb
00000180: 41b2 353c e880 543b 6a47 aa3c b931 5fba
00000190: 7a33 a13c fbe9 983c 8ebe 863a 15f7 af3c
000001a0: a522 703c 2d24 273d cbea e93c fb3e 563c
000001b0: a782 f63c 85f4 b03b 2267 033d ded4 dc3a
000001c0: 3810 8d3b 9da2 093d 68e6 933c 99ad 823c
000001d0: 550e 013d 7b64 1f3c d12e de3c e6d6 16bc
000001e0: 5465 b33c d6c5 cb3c ce29 3f3d 1f7a 8d3c
000001f0: 3905 a13c 39e6 d53c 521a 533c 9c1a a93c

network_body._body_endoder.seq_layers.2.weight f4 [128, 128]
-0.066310294 -0.16869114 -0.04589561 0.042464245 0.03826618 -0.06552473 0.20947602 -0.023927981
-0.086308 -0.109246135 0.012615649 -0.09028059 -0.014826927 -0.17530634 0.10649221 -0.0516433
-0.06300062 0.04217908 -0.074298516 0.12647118 0.13371137 -0.027674124 -0.24004178 -0.0657462
-0.034276064 0.076616354 0.034058098 0.004037978 -0.08422599 -0.029542236 -0.01808052 -0.030306
-0.016898155 0.018466476 -0.034037016 -0.0954935 0.2586862 -0.0659359 0.03132249 0.15332246
0.052275576 -0.12966222 -0.012428705 -0.1753435 0.068707675 -0.054401252 -0.062182564 -0.14254512
0.059498366 0.053520463 0.04374216 0.09398154 0.1924002 0.1340369 0.06830891 0.11551021
0.04024301 -0.08344217 0.006387169 -0.060991965 0.00827848 0.018894354 -0.043714996 0.11465893
-0.0177401 0.048023596 0.05527786 -0.21062891 0.04863239 -0.16292247 -0.10886951 -0.12551945
-0.06739457 -0.14635584 0.007174103 0.017260559 0.05867172 0.024736783 -0.016857667 0.025360636
-0.121382736 -0.06250455 0.027410233 -0.101895854 0.12247541 -0.006534054 -0.017455531 0.03716032
-0.08524907 -0.11251438 -0.012025568 -0.041703135 -0.1918097 -0.11272272 -0.012265692 -0.041835517
0.15258461 -0.116421826 -0.075461105 -0.06487784 -0.032314654 0.05436931 -0.04492018 -0.08173803
0.043542754 0.059502117 0.040531795 -0.08668136 -0.15220149 -0.13697454 0.28836414 0.009381864
-0.026484473 0.14551394 -0.041285522 -0.013460989 0.1362548 -0.08322261 0.003778579 0.22727923
0.022940025 0.02001588 -0.0020226245 0.009055401 -0.11608938 -0.0020680674 -0.103071526 0.14587428
0.012815461 -0.08677369 0.083624825 0.1401205 -0.02314601 -0.005510992 0.09924274 0.2146107
-0.17984995 -0.21034016 -0.022794042 -0.09751763 -0.046704862 -0.10012985 -0.06102717 -0.27535987
0.022063017 -0.16742179 0.041046277 0.13194402 0.053629924 -0.058638424 -0.009781602 -0.060183298
0.010890452 0.02931582 -0.0016110316 -0.04204946 -0.0073630325 0.108270615 -0.043258626 0.031095041
-0.01200947 0.17920245 -0.039374866 -0.032538116 -0.12112485 -0.11013573 0.019130532 0.059157558
0.07602257 0.12099653 -0.080803566 -0.08912973 0.09589904 0.027312377 -0.19499773 0.053900696
-0.034715243 -0.0076432675 -0.065558046 0.14306383 -0.06815286 0.061641824 -0.061405383 0.051329024
-0.1979796 -0.17934646 0.050732076 0.064878576 -0.04061252 0.14061685 -0.18369237 -0.014298383
0.0018966421 0.18587776 -0.0960561 -0.14110124 0.11343274 -0.011275885 0.04802886 0.13073224
0.10043023 0.013943197 0.035724718 -0.019222928 -0.12073481 0.020572577 -0.03651407 -0.13400988
-0.060865764 -0.06391024 0.06606342 0.05762692 -0.03845387 0.068225585 0.26917318 -0.00042568255
0.10902842 0.04245979 0.16121392 -0.13876186 -0.034532964 0.09097701 -0.092968516 0.07251357
0.17427611 0.0228318 -0.046473294 0.024738993 0.049153 0.1508239 -0.056236543 0.015190118
0.14924753 0.06267187 -0.116760656 -0.014424594 -0.07125655 -0.05736017 0.025963906 0.023916291
-0.023604931 0.028826848 0.07048436 0.025301203 0.073437005 0.11288082 0.0876801 0.037089564
-0.14566259 0.046385292 0.11298944 0.027357798 -0.06465219 0.08131577 0.05024829 0.0055185454
00000000: b1cd 87bd 5fbd 2cbe 09fd 3bbd fdee 2d3d
00000010: ffbc 1c3d d431 86bd e280 563e 9d04 c4bc
00000020: 40c2 b0bd 70bc dfbd deb1 4e3c 08e5 b8bd
00000030: a4ec 72bc 8183 33be 9618 da3d ed87 53bd
00000040: 7806 81bd f9c3 2c3d d229 98bd a981 013e
00000050: a2eb 083e d8b4 e2bc 83cd 75be f2a5 86bd
00000060: 0f65 0cbd 09e9 9c3d 8180 0b3d 0451 843b
00000070: ad7e acbd 8f02 f2bc 991d 94bc 4a44 f8bc
00000080: 006e 8abc 0247 973c 666a 0bbd 1992 c3bd
00000090: 8572 843e 6709 87bd 034c 003d 9000 1d3e
000000a0: ea1e 563d 2cc6 04be c4a1 4bbc 3f8d 33be
000000b0: 9cb6 8c3d d9d3 5ebd 25b3 7ebd 59f7 11be
000000c0: 8fb4 733d 4638 5b3d fb2a 333d 6579 c03d
000000d0: 8f04 453e f840 093e 8be5 8b3d 9e90 ec3d
000000e0: dbd5 243d bae3 aabd 754b d13b b6d2 79bd
000000f0: 76a2 073c 55c8 9a3c 7f0e 33bd 4dd2 ea3d
00000100: b053 91bc 64b4 443d 0a6b 623d 1baf 57be
00000110: c232 473d 26d5 26be faf6 debd 2c88 00be
00000120: 2a06 8abd 4ede 15be bd14 eb3b 0466 8d3c
00000130: c251 703d cba4 ca3c 1719 8abc 1cc1 cf3c
00000140: 8397 f8bd 6302 80bd 6d8b e03c c6ae d0bd
00000150: 63d4 fa3d 9e1b d6bb e7fe 8ebc 6b35 183d
00000160: 1097 aebd f06d e6bd e306 45bc e8d0 2abd
00000170: c369 44be 2bdb e6bd 0bf6 48bc b85b 2bbd
00000180: 243f 1c3e 916e eebd 5a8b 9abd acde 84bd
00000190: 5f5c 04bd 5bb2 5e3d 39fe 37bd 4566 a7bd
000001a0: e359 323d 7eb8 733d ab04 263d ff85 b1bd
000001b0: b5da 1bbe 0e43 0cbe 77a4 933e 64b6 193c
000001c0: f7f5 d8bc 9b01 153e 021b 29bd 7b8b 5cbc
000001d0: 6186 0b3e 9e70 aabd 09a2 773b e3bb 683e
000001e0: b8ec bb3c 58f8 a33c 028e 04bb 1b5d 143c
000001f0: 45c0 edbd 6a88 07bb 2a17 d3bd 1160 153e
00000200: f0f7 513c 68b6 b1bd 7e43 ab3d c07b 0f3e
00000210: b39c bdbc 8d95 b4bb c73f cb3d e8c2 5b3e
00000220: 962a 38be 6963 57be 92ba babc 53b7 c7bd
00000230: 994d 3fbd e110 cdbd a0f7 79bd f8fb 8cbe
00000240: 80bd b43c 9e70 2bbe 2420 283d 551c 073e
00000250: 0dab 5b3d d82e 70bd 0343 20bc c382 76bd
00000260: de6d 323c bb27 f03c 4029 d3ba 0e3c 2cbd
00000270: 9845 f1bb fcbc dd3d f52f 31bd 07bb fe3c
00000280: 5ec3 44bc d980 373e 8a47 21bd b046 05bd
00000290: 4e10 f8bd d78e e1bd a2b7 9c3c 324f 723d
000002a0: b9b1 9b3d 07cd f73d 577c a5bd a689 b6bd
000002b0: b766 c43d 35be df3c 7cad 47be fac6 5c3d
000002c0: 9231 0ebd 6074 fabb 4c43 86bd 537f 123e
000002d0: ba93 8bbd 237c 7c3d 3684 7bbd 623e 523d
000002e0: 2abb 4abe 99a6 37be 70cc 4f3d 0fdf 843d
000002f0: 5059 26bd ddfd 0f3e da19 3cbe c443 6abc
00000300: c098 f83a bd56 3e3e 10b9 c4bd d87c 10be
00000310: 6d4f e83d 7dbe 38bc e9b9 443d acde 053e
00000320: 5dae cd3d 0272 643c 1554 123d 6779 9dbc
00000330: d043 f7bd d287 a83c c78f 15bd e339 09be
00000340: 614e 79bd 5fe3 82bd 424c 873d 350a 6c3d
00000350: ce81 1dbd dbb9 8b3d 11d1 893e 252e dfb9
00000360: 4b4a df3d 51ea 2d3d 4315 253e 9717 0ebe
00000370: 7072 0dbd 2852 ba3d 4766 bebd ff81 943d
00000380: 7075 323e c109 bb3c c85a 3ebd 6ea9 ca3c
00000390: a854 493d 9571 1a3e 4a58 66bd f9df 783c
000003a0: 58d4 183e 1c5a 803d 3620 efbd 2255 6cbc
000003b0: f4ee 91bd 7ff2 6abd 42b2 d43c 19ec c33c
000003c0: 215f c1bc 4826 ec3c 1b5a 903d 7844 cf3c
000003d0: 2466 963d 0f2e e73d a091 b33d 3aeb 173d
000003e0: 9328 15be 81fe 3d3d 0267 e73d 761d e03c
000003f0: 5e68 84bd e288 a63d 27d1 4d3d ead4 b43b
