results/ppo/OpponentAI.onnx (onnx, 119084 bytes, 5 tensors)

action_model._continuous_distribution.mu.weight f4 [1, 128]
000000 0b 70 c3 bd 7e b1 07 be 59 86 6d bd 47 a8 28 bd
       -0.09542855 -0.13251302 -0.057989452 -0.041176107
000010 0f 1a ac 3c 23 38 a1 bd 6f 3c 8c bd b9 db 85 3d
       0.02100852 -0.07872035 -0.06847464 0.065360494
000020 5b 82 cf bc 34 70 30 3d d8 94 3d 3d 11 2e 01 3e
       -0.025330713 0.043075755 0.046284527 0.12615229
000030 22 38 27 bd 8a 49 fb 3d ba 53 b3 3d af 07 61 bd
       -0.040825017 0.12269886 0.08756204 -0.05493897
000040 ba 8e 96 3d de d6 f8 bc 08 4c ab 3d aa 82 73 bd
       0.07351442 -0.030375894 0.08364111 -0.059450783
000050 87 6d 96 bd b3 b3 ce bd f1 be a5 3d 3c 19 87 3d
       -0.073451094 -0.10092869 0.0809306 0.0659661
000060 f8 9b e2 bc 71 06 03 3e e7 d4 94 bd a3 24 2a bd
       -0.027662262 0.12795426 -0.072671704 -0.041538846
000070 bd 59 cd bd 11 62 dc bd 87 08 d2 bc b4 e2 79 3d
       -0.10026882 -0.10760892 -0.025638832 0.061007217
000080 24 b1 11 3d 9d 86 15 bd 94 1e b2 3d ee 40 07 3e
       0.035569325 -0.03650533 0.086972386 0.13208362
000090 9f 71 44 3d 1e 0b cd 3d 61 c5 95 3d a4 08 68 bd
       0.04795992 0.10011886 0.07313038 -0.056648865
0000a0 b0 06 ef 3d 1e 2f 02 be 97 3f e8 3d 39 b7 44 bd
       0.116711974 -0.12713286 0.11340254 -0.048026297
0000b0 2b 80 c6 bd 20 e7 a6 bd a1 bb 75 bd 3f 32 99 3d
       -0.09692415 -0.08149552 -0.05999339 0.07480287
0000c0 3e 38 a3 3d 54 0a 96 3b 52 ed a9 3d 0f 19 93 bd
       0.07969712 0.004578868 0.082972184 -0.07182514
0000d0 0f 51 38 3d 89 2d 06 bd bb 3e 13 3e c8 75 d4 3d
       0.04499918 -0.03275827 0.14379399 0.103740275
0000e0 d6 35 01 3e 9c ec 92 3d 76 0f 58 3c 0c 84 20 bd
       0.12618193 0.07174036 0.01318728 -0.03918843
0000f0 8c 69 b0 bd 41 a6 96 bd 23 3c 02 3e ee de 00 bc
       -0.086138815 -0.07355929 0.12718253 -0.007865651
000100 99 00 f3 3d e6 3d 2a 3d 01 77 62 3d 7e 52 08 bd
       0.11865348 0.041562937 0.055289272 -0.033281796
000110 8e a7 c1 bd 36 38 9d bd 0a 8e c6 3d 16 5b 16 3d
       -0.09455787 -0.07676737 0.096950606 0.03670796
000120 42 c0 73 bc 3d d2 f5 bc 4d 06 3c bd 75 dd 75 bd
       -0.014877381 -0.030007476 -0.045904446 -0.06002565
000130 bc d9 ab 3d 7f 09 ac 3d c2 22 bf bd ed 95 99 3d
       0.08391139 0.08400249 -0.093328014 0.07499299
000140 1d 58 af 3d 50 88 d8 bd ea c7 b3 3d f3 fd 70 3d
       0.08561728 -0.105728745 0.08778365 0.058835935
000150 8c 5d 71 3d 9a e9 d3 3d c5 a8 f6 3c 6f 00 ba 3d
       0.058927104 0.1034729 0.030109772 0.09082114
000160 fd 21 13 3d 06 fc ff 3d 79 af 0d 3d 71 75 88 bd
       0.035921086 0.124992415 0.034591172 -0.06663025
000170 6f df 0a 3d 6e 5a e1 bd d2 c4 11 bd c6 be b1 3d
       0.03390449 -0.11003576 -0.035588093 0.08678965
000180 62 5a 54 3d 26 61 e0 3d aa f6 99 bd ec bf 4f bd
       0.05184401 0.109560296 -0.075177506 -0.05072014
000190 4f 75 2a 3d 26 35 7f bd d6 24 9f bd c0 06 19 3d
       0.04161578 -0.062306546 -0.07770698 0.037359953
0001a0 94 1f 42 3d 66 cd 4d 3d a3 1c 62 bc 55 23 4c 3d
       0.047393396 0.05024471 -0.013800773 0.049838383
0001b0 a1 e8 cb 3d af 00 67 bd 70 53 55 bd af 84 ae 3c
       0.0995648 -0.056397136 -0.052081525 0.021303503
0001c0 15 d3 a6 3d 06 33 9b 3b 99 50 07 bd 7c 28 ab 3d
       0.081457295 0.004736307 -0.03303585 0.08357331
0001d0 cd 29 a8 bd fa 32 71 bc 5e 29 82 b9 07 14 92 bd
       -0.08211098 -0.014721626 -0.00024826353 -0.07132726
0001e0 61 0a 7a bd 5f ab 02 be 84 a9 ca bc 50 86 e1 3d
       -0.061045054 -0.12760685 -0.024739034 0.11011946
0001f0 46 40 b5 bd 4e 05 d1 3d 39 03 86 bd 2b e7 77 bd
       -0.0885015 0.1020609 -0.065435834 -0.060523193

network_body._body_endoder.seq_layers.0.bias f4 [128]
000000 19 0f fc bb 10 83 ba bc c8 a2 0f 3c b2 56 c3 bb
       -0.0076922295 -0.022767574 0.008766837 -0.0059612626
000010 53 f6 b4 3c 47 ef 9c 3c d9 b0 19 bd 13 2f 09 38
       0.022090113 0.019157065 -0.03752217 3.2707187e-05
000020 27 ea 38 3c f8 29 f5 3c 9e c9 0b bc 55 df 3c bb
       0.011286295 0.029927239 -0.008531956 -0.002881964
000030 1a 2d 20 3d 9c 7e 4f bd e0 59 31 bc d8 4d 77 3a
       0.039105512 -0.050657853 -0.0108246505 0.0009433902
000040 a8 e5 c3 3c 33 1b 01 b9 2e 9a 76 3c c5 fe b3 3a
       0.02391322 -0.00012312531 0.015051408 0.0013732543
000050 39 ce 88 bc 5f 9f 47 3b 11 84 1e 3c 9c 8c 2e bc
       -0.016699897 0.0030459983 0.009675042 -0.010653641
000060 57 c9 e6 3c d0 d8 80 3c fd e2 c7 3b 1a 79 0c 3d
       0.028172178 0.015728384 0.006100057 0.03429518
000070 da a1 b3 3c b8 ec 68 3c 92 6a 20 3c 81 80 77 3d
       0.021927763 0.014216594 0.009791033 0.060425285
000080 29 42 1a 3d 62 08 8b 3b d1 12 1d 3d db 38 e6 3c
       0.03766075 0.0042429427 0.038348023 0.028103283
000090 1f 2c 66 bb 7b a4 bc bc a1 fb 03 3a ea 5f d6 ba
       -0.0035121513 -0.02302765 0.0005034749 -0.0016355489
0000a0 d3 71 5d 3c 1d 5a 20 3b be 57 de 3c 75 fd a5 3a
       0.013515907 0.0024467774 0.027141448 0.0012664037
0000b0 2e 81 0c 3d 0e 2d 9a bc 58 71 c1 bb 7b 3a dd 3b
       0.034302883 -0.018820312 -0.005903404 0.006751356
0000c0 89 7b e1 3c ef 81 34 bb 89 d5 0a 3a 6a 96 90 3c
       0.027524726 -0.0027543267 0.00052961014 0.017649848
0000d0 db 98 3c 3c e2 98 6a 3b 1b e4 a9 bc a6 28 ae 3c
       0.011511053 0.0035796692 -0.020738652 0.021259617
0000e0 5f 20 27 3d fc 26 54 bc 8b 64 ca 3c d7 07 af bb
       0.040802356 -0.012948748 0.024706146 -0.0053415108
0000f0 aa 60 71 bc 81 fe aa bc 29 ab 10 3d 61 8b 10 bc
       -0.014732519 -0.02087331 0.03531948 -0.008822293
000100 86 20 56 3d a8 37 c4 3c 7c 4b 1a 3d 18 11 9b bc
       0.05227711 0.02395232 0.037669644 -0.01892905
000110 70 d4 c6 3b b6 ff 51 3c cb 9d ac 3c 20 c6 b8 3c
       0.006067805 0.012817314 0.021071335 0.02255541
000120 d0 ad 98 bc 98 46 a5 3b b5 0f c2 3b d0 f5 dc 3c
       -0.018637568 0.005043816 0.0059222826 0.026972681
000130 83 a3 47 3c 0e a5 5d 3c be 9a da 3c 16 dc bd 3c
       0.01218498 0.013528122 0.026685115 0.023176234
000140 ed 9f 08 3c 76 0f 44 bb c5 60 5e bc 50 8d 9c 3c
       0.0083389105 -0.0029916442 -0.013572876 0.019110352
000150 26 4d 2a 3d f3 2a d0 3c 44 cd aa 3c cf fe 00 3d
       0.04157748 0.025411105 0.020849831 0.031493004
000160 6c 0f bd bc e3 93 9b bc a8 54 bb 3c d5 7f 4d 3c
       -0.023078643 -0.018991416 0.022867516 0.012542685
000170 9d 1d 17 bd f4 57 71 3b a4 1c e9 3c 06 3f df 3c
       -0.036893476 0.0036826106 0.02845604 0.027251732
000180 08 f1 15 3d 06 fe ef 3c 8e 2e 30 bd 53 31 64 3b
       0.03660682 0.029295933 -0.043013148 0.0034819439
000190 fc b5 ad bb d7 76 27 3c e6 b5 7f 3c 9a 06 30 3d
       -0.0053012352 0.010221205 0.015607333 0.042975046
0001a0 d3 97 e4 3b 4c d4 1f 3d 8e 54 2a 3c be 6c dc 3c
       0.0069761067 0.03902082 0.010396136 0.026907321
0001b0 89 1c 53 3d 43 c6 6c 3d 53 a7 6a 3c 2e f0 f1 bc
       0.051540885 0.057806265 0.01432212 -0.029533472
0001c0 9a e7 71 bc 75 b0 c1 bc 93 cd 98 3c 21 42 35 3b
       -0.014764691 -0.023643712 0.018652713 0.0027657824
0001d0 ad b3 b3 3c c8 47 7a 3c b1 f8 42 3d c9 98 e8 3b
       0.021936262 0.015275903 0.04760045 0.0070982915
0001e0 01 e7 be 3d fa c7 01 3d 99 38 9a 3c 79 6c 8c 3c
       0.09321404 0.031684853 0.018825816 0.017141568
0001f0 a1 95 4a 3c 8a 60 9b 3c dc af 21 3c 95 eb 3a 3c
       0.012364776 0.018966932 0.009868588 0.011408706

network_body._body_endoder.seq_layers.0.weight f4 [128, 98]
000000 74 e0 0d 3c 12 06 7c 3d 1f 79 26 3e eb 48 b8 3d
       0.008659471 0.061529227 0.16257142 0.08998283
000010 d1 b0 f4 3d 8f 22 85 bd 7b f4 4c 3a eb 9b 92 3d
       0.119477876 -0.06500732 0.0007818413 0.07158645
000020 71 36 83 3e 21 f5 56 37 ce a8 eb 3c bc 5a 95 bd
       0.25627473 1.28124675e-05 0.028767016 -0.07292697
000030 f6 fd c7 3d 4e 65 0f be b8 86 37 3d 33 e8 b0 bc
       0.09765236 -0.14003488 0.044806212 -0.021595096
000040 d4 fb 4f bd a7 00 0d 3c 97 e4 04 3d 43 a2 97 be
       -0.05077727 0.008606113 0.032444563 -0.29615983
000050 30 08 d7 bc 4b 58 e6 3d f5 69 ad bc 35 76 2f bd
       -0.026249021 0.11247309 -0.021168688 -0.04283734
000060 1c 14 fb 3d 6a 82 9b 3b 29 e9 92 3b 31 29 43 3d
       0.12259695 0.004745771 0.0044833613 0.047646705
000070 bb 47 05 be c7 89 c2 3d c5 19 c1 bd aa 7b 38 bd
       -0.13015644 0.09498935 -0.09428743 -0.04503981
000080 60 ea e8 bc 03 83 31 bd ad 01 b0 be 90 38 3b be
       -0.028432071 -0.043337833 -0.3437628 -0.18283296
000090 0e 3d 09 bc 1e 38 0b bd 63 0c 96 bd 88 72 3e 3d
       -0.008376373 -0.033989064 -0.07326581 0.046495944
0000a0 cd 24 d9 3d 79 c3 18 bc 08 3a cd bd c7 98 ca 3c
       0.10602722 -0.009323948 -0.10020834 0.024731053
0000b0 b5 42 3c 3e 33 66 4a bd 05 25 0f 3d a9 d1 b6 3d
       0.18384822 -0.04941387 0.034947414 0.08926708
0000c0 7f 8e 0e 3c c6 db a9 3d d0 df 75 bd 25 fe e3 3d
       0.008700966 0.082938716 -0.060027897 0.111324586
0000d0 14 fd 4b 3d f7 da 66 bd 20 64 31 be 44 1b b4 3d
       0.0498019 -0.056361165 -0.17323351 0.08794263
0000e0 ad 88 90 3d 28 ee 27 be 15 75 15 3d dd 9c d4 3d
       0.07057319 -0.16399443 0.03648861 0.10381482
0000f0 f4 f8 1f bd 50 c0 0a be b8 f5 e2 bb 4d 8c 75 be
       -0.03905578 -0.13549924 -0.0069262646 -0.23979302
000100 fa 11 22 be e2 b1 0a 3d 83 ce d4 3d 7b 9a 5f 3e
       -0.1582717 0.03386105 0.103909515 0.21836273
000110 96 8b 37 be 61 f4 fd bd eb bf 12 bc cf 8c f3 bd
       -0.17924342 -0.12400127 -0.00895689 -0.118920915
000120 ac 26 ed 3c 7d 82 12 bd d1 7a 34 3d f8 b6 90 bd
       0.028949104 -0.035768975 0.04406244 -0.070661485
000130 46 47 d7 bc d0 c1 44 be 5b c3 00 3e 40 cc c0 bd
       -0.026279103 -0.19214559 0.12574522 -0.094139576
000140 b3 e0 db 3d 4b e1 e7 bd e3 a9 1f be 9c 11 3c be
       0.10736217 -0.11322268 -0.1559215 -0.18366092
000150 c2 1f 72 3e a7 8c c2 3d 2a 0f 10 3e 73 20 1d 3d
       0.23644927 0.094994836 0.14068285 0.038361024
000160 cc db ca bd dc 3a 2b be c4 84 44 3c 8a ae 56 bd
       -0.09905204 -0.16721672 0.011994544 -0.052412547
000170 58 4a 65 bd 65 0b d9 3c 0d a1 b8 be b7 5f 93 bd
       -0.055979103 0.026494691 -0.36060372 -0.071959905
000180 aa 31 bc 3d 5f c7 1a 3b 69 fe d1 3d 23 e9 aa bd
       0.0918916 0.002361737 0.10253603 -0.083452486
000190 b1 b2 41 3e 51 27 10 be d6 7a 7b bd a7 3e 06 be
       0.18915822 -0.14077498 -0.061396442 -0.13109837
0001a0 fb d5 06 be be d8 cb 3c f1 ad 15 be b9 c2 d3 3d
       -0.13167565 0.024883624 -0.14617135 0.10339875
0001b0 e3 df 67 3d 54 7f 35 3e a7 34 cb 3d 37 77 94 bd
       0.05661 0.17724353 0.09922152 -0.07249301
0001c0 d5 7d 77 3c e5 72 00 3d ab 85 90 bd bb cb 8b bd
       0.015105684 0.031359572 -0.07056745 -0.06825968
0001d0 3f f1 27 3d 4e cd 9a 3d 00 fc ab 3d 58 93 18 be
       0.041001555 0.0755869 0.083976746 -0.14899957
0001e0 58 5a 94 be 32 5a 7d bd fb 39 96 3d c8 09 7f bd
       -0.28975177 -0.061853595 0.07335278 -0.062265188
0001f0 d5 8b be bc ad 7c 31 be 9d ea 26 3e 1e 8b 53 3d
       -0.023260036 -0.17332716 0.16300435 0.051646344
000200 57 c9 9a bd f6 05 9e 3d e7 66 1b 3d 4a 92 f8 3d
       -0.07557934 0.07715981 0.037939932 0.121372774
000210 b7 a6 04 bd df 7e 0f bd 27 2f 19 bd b1 f5 7c bd
       -0.032385554 -0.035033103 -0.037398484 -0.061757747
000220 33 16 13 bd be 39 7e 3d 01 30 8e bc 81 a8 0b be
       -0.035909843 0.062066786 -0.017356874 -0.13638498
000230 3a 65 3d be dc 77 91 bb 75 38 04 3c 75 80 bc bd
       -0.18495646 -0.004439337 0.008070101 -0.09204189
000240 2c a3 81 bd 82 c9 3b 3d 7f 19 f9 bd cd 32 a2 bd
       -0.06329951 0.04584647 -0.12163066 -0.07919846
000250 31 28 5f 3d e6 a8 4d 3d 7c 2b 01 be e5 e2 68 bc
       0.05448169 0.050209902 -0.12614244 -0.014214252
000260 99 d8 19 be 3d cf 57 be 6e 3f 60 3c 95 ae 20 bd
       -0.15024032 -0.21075149 0.013686998 -0.039228994
000270 d4 fd 05 3e 42 15 14 3b 03 b4 26 be 7c 70 03 be
       0.13085109 0.0022595678 -0.16279607 -0.12835878
000280 7c 36 ad bb eb b0 7e bd 2f b5 2c be e0 62 73 be
       -0.005286036 -0.06218044 -0.16865991 -0.23768187
000290 90 56 cb 3c bd 6a b8 3d 75 d0 f0 3d 73 3c 8b 3d
       0.02482155 0.09004734 0.1175851 0.06798639
0002a0 3f 85 63 3d d6 90 b4 3d 18 7d 82 bc ae 98 72 ba
       0.055546995 0.08816688 -0.01592879 -0.00092543184
0002b0 e1 bc ee 3a 2e bd ab 3d dc b0 ca bc 80 3e bd 3d
       0.0018214249 0.083856925 -0.024742536 0.092404366
0002c0 fe ca 0c 3d 9c 3a b7 bb a4 bc 8a bd 08 bb ac bd
       0.034373276 -0.0055917036 -0.067742616 -0.08434111
0002d0 24 a9 dc 3d 85 c7 a2 bb 77 d2 00 3c 74 c6 eb 3d
       0.107744485 -0.0049676322 0.007862679 0.11512461
0002e0 27 d4 82 3e b8 a5 23 3e 42 17 90 3c 56 06 06 be
       0.25552484 0.15981185 0.017589215 -0.13088354
0002f0 64 e4 d4 bd 1f f8 40 3d 37 cb 37 3e 55 a0 8e 3d
       -0.103951246 0.047111627 0.17948614 0.06964175
000300 84 a8 20 bd b6 89 1c 3e a9 e9 40 3c 1d db 0f 3e
       -0.03922321 0.15286908 0.011774459 0.14048429
000310 b0 8b 30 3e c6 f2 01 3e 23 69 b9 3d 42 95 0a 3e
       0.17240787 0.12690267 0.09053256 0.135335
000320 8f db 2d be 9c 73 80 3d 60 0a f0 bd 9a 32 55 be
       -0.16978286 0.06272051 -0.11720729 -0.20820084
000330 62 12 dc 3d 34 9e 60 3e 61 5c 91 bd 15 7c a8 bd
       0.10745694 0.2193535 -0.07097698 -0.08226792
000340 19 6b 21 3e 92 21 b6 3b 3a 97 46 be e1 95 8e bd
       0.15763511 0.005558201 -0.19393626 -0.06962181
000350 ce 0d eb bd 18 c7 2d 3e af 41 80 3d df 48 99 3e
       -0.114772424 0.1697048 0.06262528 0.2993841
000360 b5 79 ea 3d b7 a7 09 be fe 37 d3 bc bb 99 7d 3c
       0.11448995 -0.13442884 -0.025783535 0.015478547
000370 f0 a9 81 3d 9f ad a9 bd 26 39 89 3d 53 29 d4 3c
       0.06331241 -0.08285069 0.06700353 0.025898611
000380 eb f5 ef 3d ab be 28 be f8 d9 e0 39 18 57 b4 bc
       0.11716827 -0.16478984 0.0004288701 -0.022014186
000390 31 e1 a1 3e de 41 ae bc 46 86 dd 3d 3b 75 2b be
       0.3161712 -0.021271642 0.10816626 -0.16743939
0003a0 59 96 d6 bd 9c 7a 11 bd 86 79 32 3e d3 0c bf bd
       -0.10477895 -0.03551732 0.1742917 -0.09328618
0003b0 9f 6d 1d 3e 01 2a 66 bd 5a 8e d0 3d f6 ab 1d bd
       0.15373848 -0.0561924 0.101834014 -0.038494073
0003c0 ac a5 fd bc 55 c2 cf bd 19 86 db 3d 36 45 d9 bd
       -0.030962788 -0.10144488 0.107189365 -0.10608904
0003d0 93 e8 8a bd ad 2d 2e bd ff 78 07 bc 63 96 0e 3e
       -0.06782641 -0.04252403 -0.008268594 0.13924555
0003e0 3d 84 b0 3d 80 d4 c6 3a 00 49 67 be 04 76 bd bc
       0.086189725 0.0015169531 -0.22586441 -0.023127563
0003f0 07 8e 85 bd 82 76 69 3d 0c b0 a5 3c 00 da 24 bc
       -0.0652123 0.056997783 0.020225547 -0.010061741

network_body._body_endoder.seq_layers.2.bias f4 [128]
000000 1b 2e df 3c 0e e1 2b 3d dd 0c d1 ba 7d 34 67 3b
       0.027243664 0.041962676 -0.0015949268 0.0035279088
000010 6b ba 17 39 c2 68 17 3d 35 41 88 3c c6 43 8b 3c
       0.00014469928 0.03696514 0.016632656 0.01700009
000020 6c 14 78 3b 7a 2c 7a 3c d9 9e 28 3c 1e 1d 8c 3c
       0.003785397 0.015269393 0.0102917785 0.017103728
000030 ed ff b9 3c e4 5e 32 3c aa 91 29 3d c0 52 2e 3c
       0.022705043 0.0108868815 0.04139868 0.010639846
000040 4a 99 ba 3c e0 b0 91 3b cd 16 8c 3c d6 77 35 3c
       0.022778172 0.004446134 0.017100716 0.011075934
000050 20 4c 28 3c d3 4f f2 3c cb 5c c8 3c 87 e2 19 3c
       0.010272056 0.029579079 0.02445831 0.009392387
000060 16 e5 b5 bb 95 18 00 3d 06 56 b4 3c 80 09 4a 3c
       -0.005550991 0.031273443 0.022013675 0.012331367
000070 1d 38 84 3c 50 47 1e 3d 10 49 3d 3c 64 93 a6 3c
       0.016140038 0.038642228 0.011553064 0.020333953
000080 a4 8b ea 3c a3 ac c5 3b be c9 b6 3c 56 62 b6 3c
       0.028631039 0.006032543 0.022312995 0.022263687
000090 9c e8 20 b9 bb 96 1e 3d 9f b7 2d 3d 3e 23 3d 3c
       -0.00015345443 0.038717967 0.042411443 0.011544047
0000a0 fb 9b 98 3c 91 4b 2e 3d 01 2f ce 3c 4a 14 9e 3c
       0.018629065 0.042552534 0.025168898 0.019296784
0000b0 91 b2 bd 3c bd 3b 9c 3c 20 10 01 3d 9a f1 7f 3c
       0.023156436 0.019071454 0.03150952 0.015621567
0000c0 24 7e e4 3c e0 f9 62 3c f4 06 e7 3c af d7 ab 3c
       0.02789218 0.01385352 0.028201558 0.02097687
0000d0 22 b6 a2 3c ff 2f 1e 3c eb f7 de 3c 2f 0f a9 3c
       0.019862238 0.009654998 0.027217826 0.020637123
0000e0 71 2d 55 3c cf e3 cb 3c d1 86 65 3b cf 6c 66 3c
       0.013011322 0.024888901 0.0035022984 0.014064028
0000f0 79 03 db 3c 29 7b ce 3c c4 9c f5 3c f3 c5 1a bc
       0.026735054 0.025205212 0.029981978 -0.009446609
000100 39 dd 0f 3d e1 70 e6 3b e3 3e e1 3c 8e 9b f8 3b
       0.035123084 0.007032499 0.027495807 0.007586903
000110 6d 89 91 3c 41 cc 16 3d 1c bd a4 3c 7d cc 19 3c
       0.017765725 0.036815885 0.020109706 0.009387133
000120 da 11 a0 bb 1e 20 ca 3c d9 50 57 3c 7c e5 ef 3c
       -0.0048849406 0.024673518 0.013141834 0.029284231
000130 ab 6a ad 3c 2f 6d a3 3c a7 2a 65 3c 9a f4 92 3c
       0.021169027 0.019949524 0.01398722 0.0179389
000140 d3 f8 14 3d 57 0c bd 3c 41 fd b5 3c ec 3e 21 3d
       0.03637011 0.023077173 0.022215487 0.039366648
000150 49 34 0c 3c 24 8a 41 3d 4f e3 2a 3b c4 b3 e1 3c
       0.008557388 0.04725088 0.0026075428 0.02755154
000160 71 8c de 3b 7e 28 e6 3c 04 2b fb b8 5a 2e f9 3c
       0.0067916443 0.02809548 -0.00011976625 0.03041761
000170 11 9f a4 3b 92 dc dc 3c 7e 84 05 3c 48 d9 15 3b
       0.005023845 0.026960645 0.008149264 0.0022865105
000180 6d 9b 73 3c fe 37 b3 3c bf e8 b9 3c 9b 77 74 3c
       0.014868599 0.021877285 0.02269399 0.014921094
000190 7d c8 42 3c de a8 35 3c ee 05 fb 3c 94 62 aa 3c
       0.01188862 0.011087624 0.030642476 0.020798959
0001a0 dd f9 54 bb dc 10 9a 3c 91 3b bd 3c c4 32 9b 3b
       -0.0032497563 0.018806867 0.023099693 0.0047362763
0001b0 1a 1d 09 3d 93 a4 7b 3c 82 52 19 3c 78 60 3c 3c
       0.03347502 0.015359062 0.00935805 0.011497609
0001c0 f4 92 b4 3c 7b 59 83 3c 2f 45 30 3c 05 b6 b7 3c
       0.022042729 0.016033879 0.010758682 0.02242566
0001d0 45 ed 87 3c c8 6c 0a bb 45 c1 57 bb 49 53 04 3d
       0.016592631 -0.0021121968 -0.0032921594 0.03230599
0001e0 f7 88 1d 3c a2 75 19 3d 55 7a 48 3b 7d ea 94 3c
       0.0096151745 0.0374657 0.0030590494 0.018178219
0001f0 86 07 f9 3c 5c 4f 84 3c 26 28 81 3c 2a 9c 1f 3c
       0.030399095 0.016151123 0.015766215 0.009741822

network_body._body_endoder.seq_layers.2.weight f4 [128, 128]
000000 76 07 86 be 4f 53 5c 3d 0e 6e ab bc f2 34 40 bd
       -0.26177567 0.053790387 -0.020926502 -0.046925493
000010 21 50 33 3e 97 10 76 be 41 9a 93 be 29 9d 55 bb
       0.17511036 -0.24029766 -0.28828624 -0.0032594895
000020 34 c2 ff bd f5 9e 48 be 5a 6d b2 bd 2e cb 0f bc
       -0.12488213 -0.19591887 -0.087122634 -0.008776469
000030 32 da 0d 3e 64 09 a6 3a 4d be 9e 3d 55 81 60 be
       0.13852766 0.0012667594 0.07751141 -0.21924336
000040 e5 4c ca 3d 86 28 88 3c 43 2b 26 3d 4b e2 fe b8
       0.09877948 0.016620886 0.0405686 -0.00012153814
000050 53 21 ea bd 60 ea 78 bd 57 35 78 bc 40 f1 07 bd
       -0.11432137 -0.060770392 -0.015149436 -0.03318906
000060 38 97 17 3d 36 ce a3 3d af 3f ca 3c 83 a0 da bd
       0.037009448 0.07998316 0.02468857 -0.106751464
000070 6c 9c d4 bc db 2b f2 3c 45 18 c3 bd 63 98 18 bc
       -0.025953494 0.029561928 -0.095261134 -0.009313676
000080 fe 35 07 be ae d6 40 3e cb 0c 7b bd 0f 4f ea bd
       -0.1320419 0.18831894 -0.061291497 -0.114408605
000090 d8 a9 8a bd 29 93 66 bd 02 25 ef 3d 7e 46 94 3c
       -0.067706764 -0.056292687 0.116769806 0.01810002
0000a0 c5 f8 11 3e 60 ee 9a 3d 13 74 38 3e ce 76 e1 bc
       0.14255054 0.07564998 0.18013029 -0.02752247
0000b0 f5 dd 3d 3e 6b 22 98 3c 50 d8 76 3d f4 1e 14 be
       0.18541701 0.0185711 0.060264885 -0.14464933
0000c0 ab 3d 31 3e 4e fe 49 3e 0a 71 cf bd 75 a8 00 3d
       0.1730868 0.19725916 -0.10128982 0.031410653
0000d0 b8 30 6d bd e9 4b 0c bd 55 28 9a bc 8b 15 e8 bc
       -0.05790779 -0.03425208 -0.01881806 -0.028330585
0000e0 14 71 09 3e 6e 49 67 3d 2f b4 76 be 7b df 0e bd
       0.13422042 0.056466512 -0.24092172 -0.034881096
0000f0 89 d5 aa bb 64 21 ab 3d fd 28 88 3c 1f ab c4 3a
       -0.0052134437 0.08355978 0.016621107 0.0015004611
000100 43 f6 ae bc c8 f8 d8 3b 4d 0b a1 bd 4d d4 ea bc
       -0.021357661 0.006621454 -0.078634836 -0.028665686
000110 cb a6 51 3d 9c 69 6d 3d 14 37 31 bd 46 87 49 3c
       0.051184457 0.057962045 -0.043265417 0.012300318
000120 83 2d 52 3d 01 bb 28 be 38 3a 3b 3d 7a 91 5a ba
       0.051312935 -0.16477586 0.04570982 -0.0008337718
000130 ab f7 9f 3d 1a 2f 84 bd ff 94 c1 bd 22 17 94 3d
       0.07810911 -0.064542964 -0.09452247 0.07230975
000140 95 53 fb bb 8b 55 00 be 37 af 88 3d 59 12 e6 3d
       -0.007669876 -0.12532632 0.066740446 0.11233968
000150 b1 99 49 3e 1e 3c a6 3d de 64 0c 3e e5 b1 90 bc
       0.19687535 0.08116935 0.13710353 -0.017662952
000160 f3 be 9e 3c ac 48 28 bd 23 ef 93 3d 9d 35 79 be
       0.019378161 -0.04108493 0.07223346 -0.24336858
000170 57 af 76 3b 4b ac 93 bc f8 02 64 3c 1d e5 3f bd
       0.0037641132 -0.018026492 0.013916723 -0.04684936
000180 da e3 6b 3d b4 e3 2f be 4c d5 46 bd 7e 83 68 3d
       0.057590343 -0.17176706 -0.04854326 0.056766026
000190 40 65 12 be f3 59 94 bd 2f 2b 3d 3d d7 41 09 3e
       -0.14296436 -0.07243719 0.04618376 0.13404022
0001a0 4c 81 83 3d 76 3e 1d 3d eb 2d 87 3b e3 b5 44 be
       0.06421146 0.038389646 0.004125347 -0.1921001
0001b0 fd 81 da 3d de 32 e8 bd dc 82 f8 bd dc b2 57 3e
       0.106693245 -0.11337827 -0.121343344 0.21064323
0001c0 1b 14 8b bc 30 6c 6d 3e 0e 06 26 3e ea a6 19 bd
       -0.01697736 0.23185802 0.16213247 -0.037512697
0001d0 81 24 92 3d 22 d3 39 bd 31 9d c0 bc f5 83 09 3e
       0.07135869 -0.045367368 -0.023512455 0.13429244
0001e0 9b 5d 2a 3c 00 f3 c4 bd de ec 1d 3e d9 c4 1b 3e
       0.010398294 -0.09616661 0.15422389 0.1521181
0001f0 9e 63 06 3e 17 5b bb 3c 7f 7a 58 be 89 56 87 bb
       0.13123938 0.022870583 -0.21140479 -0.004130189
000200 73 15 2a be bf ea e9 3d 9d a6 97 bd 9d 7b 80 3d
       -0.16609745 0.114217274 -0.07404826 0.06273577
000210 29 5c 36 3c 51 5b 16 be 2f 98 c8 bd a6 02 af 3d
       0.011130371 -0.14683272 -0.09794652 0.08545427
000220 2f 8e 7a 3d 6d e0 04 be 56 05 ac 3d 97 18 4c bd
       0.061170753 -0.12976237 0.08399455 -0.04982814
000230 85 c3 21 3d 2f 93 a9 bd 2b 46 29 bd d2 3e 90 bd
       0.039493103 -0.08280026 -0.041326683 -0.07043232
000240 2b 2e 12 3e bc 64 11 3e 70 eb fd 3d fc 6b bc 3d
       0.14275424 0.14198583 0.12398422 0.09200284
000250 a4 9f 22 be cf 8a 43 3d a2 f7 d3 3d 93 62 b8 bd
       -0.1588121 0.0477398 0.103499666 -0.090031765
000260 a9 b1 df bb 4d 18 07 3e 7f 22 92 3d 80 04 b8 3c
       -0.0068265987 0.13192864 0.07135486 0.022463083
000270 ec be e9 bd 74 05 15 bd b9 d7 75 be 63 7f 29 3e
       -0.114133686 -0.036382154 -0.24008073 0.165525
000280 25 d6 dc bd d8 12 a8 3d 90 47 e9 bc 84 3b b9 bd
       -0.10783032 0.08206719 -0.028476506 -0.09044555
000290 03 25 02 3e 27 8f 13 be 06 61 e9 3c c2 68 88 3d
       0.12709431 -0.14410077 0.028488647 0.06660606
0002a0 ef 1c 23 bd 25 92 24 bd d6 8c 76 3e 3f 5c 94 bd
       -0.039822515 -0.040178437 0.24077162 -0.07244157
0002b0 61 fe 91 3e 0f 84 e4 bc 37 24 27 bc 33 32 2f bb
       0.28514388 -0.027895002 -0.010201505 -0.0026732802
0002c0 4c a8 2b 3e e6 df ca bd 8b 2d 86 3c 32 b9 1e 3e
       0.16763419 -0.099059865 0.016379138 0.15500334
0002d0 61 b7 20 be c1 d5 5a 3a b7 49 42 be da 62 0f 3d
       -0.15694954 0.0008347892 -0.18973432 0.03500638
0002e0 38 4c 49 3e 44 21 ca 3d d7 3c 87 bd e5 8a d0 3d
       0.19657981 0.09869626 -0.06603401 0.10182742
0002f0 b5 57 e0 3c 25 60 cf bd 67 cd e5 bd 7b cd 8c bd
       0.027385572 -0.1012576 -0.11220818 -0.0687513
000300 19 33 d6 bd 1c 36 71 bd 67 81 47 be 4f fc 15 be
       -0.10458965 -0.058889493 -0.19482957 -0.1464703
000310 86 4a 35 be d2 d5 af 3d b5 07 2c bd a7 86 a4 3d
       -0.1770421 0.08585705 -0.041999537 0.080334954
000320 0f 64 1e bd 9c ed a4 bd 13 b5 dc bc d1 19 8f bd
       -0.038669642 -0.08053133 -0.026941812 -0.06987346
000330 c4 a8 3b 3e 5e 04 46 3a 44 ce 1d bd c4 78 40 3e
       0.18326098 0.00075537513 -0.03852679 0.18796068
000340 47 97 8c bd 24 ec 8b bc 28 d5 0c 3d 0c b4 2a 3e
       -0.06864791 -0.017080374 0.03438297 0.16670245
000350 1b 3a 9a 3e 3e 6a d5 bd a7 d6 3d bd d9 f5 dd 3c
       0.30122456 -0.10420655 -0.046347287 0.027094768
000360 94 3f 3f bd 27 87 82 3d b9 6b c7 bc d6 da b4 bd
       -0.046691492 0.063734345 -0.024343358 -0.08830802
000370 38 a6 6c 3d a2 8b 05 be 52 74 2f 3e 76 27 3a be
       0.057775706 -0.13041547 0.17134216 -0.18179116
000380 ee e6 a4 3d c6 3c 2f be 9b bb 90 3c d3 c9 bb bd
       0.08051859 -0.17113027 0.017667582 -0.09169354
000390 b6 42 68 3d 91 f9 da bc 47 26 4c be 07 65 47 3d
       0.056704246 -0.02673033 -0.19936477 0.04868033
0003a0 81 72 41 3a a3 70 54 3e de 85 8f 3d 16 3c 26 be
       0.0007379428 0.20746092 0.07007955 -0.16233858
0003b0 d2 86 c4 3c f9 e4 df bd ec 87 89 bd 30 36 a5 bd
       0.023990069 -0.10932345 -0.06715378 -0.08066976
0003c0 e1 f6 bb 3d 24 11 9e bd 9a ea 43 3e 6c 48 f6 3b
       0.09177948 -0.07718113 0.19132462 0.0075159576
0003d0 79 23 d2 3c a1 73 02 3d ee ae d7 3d a2 04 12 3d
       0.02565168 0.031848554 0.10531412 0.03564895
0003e0 44 43 69 be ac 4f 01 3e e1 53 8a 3d 8c f7 1b 3d
       -0.22779566 0.12628049 0.0675428 0.038077876
0003f0 b0 20 d3 3d 18 0f 9a 3d 97 b3 cf bd 56 58 4e be
       0.10308969 0.0752241 -0.10141676 -0.20150885
