results/opponentR/OpponentR/checkpoint.pt (torch, 760415 bytes, 30 tensors)

network_body._body_endoder.seq_layers.0.weight f4 [128, 111]
-0.048329964 0.11036063 -0.038592692 -0.05381709 0.25749514 0.25770208 -0.042253073 0.06533567
-0.042120937 -0.18759406 -0.18689932 -0.012027982 0.012749466 -0.047221854 0.12209305 0.15836127
-0.28295153 -0.08682569 -0.07882832 0.08725906 -0.046795107 0.15553422 0.04380067 0.1129287
-0.028058272 -0.007940906 -0.17500405 0.043640804 -0.094768874 -0.15617877 0.17777172 0.021848472
0.109529704 -0.0042159176 -0.08280956 -0.053820252 0.40582085 0.22128618 0.105998315 -0.1175811
0.005768466 -0.23633817 -0.07184515 -0.017112339 -0.028398788 -0.15077709 0.11745011 -0.06520615
0.07523794 0.043797236 -0.19680727 -0.16382095 -0.009906389 -0.21463905 -0.013643241 0.10140818
0.026260138 0.11241567 -0.021656344 0.090116166 -0.08167316 -0.3889181 0.11847273 -0.032212947
0.18377993 0.1362752 0.067871146 -0.06045924 -0.06314366 -0.14285418 0.025317967 0.04005385
0.00380858 0.01942697 -0.069412656 -0.03629658 -0.11709919 -0.35120764 -0.08461587 0.17792006
0.1123858 -0.044978447 -0.054552846 0.082911916 -0.059838045 0.12422323 -0.035286456 0.015643666
0.036230937 -0.17957306 0.016434284 -0.119156815 0.030944727 -0.3407334 0.1669024 0.04535464
-0.018105632 -0.19145077 0.15564615 0.03469617 -0.07317696 -0.15496166 0.016457058 -0.14343546
0.04129883 0.02122066 0.023447115 0.026471796 -0.013195938 -0.15834989 0.12318213 -0.07470916
-0.00075643876 0.12927392 0.13994713 -0.030447414 -0.033847958 -0.16168897 -0.08139518 0.07411796
0.15032528 0.07119367 0.07002668 0.09381002 -0.07511049 0.052844062 -0.011919685 0.08161465
-0.014025647 0.0003795453 -0.05836887 -0.0074342466 -0.15377016 0.13187061 -0.21399845 0.0054139737
-0.02405152 0.056845408 -0.015795067 0.16704044 0.22252378 0.1716368 0.12166007 0.17510419
0.05797769 0.28328457 0.013606937 -0.015969602 0.027033795 0.008679667 -0.13663784 -0.22644265
0.06941818 0.1061796 0.028792178 -0.21584247 -0.009219134 0.11892151 0.12531704 -0.08193172
-0.30893922 0.09634407 0.18870753 -0.07950465 0.18767247 -0.009431988 0.02149837 -0.11694275
0.021262547 -0.0009855493 -0.017784175 0.07575781 0.030489597 -0.002285649 0.0465019 0.05784326
-0.07752013 0.049217135 0.02217509 0.2218045 0.026904905 0.023913896 -0.07066812 -0.08224448
-0.15004298 -0.002112421 0.13208134 0.13096325 0.044187315 -0.08827301 -0.04151662 0.07927289
-0.18673138 0.14627786 0.20737536 -0.14953147 -0.051048495 0.07027264 -0.0003574594 0.038417663
0.046160076 -0.064883605 -0.035317395 -0.078365885 -0.064739145 0.011461696 -0.03353118 0.0075659803
0.07899025 0.14439987 -0.08420268 0.17829646 0.17334981 0.007825559 0.05126888 -0.25641707
-0.053770315 0.0073390333 -0.05309741 -0.008627286 0.027195899 -0.13751122 0.16423106 0.05467688
0.03974623 -0.0913846 -0.22066309 0.094650425 -0.14004162 -0.22546697 -0.037592527 -0.10591379
0.072271615 0.089400925 0.068850085 0.021075668 -0.02879245 0.1068153 0.10091211 -0.15593627
-0.11180893 0.07371547 0.026368463 -0.17843322 0.0056570247 -0.066750966 0.10082136 -0.049967714
0.0012153797 0.0027212126 0.115838 -0.036945775 -0.0114356745 0.22058393 -0.007755359 -0.027006373
00000000: a4f5 45bd c104 e23d 5f13 1ebd 4f6f 5cbd
00000010: 67d6 833e 87f1 833e 8f11 2dbd b5ce 853d
00000020: 0187 2cbd a818 40be 8962 3fbe 0311 45bc
00000030: 23e3 503c b46b 41bd ec0b fa3d 7529 223e
00000040: 06df 90be abd1 b1bd be70 a1bd e1b4 b23d
00000050: 3aac 3fbd 5d44 1f3e 5568 333d 2a47 e73d
00000060: 76da e5bc 931a 02bc 4334 33be b3c0 323d
00000070: 2f16 c2bd 54ed 1fbe ca09 363e 91fb b23c
00000080: 1c51 e03d ae25 8abb 0f98 a9bd a072 5cbd
00000090: c0c7 cf3e d898 623e a515 d93d 5cce f0bd
000000a0: 6605 bd3b a202 72be 8d23 93bd 2d2f 8cbc
000000b0: 93a4 e8bc 4f65 1abe af89 f03d cd8a 85bd
000000c0: 5916 9a3d bb64 333d d887 49be aec0 27be
000000d0: 684e 22bc 57ca 5bbe e687 5fbc 18af cf3d
000000e0: 801f d73c 303a e63d a568 b1bc d38e b83d
000000f0: 4244 a7bd 4620 c7be d5a1 f23d b9f1 03bd
00000100: ce30 3c3e ba8b 0b3e 0700 8b3d 1ca4 77bd
00000110: 7751 81bd 5e48 12be a067 cf3c 810f 243d
00000120: 5f99 793b 4f25 9f3c 3928 8ebd b9ab 14bd
00000130: b3d1 efbd 7dd1 b3be 164b adbd ad30 363e
00000140: 872a e63d 523b 38bd ce72 5fbd b9cd a93d
00000150: bd18 75bd c068 fe3d 8888 10bd 2527 803c
00000160: e466 143d 00e2 37be 31a1 863c 7d08 f4bd
00000170: cc7f fd3c 9c74 aebe 76e8 2a3e c9c5 393d
00000180: 4352 94bc ac0b 44be b461 1f3e 921d 0e3d
00000190: cddd 95bd 45ae 1ebe f4d0 863c bfe0 12be
000001a0: f628 293d f3d6 ad3c 2a14 c03c 61db d83c
000001b0: c733 58bc 7926 22be ea46 fc3d 1e01 99bd
000001c0: bf4b 46ba 6260 043e 4d4e 0f3e db6c f9bc
000001d0: 28a4 0abd cb91 25be 84b2 a6bd 28cb 973d
000001e0: dfee 193e fdcd 913d 266a 8f3d 781f c03d
000001f0: 87d3 99bd 0473 583d c84a 43bc 9525 a73d
00000200: d4cb 65bc b5fd c639 3214 6fbd fb9a f3bb
00000210: ed75 1dbe 1709 073e 6922 5bbe b467 b13b
00000220: b107 c5bc bbd6 683d a864 81bc a60c 2b3e
00000230: 46dd 633e 8fc1 2f3e ea28 f93d 834e 333e
00000240: 047a 6d3d ad0a 913e a1ef 5e3c afd2 82bc
00000250: fa75 dd3c 2935 0e3c caea 0bbe 95e0 67be
00000260: 1e2b 8e3d b174 d93d 93dd eb3c cf05 5dbe
00000270: da0b 17bc 1f8d f33d 1c53 003e d1cb a7bd
00000280: 482d 9ebe 0a50 c53d 8c3c 413e 55d3 a2bd
00000290: 362d 403e a088 1abc 5a1d b03c ae7f efbd
000002a0: cb2e ae3c 8c2d 81ba 1eb0 91bc e926 9b3d
000002b0: 52c5 f93c d4ca 15bb c778 3e3d 0eed 6c3d
000002c0: e0c2 9ebd e897 493d 89a8 b53c b820 633e
000002d0: ad67 dc3c 13e7 c33c 73ba 90bd cb6f a8bd
000002e0: dea4 19be 8b70 0abb 5540 073e 3b1b 063e
000002f0: c2fd 343d 7bc8 b4bd 550d 2abd d359 a23d
00000300: 8336 3fbe ddc9 153e 355a 543e c71e 19be
00000310: 3a18 51bd 1aeb 8f3d 6369 bbb9 d75b 1d3d
00000320: 5912 3d3d b2e1 84bd f9a8 10bd 4b7e a0bd
00000330: f595 84bd d6c9 3b3c fe57 09bd 0bec f73b
00000340: a4c5 a13d 8fdd 133e 7472 acbd 5993 363e
00000350: 9d82 313e c636 003c 51ff 513d 1949 83be
00000360: 433e 5cbd 467c f03b ab7c 59bd 7659 0dbc
00000370: efc9 de3c becf 0cbe 302c 283e ddf4 5f3d
00000380: f1cc 223d d927 bbbd 81f5 61be 15d8 c13d
00000390: 1267 0fbe d0e0 66be 9ffa 19bd 54e9 d8bd
000003a0: 2403 943d d517 b73d 4601 8d3d e1a6 ac3c
000003b0: 25de ebbc fbc1 da3d 02ab ce3d c2ad 1fbe
000003c0: 15fc e4bd 23f8 963d ad02 d83c 33b7 36be
000003d0: 905e b93b bbb4 88bd 6e7b ce3d f2aa 4cbd
000003e0: 604d 9f3a 5f56 323b 793c ed3d 7454 17bd
000003f0: b25c 3bbc c1e0 613e ab20 febb 783c ddbc

network_body._body_endoder.seq_layers.0.bias f4 [128]
0.0008686641 0.024573127 0.029902019 0.03436864 0.016781915 0.009056799 0.0071269586 0.030371616
0.0025241275 0.014306283 0.0037603304 0.039088473 0.029916683 0.017183859 0.025654161 0.008623137
0.0068286797 0.008922887 0.01610764 -0.011918384 0.004151961 0.018253095 0.011236158 0.0047146017
0.00924129 0.006108932 0.008540338 0.006023767 0.013760776 0.002043337 0.015071829 0.010035188
0.026138395 -0.028859435 0.006249422 -0.014489042 -0.00026818187 0.0016554329 0.019638795 0.022956321
0.02594047 -0.008068226 0.06688714 -0.030552195 0.007912552 0.0045333654 0.028538942 0.060859393
-0.0017964286 0.0022346966 0.028902564 0.0063032713 0.012269164 -0.022410596 0.023696247 0.015727416
-0.007449893 0.029966539 -0.009986635 0.0056274026 -0.0039100265 0.019105643 0.027282698 -0.005051902
-0.0062850104 0.009075626 0.012092784 0.029853113 0.022261983 -0.0076241856 -0.023458606 0.027791398
0.021093082 0.0048501864 0.011870807 -0.006105835 -0.010835982 -0.012228465 0.034355663 -0.028807871
0.0014018252 0.017253352 0.009551571 0.020797659 0.007912565 0.03178447 0.03185875 0.029834295
-0.00095078873 0.011675185 0.011400284 -0.022437755 0.018262941 -0.0023272824 0.027494282 0.012422893
0.00815546 0.07773039 0.012265281 0.0074187587 0.008726048 -0.0139834555 0.01720193 0.041330554
-0.027516982 0.004247143 -0.003265683 0.007764666 0.03147895 0.0057135383 0.027000733 0.018129151
0.0003798131 -0.034882024 0.00015437345 0.0069173584 -0.0058931643 0.0048987214 -0.0032723234 0.016428934
0.055917628 0.028856846 0.016227642 0.022040242 0.018106375 0.02228189 0.0005703763 0.0160565
00000000: 10b7 633a 954d c93c 14f5 f43c 22c6 0c3d
00000010: 3a7a 893c f862 143c 4389 e93b e5cd f83c
00000020: d56b 253b e664 6a3c e06f 763b 3c1b 203d
00000030: d513 f53c 2ac5 8c3c ad28 d23c 0f48 0d3c
00000040: 1ec3 df3b 4d31 123c 2bf4 833c 5345 43bc
00000050: 2c0d 883b 8487 953c dd17 383c f27c 9a3b
00000060: c868 173c 702d c83b c6ec 0b3c 0563 c53b
00000070: e174 613c 82e9 053b d5ef 763c a16a 243c
00000080: 3020 d63c 9f6a ecbc f4c7 cc3b 7263 6dbc
00000090: c39a 8cb9 1cfb d83a 8ae1 a03c e50e bc3c
000000a0: 1c81 d43c 9830 04bc 20fc 883d 9948 fabc
000000b0: a6a3 013c a08c 943b 80ca e93c b347 793d
000000c0: 2476 ebba fd73 123b 12c5 ec3c ac8b ce3b
000000d0: 9b04 493c 6d96 b7bc a21e c23c c8d6 803c
000000e0: 3b1e f4bb 637c f53c fc9e 23bc 1366 b83b
000000f0: ae1f 80bb 7083 9c3c f77f df3c 6d8a a5bb
00000100: 7df2 cdbb efb1 143c d020 463c 848e f43c
00000110: c35e b63c 4ed4 f9bb 432c c0bc c9aa e33c
00000120: 66cb ac3c 50ee 9e3b c67d 423c 7513 c8bb
00000130: 6789 31bc e659 48bc 86b8 0c3d 7cfe ebbc
00000140: 73bd b73a e756 8d3c 317e 1c3c da5f aa3c
00000150: b4a3 013c 6f30 023d 527e 023d 0d67 f43c
00000160: 5a3e 79ba 4649 3f3c 42c8 3a3c 62cf b7bc
00000170: 2a9c 953c 5285 18bb b03b e13c 6489 4b3c
00000180: 7a9e 053c 1c31 9f3d 51f4 483c 0f19 f33b
00000190: b3f7 0e3c dd1a 65bc 10eb 8c3c 3a4a 293d
000001a0: 4b6b e1bc 9e2b 8b3b 1205 56bb bd6e fe3b
000001b0: 12f0 003d a238 bb3b a430 dd3c 9683 943c
000001c0: a721 c739 74e0 0ebd 4fdf 2139 02ab e23b
000001d0: 721b c1bb 7485 a03b 7a74 56bb f995 863c
000001e0: e209 653d 3165 ec3c d5ef 843c bd8d b43c
000001f0: d253 943c 8388 b63c 4e85 153a ec88 833c

network_body._body_endoder.seq_layers.2.weight f4 [128, 128]
-0.10761951 -0.03503029 0.012715518 -0.03049739 0.0174302 0.029378684 0.11549686 0.09209234
0.12135256 0.11192933 -0.11683633 0.15313667 -0.029001383 0.042547252 0.013671252 0.08625699
-0.0062756934 -0.012916766 0.0609625 -0.033403948 0.066452056 0.13478456 -0.10564557 0.100787
0.079998024 0.059888475 -0.11191454 0.031007174 -0.0033476925 -0.059144 0.14042762 -0.054858077
-0.08200739 0.061532687 -0.1742749 -0.119463116 -0.10819383 -0.15340798 0.022631146 0.022438373
-0.012814889 -0.057588764 0.029672742 -0.020397358 0.1914382 0.15980189 0.029904488 0.23769568
0.09787359 0.11408485 -0.17845728 -0.069180556 -0.15991563 -0.092862435 0.116170235 0.0030758714
-0.20042436 -0.11185897 0.04635635 0.024622457 -0.04002071 0.12912868 -0.03464855 0.029173281
-0.08226719 -0.019225989 -0.006122083 -0.0035731648 0.10969579 -0.00016822184 -0.016756363 0.13910866
0.083817765 -0.1492331 0.14376764 0.0029431416 -0.014522574 0.1162796 0.013827586 0.075279996
-0.10632446 0.088382535 -0.024491427 -0.052374203 0.115796626 0.014206568 0.1066427 0.13229252
-0.012909225 0.08155186 -0.09518395 0.04630165 -0.17207032 0.08381894 0.08452571 0.112915695
0.010033049 0.05311098 0.030003745 0.04668083 0.04238673 0.11366969 -0.1066198 0.059302464
-0.13699025 0.07526102 -0.13798109 0.09443393 -0.025484733 -0.11274645 -0.040286914 -0.029223751
-0.028631426 -0.021976292 -0.22390059 0.13230573 -0.025838273 0.028770188 -0.15471041 -0.06499111
0.16439812 -0.011002476 -0.06576467 -0.0313518 0.07695822 0.055036075 -0.114569746 0.049816865
0.04432756 0.005174374 0.19124787 0.04388396 0.08378256 -0.12731202 0.02379275 0.034255374
0.0002296769 -0.17600799 0.10426855 -0.032754652 -0.03403473 -0.07812559 -0.11844531 0.03595384
0.12156155 -0.12806626 0.09467488 0.012924092 -0.08511053 -0.0025566646 -0.06411846 -0.017859634
0.029925115 -0.23987414 0.039203804 -0.08546217 -0.120659284 0.10320237 -0.01777217 0.013578463
0.18521783 -0.052247252 0.08491652 -0.21104959 0.10279628 0.027968043 -0.008394758 0.095197715
-0.059865855 -0.2542176 0.048422776 0.017857114 -0.09037665 -0.13899581 -0.06566 -0.15093184
0.047587145 0.044507306 -0.04194961 -0.07955326 -0.033903074 0.07825362 -0.02062378 -0.04654331
-0.051979844 0.01718179 0.04141147 -0.084543325 0.08901789 -0.036477797 -0.021775477 -0.06941582
0.10489418 0.08110695 0.1226659 -0.031120932 0.003227488 -0.06228758 0.045579255 -0.022208039
0.0034249644 0.023942566 -0.037464645 -0.014517173 -0.0085193915 -0.1981254 -0.053229697 0.14177671
0.17746392 0.03872135 0.036325373 0.17234302 0.15728123 0.04645981 0.10152848 -0.18679444
0.11094286 0.023672089 0.11678439 0.12474296 -0.19872934 0.16676164 0.033765845 0.024467658
-0.10419738 -0.06089914 -7.0765534e-05 -0.04362585 -0.040380444 -0.25859874 0.0517528 -0.12195241
0.0500196 -0.17579302 -0.050045986 0.18416196 0.08351392 -0.22166422 -0.08397519 -0.014317964
-0.071659714 0.08427215 0.16770633 -0.08733847 -0.13013536 -0.0812845 0.08518516 -0.06620902
-0.24085079 -0.13610786 -0.03215817 0.11148252 -0.16756321 -0.11651218 0.10473534 -0.0565818
00000000: 9e67 dcbd ec7b 0fbd bf54 503c aad5 f9bc
00000010: c7c9 8e3c 91ab f03c 9e89 ec3d e99a bc3d
00000020: b187 f83d 343b e53d e347 efbd dccf 1c3e
00000030: 4f94 edbc 0746 2e3d 63fd 5f3c 81a7 b03d
00000040: 55a4 cdbb d8a0 53bc d0b3 793d 94d2 08bd
00000050: 0418 883d f704 0a3e b45c d8bd 6a69 ce3d
00000060: 01d6 a33d 9e4d 753d 7333 e5bd c202 fe3c
00000070: f664 5bbb fb40 72bd 42cc 0f3e ddb2 60bd
00000080: 7ef3 a7bd b309 7c3d 1f75 32be 14a9 f4bd
00000090: ba94 ddbd fb16 1dbe f464 b93c aed0 b73c
000000a0: 8af5 51bc 32e2 6bbd 4014 f33c 5c18 a7bc
000000b0: 6008 443e 1ba3 233e 42fa f43c 7f66 733e
000000c0: f371 c83d 51a5 e93d 81bd 36be 89ae 8dbd
000000d0: ecc0 23be a92e bebd a9ea ed3d 8f94 493b
000000e0: 0b3c 4dbe 5116 e5bd 28e0 3d3d 09b5 c93c
000000f0: c2ec 23bd 4f3a 043e a3eb 0dbd cefc ee3c
00000100: b37b a8bd d27f 9dbc c19b c8bb c22b 6abb
00000110: 30a8 e03d b564 30b9 a444 89bc 8072 0e3e
00000120: a6a8 ab3d 90d0 18be d337 133e b9e1 403b
00000130: 17f0 6dbc 0024 ee3d 198d 623c 662c 9a3d
00000140: a3c0 d9bd e701 b53d 3fa2 c8bc 5586 56bd
00000150: c826 ed3d aac2 683c 7d67 da3d b177 073e
00000160: 3781 53bc a904 a73d ceef c2bd cda6 3d3d
00000170: 3433 30be 44a9 ab3d d11b ad3d 5840 e73d
00000180: a861 243c e68a 593d 6aca f53c 6634 3f3d
00000190: b59d 2d3d a8cb e83d 7b5b dabd 24e7 723d
000001a0: 2c47 0cbe 7322 9a3d ea4a 0dbe 9466 c13d
000001b0: 5cc5 d0bc 9ce7 e6bd e403 25bd a666 efbc
000001c0: 748c eabc a007 b4bc 3246 65be 277b 073e
000001d0: c9aa d3bc 75af eb3c 686c 1ebe 0f1a 85bd
000001e0: fb57 283e bb43 34bc a1af 86bd bf6a 00bd
000001f0: 459c 9d3d 826d 613d 8ba3 eabd c50c 4c3d
00000200: d190 353d cc8d a93b 7bd6 433e abbf 333d
00000210: 3196 ab3d 155e 02be 03e9 c23c 5d4f 0c3d
00000220: 6cd5 7039 703b 34be c08a d53d be29 06bd
00000230: 0068 0bbd 4f00 a0bd 7493 f2bd 5544 133d
00000240: 43f5 f83d cd23 03be e7e4 c13d 92bf 533c
00000250: 6e4e aebd b78d 27bb 8a50 83bd 5e4e 92bc
00000260: 8425 f53c 91a1 75be 2b94 203d ca06 afbd
00000270: 371c f7bd c45b d33d f196 91bc 3478 5e3c
00000280: bea9 3d3e 3701 56bd b6e8 ad3d 621d 58be
00000290: db86 d23d 3d1d e53c 2b8a 09bc 05f7 c23d
000002a0: e635 75bd cf28 82be f656 463d 1549 923c
000002b0: 6517 b9bd eb54 0ebe c078 86bd e08d 1abe
000002c0: bdea 423d 4b4d 363d 5bd3 2bbd d2ec a2bd
000002d0: f3dd 0abd 6f43 a03d 34f3 a8bc 33a4 3ebd
000002e0: d1e8 54bd d3c0 8c3c 139f 293d 0d25 adbd
000002f0: 034f b63d be69 15bd 7c62 b2bc e229 8ebd
00000300: c3d2 d63d 671b a63d 4238 fb3d 53f1 febc
00000310: 4384 533b 4321 7fbd 50b1 3a3d a2ed b5bc
00000320: 5e75 603b 3323 c43c 8774 19bd 70d9 6dbc
00000330: eb94 0bbc 63e1 4abe 6207 5abd ea2d 113e
00000340: 1ab9 353e 479a 1e3d eac9 143d b07a 303e
00000350: 550e 213e a44c 3e3d 2aee cf3d 0b47 3fbe
00000360: 0336 e33d f8eb c13c a72c ef3d 3d79 ff3d
00000370: b47f 4bbe 90c3 2a3e 0e4e 0a3d 6670 c83c
00000380: 7065 d5bd 6071 79bd f567 94b8 05b1 32bd
00000390: f765 25bd 0e67 84be befa 533d 2fc2 f9bd
000003a0: 5ae1 4c3d 1603 34be 05fd 4cbd f494 3c3e
000003b0: 5909 ab3d f2fb 62be 2ffb abbd e595 6abc
000003c0: 54c2 92bd e196 ac3d 35bb 2b3e 83de b2bd
000003d0: 3442 05be 7d78 a6bd 8f75 ae3d 9898 87bd
000003e0: 97a1 76be dc5f 0bbe 49b8 03bd f350 e43d
000003f0: b195 2bbe f09d eebd 7b7f d63d 51c2 67bd

network_body._body_endoder.seq_layers.2.bias f4 [128]
0.028689718 0.009416572 0.014593323 0.005974335 0.022750068 0.011689869 0.00037910294 0.008526801
0.0065121553 0.026014358 -0.0076577608 0.006130353 0.021775585 0.007867664 0.00012047565 0.021601934
0.035653196 0.027787916 0.04385781 0.0022782576 0.006833079 0.033642583 0.02983394 0.012611502
0.027794227 0.027068343 0.015918784 0.0029053618 0.013810279 0.022709794 0.023707451 0.014478423
0.025356513 0.028935254 0.033390567 0.023580262 0.020655017 0.018940149 0.009587733 0.014127788
7.0827864e-06 0.017729843 -0.015356434 0.016785022 0.03928795 0.012817474 0.021414336 0.015073183
0.006906489 0.025218155 0.022115909 0.029066265 0.013066026 0.013991325 0.035285894 0.02582846
-0.0014187638 0.0067950743 0.0032538744 -0.0040549724 0.027428033 0.026271248 0.04972576 0.019858062
0.024594512 0.018127766 0.026372895 0.01248287 0.017237034 0.026164493 0.028759753 -0.021151323
0.0147363935 0.007747422 0.020748118 0.025848819 0.010621902 -0.027419135 0.005804071 0.019595912
0.016859155 0.0046139276 0.01861564 0.032601677 0.016586727 0.02489363 0.013407485 0.025684502
0.029095419 0.038188796 0.039475925 0.036096435 -0.0037076836 0.014386889 -0.010061983 0.0052713184
0.028562145 0.0007387661 0.004498104 0.020346839 0.0078472905 0.00011579099 0.012703234 0.015607391
0.0045965924 0.017710548 0.01612078 0.03652673 0.034311015 0.025554178 0.014221333 0.036401592
0.024823524 0.012506709 0.016358811 0.025982507 0.02314431 0.012172525 0.041589987 0.019590417
0.039995432 0.01272802 0.015839554 0.0013410538 0.014876555 0.024334421 0.041739546 0.01881352
00000000: b306 eb3c f747 1a3c d518 6f3c 5bc4 c33b
00000010: 5a5e ba3c dd86 3f3c 56c2 c639 ffb3 0b3c
00000020: eb63 d53b 101c d53c f4ed fabb 21e1 c83b
00000030: b662 b23c 60e7 003c dfa7 fc38 8af6 b03c
00000040: 1609 123d 7ca3 e33c 3fa4 333d d24e 153b
00000050: 05e8 df3b cecc 093d 4f66 f43c 79a0 4e3c
00000060: b8b0 e33c 6ebe dd3c 1c68 823c e267 3e3b
00000070: 8244 623c e409 ba3c 2136 c23c e836 6d3c
00000080: 76b8 cf3c a009 ed3c 8cc4 083d 652b c13c
00000090: b634 a93c 5f28 9b3c de15 1d3c 3d78 673c
000000a0: aca8 ed36 2d3e 913c 8d99 7bbc be80 893c
000000b0: 67ec 203d 6200 523c 1e6d af3c 83f5 763c
000000c0: d44f e23b 4e96 ce3c 6c2c b53c 601c ee3c
000000d0: e312 563c df3b 653c f187 103d 3596 d33c
000000e0: d0f5 b9ba 37a9 de3b f43e 553b 93df 84bb
000000f0: c1b0 e03c cd36 d73c 3dad 4b3d 60ad a23c
00000100: 6e7a c93c ae80 943c f80b d83c f484 4c3c
00000110: ae34 8d3c eb56 d63c 9399 eb3c 8a45 adbc
00000120: ea70 713c 16de fd3b f5f7 a93c e7c0 d33c
00000130: 7c07 2e3c 189e e0bc 1430 be3b 9b87 a03c
00000140: 361c 8a3c 6e30 973b d47f 983c 5689 053d
00000150: e3e0 873c baed cb3c 11ab 5b3c 4e68 d23c
00000160: 8459 ee3c db6b 1c3d 82b1 213d dbd9 133d
00000170: 9cfc 72bb fcb6 6b3c 04db 24bc 06bb ac3b
00000180: 29fb e93c c1a9 413a d564 933b 6aae a63c
00000190: ec91 003c d0d4 f238 3a21 503c 24b6 7f3c
000001a0: 039f 963b b615 913c ba0f 843c 0d9d 153d
000001b0: b589 0c3d ff56 d13c 9800 693c d619 153d
000001c0: b45a cb3c f1e8 4c3c ea02 863c 44d9 d43c
000001d0: 2399 bd3c 456f 473c 435a 2a3d 157c a03c
000001e0: 40d2 233d 2f89 503c f4c1 813c 4cc6 af3a
000001f0: cbbc 733c fb58 c73c 16f7 2a3d d01e 9a3c

action_model._continuous_distribution.mu.weight f4 [1, 128]
0.05563105 -0.07623747 -0.13240175 -0.046323102 -0.104407854 -0.0879499 0.010774553 0.046137407
0.033004023 0.108596705 0.017566497 -0.061884906 0.12012023 0.030658774 -0.065214515 0.083650894
0.11637442 0.059151813 0.07597711 0.009061334 -0.063311085 0.08086155 0.0773288 0.059571233
-0.10086766 0.109001614 0.04598804 -0.077827096 -0.07364836 -0.09973497 0.0984271 0.044136785
-0.11576165 0.06298838 -0.13614719 0.07561559 0.055014115 -0.1073362 -0.09008933 -0.063497774
-0.04728702 -0.110220134 -0.005045871 -0.104194134 0.114034995 -0.10971613 0.077438794 -0.121776
-0.059265267 -0.10573662 -0.113917656 0.06676352 -0.06673857 -0.09048511 0.14138593 -0.09958871
0.005018366 -0.07468123 -0.06375849 -0.04043332 -0.1570689 -0.119441316 0.12055876 -0.12627085
-0.08741581 -0.06931135 0.08471488 -0.08021615 -0.073050775 0.07245307 0.09088038 0.0058173514
-0.06944341 -0.084107585 -0.13109767 0.09865861 -0.09498473 -0.013646736 -0.09119906 -0.090629645
0.083360896 0.02197091 0.050086953 0.0996103 0.029472517 0.072743714 -0.071898624 0.102430284
0.086436905 0.09179946 0.08612415 0.098352276 -0.015080141 0.05470833 -0.02295345 -0.046183746
-0.09629657 -0.04334015 -0.09062148 -0.094798714 -0.07466195 0.019565396 0.06764094 -0.07276324
0.04123881 0.07399749 0.07791962 -0.10586279 0.12750652 -0.11734952 -0.12754965 0.11131047
0.087481335 -0.07333827 -0.10417943 0.10278848 0.07193766 0.033362214 0.098088354 0.07555852
0.12676583 -0.08986511 0.05859185 -0.06539254 -0.075257465 0.069206774 0.1269665 -0.118986994
00000000: 62dd 633d 6422 9cbd 5394 07be 4bbd 3dbd
00000010: c9d3 d5bd 141f b4bd c087 303c 94fa 3c3d
00000020: 3a2f 073d f367 de3d 9de7 8f3c 077b 7dbd
00000030: 9801 f63d 1c28 fb3c 308f 85bd 2951 ab3d
00000040: b655 ee3d 2c49 723d e399 9b3d fd75 143c
00000050: 3ea9 81bd be9a a53d 905e 9e3d f700 743d
00000060: b493 cebd 3d3c df3d f45d 3c3d d063 9fbd
00000070: f4d4 96bd d941 ccbd 2694 c93d c6c8 343d
00000080: 7214 edbd 0d00 813d 2b6a 0bbe 59dc 9a3d
00000090: 7b56 613d 15d3 dbbd c180 b8bd 1f0b 82bd
000000a0: 09b0 41bd 18bb e1bd d557 a5bb bc63 d5bd
000000b0: 2e8b e93d dab2 e0bd 3b98 9e3d b265 f9bd
000000c0: 23c0 72bd 718c d8bd a94d e9bd 50bb 883d
000000d0: 3bae 88bd 4250 b9bd 79c7 103e 2af5 cbbd
000000e0: 1b71 a43b 79f2 98bd d093 82bd 699d 25bd
000000f0: abd6 20be a69d f4bd 83e7 f63d 254d 01be
00000100: 0f07 b3bd 1cf3 8dbd ff7e ad3d 5d48 a4bd
00000110: a59b 95bd 4662 943d 7e1f ba3d 7b9f be3b
00000120: 5938 8ebd 9940 acbd 783e 06be 860d ca3d
00000130: 5b87 c2bd 8f96 5fbc 93c6 babd 099c b9bd
00000140: 1eb9 aa3d 56fc b33c fa27 4d3d 7c00 cc3d
00000150: 5970 f13c a8fa 943d 963f 93bd f8c6 d13d
00000160: d505 b13d 5b01 bc3d dc61 b03d eb6c c93d
00000170: b212 77bc d815 603d e008 bcbc 2b2b 3dbd
00000180: 2337 c5bd 7185 31bd c197 b9bd d425 c2bd
00000190: 5de8 98bd 9c47 a03c 5587 8a3d e504 95bd
000001a0: 07ea 283d ff8b 973d 5294 9f3d 97ce d8bd
000001b0: 1291 023e f254 f0bd 609c 02be bef6 e33d
000001c0: 6a29 b33d 6032 96bd 065c d5bd c482 d23d
000001d0: 0d54 933d d1a6 083d 8ce2 c83d 6dbe 9a3d
000001e0: e7ce 013e 330b b8bd 02fe 6f3d 86ec 85bd
000001f0: 9620 9abd 48bc 8d3d 8203 023e 74af f3bd

exp_avg f4 [128, 111]
-0.00046340877 0.00042407122 -0.00031131628 6e-45 -0.0001364418 0.0019057825 -0.0014910833 -0.00020788779
0.0011442689 -0.00044785722 0.0005251831 -6e-45 4.4808046e-05 -0.0010281623 -0.0003106376 -0.00020242215
-0.0006081398 -0.0019202892 -0.00094678195 -6e-45 -0.00016532346 0.001850064 0.001718075 0.0018979944
7.532049e-05 -0.0006291011 -1.2713102e-08 0.0 -1.6530375e-05 0.0007818878 -0.00028396046 0.00041525826
-0.002904059 0.0001800724 -8.216971e-05 6e-45 3.3814962e-05 -5.0871757e-05 0.0027508163 0.0007496174
-0.00037379426 -0.00045935024 -2.5450313e-09 -6e-45 -7.126842e-05 0.0002922211 0.0005397975 0.0005405815
0.00038346878 -0.0009938751 0.0010154152 6e-45 3.2316127e-06 6.375298e-05 -0.0005443891 -0.00040685327
-0.0012594562 -0.0008061718 -4.8368953e-09 0.0 7.2429095e-05 0.00012980812 0.0017909994 0.0012174754
0.00021185103 -0.00020872882 1.1216009e-06 -6e-45 4.574321e-06 0.00016312467 -0.000244339 -0.00079537067
-0.0005392855 -0.0004246419 4.0190404e-08 -6e-45 -3.776639e-05 0.00025305513 0.0006762016 0.0004351306
0.000789216 0.0017721864 -0.0015933184 -6e-45 1.22124075e-05 0.00015047642 -0.0012031696 -0.0004704622
0.0009864196 0.000692534 -1.0890322e-07 -6e-45 -1.3524189e-05 0.00010933817 -0.0018470549 -0.0015036248
-0.00055398134 -0.0012297017 0.0017553912 6e-45 5.037671e-06 0.00016873579 -0.00021787811 -0.000107723565
-0.00045650708 3.826488e-05 0.00023584327 0.00042692883 -6.835337e-05 0.008907981 0.0005081525 0.001876214
-0.00059117796 0.00033412944 -6e-45 0.0003784204 -0.00054101954 0.0009453954 0.0016109132 -0.0011792413
9.420718e-05 -0.00029464852 6e-45 0.0005655576 0.0035973974 -0.00038131134 0.0006400267 0.0023222326
0.0010334605 0.0007152006 6e-45 0.00052041275 -0.0011459397 -0.0010434048 -0.0005056391 0.0009932605
-8.590103e-05 1.755527e-07 0.0 -0.00038682955 0.0007781196 0.0011031367 0.0011060131 0.0028618237
-0.00021894478 -2.8040591e-05 6e-45 -8.484341e-05 0.0021841703 -0.0023122046 -0.00068651646 0.001063801
-0.00050773006 2.5154314e-08 6e-45 -0.0008695104 0.0032625722 -0.0005471965 0.00031399945 -0.00011520948
0.00094605784 -0.0018880365 -6e-45 -1.9335665e-05 0.0015126795 0.0019658057 0.0007071314 0.0015131235
0.0010311789 5.965647e-08 0.0 0.00063793594 0.0008068698 -0.0015872064 -0.0010196512 0.00018337293
0.00040755302 3.2575972e-05 6e-45 -4.173937e-05 0.0014455422 0.00037465678 0.0010640873 0.0010255259
0.0008759559 -1.4625599e-07 6e-45 -0.0003531106 0.0011351171 -0.00028138154 -0.00012796275 -0.0018143913
-0.00056981714 0.0028698284 -6e-45 0.00017919397 0.0013136584 0.00042348925 5.1183677e-05 0.0008600633
-0.00046481154 2.165667e-07 -6e-45 -8.080162e-05 0.000863859 0.0012234347 0.0010730798 0.0009092273
0.0011604449 -0.0018182289 -6e-45 0.000103243794 0.001411121 0.00063615316 0.0014275411 -4.4013326e-05
2.6116518e-06 0.00034320107 0.0044786884 4.6212076e-06 0.012839981 -0.00041815487 0.0019953554 -4.9841958e-05
0.00032029054 -6e-45 0.0002618297 -0.0008274333 0.0006270743 0.0012666654 -0.00087747973 0.0006719266
-0.0006101587 6e-45 0.00022306725 0.0013991246 0.0015207957 0.0009935594 0.0017753986 0.0010658295
0.0009388315 -6e-45 9.222471e-05 -0.000710989 -0.0008340203 -4.922112e-05 0.0011876808 0.0005484741
1.2669891e-07 0.0 -0.00010697771 -0.00010385733 0.00080182846 0.00084211485 0.0027812733 -0.00024916785
00000000: acf5 f2b9 e055 de39 2a38 a3b9 0400 0000
00000010: d111 0fb9 73cb f93a 7470 c3ba 74fc 59b9
00000020: 4bfb 953a 61ce eab9 71ac 093a 0400 0080
00000030: 46f0 3b38 67c3 86ba 13dd a2b9 4841 54b9
00000040: 926b 1fba 37b2 fbba 7631 78ba 0400 0080
00000050: ae5a 2db9 d97d f23a 0831 e13a 20c6 f83a
00000060: 61f5 9d38 43ea 24ba d068 5ab2 0000 0000
00000070: b6aa 8ab7 9af7 4c3a 87e0 94b9 05b7 d939
00000080: 0652 3ebb d1d1 3c39 8752 acb8 0400 0000
00000090: 8ad4 0d38 225f 55b8 0a47 343b f981 443a
000000a0: d1f9 c3b9 f2d4 f0b9 aae4 2eb1 0400 0080
000000b0: f175 95b8 4135 9939 3281 0d3a cfb5 0d3a
000000c0: 4f0c c939 ea44 82ba ae17 853a 0400 0000
000000d0: afde 5836 1fb3 8538 56b5 0eba ec4e d5b9
000000e0: 5614 a5ba 4655 53ba c831 a6b1 0000 0000
000000f0: 13e5 9738 1a1d 0839 f8bf ea3a b293 9f3a
00000100: 5424 5e39 37de 5ab9 ea89 9635 0400 0080
00000110: 1e7d 9936 720c 2b39 a01a 80b9 6c80 50ba
00000120: d65e 0dba 79a2 deb9 d19d 2c33 0400 0080
00000130: 5a67 1eb8 7cac 8439 1f43 313a 3e22 e439
00000140: 64e3 4e3a b548 e83a e5d6 d0ba 0400 0080
00000150: e4e3 4c37 35c9 1d39 acb3 9dba 5ea8 f6b9
00000160: c04a 813a 2c8b 353a 2ede e9b3 0400 0080
00000170: f3e5 62b7 7c4c e538 e118 f2ba 4715 c5ba
00000180: 0f39 11ba f12d a1ba 2815 e63a 0400 0000
00000190: 4409 a936 abee 3039 3676 64b9 a6e9 e1b8
000001a0: 5857 efb9 9a7e 2038 b24c 7739 6bd5 df39
000001b0: f058 8fb8 c8f2 113c 8935 053a 4ceb f53a
000001c0: 48f9 1aba 182e af39 0400 0080 ba66 c639
000001d0: 35d3 0dba 69d4 773a 4725 d33a c690 9aba
000001e0: 1891 c538 0e7b 9ab9 0400 0000 ee41 143a
000001f0: 50c2 6b3b beea c7b9 77c7 273a 9930 183b
00000200: 2e75 873a 4d7c 3b3a 0400 0000 4f6c 083a
00000210: 5b33 96ba dbc2 88ba de8c 04ba 4b30 823a
00000220: c425 b4b8 8f7f 3c34 0000 0000 62cf cab9
00000230: b9fa 4b3a 2097 903a a4f7 903a 6f8d 3b3b
00000240: 8b94 65b9 b638 ebb7 0400 0000 f5ed b1b8
00000250: 4c24 0f3b 5b88 17bb 57f7 33ba 3d6f 8b3a
00000260: 3019 05ba ec12 d832 0400 0000 dbef 63ba
00000270: e1d0 553b bc71 0fba 4ba0 a439 9e9c f1b8
00000280: de00 783a fe77 f7ba 0400 0080 0633 a2b7
00000290: 1a45 c63a bfd4 003b c95e 393a 0054 c63a
000002a0: 9f28 873a 7e1c 8033 0000 0000 283b 273a
000002b0: 1e84 533a cf09 d0ba d1a5 85ba cc47 4039
000002c0: d7ac d539 2fa2 0838 0400 0000 4f11 2fb8
000002d0: 5978 bd3a 956d c439 d878 8b3a f06a 863a
000002e0: 68a0 653a 8a0a 1db4 0400 0000 b421 b9b9
000002f0: 36c8 943a 6486 93b9 bd2d 06b9 dfd0 edba
00000300: c85f 15ba bb13 3c3b 0400 0080 04e6 3b39
00000310: 102f ac3a c407 de39 0eae 5638 df75 613a
00000320: f3b1 f3b9 6789 6834 0400 0080 0a74 a9b8
00000330: 9974 623a a85b a03a 95a6 8c3a 3659 6e3a
00000340: 121a 983a a351 eeba 0400 0080 9784 d838
00000350: 5df5 b83a 84c3 263a 551c bb3a f39a 38b8
00000360: d643 2f36 abef b339 f6c1 923b df0f 9b36
00000370: c95e 523c cc3b dbb9 82c4 023b 650d 51b8
00000380: abec a739 0400 0080 3046 8939 1ce8 58ba
00000390: 3e62 243a 3d06 a63a ab06 66ba 3b24 303a
000003a0: 0ff3 1fba 0400 0000 29e7 6939 d562 b73a
000003b0: 7055 c73a 523a 823a 7eb4 e83a 4eb3 8b3a
000003c0: ea1b 763a 0400 0080 c468 c138 aa61 3aba
000003d0: 28a2 5aba c672 4eb8 f4ab 9b3a 79c7 0f3a
000003e0: bb0a 0834 0000 0000 3959 e0b8 fbcd d9b8
000003f0: cc31 523a 5fc1 5c3a 0646 363b bea2 82b9

exp_avg_sq f4 [128, 111]
4.026976e-05 2.158015e-05 8.573994e-06 1.4481353e-15 2.3633847e-06 0.00015570382 0.00016972756 0.00043005883
3.908685e-05 1.31468805e-05 2.243866e-06 9.446288e-15 7.899845e-08 6.303901e-05 0.00032271878 0.0004742896
2.2156419e-05 1.49108555e-05 6.160554e-06 3.1594495e-14 5.266607e-06 0.000110747395 0.00026888083 0.0004777697
5.9174807e-05 1.4205903e-05 2.5527362e-08 0.0 7.289542e-08 1.5838164e-05 0.00037598258 0.00044604953
5.24659e-05 1.5184799e-05 1.2997722e-05 5.593324e-15 3.9311644e-07 4.6987475e-06 0.00040146618 0.0004676626
6.438248e-05 1.2106648e-05 2.1367839e-08 1.5416528e-14 4.052864e-08 5.691024e-06 0.00040132276 0.00044236667
6.6156e-05 1.5315225e-05 8.4889696e-05 1.3132356e-14 4.428754e-08 1.0001804e-06 0.00025296013 0.00039085
4.620561e-05 1.2403833e-05 1.4051937e-08 0.0 4.9551776e-08 2.339325e-06 0.00045317845 0.00047711987
0.000100807825 1.4400743e-05 3.2946577e-05 1.5976297e-15 1.6705197e-08 1.9254485e-06 0.00028051398 0.00040757234
2.4417328e-05 9.668631e-06 1.3201689e-08 9.328704e-19 2.5010554e-08 1.4340761e-06 0.00050382275 0.00051432895
8.010133e-05 1.3103902e-05 5.4801356e-05 9.60804e-16 1.1670284e-08 7.4618792e-06 0.00027209782 0.0004017465
3.0159652e-05 5.4016364e-06 8.205802e-09 3.5919003e-20 2.7060224e-08 1.1432871e-06 0.0005078866 0.00051397673
1.3987141e-05 1.0928178e-05 7.17286e-05 1.9614562e-17 6.314514e-09 1.3640972e-06 0.00037216567 0.00040425398
3.1787735e-05 1.1016577e-06 1.9816203e-05 0.0011283709 1.8558971e-07 0.005702231 1.6402837e-05 0.00017928855
2.352154e-05 6.5819827e-06 1.75549e-15 1.193214e-05 0.00023997274 0.00016364008 0.00059212436 0.00012309552
2.0554353e-05 1.1713597e-06 2.1767055e-13 1.0004056e-05 0.00019523622 0.00028178643 0.0006020068 0.00015757047
1.76241e-05 4.150507e-06 4.2409225e-14 1.6745525e-05 0.00011056833 0.00033553076 0.0006988204 8.0480895e-05
1.7703005e-05 6.757229e-08 0.0 8.318032e-06 0.00016235799 0.00039122187 0.00057750475 0.00012625064
1.5363594e-05 2.8831559e-05 2.3607386e-14 2.5747543e-06 6.3685155e-05 0.0004420434 0.00064205984 6.0678052e-05
2.4067995e-05 7.3286074e-08 3.1220086e-14 2.7342282e-06 0.00014530552 0.00045912294 0.0005704871 0.000112369635
1.056302e-05 0.00011844939 3.6932846e-14 1.3254344e-06 9.772853e-05 0.00027234666 0.00052067265 5.2459673e-05
1.8451288e-05 5.0270174e-08 0.0 3.7124285e-06 0.0001405344 0.000502177 0.00058840227 0.00018491903
1.2581937e-05 5.028736e-05 3.547153e-15 1.4635598e-06 0.00012550034 0.00025218626 0.0004967077 5.345531e-05
1.2906514e-05 5.1830497e-08 8.954229e-19 2.3030996e-06 0.00013513342 0.0005254133 0.00059568713 0.00012665318
9.093071e-06 6.213318e-05 2.992e-15 5.8794814e-07 0.00014479757 0.00028645442 0.0005030693 7.5743555e-05
1.2022069e-05 4.263521e-08 9.6623006e-20 1.4806442e-06 0.00011787188 0.00052403915 0.0005839145 3.500469e-05
9.915891e-06 7.227417e-05 1.9285431e-17 3.992114e-07 0.0001400412 0.00040904718 0.0005091071 6.555331e-05
3.7658197e-07 2.4116054e-05 0.0033042852 1.4928999e-07 0.033121012 1.9696312e-05 7.515346e-05 1.1296898e-05
9.107711e-06 2.9431329e-15 2.799433e-06 8.025131e-05 9.2860406e-05 0.00026407762 5.4705186e-05 8.733921e-06
3.0867284e-06 5.091874e-13 1.5723479e-06 5.7568715e-05 0.00015667494 0.00029327147 5.6879955e-05 6.963295e-06
5.7152515e-06 5.910187e-14 8.259521e-06 3.3500124e-05 0.00017449641 0.00031067064 7.361305e-05 1.1848579e-05
5.4241458e-08 0.0 2.1142048e-06 3.8723498e-05 0.0001632329 0.00024147966 4.122655e-05 8.125079e-06
00000000: 53e7 2838 0507 b537 06d9 0f37 c3b2 d026
00000010: a49a 1e36 6d44 2339 e5f8 3139 8579 e139
00000020: 30f1 2338 6c91 5c37 5395 1636 502b 2a28
00000030: dba5 a933 d033 8438 9532 a939 13aa f839
00000040: 8cdc b937 a329 7a37 c2b6 ce36 f949 0e29
00000050: cfb7 b036 0e41 e838 93f8 8c39 2a7d fa39
00000060: 7732 7838 e455 6e37 4347 db32 0000 0000
00000070: ae8a 9c33 33dc 8437 871f c539 c1db e939
00000080: d50e 5c38 37c2 7e37 ca10 5a37 4f85 c927
00000090: 830d d334 efa9 9d36 e17b d239 9d30 f539
000000a0: 1505 8738 a81d 4b37 608c b732 18dc 8a28
000000b0: b611 2e33 86f5 be36 a168 d239 73ed e739
000000c0: 3bbd 8a38 3279 8037 cf06 b238 4d92 6c28
000000d0: aa36 3e33 f03d 8635 bc9f 8439 00eb cc39
000000e0: e5cc 4138 0f1a 5037 1369 7132 0000 0000
000000f0: c1d2 5433 4cfd 1c36 9598 ed39 f225 fa39
00000100: ca68 d338 b89a 7137 1e30 0a38 223e e626
00000110: 1e7f 8f32 f436 0136 f311 9339 6faf d539
00000120: d0d3 cc37 7436 2237 a4cd 6232 d9aa 8921
00000130: cad6 d632 7b7a c035 f912 043a 08d4 063a
00000140: 13fc a738 d5d8 5b37 82da 6538 6977 8a26
00000150: 747e 4832 0e61 fa36 5aa8 8e39 81a1 d239
00000160: 5cff fc37 b43f b536 80f9 0c32 699f 291f
00000170: 1072 e832 0c73 9935 b123 053a 65bc 063a
00000180: 50aa 6a37 2b58 3737 006d 9638 93e9 b423
00000190: 0df7 d831 0616 b735 3b1f c339 0df2 d339
000001a0: d253 0538 acdc 9335 f93a a637 d8e5 933a
000001b0: 8346 4734 c8d9 ba3b d398 8937 67ff 3b39
000001c0: 1f50 c537 cdda dc36 26fe fc26 2730 4837
000001d0: 31a1 7b39 cd96 2b39 cb38 1b3a 3413 0139
000001e0: 236c ac37 9d37 9d35 4413 752a 18d7 2737
000001f0: 53b8 4c39 bcbc 9339 fecf 1d3a 8039 2539
00000200: 77d7 9337 9544 8b36 82fe 3e29 be78 8c37
00000210: ece0 e738 2dea af39 0b31 373a dac7 a838
00000220: ea80 9437 421c 9133 0000 0000 ad8d 0b37
00000230: a43e 2a39 e91c cd39 b063 173a 2662 0439
00000240: 11e1 8037 4ddb f137 eda2 d428 f1c9 2c36
00000250: b58e 8538 10c2 e739 e84f 283a 9080 7e38
00000260: a0e5 c937 7261 9d33 4f9a 0c29 af7d 3736
00000270: 275d 1839 70b6 f039 be8c 153a fda7 eb38
00000280: d337 3137 0868 f838 ac54 2629 94e5 b135
00000290: 9bf3 cc38 c0c9 8e39 c07d 083a 2508 5c38
000002a0: d7c7 9a37 a4e8 5733 0000 0000 0923 7936
000002b0: 6a5c 1339 87a4 033a 023f 1a3a d3e6 4139
000002c0: 0217 5337 a4eb 5238 6c99 7f27 886f c435
000002d0: be98 0339 de37 8439 7d35 023a 3435 6038
000002e0: 0e89 5837 3c9c 5e33 1f24 8421 f38e 1a36
000002f0: 9ab2 0d39 e4bb 093a e327 1c3a 34ce 0439
00000300: 718e 1837 7f4d 8238 a998 5727 7dd3 1d35
00000310: cdd4 1739 432f 9639 69e0 033a 83d8 9e38
00000320: 65b2 4937 e91d 3733 0625 e41f 8cba c635
00000330: fc31 f738 ac5f 093a d711 193a 00d2 1238
00000340: 6d5c 2637 e691 9738 70e0 b123 3253 d634
00000350: 06d8 1239 6275 d639 9975 053a aa79 8938
00000360: 082d ca34 d54c ca37 b58c 583b 854c 2034
00000370: e6a9 073d 8239 a537 b59b 9d38 cf87 3d37
00000380: 52cd 1837 3813 5427 e5dd 3b36 984c a838
00000390: 0dbe c238 e673 8a39 3f73 6538 e887 1237
000003a0: 9725 4f36 d252 0f2b 7609 d335 f075 7138
000003b0: 1c49 2439 3bc2 9939 6392 6e38 40a6 e936
000003c0: a3c5 bf36 e915 8529 5f92 0a37 7c82 0c38
000003d0: 06f9 3639 82e1 a239 b560 9a38 42c9 4637
000003e0: 1df7 6833 0000 0000 c3e1 0d36 0a6b 2238
000003f0: 7f29 2b39 b435 7d39 acea 2c38 f350 0837

exp_avg f4 [128]
-7.239633e-05 0.002401961 0.0023272755 0.0019320496 -0.0007173891 0.0023266973 -0.00056705246 0.00016937137
-0.00020283586 0.002549017 -0.00038179837 0.0003489768 0.00030860235 0.0009582359 0.0054636532 0.00046953312
-0.00035923222 0.0002400375 -0.0008995766 -0.00088169327 0.0014078176 0.0008840024 0.0006224247 -0.00094920356
0.00057901663 0.0018313843 -0.004742125 -0.0011767739 -0.0012807734 -0.0014667124 0.00128353 -0.000624898
-0.003407086 3.994482e-05 -0.00081794686 -0.0003355851 0.000527024 -0.0001618798 -1.1228692e-05 0.0015704106
0.0031868329 0.000799458 0.003264911 0.00036086733 0.0014861341 0.0010329316 0.0020277654 0.0052665644
-0.0013553138 0.0021363113 -0.00010349136 6.9450936e-05 0.0008026897 0.00046797012 0.0012471981 0.001392605
0.0013560146 0.0020209413 -0.0007158458 0.00091627816 0.0006494304 0.0015016194 -0.0027713766 9.982969e-05
-0.00063516654 -0.00021324276 0.0014120406 -0.0012123612 0.0001720664 -0.0011284376 0.0010489855 0.0013106922
0.0027679903 -0.00056502415 -0.0007245051 0.0018675969 -0.0008247795 0.00013411608 0.0014482028 -0.0043180035
-0.0020552683 0.0007171752 -0.00062536454 -0.002109781 0.00074577995 0.00019725863 0.0014519879 0.0036046314
-0.00097044004 0.00016097093 -0.004238756 -0.0037688378 -0.0018205593 0.00031416782 0.0021406754 0.0020369415
-0.0003468469 0.0030189315 0.00094606774 -0.00014389367 -0.0010936693 0.0012240015 -0.00027788768 0.0043265745
-0.0021307392 0.001262178 -0.0022183957 -0.0021648384 -0.0015321666 0.00012140221 -0.0015074782 0.0011467441
0.0008502658 -0.0028711867 -0.0023161052 0.0027373878 -0.00053101167 0.001576591 -0.002654428 0.0005604709
0.002698206 0.0027654648 0.0007010181 -0.0017056058 0.00040549718 0.0015382661 -0.0023363144 0.0019569632
00000000: 7cd3 97b8 386a 1d3b 3485 183b d43c fd3a
00000010: 2b0f 3cba 817b 183b 3fa6 14ba 4899 3139
00000020: 56b0 54b9 690d 273b 1c2c c8b9 e0f6 b639
00000030: e8cb a139 1f32 7b3a 7208 b33b ab2b f639
00000040: 5557 bcb9 93b2 7b39 90d1 6bba 6f21 67ba
00000050: 8586 b83a 66bc 673a 372a 233a f9d3 78ba
00000060: 26c9 173a 0f0b f03a d463 9bbb fb3d 9aba
00000070: a0df a7ba b43e c0ba 1f3c a83a 32d0 23ba
00000080: 6b49 5fbb 6d8a 2738 7c6b 56ba 78f1 afb9
00000090: fb27 0a3a 47be 29b9 dd62 3cb7 3cd6 cd3a
000000a0: 2fda 503b b892 513a 1ef8 553b cb32 bd39
000000b0: 63ca c23a 6f63 873a 42e4 043b 2593 ac3b
000000c0: c9a4 b1ba 5b01 0c3b 8009 d9b8 30a6 9138
000000d0: 986b 523a e359 f539 0679 a33a 1288 b63a
000000e0: 4dbc b13a c571 043b 99a7 3bba 6332 703a
000000f0: 893e 2a3a fcd1 c43a fc9f 35bb a85b d138
00000100: 4e81 26ba eb99 5fb9 3814 b93a 17e8 9eba
00000110: b96c 3439 15e8 93ba 1d7e 893a 88cb ab3a
00000120: 2c67 353b 211e 14ba b7ec 3dba 27ca f43a
00000130: 0436 58ba 83a1 0c39 9fd1 bd3a 0a7e 8dbb
00000140: aeb1 06bb d000 3c3a 81ef 23ba 4044 0abb
00000150: 7280 433a 36d7 4e39 a150 be3a ae3b 6c3b
00000160: 2165 7eba 4eca 2839 43e5 8abb 9bfe 76bb
00000170: d59f eeba e4b6 a439 934a 0c3b 357e 053b
00000180: 01d9 b5b9 44d9 453b 8801 783a 2ae2 16b9
00000190: 7459 8fba ad6e a03a 74b1 91b9 f0c5 8d3b
000001a0: dfa3 0bbb aa6f a53a 8162 11bb f6df 0dbb
000001b0: fbd2 c8ba 5199 fe38 9396 c5ba 594e 963a
000001c0: 5fe4 5e3a 852a 3cbb ccc9 17bb bf65 333b
000001d0: 9733 0bba 9ea5 ce3a e9f5 2dbb 91ec 123a
000001e0: 63d4 303b cd3c 353b 87c4 373a a28e dfba
000001f0: e998 d439 a59f c93a da1c 19bb 6540 003b

exp_avg_sq f4 [128]
0.0005892386 0.0010204647 0.00045331294 0.00030208912 0.00024003147 0.0005095904 2.1867133e-06 3.799823e-05
5.383883e-06 0.00043424856 6.6304114e-05 9.740123e-06 0.0003475296 2.113299e-05 0.0017509104 1.324223e-05
0.00022201962 1.270191e-05 0.00028559254 0.00014767042 0.00042339778 0.00010258015 8.761616e-05 0.00010761856
1.6908065e-05 0.00034487605 0.0007120327 0.0002942423 0.00075222645 0.000909275 0.000192372 1.6373848e-06
0.004142717 5.065646e-05 0.00013210085 0.00027053588 0.000157312 8.139534e-05 0.00020744694 0.00015320738
0.0005844937 3.8505877e-05 0.0011252387 0.00010386328 8.718513e-05 0.00020978053 0.00056128955 0.002302144
6.0570943e-05 0.00043586091 0.0018601487 3.207284e-05 4.2244406e-05 5.886126e-05 0.00044159067 0.00019771155
0.00021941414 0.0006069413 0.00020564106 0.00019147599 0.00019605552 0.00041941242 0.00082980434 0.000102211285
5.795848e-06 0.00010319367 0.0001266174 0.00052815845 8.911582e-06 8.2915125e-05 0.00020691281 7.7288656e-05
0.0006382883 0.00025422414 0.00023985087 0.00011400999 0.00010290033 3.5133144e-07 0.00066363293 0.0007604547
0.0013408288 1.0026429e-05 0.00039906806 0.00090919685 6.30558e-05 0.00036886398 0.00010412993 0.00074568664
0.00045969518 4.2287127e-05 0.0012947673 0.0006490339 0.0007475313 2.1374638e-06 0.00087760587 0.0002854162
7.249942e-05 0.0005243311 3.8790142e-05 0.00064821966 0.00025636976 0.00031237854 1.8788173e-06 0.0021913964
0.00015337655 0.00021228637 0.00045695246 0.0012223539 0.0005186803 2.1957e-05 0.0001069319 0.00010955837
5.1784875e-05 0.00051473937 0.0006039935 0.0006823349 7.716192e-06 0.00042363105 0.00072615175 5.3737072e-05
0.0007691892 0.000961352 0.0001004505 0.00067683717 3.2228192e-05 8.944409e-05 0.0008743215 0.0009767761
00000000: 2277 1a3a 1dc1 853a a2aa ed39 b761 9e39
00000010: f5b0 7b39 0896 053a 73bf 1236 4a60 1f38
00000020: 34a7 b436 dbab e339 c00c 8b38 8269 2337
00000030: a234 b639 c046 b137 ce7e e53a f22a 5e37
00000040: f0cd 6839 4a1a 5537 95bb 9539 fad7 1a39
00000050: 7dfb dd39 4c20 d738 91be b738 46b1 e138
00000060: cbd5 8d37 7bd0 b439 b5a7 3a3a 8844 9a39
00000070: 1031 453a 6a5c 6e3a 77b7 4939 1dc4 db35
00000080: a1bf 873b f677 5438 8d84 0a39 b6d6 8d39
00000090: 1ef4 2439 cab2 aa38 1d86 5939 4ba6 2039
000000a0: b538 193a 5f81 2138 bf7c 933a 2dd1 d938
000000b0: 29d7 b638 88f8 5b39 8123 133a 91df 163b
000000c0: 8e0d 7e38 4384 e439 3cd0 f33a f385 0638
000000d0: 962f 3138 cce1 7638 4c85 e739 ca50 4f39
000000e0: 8912 6639 241b 1f3a 5aa1 5739 f2c6 4839
000000f0: 4194 4d39 95e4 db39 3a87 593a 445a d638
00000100: f579 c236 ae69 d838 99c4 0439 1d74 0a3a
00000110: f482 1537 b8e2 ad38 bcf6 5839 0816 a238
00000120: cd52 273a 6349 8539 7a80 7b39 a618 ef38
00000130: 32cc d738 a09e bc34 a7f7 2d3a 4059 473a
00000140: c0be af3a 2f37 2837 023a d139 2b57 6e3a
00000150: d33c 8438 1664 c139 5560 da38 2f7a 433a
00000160: 3e03 f139 755d 3138 2eb5 a93a ed23 2a3a
00000170: faf5 433a 5971 0f36 220f 663a eaa3 9539
00000180: d40a 9838 4473 093a 99b2 2238 49ed 293a
00000190: 5e69 8639 bdc6 a339 ac2b fc35 889d 0f3b
000001a0: b4d3 2039 3099 5e39 1f93 ef39 6437 a03a
000001b0: 0cf8 073a 4c30 b837 a040 e038 b4c2 e538
000001c0: 9633 5938 93ef 063a 5155 1e3a b8de 323a
000001d0: cb74 0137 cc1a de39 385b 3e3a be63 6138
000001e0: 6aa3 493a 3e03 7c3a f4a8 d238 c66d 313a
000001f0: c22c 0738 ee93 bb38 b932 653a 2b07 803a

exp_avg f4 [128, 128]
-1.6246566e-05 4.052144e-05 0.00010356786 0.0001856293 6.926135e-05 0.0002663728 0.00014637056 2.6526957e-05
-3.1715763e-07 0.00029328186 -6.9839098e-06 -7.580036e-05 0.00011601485 8.517109e-05 0.00016580871 0.0004372661
-4.38606e-05 -7.316849e-05 0.00013264337 5.1451076e-05 0.00022793586 0.00019794019 -1.7570881e-05 -3.4407112e-05
-5.79948e-06 6.6234825e-05 0.00039033056 4.7559206e-05 6.0802096e-05 0.00041228108 0.00015091321 7.647553e-05
0.00011789464 -8.3579325e-05 -3.8495473e-05 -0.00010805691 -0.00015005561 -0.000109179244 -7.597898e-05 0.0004283733
0.00030488332 2.4513869e-05 0.00053266605 -9.569902e-05 0.0005008328 0.00011204291 1.7697623e-05 0.00014870956
1.956528e-05 1.1901654e-05 -0.00013722436 6.8585796e-06 0.000121630466 0.00023122157 0.00018617866 0.00039404212
0.00019555938 6.562845e-05 -3.5312976e-05 0.00020019394 5.094424e-05 0.0006150393 1.2152298e-05 -7.84166e-05
0.00016958066 6.598828e-05 0.00036937892 7.355571e-05 -5.1581672e-05 0.0002102191 0.000115058836 2.1209167e-05
0.00028635038 -5.4340373e-05 2.5186142e-05 3.94364e-05 -6.167526e-05 -5.8930244e-05 1.4567454e-05 0.00025264965
0.00015521099 0.00022934315 6.2810876e-05 0.0004149017 8.6060456e-05 -2.18859e-05 0.00047468187 0.0004039535
-4.810566e-05 -0.00015506508 0.00026650509 0.00021216588 0.00030921926 -0.00018523731 0.0005357653 0.0002298401
-0.00015088818 0.00044599877 2.3031896e-05 6.234652e-05 7.934762e-05 5.527714e-05 0.000114358394 0.00013349662
0.00011974952 0.00026777378 8.982577e-06 -3.7521509e-06 -8.63302e-06 6.981884e-05 2.6872252e-05 0.0004360134
-3.4979206e-05 9.206693e-05 3.286799e-05 0.00044561515 -2.441599e-05 7.008535e-05 8.303977e-05 2.182737e-05
5.6874913e-05 0.00021664712 -5.6677204e-06 0.00016320132 8.099093e-05 0.00011102913 0.00054370105 0.00049899536
0.00014023109 -3.0602663e-05 -1.9303277e-05 -0.0001539711 -2.8704279e-05 -0.00019720118 -3.5075843e-06 9.638496e-05
7.660855e-05 -0.00034484925 3.8957754e-05 0.00011675045 0.00014327708 -4.8579495e-05 -0.0001635309 -0.0004482119
0.000114578856 3.6025944e-05 -0.00016158272 -9.819287e-05 -0.00028107926 -0.00024836013 1.288974e-07 8.447809e-05
5.0486757e-05 -5.7629637e-05 -0.00042609143 -7.018404e-05 -3.0760504e-05 -0.0005372152 1.4922586e-05 8.5841424e-07
-0.00023642747 6.7319546e-05 4.0604453e-05 0.000105669205 6.066488e-05 0.00019812738 0.00011510435 -0.00047217507
-0.00028082504 -5.5132106e-05 -0.00032079173 5.0896942e-05 -0.0003742287 -8.719588e-05 -2.7123395e-05 -0.00023462306
-6.5306536e-05 -1.7288685e-05 0.00012816225 -8.2002293e-07 -0.00012863697 -0.00039374805 -0.00030315568 -0.000417547
-0.0004264311 -0.0001281324 5.1846373e-06 -0.000326261 0.000128546 -0.0005635495 -9.257617e-05 4.8904145e-05
-0.00011512534 -3.213432e-05 -0.00029946474 -2.2377182e-05 6.8297166e-05 -0.00028380263 -0.00017822924 9.859272e-06
-0.00012428446 6.956061e-05 -9.383301e-06 -7.092445e-05 1.3216787e-05 1.02338e-05 0.0001192633 -0.00037059427
-0.00025736724 -0.00030822054 -6.256743e-05 -0.00036896332 1.783738e-05 3.5774658e-05 -0.0006311247 -0.00045156627
6.762183e-05 8.480544e-05 -0.00044862833 -0.00036726194 -0.00030256718 0.00023406059 -0.00046030793 -0.00015936609
0.00017315257 -0.00042504256 -7.7824e-05 0.0001071432 -0.00013495579 -2.4317094e-06 -2.7842478e-05 -6.526737e-05
-0.00020163374 -6.8611625e-05 -7.465436e-05 1.2976395e-05 -8.966641e-05 6.7157093e-06 -2.1606711e-05 -0.00055118825
-9.9052895e-06 -0.00014253765 -6.5460925e-05 -0.00031270622 3.315613e-05 6.9126e-05 4.868041e-06 -2.6798361e-05
2.858752e-06 -5.673465e-05 2.8492666e-06 -0.000103719954 -3.805091e-05 -4.0263185e-05 -0.000664964 -0.0007081841
00000000: 3c49 88b7 91f5 2938 9232 d938 7ca5 4239
00000010: 6740 9138 f4a7 8b39 0c7b 1939 3586 de37
00000020: d045 aab4 a0c3 9939 5457 eab6 02f7 9eb8
00000030: 004d f338 e19d b238 f0dc 2d39 dd40 e539
00000040: f6f6 37b8 0972 99b8 2f16 0b39 2ccd 5738
00000050: 1102 6f39 2a8e 4f39 2e65 93b7 5b50 10b8
00000060: 2799 c2b6 8de7 8a38 48a5 cc39 4f7a 4738
00000070: c105 7f38 6e27 d839 753e 1e39 7d61 a038
00000080: 343e f738 4f47 afb8 3376 21b8 9d9c e2b8
00000090: 3f58 1db9 29f7 e4b8 e756 9fb8 4b97 e039
000000a0: bfd8 9f39 22a3 cd37 9da2 0b3a 05b2 c8b8
000000b0: 524a 033a 94f8 ea38 5b75 9437 ebee 1b39
000000c0: 1e20 a437 37ad 4737 e2e3 0fb9 c022 e636
000000d0: dc13 ff38 1174 7239 f438 4339 7097 ce39
000000e0: 120f 4d39 01a2 8938 051d 14b8 27eb 5139
000000f0: f6ac 5538 973a 213a b9e1 4b37 9773 a4b8
00000100: 76d1 3139 3063 8a38 33a9 c139 ec41 9a38
00000110: 6659 58b8 436e 5c39 be4b f138 57ea b137
00000120: 4c21 9639 88eb 63b8 d446 d337 8368 2538
00000130: a757 81b8 de2b 77b8 bd66 7437 1076 8439
00000140: 22c0 2239 d57b 7039 55b9 8338 2a87 d939
00000150: 5b7b b438 9d97 b7b7 b9de f839 b9c9 d339
00000160: 0fc5 49b8 f798 22b9 b5b9 8b39 d878 5e39
00000170: b51e a239 433c 42b9 9a72 0c3a 3b01 7139
00000180: bd37 1eb9 f1d4 e939 9f34 c137 08c0 8238
00000190: 6e67 a638 61d9 6738 b2d3 ef38 3afb 0b39
000001a0: 0922 fb38 fd63 8c39 e0b3 1637 76cd 7bb6
000001b0: 8ad6 10b7 b46b 9238 b96b e137 ba98 e439
000001c0: a3b6 12b8 0f14 c138 bcdb 0938 74a1 e939
000001d0: f0d0 ccb7 c9fa 9238 a325 ae38 ec19 b737
000001e0: f98c 6e38 c52b 6339 592d beb6 0521 2b39
000001f0: add9 a938 4fd8 e838 2987 0e3a 03cf 023a
00000200: ff0a 1339 5c5b 00b8 79ed a1b7 4d73 21b9
00000210: f8c9 f0b7 cac7 4eb9 d763 6bb6 4822 ca38
00000220: e7a8 a038 e2cc b4b9 9266 2338 ecd7 f438
00000230: a63c 1639 d6c1 4bb8 7e79 2bb9 fcfd eab9
00000240: 0e4a f038 901a 1738 886e 29b9 e5ec cdb8
00000250: d25d 93b9 5536 82b9 0c67 0a34 d429 b138
00000260: bec1 5338 5ab7 71b8 0665 dfb9 c52f 93b8
00000270: d704 01b8 e7d3 0cba 055c 7a37 c76d 6635
00000280: 84e9 77b9 e82d 8d38 b34e 2a38 b99a dd38
00000290: 6b72 7e38 6ac0 4f39 2d64 f138 448e f7b9
000002a0: b33b 93b9 a63d 67b8 f02f a8b9 2d7a 5538
000002b0: 2034 c4b9 eedc b6b8 0c87 e3b7 2605 76b9
000002c0: 2ef5 88b8 2b07 91b7 4b63 0639 8c1f 5cb5
000002d0: b9e2 06b9 f86f ceb9 def0 9eb9 36ea dab9
000002e0: 9d92 dfb9 475b 06b9 b2f7 ad36 030e abb9
000002f0: 4eca 0639 2bbb 13ba 7425 c2b8 6d1e 4d38
00000300: 726f f1b8 f7c7 06b8 7a01 9db9 a2b6 bbb7
00000310: c33a 8f38 58cb 94b9 0ce3 3ab9 4069 2537
00000320: 5b52 02b9 11e1 9138 f96c 1db7 46bd 94b8
00000330: abbd 5d37 d6b1 2b37 ff1c fa38 524c c2b9
00000340: 3fef 86b9 a998 a1b9 a236 83b8 6b71 c1b9
00000350: 7ba1 9537 bf0c 1638 1072 25ba 33c0 ecb9
00000360: 32d0 8d38 93d9 b138 e035 ebb9 108d c0b9
00000370: e1a1 9eb9 296e 7539 7c55 f1b9 821b 27b9
00000380: 4a90 3539 3fd8 deb9 7135 a3b8 11b2 e038
00000390: eb82 0db9 7330 23b6 448f e9b7 27e0 88b8
000003a0: a56d 53b9 96e3 8fb8 c18f 9cb8 31b5 5937
000003b0: 4a0b bcb8 8157 e136 0f40 b5b7 9e7d 10ba
000003c0: e52e 26b7 2976 15b9 1148 89b8 b8f2 a3b9
000003d0: 2011 0b38 bdf7 9038 2758 a336 0bcd e0b7
000003e0: fcd8 3f36 5ef6 6db8 0736 3f36 3a84 d9b8
000003f0: da98 1fb8 44e0 28b8 fb50 2eba 6ea5 39ba
