results/opponentR/OpponentR/OpponentR-6499982.pt (torch, 760415 bytes, 30 tensors)

network_body._body_endoder.seq_layers.0.weight f4 [128, 111]
000000 13 c5 4d bd fc fd ec 3d f7 cc 0c bd 4f 6f 5c bd
       -0.050236773 0.11571881 -0.034375157 -0.05381709
000010 9e b8 82 3e 60 ca 83 3e 30 32 34 bd 23 b2 83 3d
       0.25531477 0.25740337 -0.043993175 0.06430461
000020 62 d1 2c bd 79 49 3b be c2 86 43 be 03 11 45 bc
       -0.04219187 -0.18289746 -0.19094375 -0.012027982
000030 ef 7f 57 3c 99 20 49 bd a4 fb f9 3d f3 06 22 3e
       0.01315306 -0.049103353 0.122062 0.15822963
000040 98 71 94 be d4 34 b6 bd 3f a6 a4 bd e1 b4 b2 3d
       -0.28992915 -0.08896795 -0.080395214 0.08725906
000050 b9 f7 4e bd 3a b6 1f 3e 14 41 3e 3d f1 5b e8 3d
       -0.050529215 0.15596858 0.046448782 0.113456614
000060 c4 21 d5 bc fb 87 1a bc 0d ae 36 be b3 c0 32 3d
       -0.026017077 -0.009431834 -0.17839833 0.043640804
000070 e6 5a ca bd 0f 3b 20 be 5d 69 35 3e b0 52 b1 3c
       -0.09880619 -0.15647529 0.17715974 0.021645874
000080 7d c5 de 3d f6 36 e1 ba 03 46 ad bd a0 72 5c bd
       0.10877512 -0.0017182517 -0.08460619 -0.053820252
000090 35 96 cc 3e e7 23 62 3e eb 44 d9 3d df fa f0 bd
       0.3995835 0.22084008 0.10608848 -0.117666
0000a0 0d 17 df 3b a6 b8 74 be ee 52 93 bd 2d 2f 8c bc
       0.006808168 -0.23898563 -0.07193552 -0.017112339
0000b0 22 8c c5 bc 87 fb 1e be 4e 24 f1 3d 86 60 85 bd
       -0.024114672 -0.15525638 0.11774503 -0.06512551
0000c0 27 17 94 3d 98 53 37 3d 44 c7 4a be ae c0 27 be
       0.072309785 0.044757456 -0.19802576 -0.16382095
0000d0 2c 20 3d bb d2 58 5d be fe 7a 44 bc 24 b9 d0 3d
       -0.0028858287 -0.21615914 -0.011992214 0.10191563
0000e0 2c 13 c2 3c 08 97 de 3d 74 9e ca bc d3 8e b8 3d
       0.023690782 0.10868651 -0.02473376 0.090116166
0000f0 7c 91 a6 bd d2 6a c7 be dc 38 f5 3d 3c 9a ff bc
       -0.08133218 -0.38948685 0.11973736 -0.031201474
000100 fc 04 3b 3e 4b 85 0b 3e 01 1e 8a 3d 1c a4 77 bd
       0.1826362 0.13625066 0.06744004 -0.06045924
000110 75 c4 82 bd ca 49 12 be bf e7 d3 3c bb c1 25 3d
       -0.063851275 -0.14285961 0.025867341 0.04046796
000120 44 35 72 3a 15 fe a6 3c a3 58 8c bd b9 ab 14 bd
       0.00092395046 0.020384828 -0.068528436 -0.03629658
000130 ee 85 f0 bd 2d 13 b4 be 71 ab ac bd 85 8b 36 3e
       -0.11744295 -0.3517088 -0.08431137 0.1782666
000140 d0 2f d8 3d 19 31 25 bd b3 60 64 bd b9 cd a9 3d
       0.105559945 -0.040330026 -0.055756282 0.082911916
000150 05 8c 82 bd 77 32 ff 3d 32 20 05 bd 91 9c 85 3c
       -0.06374363 0.12460797 -0.032501407 0.016310008
000160 99 ce 13 3d d6 49 3e be aa 38 56 3c 7d 08 f4 bd
       0.0360857 -0.18582854 0.013075033 -0.119156815
000170 43 43 10 3d c1 01 ae be 6f 50 2b 3e 0b 65 3b 3d
       0.035220396 -0.33985713 0.16729902 0.04575066
000180 ba 16 bc bc 78 cc 47 be b5 91 1e 3e 92 1d 0e 3d
       -0.022960056 -0.19511592 0.1548527 0.03469617
000190 a9 63 94 bd 71 c1 1c be 81 37 93 3c 83 bc 11 be
       -0.07245571 -0.15308167 0.017970802 -0.14232068
0001a0 60 62 28 3d 10 83 9a 3c ba 14 b8 3c d2 61 dc 3c
       0.041109443 0.018861324 0.02247082 0.026902113
0001b0 68 6a 56 bc 31 37 22 be 7e f5 f8 3d 8a ee 99 bd
       -0.013086893 -0.15841366 0.12156199 -0.07516201
0001c0 d4 8c ad bb 99 1c 03 3e 4d 4e 0f 3e 7d 6b ef bc
       -0.005296329 0.12803878 0.13994713 -0.02922606
0001d0 6b c3 08 bd b2 b4 23 be f5 76 a5 bd f8 48 93 3d
       -0.03338949 -0.15986899 -0.0807933 0.07191652
0001e0 26 cd 19 3e b9 10 9b 3d 26 6a 8f 3d 9d f4 bf 3d
       0.15019664 0.07571549 0.07002668 0.09372828
0001f0 f5 ee 98 bd 5b d5 5c 3d b1 11 49 bc 46 47 a8 3d
       -0.074674524 0.05391441 -0.012272284 0.08216719
000200 1e 3f 5e bc d5 c6 00 3b 32 14 6f bd 19 7d 81 bb
       -0.013564853 0.0019649763 -0.05836887 -0.0039516804
000210 9e 70 1d be 35 c5 05 3e 30 22 5b be 88 05 c9 3b
       -0.15374991 0.1306351 -0.2139976 0.0061346926
000220 2e df af bc fb 0d 78 3d a8 64 81 bc 3d c3 25 3e
       -0.021468725 0.060560208 -0.015795067 0.16187759
000230 4c 7f 62 3e 0b a7 30 3e d3 81 f8 3d 12 a7 33 3e
       0.22118872 0.17251222 0.12134137 0.17544201
000240 c8 e2 61 3d 69 39 91 3e a1 ef 5e 3c 99 26 88 bc
       0.055147916 0.28364113 0.013606937 -0.016619967
000250 ef 4a de 3c e3 23 15 3c 55 92 0b be 78 17 69 be
       0.02713534 0.009102794 -0.1363004 -0.22762859
000260 42 64 8b 3d a8 04 d9 3d 93 dd eb 3c 67 62 58 be
       0.06806232 0.10596591 0.028792178 -0.21131288
000270 2c c8 df bb 03 fc f1 3d 86 e3 ff 3d 32 27 a6 bd
       -0.0068292823 0.118156455 0.124945685 -0.08112945
000280 6c 5a a0 be 42 0b c7 3d 8c 3c 41 3e 88 65 96 bd
       -0.31318986 0.09718944 0.18870753 -0.07343584
000290 8c de 3e 3e fd 96 15 bc 05 a1 b5 3c 26 24 e8 bd
       0.18639582 -0.009130237 0.022171507 -0.1133502
0002a0 90 b7 bd 3c 18 41 54 3b 1e b0 91 bc a1 d0 9e 3d
       0.023158818 0.0032387432 -0.017784175 0.077546366
0002b0 52 fc f0 3c 36 28 58 bb cc bb 3b 3d f3 7d 66 3d
       0.02941719 -0.0032982952 0.045833394 0.05627246
0002c0 d3 ad 9e bd 4b e3 4a 3d 89 a8 b5 3c c9 18 63 3e
       -0.07747998 0.04953317 0.02217509 0.22177424
0002d0 bb bd dd 3c d0 79 ce 3c 4c f5 8f bd 64 15 a6 bd
       0.02706801 0.02520457 -0.070292085 -0.08109549
0002e0 eb 09 19 be 42 74 01 bb 55 40 07 3e cc 4d 03 3e
       -0.1494519 -0.0019753133 0.13208134 0.12822646
0002f0 bc 81 33 3d 52 ab b4 bd 47 ce 28 bd 81 aa a9 3d
       0.043824896 -0.08821739 -0.041212346 0.08284474
000300 77 c5 3f be 6e 11 17 3e 35 5a 54 3e af 64 18 be
       -0.1872767 0.14752743 0.20737536 -0.14882158
000310 62 f6 51 bd c1 b2 8a 3d 1a 39 5b ba c3 53 19 3d
       -0.05126036 0.06772376 -0.0008362696 0.037433397
000320 28 bc 4a 3d 1b 99 79 bd f9 a8 10 bd 66 07 98 bd
       0.049495846 -0.06093703 -0.035317395 -0.07423286
000330 14 3f 86 bd 9d 3b 3f 3c 9f ff 06 bd 23 b3 8d 3b
       -0.06555 0.011671928 -0.032958623 0.0043243333
000340 d0 3f ac 3d f5 88 14 3e 74 72 ac bd 6a f8 36 3e
       0.08410609 0.1450537 -0.08420268 0.178682
000350 5f 82 31 3e 7c 68 01 3c b3 c0 50 3d 93 4d 81 be
       0.17334889 0.007898446 0.050965022 -0.25254497
000360 24 89 48 bd e3 98 04 3c 53 97 5a bd bf ba f5 bb
       -0.048958912 0.008093092 -0.05336697 -0.0074990685
000370 6f 17 db 3c c1 34 09 be f4 c1 28 3e e3 ab 54 3d
       0.026744572 -0.1339903 0.16480237 0.051921736
000380 47 7a 16 3d d9 27 bb bd 6e fc 60 be 06 30 c2 3d
       0.036737707 -0.0913846 -0.21971294 0.09481816
000390 de 1b 0e be 88 68 66 be e1 22 22 bd e1 00 db bd
       -0.13877818 -0.22500813 -0.039584044 -0.10693527
0003a0 ab 80 9a 3d d5 17 b7 3d cc 36 8d 3d c8 4e b4 3c
       0.07544073 0.089400925 0.06895217 0.022010222
0003b0 e3 52 e7 bc 98 67 da 3d 6d 54 d3 3d 17 31 1f be
       -0.028237766 0.1066429 0.10318837 -0.1554607
0003c0 b8 04 e1 bd 23 f8 96 3d 72 a8 ec 3c 58 4b 36 be
       -0.10987228 0.07371547 0.028888915 -0.17802179
0003d0 f4 26 5d 3b d4 83 89 bd 53 bc cd 3d 33 88 45 bd
       0.0033745142 -0.06714597 0.100456856 -0.048225593
0003e0 d4 07 b6 3b 5f 56 32 3b 3a e6 e2 3d ce 73 1c bd
       0.0055551324 0.0027212126 0.110790685 -0.038196377
0003f0 b2 65 2a bc f0 e0 61 3e 44 89 cc bb 87 8c fc bc
       -0.010400223 0.22058463 -0.0062419493 -0.030828727

network_body._body_endoder.seq_layers.0.bias f4 [128]
000000 7f ce 2f 3a 64 2f ca 3c 39 b9 f5 3c cb fd 0e 3d
       0.00067064905 0.0246808 0.029995548 0.034910005
000010 1a dd 88 3c 28 c6 19 3c 89 24 8b 3b 2e 0f f7 3c
       0.016706992 0.009385623 0.0042462987 0.030158605
000020 6d 69 ef 3a 6a 31 73 3c cc e9 96 3b 2d bf 1c 3d
       0.0018265672 0.014843324 0.0046055075 0.038268257
000030 76 9f f1 3c 02 aa 8e 3c d9 95 d3 3c 8f 51 12 3c
       0.029494982 0.01741505 0.025828289 0.008930578
000040 b9 b7 cd 3b 14 51 24 3c 9d b1 82 3c 70 78 48 bc
       0.006278005 0.010029096 0.015953833 -0.012235746
000050 1b f9 98 3b 20 1b 96 3c 63 f3 39 3c 5a 88 8c 3b
       0.0046683676 0.018323481 0.011349532 0.0042887153
000060 4c 21 2c 3c 87 03 d1 3b bf dd f5 3b 91 71 ba 3b
       0.0105059855 0.0063785943 0.007503241 0.0056898077
000070 6a 54 5a 3c 7e 1c fc 3a d1 43 7e 3c 31 9c 02 3c
       0.01332579 0.0019234566 0.015519098 0.007971809
000080 78 d3 d3 3c c5 43 e8 bc b0 3b c2 3b 7c be 7e bc
       0.025857672 -0.028352628 0.0059275255 -0.015548345
000090 c6 49 ad 39 ca c1 c0 3a b7 36 9e 3c 2b d4 bd 3c
       0.00033052097 0.0014706191 0.0193132 0.023172459
0000a0 7e 60 d6 3c 25 e4 01 bc 92 6d 89 3d 0b 5e f3 bc
       0.026169058 -0.007927929 0.06710352 -0.02970793
0000b0 06 bd 07 3c ca ce 9e 3b 62 51 ec 3c eb 9d 7a 3d
       0.008284813 0.0048464285 0.0288474 0.06118576
0000c0 24 34 49 bb 1b 8d 1b 3b 00 2b ef 3c 81 6e db 3b
       -0.0030701244 0.0023735228 0.029195309 0.0066965227
0000d0 0f ce 46 3c 4d 47 b5 bc 87 6c c4 3c 1e 1e 82 3c
       0.012134089 -0.022128725 0.023977531 0.015883502
0000e0 ce b8 f7 bb ca a0 fc 3c af d9 25 bc c5 41 ac 3b
       -0.007559872 0.030838389 -0.010122701 0.005256864
0000f0 99 79 84 bb 43 5f 9f 3c 2e e6 d9 3c f6 a9 a3 bb
       -0.004042816 0.019454604 0.026599016 -0.004994626
000100 4a 43 ea bb ba a9 12 3c 62 1f 4b 3c d4 59 f3 3c
       -0.0071491348 0.008951599 0.012397619 0.02970592
000110 88 f5 b9 3c a5 8e 02 bc 97 e1 c1 bc 0c 96 e6 3c
       0.022700086 -0.007968579 -0.02366714 0.02814772
000120 f9 60 ad 3c 3d 0c 9d 3b c6 40 42 3c 11 f3 b3 bb
       0.021164404 0.0047927187 0.0118562635 -0.0054916223
000130 fc c8 37 bc 95 2e 47 bc 2f d5 0e 3d f1 25 f0 bc
       -0.011217352 -0.012157102 0.034871276 -0.029314967
000140 5e 8c 9a 3a e2 cd 81 3c 40 c1 17 3c 63 46 a8 3c
       0.00117911 0.015845243 0.009262383 0.020541376
000150 ec b0 02 3c 18 6f 02 3d 15 fc 02 3d de 97 f7 3c
       0.007976752 0.03184423 0.031978685 0.030223783
000160 1b 88 e0 ba df b4 40 3c 51 88 3b 3c 20 e1 bd bc
       -0.0017130406 0.011761873 0.011446075 -0.023178637
000170 a8 62 94 3c b2 42 c4 ba a9 b3 e1 3c b8 32 53 3c
       0.01811345 -0.001497349 0.027551489 0.01289051
000180 90 0e 0a 3c 7b 09 a0 3d 60 d7 50 3c ed 8a ed 3b
       0.0084263235 0.07814308 0.012746662 0.0072492273
000190 e9 b1 0f 3c 87 a9 61 bc 79 05 71 3c 14 7c 29 3d
       0.008770444 -0.013773329 0.014710777 0.041378096
0001a0 90 d0 e2 bc 59 f5 92 3b dd 6b 80 bb 8d 40 f5 3b
       -0.027687341 0.004484814 -0.0039191083 0.0074845017
0001b0 b4 50 00 3d be 59 cb 3b 63 f1 d7 3c 08 35 96 3c
       0.031326964 0.0062057665 0.02636022 0.018335834
0001c0 a7 3f a3 3a 02 13 0f bd fd 9a 4b 39 b6 0c ec 3b
       0.0012454883 -0.034930237 0.00019417326 0.0072036637
0001d0 44 1a 0c bc ea 06 a5 3b 72 db 71 bb 84 33 88 3c
       -0.008551184 0.0050362246 -0.0036904481 0.016626127
0001e0 ef e1 68 3d 77 06 ee 3c f3 80 86 3c 40 33 b3 3c
       0.056856092 0.029055817 0.01641891 0.021875024
0001f0 63 77 93 3c e3 c8 b9 3c ca 81 be 39 3b 21 85 3c
       0.018001264 0.022678798 0.00036336324 0.016251197

network_body._body_endoder.seq_layers.2.weight f4 [128, 128]
000000 3c a5 dc bd 63 f8 1e bd 6f db 4e 3c 1a 57 e8 bc
       -0.107737035 -0.0388111 0.012625559 -0.028361846
000010 e8 f3 8d 3c 4b b5 f5 3c e5 cd f1 3d 31 91 bc 3d
       0.017328218 0.029993674 0.118068494 0.092073806
000020 dd b2 f6 3d 54 87 e4 3d 09 ec e7 bd 95 47 1d 3e
       0.12045834 0.11158624 -0.11324317 0.15359338
000030 20 82 e2 bc e2 8c 2b 3d 28 96 46 3c d5 b7 af 3d
       -0.027649939 0.041882403 0.012120761 0.08579985
000040 9a bd b2 bb 3c 2e 62 bc c4 90 79 3d a3 2d 07 bd
       -0.005454731 -0.013804968 0.060929075 -0.033002507
000050 0e de 87 3d d5 1d 09 3e e4 7c d9 bd 12 5a c9 3d
       0.066341504 0.13390286 -0.10619524 0.09831633
000060 02 84 a6 3d 3d f2 6e 3d 80 77 e4 bd b1 c0 01 3d
       0.08130647 0.058336485 -0.11155605 0.031677905
000070 fe ce 2b bb 0e 98 73 bd 6c 26 11 3e 1e d9 50 bd
       -0.0026215906 -0.059471183 0.14174813 -0.05098831
000080 dd da a7 bd f2 c2 77 3d b7 ca 31 be 4e 77 ef bd
       -0.08196042 0.06048865 -0.17362486 -0.116926774
000090 6a a5 df bd 7c 08 1c be 42 c5 b6 3c 84 ff af 3c
       -0.10920222 -0.15237612 0.022310857 0.021484144
0000a0 fe 1b 45 bc e1 76 70 bd bb 7a f1 3c 4f 0d a1 bc
       -0.0120306 -0.05870712 0.029477468 -0.019659666
0000b0 8a 70 44 3e f5 47 24 3e 7e 76 ee 3c 5d f3 72 3e
       0.19183555 0.16043074 0.029109236 0.23725648
0000c0 d7 20 c9 3d c1 df ec 3d bb 9f 39 be 8d e5 84 bd
       0.09820717 0.11566115 -0.18127339 -0.06489096
0000d0 e1 81 24 be 42 54 be bd 75 d4 ed 3d 22 cc 33 3b
       -0.1606517 -0.09293415 0.116127886 0.0027434905
0000e0 4a 50 4e be ae 62 e0 bd d9 2c 3e 3d 83 46 bf 3c
       -0.20147815 -0.10956322 0.04642949 0.023349052
0000f0 99 a1 20 bd d9 39 04 3e aa b5 09 bd 44 dd e4 3c
       -0.03921661 0.12912692 -0.033620514 0.027937539
000100 97 1a a0 bd c6 77 a3 bc e4 44 ba bb 23 5f 60 bb
       -0.078175716 -0.019954573 -0.005684482 -0.0034236393
000110 eb e3 e0 3d d2 5d b6 39 42 56 94 bc b8 38 0f 3e
       0.10980972 0.00034783647 -0.018107537 0.1398648
000120 7b 42 ad 3d 2d 54 1a be f6 ab 10 3e b2 1a 5d 3a
       0.08459946 -0.15071173 0.14128098 0.0008434459
000130 80 17 75 bc 83 2f e7 3d 9f d1 5d 3c 30 02 9a 3d
       -0.014959216 0.11288359 0.013538747 0.075199485
000140 02 20 da bd cf a8 b3 3d 29 fc ca bc 7d 01 57 bd
       -0.10650636 0.08772432 -0.024778442 -0.052491654
000150 e8 03 ec 3d 2b 04 52 3c da 94 d9 3d f3 18 07 3e
       0.115241826 0.0128183765 0.10624094 0.13193111
000160 a8 ab 4b bc 6d 2a a6 3d f2 bb c3 bd 22 6e 3e 3d
       -0.012431063 0.08113561 -0.09557332 0.04649175
000170 b5 13 30 be 5b 70 ab 3d 4b b7 ab 3d 08 62 e8 3d
       -0.17195018 0.083710395 0.0838457 0.11346823
000180 22 06 21 3c c8 de 5c 3d 2c a2 f9 3c 65 8a 3e 3d
       0.009828122 0.0539234 0.030472837 0.046518702
000190 78 10 2c 3d 1a ae eb 3d 9d 10 d8 bd 12 0c 72 3d
       0.042007893 0.115078166 -0.10550044 0.059093542
0001a0 d7 98 0c be 73 42 9c 3d bd 0f 0d be 2d 65 c1 3d
       -0.13730179 0.07629862 -0.13775535 0.09443126
0001b0 7b a2 d1 bc f5 de e2 bd b1 7e 26 bd 1d fd f0 bc
       -0.025590172 -0.11077682 -0.040648166 -0.029417569
0001c0 3a 51 f0 bc 73 d3 ad bc c3 00 67 be f9 fd 07 3e
       -0.029335607 -0.02121899 -0.22558884 0.13280477
0001d0 76 0d c3 bc 8c 95 f1 3c e6 ef 1d be d0 5c 85 bd
       -0.02381013 0.029490255 -0.15423545 -0.06511843
0001e0 7b a3 29 3e f1 56 27 bc eb f3 89 bd 00 33 00 bd
       0.16566269 -0.0102136 -0.06735977 -0.031298637
0001f0 89 61 9d 3d 53 7b 65 3d fd 40 eb bd d7 71 4a 3d
       0.07684619 0.056025814 -0.11487005 0.049424972
000200 81 02 38 3d 9b 5d da 3b 15 a7 43 3e 10 91 31 3d
       0.044924263 0.0066639907 0.19106705 0.043351233
000210 e9 29 ab 3d 03 7f 02 be 9d 41 be 3c 19 bb 09 3d
       0.08357603 -0.12743764 0.023224646 0.033625696
000220 8c bf 2f ba 19 8f 34 be 44 18 d2 3d dc f6 0d bd
       -0.0006704263 -0.17632712 0.102585346 -0.03465925
000230 32 c7 0f bd 7c c3 9e bd 55 fb ef bd 72 2f 13 3d
       -0.035102077 -0.077521294 -0.1171786 0.03593392
000240 c7 cd f8 3d e8 db 02 be ac cf c0 3d fb c1 53 3c
       0.12148624 -0.127792 0.0941461 0.0129246665
000250 d3 a5 ad bd 1b af 01 bb e6 89 80 bd da 6e 97 bc
       -0.08478894 -0.001978821 -0.06276302 -0.018485475
000260 7e 48 ee 3c c4 52 74 be 17 51 1e 3d 0d 57 af bd
       0.029087301 -0.23859698 0.038651552 -0.085615255
000270 6e 8c f8 bd b7 76 d2 3d 76 8f 96 bc a2 7f 46 3c
       -0.1213616 0.10276549 -0.018378954 0.012115391
000280 b7 01 3d 3e 8a a9 55 bd 1b 82 ae 3d b2 2b 58 be
       0.18457685 -0.05216364 0.085209094 -0.21110418
000290 af f2 d3 3d 2c 1d d9 3c 9b 57 0d bc 82 7b c4 3d
       0.103490226 0.026503168 -0.008626844 0.0959387
0002a0 4d fd 73 bd 10 a8 81 be 06 a8 46 3d e2 71 8b 3c
       -0.05956774 -0.25323534 0.048500083 0.017022077
0002b0 91 fb b8 bd bf f0 0e be 38 09 85 bd 91 b2 1a be
       -0.090323575 -0.13959025 -0.06495899 -0.1510718
0002c0 d2 a1 3f 3d 86 eb 38 3d 80 76 26 bd 44 0d a5 bd
       0.046785183 0.045146488 -0.040640354 -0.08059171
0002d0 2c 3c 0a bd f4 ec 9f 3d 75 c4 a7 bc 1c 0b 3e bd
       -0.03374879 0.07808867 -0.02047942 -0.046397313
0002e0 31 b6 54 bd 38 31 75 3c 1f ef 26 3d df 3d ab bd
       -0.051931564 0.014965348 0.040755387 -0.0836141
0002f0 5e 81 b8 3d fd 42 14 bd 0f aa ca bc 4d e0 8e bd
       0.0900905 -0.036196698 -0.024739293 -0.06976376
000300 83 0f cf 3d 68 95 a4 3d d8 65 fb 3d 6a 82 fd bc
       0.101103805 0.080363095 0.122752845 -0.030945975
000310 4f 30 8d 3b 60 eb 7f bd 1c f7 3c 3d cf 60 b5 bc
       0.0043087373 -0.06248033 0.0461341 -0.022140888
000320 5d 32 83 3b d5 7a d2 3c 87 b2 15 bd f9 8f 53 bc
       0.0040038065 0.025693337 -0.03654721 -0.012912744
000330 bc 40 3f bc 41 86 49 be be d8 58 bd 2e ae 10 3e
       -0.011673149 -0.1968012 -0.052941076 0.14128944
000340 85 87 35 3e 16 b4 1e 3d 7d 92 13 3d 1c 35 30 3e
       0.17727478 0.038745962 0.036028374 0.1720776
000350 e0 ae 21 3e 73 51 40 3d b3 2a d0 3d a0 c5 3e be
       0.15789366 0.046952676 0.10164394 -0.18630075
000360 c4 d3 e0 3d 73 49 be 3c 39 8f ee 3d 30 f0 fd 3d
       0.10977891 0.023228383 0.11648411 0.12399328
000370 39 ad 4b be 0a e4 2a 3e cd ac 0b 3d 8d c1 c4 3c
       -0.19890298 0.16688552 0.034100343 0.024018073
000380 0f 42 d4 bd de 43 7c bd fb d6 4d ba 9e 86 34 bd
       -0.10364162 -0.06158816 -0.0007852164 -0.044073693
000390 4c bc 2a bd 9b c2 83 be fb 40 52 3d f1 60 f8 bd
       -0.04168348 -0.2573441 0.0513315 -0.12127865
0003a0 85 38 4b 3d 6a 24 34 be 44 a8 4a bd 04 99 3b 3e
       0.049614448 -0.17592016 -0.049476877 0.1832009
0003b0 53 f2 a9 3d 90 9b 63 be 20 c8 ac bd 7d 2e 66 bc
       0.08298173 -0.22227311 -0.08436608 -0.01404917
0003c0 60 2d 93 bd 9b ba a9 3d a3 64 2c 3e 84 b5 b2 bd
       -0.07186389 0.08287545 0.16835265 -0.087260276
0003d0 12 f6 05 be 54 64 a3 bd 8e f4 ab 3d 51 8f 86 bd
       -0.1308215 -0.079781204 0.083962545 -0.06570304
0003e0 7b 63 77 be 7c 25 0b be 3f 16 f9 bc 78 5c e2 3d
       -0.24159043 -0.13588518 -0.030406116 0.11052793
0003f0 c2 f3 2a be fc f2 ee bd 17 a6 d6 3d 89 16 68 bd
       -0.16694549 -0.11667439 0.10480898 -0.056662116

network_body._body_endoder.seq_layers.2.bias f4 [128]
000000 b9 0d f0 3c 7b b3 13 3c 61 0e 68 3c 64 c2 b6 3b
       0.029303418 0.009014959 0.014163584 0.0055773724
000010 9c 9c b7 3c bc 6a 39 3c f5 f5 99 3a 46 84 14 3c
       0.022413544 0.011316951 0.0011746275 0.00906474
000020 bb 74 f0 3b b6 9f d8 3c a8 37 e9 bb d5 f9 b9 3b
       0.007338134 0.026443344 -0.0071172304 0.0056755343
000030 4f 0d b7 3c aa 13 0d 3c 2b bf f8 b8 69 99 b3 3c
       0.022345213 0.008610645 -0.00011861169 0.021923738
000040 5e 2d 13 3d e0 9b e5 3c 00 bf 35 3d 9d 51 3c 3b
       0.035931937 0.028028429 0.044371605 0.0028735169
000050 45 67 d9 3b c2 01 0c 3d ca e8 f6 3c 4e 76 52 3c
       0.006634625 0.034181364 0.0301403 0.012845589
000060 78 62 e1 3c 28 98 de 3c 5f 7a 86 3c f3 ee 23 3b
       0.027512774 0.027172163 0.016415773 0.002501425
000070 2e 07 59 3c 35 8d b7 3c c7 f1 c4 3c 37 eb 74 3c
       0.013246341 0.0224062 0.02404107 0.014948658
000080 d5 80 cb 3c ff b6 f0 3c 5b 35 07 3d 56 0d c5 3c
       0.024841705 0.029384134 0.033009868 0.02405421
000090 49 96 ad 3c be 49 98 3c 2a 76 15 3c c4 93 5f 3c
       0.021189826 0.01858985 0.009122411 0.01364607
0000a0 e5 c4 ba b9 ad 87 8e 3c d5 0a 84 bc 93 53 86 3c
       -0.00035623382 0.01739868 -0.016118446 0.016397273
0000b0 49 b3 21 3d 7a ff 4d 3c 4a 24 b0 3c 3c 50 70 3c
       0.03947762 0.012573117 0.021501679 0.014667567
0000c0 0b a2 c8 3b 03 34 cb 3c 98 36 b2 3c c5 95 f0 3c
       0.0061228327 0.024805075 0.021754548 0.02936829
0000d0 1d 2c 53 3c d3 e3 60 3c 51 45 12 3d f3 39 d2 3c
       0.012888935 0.0137261925 0.035710637 0.025662398
0000e0 cb 76 b8 b9 ba 63 ca 3b 56 38 35 3b 39 8d 98 bb
       -0.00035183723 0.006176439 0.0027651987 -0.004655507
0000f0 c2 94 dd 3c f1 89 d2 3c 0f 52 4c 3d f4 39 a0 3c
       0.027048472 0.025700541 0.049882945 0.019558884
000100 2b 50 c3 3c 56 4d 92 3c df 91 d8 3c ab 9d 48 3c
       0.023841938 0.017859142 0.026436744 0.012244622
000110 9a d0 87 3c 57 0f d8 3c 6f 9d ee 3c c1 2a a4 bc
       0.016578961 0.026374502 0.029127805 -0.020039918
000120 f7 e4 5f 3c 33 f8 ea 3b b6 05 a6 3c 3d e2 d5 3c
       0.013665429 0.007170701 0.020266395 0.026108855
000130 16 fc 28 3c 64 46 e6 bc 50 df b3 3b cf f2 9d 3c
       0.010314008 -0.028109737 0.0054892674 0.01928082
000140 5b 14 8e 3c 76 9b af 3b f7 6a 99 3c e2 c3 06 3d
       0.01734369 0.0053591086 0.018727763 0.032901652
000150 ce ca 8c 3c a8 e1 cf 3c 64 77 57 3c cc cb d5 3c
       0.017186549 0.025376156 0.013151024 0.026098154
000160 13 d5 f1 3c 52 ac 1c 3d 11 d9 22 3d 81 11 16 3d
       0.029520547 0.038250275 0.039757792 0.036637787
000170 74 34 92 bb 0b 01 77 3c d6 c2 30 bc 0f 20 91 3b
       -0.0044618193 0.015075932 -0.01078864 0.0044288705
000180 81 c1 dd 3c 11 5c 25 3a ab ca 81 3b 18 e8 a3 3c
       0.027069809 0.00063079695 0.0039609275 0.020008132
000190 fc ce f8 3b 33 96 33 3a 03 62 57 3c 68 17 7c 3c
       0.007593034 0.00068506895 0.013145926 0.01538644
0001a0 6e bb a9 3b 28 bb 95 3c c3 43 89 3c 41 97 14 3d
       0.005179814 0.01827772 0.016755944 0.03627706
0001b0 f9 8c 0d 3d 7b ae d0 3c 07 c3 64 3c 09 98 16 3d
       0.03455827 0.025473824 0.013962514 0.036766086
0001c0 6a 43 cf 3c 3c bd 48 3c 23 44 82 3c 29 99 da 3c
       0.0253007 0.012252148 0.01590163 0.02668436
0001d0 89 d8 c1 3c a4 78 4e 3c 98 75 2b 3d b8 84 a5 3c
       0.023662822 0.012602005 0.041860193 0.020204887
0001e0 18 88 24 3d 25 b8 4b 3c ce 28 84 3c 16 1a 4b 3a
       0.04016885 0.01243404 0.016132738 0.00077477226
0001f0 3b 28 68 3c e1 8c ca 3c e6 b4 2b 3d d4 8f 95 3c
       0.014169748 0.02472538 0.041920565 0.01825706

action_model._continuous_distribution.mu.weight f4 [1, 128]
000000 95 81 64 3d 5f ea 9a bd dc 0d 07 be f2 81 3b bd
       0.05578764 -0.07564234 -0.1318888 -0.045778222
000010 e8 84 d7 bd 10 3c b3 bd 35 86 41 3c f8 3a 3c 3d
       -0.10523397 -0.087516904 0.011811783 0.045954674
000020 21 70 0b 3d 0f e0 de 3d f7 7d 90 3c aa 05 7b bd
       0.03404248 0.108825795 0.01763819 -0.0612847
000030 26 ca f4 3d fc 05 f9 3c 0d 3e 85 bd 72 38 ab 3d
       0.11952619 0.030398361 -0.06505976 0.083603755
000040 b3 ac ee 3d dd 1e 73 3d ea 89 9b 3d fd fd 0a 3c
       0.116540335 0.059355605 0.075946644 0.008483407
000050 73 70 81 bd 4b c4 a5 3d e4 62 9d 3d 53 d9 72 3d
       -0.06320276 0.080940805 0.076848775 0.059289288
000060 44 18 cf bd 16 1a dd 3d c3 ed 39 3d ce e9 9e bd
       -0.1011205 0.10795991 0.045392763 -0.077594385
000070 3b 9a 95 bd cc 33 cb bd 57 a4 c9 3d f8 bb 34 3d
       -0.07304808 -0.09921989 0.098457985 0.044124573
000080 7f 4f eb bd 82 3b 81 3d 9e 24 0b be 88 c7 99 3d
       -0.11489772 0.06310178 -0.13588187 0.07508761
000090 e2 12 60 3d 87 42 db bd 8c 26 b7 bd 77 fc 80 bd
       0.054705508 -0.107060485 -0.08942899 -0.06298154
0000a0 cc ac 3e bd af e7 e1 bd 1f a5 a9 bb 61 d3 d4 bd
       -0.04655151 -0.11030518 -0.0051771547 -0.1039188
0000b0 d0 b2 e7 3d 38 09 e0 bd 16 09 9c 3d a8 d8 f8 bd
       0.11313403 -0.10939258 0.076189205 -0.12150699
0000c0 8d 7b 72 bd 5b 19 d8 bd f8 ac e9 bd 53 de 88 3d
       -0.05919986 -0.10551711 -0.11409944 0.0668303
0000d0 00 c7 88 bd 51 cd b7 bd 05 a8 10 3e c5 e6 cb bd
       -0.06678581 -0.08974708 0.14126594 -0.09956125
0000e0 eb 98 c3 3b ce 91 97 bd 07 69 80 bd c8 5a 23 bd
       0.005969157 -0.07400857 -0.062700324 -0.039881498
0000f0 8d 2f 20 be 14 4f f3 bd ae e0 f5 3d 3d a1 00 be
       -0.15643139 -0.11880317 0.12005745 -0.12561508
000100 94 4a b3 bd 87 ad 90 bd de 03 ac 3d 63 14 a3 bd
       -0.08754459 -0.07064348 0.08399175 -0.07962873
000110 75 56 94 bd 61 5f 91 3d 9b f1 b9 3d 64 12 cd 3b
       -0.07243053 0.0709827 0.09079286 0.006258296
000120 3e fe 88 bd ed 9e aa bd 89 83 06 be c0 b3 ca 3d
       -0.06689118 -0.08331094 -0.13136114 0.09897566
000130 22 96 c3 bd be 6c 5c bc cb 60 bc bd af 3d ba bd
       -0.0955012 -0.0134536605 -0.09198149 -0.090937965
000140 30 2a ab 3d 09 c2 bf 3c f6 f9 45 3d b0 c7 ca 3d
       0.08357656 0.023407953 0.048334084 0.099013686
000150 5a 3b ed 3c b7 58 94 3d 8e 02 93 bd dc 32 d0 3d
       0.028958965 0.072434835 -0.07178222 0.10165951
000160 7a 2b b0 3d 98 ad b8 3d 81 24 b1 3d 3f f7 c8 3d
       0.086020425 0.090174854 0.08649541 0.098127834
000170 ae a0 61 bc ac b6 64 3d ff 0c b5 bc 6f 07 38 bd
       -0.013771219 0.055838272 -0.022100924 -0.044928964
000180 46 e7 c0 bd 83 a9 33 bd 9f 18 b7 bd 68 88 c1 bd
       -0.09419112 -0.04386283 -0.08940243 -0.094498456
000190 ce 1c 99 bd 63 4b 9a 3c 7a 66 8a 3d 46 a9 94 bd
       -0.07476197 0.018834775 0.06757827 -0.07258849
0001a0 09 25 29 3d 96 38 97 3d 2e 04 9f 3d 33 4c d8 bd
       0.041295085 0.0738384 0.07764469 -0.10561409
0001b0 e9 87 01 3e d6 96 f0 bd be eb 01 be c8 1a e4 3d
       0.12649502 -0.1174752 -0.12687585 0.111379206
0001c0 36 db b2 3d 08 d6 97 bd 13 b3 d3 bd 32 d7 d3 3d
       0.087332174 -0.0741387 -0.1033689 0.103437796
0001d0 28 cc 91 3d 1b 2b 06 3d d1 c3 c8 3d c2 a9 9c 3d
       0.07119018 0.032755952 0.09802974 0.07649566
0001e0 0d 92 01 3e c2 1b b9 bd 28 51 6b 3d c2 7e 84 bd
       0.1265337 -0.090384975 0.057450444 -0.0646949
0001f0 94 53 9a bd 15 c4 8e 3d 44 52 01 3e 7b 19 f2 bd
       -0.075354725 0.069709934 0.12629038 -0.11821266

exp_avg f4 [128, 111]
000000 35 e5 87 39 cd d1 74 ba 66 5a 69 ba 04 00 00 00
       0.0002591998 -0.0009339124 -0.0008901715 6e-45
000010 8e 9a 26 ba d6 76 a9 ba fd e8 da bb b3 30 16 bc
       -0.0006355428 -0.0012929093 -0.0066806064 -0.009166884
000020 37 63 93 ba ef 85 e3 ba 3f 4b 6a 37 04 00 00 80
       -0.0011244778 -0.0017358641 1.39650065e-05 -6e-45
000030 72 78 a4 b8 2a a7 dd ba 67 20 b6 bb 91 c3 03 bc
       -7.842564e-05 -0.0016910781 -0.005558062 -0.008042232
000040 97 7f 8c b9 10 9c 0b ba de d7 cf 39 04 00 00 80
       -0.00026797943 -0.00053256843 0.0003964295 -6e-45
000050 ea 36 e3 38 38 bf 0e bb 79 50 fc bb 8c d2 16 bc
       0.00010834432 -0.0021781456 -0.007700023 -0.009205472
000060 a6 52 55 bb 8f 3f 06 b9 80 9c 83 37 00 00 00 00
       -0.0032550483 -0.00012802913 1.5689293e-05 0.0
000070 af f1 02 b7 99 55 14 ba 56 3d cc bb a6 19 06 bc
       -7.804875e-06 -0.0005658507 -0.0062328978 -0.008184826
000080 db de ef ba a0 e5 67 ba e8 3c 49 3a 04 00 00 00
       -0.0018300669 -0.00088461675 0.0007676617 6e-45
000090 6a 9b b7 b9 d5 95 3d ba f5 67 ea bb 5f 68 0e bc
       -0.00035020272 -0.00072321045 -0.007153506 -0.008691876
0000a0 8b 7d 4e bb 2f a3 bc b9 da 5d 83 b6 04 00 00 80
       -0.0031507935 -0.00035979736 -3.91503e-06 -6e-45
0000b0 d1 4b 55 37 b7 eb 5e ba 94 c4 be bb 3f bf e1 bb
       1.2713442e-05 -0.0008503752 -0.005821774 -0.0068892534
0000c0 52 1d 01 bb 54 f0 70 ba a0 6c d4 ba 04 00 00 00
       -0.0019701314 -0.0009191085 -0.0016206689 6e-45
0000d0 c8 8f 23 38 8d 06 2a b9 47 90 b5 bb b4 e1 03 bc
       3.8996135e-05 -0.00016214904 -0.005540881 -0.008049417
0000e0 fd 7d 28 bb 1a d5 7a b9 a2 fb f2 b7 00 00 00 00
       -0.002570986 -0.00023921244 -2.8965824e-05 0.0
0000f0 c0 9e 9a b8 39 d8 04 ba 10 53 dd bb 46 cc 03 bc
       -7.372862e-05 -0.000506762 -0.0067542866 -0.008044308
000100 ce 2c d3 ba 66 0d a8 ba e9 70 ac ba 04 00 00 80
       -0.0016111375 -0.0012821376 -0.0013156208 -6e-45
000110 a2 1b ee 37 1f f9 66 b9 c1 2c bd bb 90 9a fd bb
       2.8384678e-05 -0.00022027314 -0.0057731573 -0.0077393726
000120 fc d1 d5 ba 47 1c 9e b9 55 fe a8 b7 04 00 00 80
       -0.001631319 -0.00030157177 -2.0145593e-05 -6e-45
000130 16 1b c8 37 be ea d8 b9 b2 4d 00 bc 33 2e 07 bc
       2.385447e-05 -0.00041373627 -0.007831024 -0.008250761
000140 02 59 07 bb 07 a7 97 ba 26 31 29 3a 04 00 00 80
       -0.0020652418 -0.0011570164 0.0006454162 -6e-45
000150 c5 6c 0a 38 57 d3 2e b9 59 8f f4 bb 22 04 11 bc
       3.3003063e-05 -0.00016672663 -0.0074633774 -0.008851083
000160 82 72 89 b9 2b 5f 70 b9 3d b8 f6 b6 04 00 00 80
       -0.0002621599 -0.00022923636 -7.3528195e-06 -6e-45
000170 bf 5e 2f 37 1d 0e a0 b9 1a b0 19 bc a5 7c 17 bc
       1.0452873e-05 -0.00030528093 -0.009380365 -0.009246026
000180 d6 6b c4 ba 86 8a e8 b9 22 5f 62 bb 04 00 00 00
       -0.0014985751 -0.00044353696 -0.0034541567 6e-45
000190 cf 50 73 36 42 77 83 b9 fd 74 94 bb 86 f9 b8 bb
       3.6256858e-06 -0.0002507512 -0.0045305477 -0.00564498
0001a0 8d f8 ac 38 f0 eb a2 38 2d fb 72 b9 ef 0d 74 bc
       8.247895e-05 7.768709e-05 -0.00023172489 -0.0148959
0001b0 13 e8 ab b8 bc ca f3 bc 0b d3 2e ba 44 76 ba ba
       -8.1971426e-05 -0.029759757 -0.0006669021 -0.001422592
0001c0 7a d6 ba 39 95 2a 4a 39 04 00 00 80 ba 83 9f 3a
       0.00035636482 0.00019280084 -6e-45 0.0012169995
0001d0 c8 ab 52 b9 e5 bb d1 3b 4c 2b e9 3b d8 33 6d 3a
       -0.00020091154 0.0064005726 0.007115757 0.0009048558
0001e0 9b 35 dc 3a 8f 7e 61 b9 04 00 00 00 97 b0 54 ba
       0.0016800644 -0.00021504819 6e-45 -0.0008113472
0001f0 b0 9e 5b 3a ee e2 87 3b c9 86 b9 3b 42 5e 1a ba
       0.00083778333 0.004146925 0.0056618196 -0.00058886793
000200 e8 51 90 b9 5e 64 04 ba 04 00 00 00 84 8b 14 b9
       -0.00027526845 -0.0005050356 6e-45 -0.00014166354
000210 9b 09 88 3a 08 e8 e5 3b 94 4c e8 3b 77 0a 85 3b
       0.0010378839 0.0070161857 0.007089207 0.0040600854
000220 e2 4f ed b7 da 9d ed b5 00 00 00 00 cd c5 92 38
       -2.82898e-05 -1.7703817e-06 0.0 6.998666e-05
000230 bf ac 22 bb 9b 65 a1 3b cb 7a ba 3b 6f de 5a 3a
       -0.0024822203 0.0049254424 0.0056909076 0.0008349185
000240 89 d3 83 3a ba 22 8a ba 04 00 00 00 f1 8d 44 3a
       0.0010057549 -0.0010538914 6e-45 0.00074979576
000250 63 c3 08 bb 96 70 e8 3b ea 8f e8 3b 0a d4 53 3b
       -0.0020868413 0.0070934994 0.007097234 0.003232243
000260 dc d2 5a b8 57 28 d3 37 04 00 00 00 d8 ff 7c 39
       -5.217163e-05 2.5171945e-05 6e-45 0.00024127902
000270 96 2d 31 bb ea 0f be 3b 22 6e bb 3b be 18 c0 3a
       -0.0027035228 0.005800237 0.005719916 0.0014655811
000280 d9 42 3c b9 72 6c f0 3a 04 00 00 80 11 7d 24 3a
       -0.0001795398 0.0018342866 -6e-45 0.000627474
000290 2a f8 25 bb dd 95 ae 3b 08 27 e5 3b 13 be 46 3b
       -0.002532492 0.0053279237 0.0069931783 0.0030325695
0002a0 d3 a3 8a ba 32 cb 83 37 00 00 00 00 2c 72 1b ba
       -0.0010577388 1.5711037e-05 0.0 -0.00059297937
0002b0 c4 16 d4 ba b7 a2 dd 3b 1c 80 d9 3b b0 a2 fd 3a
       -0.0016181101 0.006763782 0.0066375863 0.0019350853
0002c0 58 37 c7 37 e9 75 e8 3a 04 00 00 00 4e 9e 17 38
       2.374842e-05 0.0017735335 6e-45 3.6148638e-05
0002d0 f3 72 44 bb 83 25 bd 3b 9b 86 f9 3b eb 4f 22 3b
       -0.0029975742 0.005772294 0.007614923 0.0024766873
0002e0 5a 0e 31 3a 69 40 9a 37 04 00 00 00 1b 69 8e 39
       0.0006754153 1.8388224e-05 6e-45 0.0002716266
0002f0 d3 ea 22 bb 79 13 b7 3b 30 1a b2 3b 85 59 28 3b
       -0.0024859204 0.005587038 0.0054352507 0.0025688123
000300 b8 e3 2b 3a 31 cc 31 ba 04 00 00 80 aa ff 44 39
       0.0006557065 -0.0006782441 -6e-45 0.00018787259
000310 71 3c 50 bb 2b ef e4 3b 1c 2b 05 3c c5 77 82 3a
       -0.0031774307 0.006986519 0.008127954 0.0009953907
000320 28 4f 4b 3a 28 92 e8 36 04 00 00 80 af 9f ac 38
       0.00077556306 6.9311536e-06 -6e-45 8.2313425e-05
000330 f1 4c 1e bb a4 9a e8 3b 47 db d2 3b ce fa 4c 3a
       -0.0024154747 0.0070985127 0.0064348313 0.0007819355
000340 8f 3b 34 b8 e0 0b 68 3b 04 00 00 80 c4 f2 2b 38
       -4.2970813e-05 0.0035407469 -6e-45 4.099567e-05
000350 b2 29 1e bb c3 e8 97 3b 97 be a6 3b 88 3a 69 b8
       -0.002413374 0.0046359017 0.005088638 -5.560604e-05
000360 e0 9e 92 b8 0f 6d 07 b8 31 22 e4 3b db 19 61 38
       -6.991415e-05 -3.2288077e-05 0.0069620837 5.366826e-05
000370 19 08 27 3c 48 45 12 38 dd b6 cc 38 24 09 17 39
       0.010194802 3.4873636e-05 9.761539e-05 0.00014403887
000380 da 54 0b 3a 04 00 00 80 68 ab 61 3a 79 88 6f 38
       0.0005315073 -6e-45 0.00086086104 5.710914e-05
000390 ff aa a1 3b 06 c1 c4 3b 7f f3 9a 3a 31 85 2d 3a
       0.0049337144 0.0060044555 0.0011821835 0.00066192733
0003a0 aa b1 9d b8 04 00 00 00 9a 7a a7 b9 b8 4c 68 3a
       -7.519436e-05 6e-45 -0.00031944067 0.00088615296
0003b0 8e 8c 8c 3b e7 82 b7 3b b3 df 23 3a d1 54 1e 39
       0.0042892164 0.0056003216 0.00062512903 0.00015099651
0003c0 a3 1a 4d 39 04 00 00 80 30 02 c4 b8 0a f5 81 3a
       0.00019560246 -6e-45 -9.346416e-05 0.0009914946
0003d0 8f d0 9b 3b 08 79 cb 3b e4 dc 52 3b 25 6c 35 b9
       0.0047550867 0.0062094964 0.0032175118 -0.00017301792
0003e0 d1 9c 68 36 00 00 00 00 79 83 82 b6 6c 2c 0b ba
       3.4661973e-06 0.0 -3.8896073e-06 -0.00053090486
0003f0 43 bb 86 3b 35 60 b3 3b ac 2d 5f 3a 43 69 3f 3a
       0.004111679 0.0054741153 0.00085135805 0.0007301757

exp_avg_sq f4 [128, 111]
000000 28 83 2a 38 92 ef ad 37 b7 30 03 37 cb 97 15 27
       4.0653307e-05 2.0734766e-05 7.819551e-06 2.076019e-15
000010 21 6f 29 36 8e 15 1a 39 10 b4 2e 39 4d b9 dd 39
       2.5247648e-06 0.00014694614 0.00016661012 0.00042290465
000020 a4 d9 26 38 ab 0c 51 37 ef 69 17 36 88 f3 73 28
       3.9780178e-05 1.246032e-05 2.2562415e-06 1.3542017e-14
000030 35 53 a2 33 1e a0 72 38 46 7c a4 39 17 c4 f3 39
       7.558848e-08 5.7846417e-05 0.00031373109 0.0004649467
000040 79 ff b1 37 02 39 75 37 ee e2 c5 36 93 fb 4b 29
       2.1219008e-05 1.4616411e-05 5.8974756e-06 4.529326e-14
000050 be 76 9e 36 0e 2b db 38 ed c2 89 39 44 cd f5 39
       4.7225903e-06 0.00010450753 0.00026275907 0.00046882976
000060 2f f5 71 38 76 ca 69 37 65 f1 dd 32 00 00 00 00
       5.7687223e-05 1.3935021e-05 2.583756e-08 0.0
000070 c9 f8 a2 33 ba 99 7b 37 5c c7 c3 39 cb 0a e8 39
       7.5889666e-08 1.4996558e-05 0.00037341833 0.0004425853
000080 3c 66 5b 38 66 bf 6d 37 07 ae 58 37 c0 72 10 28
       5.2308882e-05 1.4170864e-05 1.2915122e-05 8.018488e-15
000090 c6 2d 8b 34 22 c8 92 36 69 bd ca 39 e6 1b ed 39
       2.5924072e-07 4.3744376e-06 0.00038669564 0.0004522495
0000a0 68 ef 83 38 5d 09 35 37 93 ab e9 32 19 11 c7 28
       6.29116e-05 1.0790621e-05 2.7202793e-08 2.2100853e-14
0000b0 37 33 35 33 7a b9 d0 36 5e 67 d2 39 f9 b6 e6 39
       4.2188926e-08 6.2204754e-06 0.00040131336 0.00044005344
0000c0 e6 3d 8b 38 72 aa 7a 37 4c 10 a0 38 76 92 a9 28
       6.639566e-05 1.4940846e-05 7.63243e-05 1.8826286e-14
0000d0 69 5a 20 33 d3 c6 85 35 cd 4b 83 39 5c 46 c8 39
       3.733513e-08 9.967138e-07 0.00025042743 0.00038199394
0000e0 36 7e 3d 38 65 92 4b 37 8f ce 90 32 00 00 00 00
       4.5178655e-05 1.2133828e-05 1.6857738e-08 0.0
0000f0 cc 77 43 33 a8 dd 25 36 06 60 e9 39 b2 0b f6 39
       4.551093e-08 2.4715937e-06 0.00044512766 0.0004692949
000100 08 c1 c3 38 2a 00 64 37 17 06 0f 38 29 09 25 27
       9.3342795e-05 1.3589897e-05 3.409953e-05 2.2903316e-15
000110 42 68 86 32 dd e7 12 36 d3 1f 91 39 32 83 cd 39
       1.5647064e-08 2.1890658e-06 0.00027680266 0.00039198395
000120 d4 14 c3 37 bf bc 1a 37 1c 7f 6f 32 77 5b c5 21
       2.325551e-05 9.223061e-06 1.3940532e-08 1.337345e-18
000130 4e 8a c9 32 db a6 be 35 f6 7e 01 3a ed 52 04 3a
       2.3462373e-08 1.4204664e-06 0.0004939878 0.00050477573
000140 7b 54 92 38 10 81 4f 37 7f 1b 5a 38 b6 80 c6 26
       6.977558e-05 1.2368211e-05 5.2000858e-05 1.3773897e-15
000150 51 3e 48 32 4e 4f 29 37 54 5e 8a 39 eb 44 cb 39
       1.1655701e-08 1.00916495e-05 0.0002639169 0.00038770525
000160 95 bb e9 37 80 5f a7 36 f0 72 1b 32 ff 2a 73 1f
       2.7863114e-05 4.9881055e-06 9.048321e-09 5.1492817e-20
000170 71 bf a0 32 bf b3 90 35 fe 2e 02 3a 42 0c 04 3a
       1.8713509e-08 1.0781149e-06 0.0004966109 0.0005037227
000180 21 7c 52 37 ab 7c 2c 37 8d a0 89 38 1d ad 01 24
       1.2545876e-05 1.0281025e-05 6.562574e-05 2.811905e-17
000190 d6 3e fd 31 cd 18 b4 35 84 b2 c4 39 ec c9 d3 39
       7.3704127e-09 1.3418263e-06 0.00037517038 0.000403955
0001a0 7a 33 16 38 5e 11 9a 35 a9 f6 98 37 dc 0a 92 3a
       3.5810728e-05 1.1478949e-06 1.8234672e-05 0.0011142152
0001b0 83 03 6b 34 cb d8 b1 3b 09 c5 86 37 ea 11 3f 39
       2.1887358e-07 0.005427455 1.6065796e-05 0.00018221853
0001c0 ed 4a b9 37 15 bc c6 36 c1 57 35 27 54 d5 62 37
       2.2088609e-05 5.9227555e-06 2.5166367e-15 1.3520319e-05
0001d0 e9 5f 6f 39 b8 2c 29 39 fa fc 17 3a e0 22 04 39
       0.00022828545 0.00016133755 0.00057978893 0.00012601493
0001e0 ba 77 a6 37 14 75 9c 35 f1 aa af 2a 1b 32 1d 37
       1.9844494e-05 1.165698e-06 3.120486e-13 9.369595e-06
0001f0 b6 91 46 39 fa 5b 90 39 21 0b 1c 3a c2 6d 21 39
       0.00018937033 0.00027534348 0.0005952586 0.00015395044
000200 ee 19 95 37 c7 e3 89 36 1f e7 88 29 22 dc 7d 37
       1.7774259e-05 4.109435e-06 6.0797064e-14 1.5131229e-05
000210 5e 15 d8 38 33 6d b0 39 f7 30 35 3a af be a5 38
       0.000103036626 0.00033650696 0.00069118984 7.903331e-05
000220 51 cf 8f 37 4d f1 9c 33 00 00 00 00 46 bd 12 37
       1.7143468e-05 7.3082084e-08 0.0 8.746347e-06
000230 38 f5 2a 39 1f d3 cd 39 51 68 17 3a 1e 4a 08 39
       0.00016303814 0.00039257944 0.0005775737 0.00012997582
000240 e7 14 79 37 96 0e f2 37 76 6a 18 29 da b6 2c 36
       1.4846423e-05 2.885544e-05 3.384312e-14 2.573643e-06
000250 14 f2 7d 38 6c 48 e5 39 f9 1c 26 3a 4b 19 85 38
       6.0545353e-05 0.00043732242 0.0006336715 6.3466454e-05
000260 16 58 bc 37 e9 f8 ad 33 ba 90 49 29 25 ea 38 36
       2.2452365e-05 8.101217e-08 4.4756496e-14 2.7554427e-06
000270 49 6f 17 39 3d 8a ee 39 60 de 13 3a ee 6a f4 38
       0.00014441939 0.00045497893 0.00056407414 0.00011654744
000280 c9 54 30 37 60 72 de 38 d3 72 6e 29 bf c4 c4 35
       1.0510158e-05 0.00010607089 5.294621e-14 1.4660399e-06
000290 bf c1 c5 38 5b 46 90 39 c7 f0 08 3a 9c bb 62 38
       9.42978e-05 0.0002751824 0.0005223867 5.4057324e-05
0002a0 00 2c 98 37 f6 87 74 33 00 00 00 00 6b 41 60 36
       1.8140301e-05 5.6934333e-08 0.0 3.341668e-06
0002b0 f8 5d 0f 39 cb c9 01 3a 07 40 18 3a 9b 0f 42 39
       0.00013672549 0.0004951029 0.00058078807 0.00018507095
0002c0 c9 a0 46 37 95 ea 5a 38 0e 36 b7 27 3d 50 d2 35
       1.1839155e-05 5.219372e-05 5.085131e-15 1.5669572e-06
0002d0 a3 13 fd 38 dd 33 83 39 ea 26 00 3a d9 91 63 38
       0.00012067638 0.00025024908 0.0004888611 5.425685e-05
0002e0 eb 8a 4a 37 0e 9f 7c 33 55 6f bd 21 9b b2 0e 36
       1.2072483e-05 5.881798e-08 1.2836608e-18 2.126361e-06
0002f0 e4 5e 0c 39 7d e6 07 3a ee 8f 1a 3a a7 e1 02 39
       0.0001338679 0.0005184187 0.0005896081 0.00012481828
000300 db f5 0d 37 96 85 80 38 91 89 9a 27 df bf 09 35
       8.461498e-06 6.128398e-05 4.2892736e-15 5.1315686e-07
000310 90 26 17 39 c0 7e 92 39 da f4 01 3a ea 38 98 38
       0.00014414848 0.00027941726 0.0004957445 7.258526e-05
000320 83 ea 3d 37 09 19 63 33 29 88 23 20 02 2f 7e 35
       1.1319879e-05 5.2875325e-08 1.3851689e-19 9.469078e-07
000330 eb 47 ec 38 16 0e 09 3a 54 fe 18 3a bd 62 20 38
       0.00011266753 0.0005228234 0.00058362377 3.823893e-05
000340 99 b7 1d 37 37 4c 90 38 24 00 ff 23 a4 6b d3 34
       9.400676e-06 6.880651e-05 2.7647215e-17 3.9380132e-07
000350 26 3e 0d 39 51 a0 d8 39 75 0a 07 3a ef 48 da 36
       0.0001346996 0.00041318175 0.00051513995 6.505397e-06
000360 da 6e b0 34 98 43 e3 37 f2 06 55 3b af 3a 25 34
       3.286321e-07 2.7091985e-05 0.003250536 1.5388171e-07
000370 85 33 06 3d 1c c8 9f 37 10 88 a3 38 58 a9 3a 37
       0.032763977 1.904746e-05 7.797789e-05 1.1125892e-05
000380 c9 b5 0f 37 6d 03 98 27 7a 83 53 36 a3 da a7 38
       8.565789e-06 4.219219e-15 3.151798e-06 8.003905e-05
000390 99 9e c1 38 c4 57 8a 39 4d 3b 73 38 8a 62 18 37
       9.232498e-05 0.00026386802 5.7990943e-05 9.082849e-06
0003a0 de 72 5a 36 3c 77 4d 2b d9 d4 c7 35 9d 5e 73 38
       3.2551393e-06 7.29961e-13 1.4888602e-06 5.802383e-05
0003b0 30 87 22 39 4c b7 99 39 d0 06 6f 38 51 58 ed 36
       0.00015499885 0.00029319 5.6988385e-05 7.073432e-06
0003c0 7a 37 ba 36 01 ca be 29 5f 6e 07 37 e1 a4 07 38
       5.5496903e-06 8.472737e-14 8.072325e-06 3.2340064e-05
0003d0 0d 63 3b 39 e7 89 a4 39 b3 3d 98 38 d3 ae 46 37
       0.00017870609 0.00031383263 7.259417e-05 1.1842424e-05
0003e0 ad 96 85 33 00 00 00 00 e0 c2 19 36 ea b2 2b 38
       6.220703e-08 0.0 2.2912209e-06 4.0936204e-05
0003f0 71 b5 30 39 20 29 82 39 72 99 34 38 83 5b 07 37
       0.0001685226 0.00024826173 4.305825e-05 8.067934e-06

exp_avg f4 [128]
000000 9b b0 26 bc a1 68 d6 3b 3a 15 d9 3b a8 2d 98 3b
       -0.010173942 0.0065432345 0.006624845 0.0046441145
000010 56 8f b6 bb 2f c9 cd 3b 77 cc cd b9 c2 39 c2 ba
       -0.005571286 0.0062800865 -0.00039252985 -0.0014818239
000020 3a b5 0c 3a 10 d6 9e 3b 0c 39 29 3b d6 fa 33 ba
       0.0005367581 0.0048472956 0.0025821356 -0.00068656856
000030 f3 42 ed bb 07 53 75 3a 02 7d 0a 3c d9 a5 b0 3a
       -0.007240647 0.00093583803 0.008452656 0.0013477161
000040 5f f5 dc bb 7f ed 0e 3a f0 dd a5 bb f4 a6 3a bb
       -0.0067431177 0.000545226 -0.0050618574 -0.002848086
000050 05 8d cd 3b 27 ab 49 3b d9 0e 61 3b cf 09 0f bb
       0.0062729144 0.003077218 0.0034341125 -0.0021825915
000060 9c fd b2 3a 05 d1 a8 3b 5e 85 82 bb 8d 47 ad bb
       0.0013655904 0.00515187 -0.0039831838 -0.0052880705
000070 5c 1a 0f bc 9d 42 02 bc 35 1d 90 3b fd 20 3d b9
       -0.008734312 -0.007950452 0.004398013 -0.00018036734
000080 63 2f 91 bc cc 59 21 3b 5a bd 95 bb fe b6 d8 bb
       -0.017722791 0.0024620173 -0.0045696916 -0.0066136112
000090 37 65 a3 bb 47 06 59 bb eb 80 9b bb 02 ed 60 3b
       -0.004986431 -0.0033115314 -0.004745593 0.0034320955
0000a0 67 3b f0 3b 1b a9 dc 3a 54 9e 2b 3c 96 6b 33 3b
       0.0073313 0.0016835065 0.01047476 0.0027377359
0000b0 09 33 48 3b 4c 63 85 3b 15 75 05 3c bf c1 68 3c
       0.0030547997 0.004070675 0.00814559 0.014206349
0000c0 58 ba 9c ba e2 a9 a2 3b 7a 31 83 bc 0d 78 c4 3a
       -0.001195739 0.0049640993 -0.016014803 0.0014989391
0000d0 d8 9f 09 3b 1e a5 07 3b b0 1a b1 3b e6 f8 8c 3b
       0.0020999815 0.0020697783 0.0054047927 0.004302132
0000e0 f4 4f 3b 3b 68 7f c7 3b 22 ed 7e bb 1e d4 81 3b
       0.0028581591 0.006088186 -0.0038898666 0.003962054
0000f0 24 bc c6 3b c1 6d d5 3b ab 2e e9 bb 68 69 5a bb
       0.0060649086 0.006513328 -0.007116159 -0.0033326987
000100 6d 13 be b9 25 76 55 bb 74 c7 6e 3b e1 92 f8 bb
       -0.00036254097 -0.003257164 0.0036434801 -0.0075858687
000110 87 5f b9 3a d4 bc f7 ba 5e 54 87 3b 69 ee 53 3b
       0.0014142849 -0.001890088 0.0041299304 0.0032338148
000120 29 3e eb 3b d2 6b d3 bb 90 1c c3 bb 90 ff ca 3a
       0.007179041 -0.006452062 -0.0059543326 0.001548754
000130 60 53 63 bb d6 96 07 b9 c6 3a 1b 3c 2a 7b c3 ba
       -0.0034687147 -0.00012930794 0.009474462 -0.0014914025
000140 82 63 14 bc 32 9d 02 ba b1 6e bf bb 16 a5 1b bc
       -0.009056928 -0.00049825304 -0.005842053 -0.009499809
000150 5d 2b 20 3b d6 86 9f 3b 48 b1 43 3b c9 59 f7 3b
       0.002443991 0.0048683686 0.0029860307 0.007548545
000160 5e d8 98 bb 04 8b 1b bb 7f e5 d7 bb fe 68 3f bb
       -0.004664465 -0.0023733983 -0.0065886374 -0.0029206867
000170 46 28 f8 bb 62 db 85 b9 b1 9a 0e 3c 79 41 90 3b
       -0.0075731603 -0.0002553119 0.0087038735 0.004402336
000180 2b 2a 4e 3b ac 4d e1 3b 5d 3d a9 3a 9c ef 2e bc
       0.003145824 0.0068757143 0.0012911964 -0.0106772445
000190 00 e7 9b bb 59 4f dc 3b b5 3a 26 39 4e c0 71 3c
       -0.004757762 0.006723326 0.00015852864 0.014755322
0001a0 f5 f5 6a b9 0c f4 89 3b 66 61 a9 bb c4 4b 28 bc
       -0.00022407605 0.004210001 -0.0051690815 -0.01027197
0001b0 32 f1 cf bb 8d d7 91 3a 4e 3d 37 bb b0 df 51 3b
       -0.0063458914 0.0011126861 -0.0027960124 0.0032024197
0001c0 49 49 bc 3a 27 33 31 bb ab 39 a5 bb 7f 76 ec 3b
       0.0014365102 -0.0027038546 -0.005042275 0.0072162743
0001d0 31 28 8a ba 6e f4 f9 3b 37 79 bb bb 2d 6c 07 3b
       -0.0010540542 0.0076280152 -0.005721237 0.0020663843
0001e0 23 d5 a8 3b f3 dc 0c 3c d0 22 57 3b 56 8d ea bb
       0.005152361 0.0085976 0.0032827146 -0.007157962
0001f0 10 b4 e2 3a b8 40 18 3b 38 7a 03 bc 69 2d 13 3c
       0.0017296094 0.0023231935 -0.008024745 0.008982995

exp_avg_sq f4 [128]
000000 91 8c 17 3a c3 6b 84 3a 67 b3 ef 39 48 73 9d 39
       0.0005781139 0.0010102916 0.00045719297 0.00030031265
000010 aa 9d 7e 39 72 10 06 3a f7 06 ff 35 21 75 18 38
       0.00024282062 0.0005114145 1.9001008e-06 3.634871e-05
000020 ce 33 b9 36 0e 79 e5 39 d0 4c 94 38 37 ba 14 37
       5.5194605e-06 0.00043768476 7.0714974e-05 8.864844e-06
000030 0d 9f b6 39 7a 16 b4 37 39 7f e3 3a a7 8b 5a 37
       0.00034832247 2.1468139e-05 0.0017356641 1.3026328e-05
000040 7e 58 61 39 b6 d4 4f 37 72 37 97 39 86 e8 25 39
       0.00021490638 1.2387687e-05 0.00028842274 0.00015822248
000050 94 82 d8 39 7c e7 da 38 b0 a0 b1 38 73 60 e3 38
       0.0004129602 0.000104381674 8.469948e-05 0.000108421686
000060 f2 55 94 37 a5 6a b8 39 91 88 40 3a fd 2c 98 39
       1.7682996e-05 0.0003517467 0.0007344569 0.00029025218
000070 7e a4 4b 3a 55 f1 6f 3a 5a 6e 45 39 8b 2a ba 35
       0.00077683467 0.0009153088 0.00018828493 1.3870462e-06
000080 49 26 88 3b 59 1f 51 38 93 09 11 39 38 85 8f 39
       0.0041549546 4.9858678e-05 0.00013831844 0.0002737434
000090 2e fd 26 39 b1 38 a0 38 cd ea 5f 39 3f 5f 1e 39
       0.0001592531 7.639954e-05 0.00021354407 0.00015103536
0000a0 d9 ee 17 3a ad 00 1a 38 0c c3 92 3a ec dc e5 38
       0.0005795784 3.671709e-05 0.0011197045 0.00010960721
0000b0 59 ed b7 38 4a 08 67 39 8e 62 17 3a f6 14 17 3b
       8.7703294e-05 0.00022032965 0.00057748787 0.0023053265
0000c0 d8 f9 7b 38 94 22 e1 39 1a 36 f9 3a 86 06 05 38
       6.007575e-05 0.00042941107 0.0019013316 3.1715746e-05
0000d0 fa eb 35 38 42 22 7a 38 ab 74 ea 39 68 5e 4e 39
       4.3373533e-05 5.963655e-05 0.00044718882 0.0001968086
0000e0 60 38 65 39 3f 8e 21 3a 11 b6 57 39 b3 fd 42 39
       0.00021860143 0.0006162859 0.00020571823 0.00018595792
0000f0 cf 58 4d 39 b7 cd d9 39 0e 35 59 3a 2a 0c e3 38
       0.00019583407 0.00041542735 0.0008285799 0.00010826469
000100 f3 38 ab 36 74 69 d2 38 7d 46 04 39 f6 2d 0d 3a
       5.102827e-06 0.000100332225 0.0001261476 0.0005385572
000110 6a 7a 07 37 e9 ec b6 38 8e 1f 51 39 33 66 a9 38
       8.075129e-06 8.722564e-05 0.00019943548 8.077584e-05
000120 4c 91 27 3a 99 ba 86 39 6c 93 82 39 bb a5 f9 38
       0.00063921954 0.00025697498 0.0002490537 0.00011904115
000130 d8 50 ce 38 bb 6e bf 34 ca 07 2f 3a 61 50 46 3a
       9.837904e-05 3.565709e-07 0.0006676881 0.0007565078
000140 5a 69 b0 3a 99 72 28 37 59 c1 d1 39 b6 1c 71 3a
       0.0013459132 1.0040262e-05 0.00040007642 0.00091976987
000150 51 b3 85 38 35 ef bd 39 ec 84 df 38 35 8d 48 3a
       6.3753345e-05 0.00036227112 0.00010658227 0.0007650436
000160 11 fe f0 39 75 04 2b 38 63 8d ad 3a c8 3a 2f 3a
       0.0004596566 4.0773728e-05 0.0013240989 0.00066844793
000170 42 07 48 3a 57 1f 14 36 69 35 64 3a 26 50 96 39
       0.0007630476 2.207196e-06 0.00087054685 0.00028669945
000180 f0 24 8e 38 74 01 0b 3a 70 1a 2a 38 37 e8 28 3a
       6.777968e-05 0.0005302646 4.055578e-05 0.0006443294
000190 fc 67 83 39 3b 6a a1 39 56 51 01 36 4a 8f 10 3b
       0.00025063741 0.0003078746 1.9269842e-06 0.0022058063
0001a0 ae 1b 22 39 38 4f 69 39 d9 ca e9 39 8b b5 a0 3a
       0.00015459835 0.00022250123 0.00044592356 0.0012261135
0001b0 a0 a1 07 3a 21 bc c4 37 69 87 e2 38 4c 6d e6 38
       0.00051739253 2.3452625e-05 0.00010801742 0.00010987613
0001c0 8d 4e 6d 38 c0 a3 05 3a b8 a0 21 3a 8a 91 32 3a
       5.657836e-05 0.0005097948 0.00061656116 0.0006811848
0001d0 26 5a ee 36 48 81 d8 39 4c 7e 3b 3a 76 b9 66 38
       7.1034474e-06 0.00041295053 0.00071523036 5.5008997e-05
0001e0 d0 85 4f 3a eb 94 7e 3a 7c c6 d1 38 bb 03 33 3a
       0.0007916363 0.00097115216 0.00010002867 0.0006828864
0001f0 1e 25 05 38 24 79 ba 38 cc 90 67 3a c6 19 80 3a
       3.174424e-05 8.891735e-05 0.0008833527 0.0009773306
