results/opponentR/OpponentR/OpponentR-5499937.onnx (onnx, 125740 bytes, 5 tensors)

action_model._continuous_distribution.mu.weight f4 [1, 128]
0	0x3d69ef53	0.057113003
1	0xbd99a5ce	-0.07502328
2	0xbe07ca0b	-0.13260667
3	0xbd3e9cdc	-0.04653631
4	0xbdd68f97	-0.10476606
5	0xbdb5a262	-0.08868863
6	0x3c47f2e5	0.012203907
7	0x3d30d90d	0.043175746
8	0x3d0529d8	0.03251061
9	0x3ddd69da	0.10811205
10	0x3ce4e2af	0.027940122
11	0xbd7f3733	-0.0623085
12	0x3df371cd	0.1188694
13	0x3cf73ae7	0.030179454
14	0xbd85dbf9	-0.06536097
15	0x3dad36f1	0.08457745
16	0x3deb671c	0.11494276
17	0x3d7b3a9d	0.061335195
18	0x3d9c7dee	0.07641207
19	0x3c2cc17d	0.010544178
20	0xbd828386	-0.06372742
21	0x3da3f658	0.08005971
22	0x3da1b4f6	0.07895844
23	0x3d77891a	0.060433485
24	0xbdcf5d04	-0.10125163
25	0x3dd9f671	0.10642708
26	0x3d3eda3d	0.046594847
27	0xbd9d4c19	-0.0768053
28	0xbd93da7a	-0.072194055
29	0xbdcc6a42	-0.099812046
30	0x3dca78d5	0.09886328
31	0x3d394614	0.045232847
32	0xbde98f91	-0.11404336
33	0x3d82aea7	0.063809685
34	0xbe0c1ad6	-0.13682112
35	0x3d97f291	0.07419313
36	0x3d6a2e9a	0.05717335
37	0xbddf9109	-0.10916335
38	0xbdb5ab4e	-0.088705644
39	0xbd8111eb	-0.06302246
40	0xbd2a0005	-0.041503925
41	0xbde0eee6	-0.10983066
42	0xbb88007a	-0.0041504474
43	0xbddcb1b9	-0.107760854
44	0x3de70b18	0.11281413
45	0xbde5bf5a	-0.11218138
46	0x3d98b3d8	0.074561775
47	0xbdf59db4	-0.1199297
48	0xbd684fe0	-0.0567168
49	0xbdd7376c	-0.10508618
50	0xbdec7000	-0.115448
51	0x3d85d36d	0.06534467
52	0xbd85e229	-0.06537277
53	0xbdb79e60	-0.089657545
54	0x3e0f750a	0.1400949
55	0xbdcb4ab0	-0.09926355
56	0xbb9fd43b	-0.0048775948
57	0xbd98be31	-0.07458151
58	0xbd7af921	-0.061272744
59	0xbd2289d7	-0.039682236
60	0xbe1fbb4d	-0.15598793
61	0xbdf0f219	-0.117649265
62	0x3dfa0973	0.122088335
63	0xbe0284fd	-0.12746044
64	0xbdaa3106	-0.08310132
65	0xbd8a2116	-0.06744592
66	0x3dab034e	0.0835024
67	0xbda2d827	-0.07951384
68	0xbd93317a	-0.07187171
69	0x3d9040bf	0.07043599
70	0x3db8f409	0.09030921
71	0x3b585c24	0.0033013904
72	0xbd77a129	-0.06045643
73	0xbda7306f	-0.08163535
74	0xbe0852af	-0.13312791
75	0x3dcd1750	0.10014212
76	0xbdc1a539	-0.09455342
77	0xbc32b827	-0.010908163
78	0xbdb52a91	-0.088460095
79	0xbdbf97a6	-0.093550965
80	0x3da6f65e	0.081524596
81	0x3ce5ab58	0.028035805
82	0x3d402710	0.046912253
83	0x3dca559b	0.09879609
84	0x3d028b6d	0.031871248
85	0x3d8b3c5b	0.06798621
86	0xbd91ef88	-0.07125765
87	0x3dc7c4ae	0.097543105
88	0x3dab32dc	0.0835931
89	0x3db373f8	0.08762354
90	0x3dafc825	0.085830964
91	0x3dc68178	0.09692663
92	0xbc8ede18	-0.017439887
93	0x3d6c6b6c	0.057719633
94	0xbca24b10	-0.019811183
95	0xbd39e668	-0.04538575
96	0xbdb789b5	-0.089618124
97	0xbd35e688	-0.044409305
98	0xbdb5f2c6	-0.08884196
99	0xbdc18d0a	-0.09450729
100	0xbd97e6b4	-0.0741705
101	0x3c9c8fac	0.019111477
102	0x3d89e472	0.067330256
103	0xbd94f07b	-0.072724305
104	0x3d2a5e0e	0.041593604
105	0x3d990e44	0.07473424
106	0x3d9fd9dc	0.07805225
107	0xbdd926c7	-0.10603099
108	0x3dfd0729	0.12354881
109	0xbde9c82a	-0.114151314
110	0xbe021a27	-0.12705289
111	0x3de2af8e	0.11068641
112	0x3db0f3c2	0.08640243
113	0xbd995026	-0.0748599
114	0xbdd3e0d0	-0.10345614
115	0x3dd47c2f	0.10375249
116	0x3d9159ee	0.07097231
117	0x3d1ddc33	0.038540076
118	0x3dc6fa58	0.09715718
119	0x3da631dc	0.08114979
120	0x3e00ef1e	0.12591216
121	0xbdbaf230	-0.09128225
122	0x3d6a1b43	0.057154905
123	0xbd896cda	-0.06710215
124	0xbd9d55dc	-0.07682392
125	0x3d8f2223	0.06988933
126	0x3e00b499	0.12568893
127	0xbdf03209	-0.117282934

network_body._body_endoder.seq_layers.0.bias f4 [128]
0	0x39ae97bf	0.00033300926
1	0x3cc2947b	0.023752442
2	0x3ceae60a	0.028674144
3	0x3d0c06b2	0.034186073
4	0x3c8d4f60	0.017249763
5	0x3c155561	0.009114594
6	0x3c316053	0.010826188
7	0x3cfdf643	0.031001216
8	0x3af9c6d5	0.0019056449
9	0x3c6d96ca	0.014501283
10	0x3bb6fe83	0.0055845394
11	0x3d205d12	0.03915126
12	0x3cf9ab2b	0.030477127
13	0x3c7fe38d	0.015618217
14	0x3cc64f85	0.02420784
15	0x3c2cb974	0.010542262
16	0x3bcb51a7	0.006204802
17	0x3c123a4b	0.008925031
18	0x3c8914f6	0.016733628
19	0xbc2e683d	-0.0106449695
20	0x3b4f3665	0.0031618115
21	0x3c9a43f8	0.018831238
22	0x3c12d178	0.008961074
23	0x3ba95c60	0.0051684827
24	0x3c2e8cb1	0.010653661
25	0x3bc894d8	0.006121259
26	0x3c0c6bca	0.008570621
27	0x3bc971e2	0.006147609
28	0x3c6b3968	0.014356948
29	0x3b3fe382	0.0029279892
30	0x3c7d84f4	0.015473593
31	0x3c2ae6ff	0.01043105
32	0x3cde0a83	0.027104622
33	0xbce28c3f	-0.027654765
34	0x3c079c0b	0.00827695
35	0xbc5c1037	-0.0134316
36	0x3b129cab	0.0022371213
37	0x3ada34aa	0.0016647775
38	0x3ca87242	0.020562295
39	0x3cb8e77c	0.022571318
40	0x3cd1da55	0.025616804
41	0xbc03e125	-0.008049284
42	0x3d86c8af	0.06581246
43	0xbce75851	-0.028240355
44	0x3c0e6535	0.008691122
45	0x3ba8f5bd	0.0051562474
46	0x3cef347d	0.029199833
47	0x3d74736f	0.0596804
48	0xbb1b14cb	-0.0023663517
49	0x39c0c391	0.00036766802
50	0x3cf9277f	0.030414341
51	0x3be3084a	0.0069284784
52	0x3c393505	0.011304145
53	0xbcbd5296	-0.02311067
54	0x3cc2dd0d	0.023787046
55	0x3c829977	0.015942318
56	0xbc1079e3	-0.008818123
57	0x3cf9bf94	0.03048686
58	0xbc1b5d8a	-0.009482751
59	0x3b7e2b5f	0.0038783175
60	0xbbe36bc4	-0.006940337
61	0x3c9b95ef	0.018992392
62	0x3cdf4b91	0.027257713
63	0xbb755d59	-0.0037439673
64	0xbbbcbc63	-0.005759762
65	0x3c120a8e	0.008913649
66	0x3c4a49e6	0.01234672
67	0x3cf9155d	0.030405695
68	0x3c773ee5	0.015090679
69	0xbbbd65bd	-0.0057799504
70	0xbcd0c76b	-0.025485715
71	0x3cfa14c6	0.030527484
72	0x3ca52647	0.020159854
73	0x3bc85808	0.00611401
74	0x3c52fab9	0.01287716
75	0xbba9ecde	-0.0051857075
76	0xbc236c46	-0.009974545
77	0xbc37c397	-0.011216066
78	0x3d09012c	0.033448383
79	0xbced08ab	-0.028934797
80	0x3ad92a10	0.0016568322
81	0x3c9e9918	0.01936011
82	0x3c208e32	0.009799527
83	0x3cb03edf	0.021514354
84	0x3c046767	0.008081294
85	0x3cfd9d5c	0.030958824
86	0x3d03153d	0.032002676
87	0x3cfb8523	0.030703133
88	0x3a83d534	0.0010058046
89	0x3c2edb85	0.010672455
90	0x3c5c02d9	0.013428413
91	0xbca9f895	-0.020748416
92	0x3c9efc42	0.019407395
93	0x3a5f5e11	0.0008520792
94	0x3cda750b	0.026667139
95	0x3c5887cd	0.013215971
96	0x3c236a6e	0.009974105
97	0x3d9e72c4	0.077367336
98	0x3c6246c5	0.013810818
99	0x3bde6d8d	0.006787962
100	0x3c07c8a2	0.008287581
101	0xbc72c082	-0.014816405
102	0x3c44dc41	0.012015403
103	0x3d29b35a	0.04143081
104	0xbccf3c4c	-0.025297306
105	0x3b9a13f8	0.0047020875
106	0xbb8b0339	-0.0042423275
107	0x3c03cd91	0.008044616
108	0x3d01b0b9	0.031662676
109	0x3bca305d	0.006170316
110	0x3ce36c77	0.027761681
111	0x3c90f992	0.01769713
112	0x3bbde708	0.0057953633
113	0xbd0c67e8	-0.03427878
114	0x3a9f0590	0.0012132395
115	0x3bd33ae9	0.0064462316
116	0xbbd1d456	-0.0064034862
117	0x3b64e5e4	0.0034927065
118	0xbb62fd8a	-0.0034635984
119	0x3c8addc2	0.016951445
120	0x3d66b086	0.05632069
121	0x3ceea0a2	0.02912933
122	0x3c764a07	0.015032298
123	0x3cb899af	0.02253422
124	0x3c875d77	0.01652406
125	0x3caf7c67	0.021421624
126	0x3a942522	0.001130257
127	0x3c7e3024	0.015514407

network_body._body_endoder.seq_layers.0.weight f4 [128, 111]
0	0xbd62d9b0	-0.055383384
1	0x3df12b08	0.11775786
2	0xbceb555e	-0.02872723
3	0xbd5c6f4f	-0.05381709
4	0x3e6bd1d0	0.23029256
5	0x3e858d47	0.2608435
6	0xbd3ab776	-0.04558512
7	0x3d826e77	0.06368726
8	0xbd44b011	-0.048019473
9	0xbe376d0f	-0.17912696
10	0xbe560aa2	-0.20902494
11	0xbca38e03	-0.019965177
12	0x396088a9	0.00021413215
13	0xbd497446	-0.049183153
14	0x3e001e03	0.12511449
15	0x3e228108	0.15869534
16	0xbe92947a	-0.28628904
17	0xbdca12c1	-0.09866858
18	0xbdb63679	-0.088971086
19	0x3db2b4e1	0.08725906
20	0xbd48ed44	-0.0490544
21	0x3e2523ad	0.1612689
22	0x3d3aaebb	0.045576792
23	0x3de7fead	0.113278724
24	0xbc60f242	-0.013729634
25	0xbc5a0c1f	-0.013308554
26	0xbe3ec4cc	-0.1862976
27	0x3d32c0b3	0.043640804
28	0xbddcf8a6	-0.107896134
29	0xbe2316b4	-0.1592663
30	0x3e31ca59	0.17362346
31	0x3c983285	0.018578777
32	0x3dd4fde1	0.10399986
33	0x3c6a351f	0.014294892
34	0xbda53641	-0.08066989
35	0xbd5c72a0	-0.053820252
36	0x3ec13c24	0.37741196
37	0x3e6c2ed2	0.23064736
38	0x3dd324fd	0.10309789
39	0xbdf6b62a	-0.12046464
40	0x3bfe889b	0.0077677495
41	0xbe7ca3cf	-0.24671863
42	0xbd85fa9b	-0.0654194
43	0xbc8c2f2d	-0.017112339
44	0xbce603ea	-0.028078038
45	0xbe260506	-0.16212854
46	0x3df24186	0.11828904
47	0xbd872f24	-0.06600788
48	0x3d91a797	0.07112043
49	0x3d23a9a2	0.039956696
50	0xbe44353a	-0.1916093
51	0xbe27c0ae	-0.16382095
52	0x3b1031a9	0.0022002256
53	0xbe5bd933	-0.21469574
54	0xbc6809ce	-0.014162494
55	0x3dcc5fac	0.099791855
56	0x3c9d55e1	0.01920599
57	0x3dbdd86b	0.09269794
58	0xbcf13d86	-0.029448282
59	0x3db88ed3	0.090116166
60	0xbd8f3add	-0.06993649
61	0xbebc0269	-0.3672059
62	0x3df8c77b	0.12147423
63	0xbd003ecd	-0.03130989
64	0x3e333200	0.17499542
65	0x3e096123	0.13415961
66	0x3d9e15cf	0.077190034
67	0xbd77a41c	-0.06045924
68	0xbd6cf0cb	-0.057846826
69	0xbdfde872	-0.12397851
70	0x3cbd7dc2	0.023131255
71	0x3d29979f	0.041404363
72	0x3a675cf5	0.00088258024
73	0xbac23404	-0.0014816527
74	0xbda162aa	-0.07880147
75	0xbd14abb9	-0.03629658
76	0xbdd69d5a	-0.10479231
77	0xbea55b79	-0.3229635
78	0xbdaae018	-0.08343524
79	0x3e375b8e	0.17906019
80	0x3db12aca	0.086507395
81	0xbce6596a	-0.028118808
82	0xbd5f59e5	-0.05452909
83	0x3da9cdb9	0.082911916
84	0xbd35c4ff	-0.044377323
85	0x3e053830	0.13009715
86	0xbcf4b7fb	-0.029872885
87	0x3c834823	0.016025608
88	0x3d22b873	0.039726686
89	0xbe36082e	-0.17776558
90	0x3cab8c79	0.020941006
91	0xbdf4087d	-0.119156815
92	0x3d32c58d	0.04364543
93	0xbeabe086	-0.33569735
94	0x3e28f06a	0.1649796
95	0x3d33645f	0.043796893
96	0xbcfde805	-0.030994425
97	0xbe42ede1	-0.19036056
98	0x3e171c3a	0.14756861
99	0x3d0e1d92	0.03469617
100	0xbd686a7c	-0.056742176
101	0xbe14e455	-0.14540227
102	0x3ca83a45	0.020535598
103	0xbe0fb991	-0.14035632
104	0x3d20c06a	0.039246
105	0x3c78dec5	0.015189831
106	0x3cde3eb7	0.027129514
107	0x3cd67b19	0.026181744
108	0xbc5a212e	-0.013313575
109	0xbe2350a8	-0.15948737
110	0x3df8b2ca	0.12143476
111	0xbd9ded81	-0.07711316
112	0xbbe2313b	-0.0069028414
113	0x3dfab6f8	0.1224193
114	0x3e0f4e4d	0.13994713
115	0xbc24e19d	-0.010063556
116	0xbd15b3ac	-0.0365483
117	0xbe2351bd	-0.1594915
118	0xbda4af54	-0.08041254
119	0x3d99d5cf	0.07511484
120	0x3e148807	0.14505015
121	0x3dbf98c6	0.09355311
122	0x3d9fe944	0.07808164
123	0x3dafc0a7	0.085816674
124	0xbd9f7bf1	-0.07787312
125	0x3d5d2bc0	0.0539968
126	0xbc8dcd38	-0.01730977
127	0x3d9530e7	0.07284718
128	0xbb7d3860	-0.0038638338
129	0x3c14572c	0.0090539865
130	0xbd6f1432	-0.05836887
131	0xba6c2b37	-0.0009009125
132	0xbe1e0e39	-0.15435113
133	0x3e071f59	0.13195552
134	0xbe59aec8	-0.2125808
135	0x3c8ed1c3	0.017434007
136	0xbcdcee88	-0.02696921
137	0x3d77ff6c	0.060546324
138	0xbc8164a8	-0.015795067
139	0x3e1dfa2f	0.15427469
140	0x3e5d26ed	0.2159688
141	0x3e2f716c	0.17133111
142	0x3df4c597	0.1195175
143	0x3e2f9c06	0.17149362
144	0x3d50d3a1	0.050983075
145	0x3e919209	0.28431728
146	0x3c5eefa1	0.013606937
147	0x3bc2f59d	0.0059496895
148	0x3cf1d961	0.0295226
149	0x3c05ba42	0.008162083
150	0xbe0ee665	-0.13955076
151	0xbe675229	-0.22589935
152	0x3d95f833	0.07322731
153	0x3decd983	0.115649246
154	0x3cebdd93	0.028792178
155	0xbe5ae29a	-0.21375504
156	0xbc482a55	-0.012217124
157	0x3df28a46	0.1184278
158	0x3e018d6e	0.12651607
159	0xbdb46f05	-0.08810238
160	0xbe9d641d	-0.30740443
161	0x3dc243c3	0.09485581
162	0x3e413c8c	0.18870753
163	0xbd6b5c97	-0.057461347
164	0x3e436b8d	0.19083996
165	0xbc246bc4	-0.010035459
166	0x3cafdcd3	0.021467602
167	0xbdd646be	-0.10462712
168	0x3cbf81ba	0.023377288
169	0x3c3f8b2d	0.011690897
170	0xbc91b01e	-0.017784175
171	0x3dbd2ed4	0.092374474
172	0x3c9b32e0	0.018945158
173	0xbb5cc586	-0.003368707
174	0x3d42924a	0.047502793
175	0x3d40e7e9	0.047096167
176	0xbdae428c	-0.085087866
177	0x3d2be685	0.041967887
178	0x3cb5a889	0.02217509
179	0x3e6964c4	0.22792345
180	0x3d009bcf	0.03139859
181	0x3d0266d1	0.031836335
182	0xbd96abbb	-0.07356974
183	0xbda5922b	-0.0808452
184	0xbe1ef066	-0.15521392
185	0x3c917b7c	0.017759077
186	0x3e074055	0.13208134
187	0x3e053ff1	0.13012673
188	0x3d1be2a6	0.038057946
189	0xbdb01ab7	-0.085988455
190	0xbd219da6	-0.039456986
191	0x3da62a57	0.081135444
192	0xbe33b64a	-0.17550007
193	0x3e0e81f5	0.13916762
194	0x3e545a35	0.20737536
195	0xbe1b03a0	-0.15138102
196	0xbd4ca647	-0.049963262
197	0x3d8b6652	0.068066254
198	0xb834338b	-4.2963347e-05
199	0x3cf508f4	0.029911496
200	0x3d2b214c	0.0417798
201	0xbd8070dc	-0.06271526
202	0xbd10a8f9	-0.035317395
203	0xbda03990	-0.07823479
204	0xbd81c41c	-0.06336233
205	0x3c5dc162	0.013534876
206	0xbcf96d34	-0.03044758
207	0xbc06cdf2	-0.008227812
208	0x3dbd604a	0.09246881
209	0x3e0eadb8	0.13933456
210	0xbdac7274	-0.08420268
211	0x3e335f5f	0.1751685
212	0x3e3429c0	0.17594051
213	0x3c36c0ff	0.011154412
214	0x3d4c1126	0.04982104
215	0xbe824ff1	-0.25451615
216	0xbd3c6f59	-0.046004627
217	0x3b6999b8	0.0035644602
218	0xbd5918c6	-0.05300214
219	0xbbd6ad3b	-0.0065514124
220	0x3cd484e4	0.025942273
221	0xbe031d98	-0.12804258
222	0x3e2abdc1	0.16673948
223	0x3d5a3899	0.053276632
224	0x3cee3bf1	0.029081317
225	0xbdbb27d9	-0.0913846
226	0xbe50f978	-0.20407665
227	0x3db81ab7	0.089894705
228	0xbe0ec6ec	-0.1394307
229	0xbe670ba7	-0.22563039
230	0xbd162af7	-0.03666207
231	0xbdd917e0	-0.10600257
232	0x3dbbec5e	0.09175943
233	0x3dc79a04	0.09746173
234	0x3d7f4ec1	0.062330965
235	0x3c5e4be8	0.013567902
236	0xbcec33ae	-0.028833237
237	0x3dd15013	0.10220351
238	0x3dd3f3f3	0.10349264
239	0xbe195470	-0.14973617
240	0xbdc6e3b7	-0.09711402
241	0x3d96f823	0.07371547
242	0x3cf7024a	0.030152459
243	0xbe31017e	-0.17285725
244	0xbb8c8df9	-0.0042893854
245	0xbd8c7488	-0.06858164
246	0x3dd13018	0.10214251
247	0xbd2356ad	-0.039877582
248	0x3c888ad9	0.01666777
249	0x3b32565f	0.0027212126
250	0x3dd17663	0.102276586
251	0xbd46aaa4	-0.04850258
252	0xbc23cbb1	-0.009997294
253	0x3e618e2c	0.2202689
254	0xb984d246	-0.00025333668
255	0xbd2e1f55	-0.04251035

network_body._body_endoder.seq_layers.2.bias f4 [128]
0	0x3ceae770	0.028674811
1	0x3c20c49c	0.0098125
2	0x3c783e7b	0.015151615
3	0x3bd542a2	0.0065081874
4	0x3cb9ea92	0.02269486
5	0x3c46ddb5	0.01213782
6	0x3a5874f3	0.0008257173
7	0x3c09cf66	0.008411264
8	0x3bcb2b8d	0.00620026
9	0x3cd11b56	0.02552573
10	0xbbd224d4	-0.0064130817
11	0x3bdbdf0b	0.0067099384
12	0x3cb57442	0.022150163
13	0x3c044cf1	0.008074985
14	0x39744ab8	0.00023297488
15	0x3cab311e	0.020897444
16	0x3d0e88a8	0.034798294
17	0x3cdeba1c	0.027188353
18	0x3d3132e2	0.043261416
19	0x3b186834	0.002325547
20	0x3be2cf48	0.0069216825
21	0x3d06d717	0.03291997
22	0x3cf1be3a	0.029509652
23	0x3c4b46b5	0.012406995
24	0x3ce03b59	0.02737205
25	0x3cd51503	0.026010996
26	0x3c816a41	0.015797736
27	0x3b6eee1c	0.0036457842
28	0x3c6651ca	0.014057586
29	0x3cbe93c4	0.02326382
30	0x3cb9e39a	0.022691537
31	0x3c690c4e	0.014224125
32	0x3cca88b6	0.024723392
33	0x3ceeacaa	0.029135067
34	0x3d0aa9b4	0.033853248
35	0x3cbbd869	0.02293034
36	0x3cae4845	0.021274695
37	0x3ca2c1be	0.019867774
38	0x3c1db358	0.009625278
39	0x3c70065e	0.014649956
40	0xba17f06b	-0.0005796018
41	0x3c9304a7	0.017946554
42	0xbc6d1d22	-0.014472278
43	0x3c8a9965	0.016918847
44	0x3d1d746c	0.038441107
45	0x3c5c9a20	0.013464481
46	0x3ca5b6b8	0.020228729
47	0x3c6fa8f7	0.014627687
48	0x3bf5aede	0.0074976524
49	0x3cccc2e8	0.024995282
50	0x3cb69445	0.022287497
51	0x3ce8100e	0.028327968
52	0x3c637d8a	0.013884911
53	0x3c708d48	0.014682122
54	0x3d0cd76c	0.03438513
55	0x3cd6ced0	0.026221663
56	0xb8d043af	-9.93082e-05
57	0x3beb5c6b	0.007182648
58	0x3b7c1e42	0.0038470183
59	0xbb3b7711	-0.0028604905
60	0x3ce12f63	0.027488416
61	0x3cd2bb4f	0.025724081
62	0x3d49c7da	0.04926286
63	0x3ca5b20b	0.020226499
64	0x3cc03e19	0.02346711
65	0x3c8fbc03	0.017545706
66	0x3ccf45c4	0.025301822
67	0x3c56eed2	0.013118463
68	0x3c909be1	0.017652454
69	0x3ccf8dac	0.02533611
70	0x3ce64941	0.028111102
71	0xbcac6628	-0.021044806
72	0x3c5ac6df	0.013353079
73	0x3bf5fad0	0.007506706
74	0x3cae7fec	0.021301232
75	0x3cd18768	0.025577262
76	0x3c348cee	0.011019928
77	0xbcd9a377	-0.026567204
78	0x3bbd3b12	0.005774864
79	0x3ca685d0	0.020327479
80	0x3c81f0ef	0.015861956
81	0x3badfb46	0.005309495
82	0x3c971754	0.01844374
83	0x3d03e4ac	0.0322005
84	0x3c886956	0.01665179
85	0x3cc93116	0.024559539
86	0x3c61b12b	0.01377515
87	0x3cc68aa7	0.024236036
88	0x3ce697de	0.028148588
89	0x3d174968	0.03693524
90	0x3d1db5af	0.038503345
91	0x3d113ca4	0.035458222
92	0xbb2dfe90	-0.0026549436
93	0x3c70118d	0.014652622
94	0xbc1e9490	-0.009678975
95	0x3bc6b58a	0.0060641216
96	0x3ce016e3	0.027354663
97	0x3ac9364a	0.0015351262
98	0x3b987642	0.0046527693
99	0x3ca86808	0.020557418
100	0x3c0c4570	0.008561477
101	0x39e7044c	0.00044062955
102	0x3c4e91bb	0.012607987
103	0x3c8311d2	0.015999708
104	0x3b9e7354	0.0048355255
105	0x3c8e10fb	0.017342081
106	0x3c815646	0.015788209
107	0x3d16ace6	0.036785983
108	0x3d074a30	0.033029735
109	0x3ccecb28	0.025243357
110	0x3c5ded79	0.013545387
111	0x3d0f73fb	0.035022717
112	0x3cc6eddb	0.02428334
113	0x3c574342	0.013138594
114	0x3c85e9eb	0.016346892
115	0x3cd5bc88	0.026090875
116	0x3cb5de4b	0.022200724
117	0x3c4bd438	0.012440734
118	0x3d26856a	0.040654577
119	0x3ca6c197	0.020355983
120	0x3d1dfdf9	0.038572285
121	0x3c59a495	0.013283868
122	0x3c7cf833	0.015440035
123	0x3ae40266	0.0017395734
124	0x3c7889ea	0.0151696
125	0x3cbf46a5	0.023349116
126	0x3d28cb4c	0.041209504
127	0x3c9a8010	0.018859893

network_body._body_endoder.seq_layers.2.weight f4 [128, 128]
0	0xbdd37f72	-0.10327043
1	0xbd2d2f97	-0.042281713
2	0x3c5525ad	0.013009471
3	0xbce19d88	-0.027540937
4	0x3ca137b2	0.019679878
5	0x3cefcb9f	0.029271899
6	0x3df4e3fa	0.119575456
7	0x3dc16f9d	0.09445117
8	0x3df8d615	0.12150208
9	0x3dea5bca	0.114432886
10	0xbddc66a4	-0.10761765
11	0x3e1e8826	0.15481624
12	0xbce093ba	-0.027414192
13	0x3d267d52	0.04064686
14	0x3c35eba1	0.011103542
15	0x3db06d6b	0.0861462
16	0xbaa2b10a	-0.0012412381
17	0xbc6ee132	-0.014580058
18	0x3d801e7b	0.06255814
19	0xbd2450ed	-0.04011624
20	0x3d80bfad	0.06286559
21	0x3e09d4dc	0.13460106
22	0xbde8cb9b	-0.1136696
23	0x3dcd9429	0.10038025
24	0x3db165cc	0.08661994
25	0x3d7b446d	0.061344553
26	0xbdf13747	-0.117781214
27	0x3d0cdd70	0.034390867
28	0xbb39648b	-0.0028288688
29	0xbd76502e	-0.06013506
30	0x3e10f8b3	0.14157371
31	0xbd547f0c	-0.051878974
32	0xbda97f8f	-0.08276283
33	0x3d879572	0.06620301
34	0xbe371b36	-0.17881474
35	0xbdec3225	-0.11533002
36	0xbddcdef0	-0.107847095
37	0xbe172987	-0.14761935
38	0x3cb5e51f	0.02220398
39	0x3ca7491f	0.020420609
40	0xbc3c34f1	-0.011487232
41	0xbd6e5a49	-0.05819157
42	0x3ceebeb4	0.029143669
43	0xbc7269ab	-0.014795701
44	0x3e46037f	0.19337271
45	0x3e2827b9	0.16421403
46	0x3ce57b98	0.028013036
47	0x3e6e5529	0.23274674
48	0x3dcdd0d7	0.10049599
49	0x3de8dca5	0.113702096
50	0xbe3b1e94	-0.18273383
51	0xbd895b80	-0.06706905
52	0xbe236368	-0.15955889
53	0xbdbb2b56	-0.09139125
54	0x3defcd5f	0.11709093
55	0x3b1a9758	0.0023588743
56	0xbe4fcdb7	-0.20293318
57	0xbddbd591	-0.10734094
58	0x3d504fe8	0.050857455
59	0x3cb0b9fe	0.021573063
60	0xbd2ba669	-0.041906748
61	0x3e0263d7	0.12733398
62	0xbd0316cc	-0.032004163
63	0x3cdc9011	0.026924165
64	0xbd9a52e5	-0.07535342
65	0xbc6d933c	-0.014500435
66	0xbbd7b871	-0.0065832664
67	0xbba5102e	-0.005037329
68	0x3dc1aee0	0.09457183
69	0xbb235d39	-0.0024927391
70	0xbccf836d	-0.025331223
71	0x3e140d7b	0.14458267
72	0x3db129b4	0.08650532
73	0xbe1bdb1e	-0.15220305
74	0x3e0d3f2e	0.13793632
75	0x39f61d6c	0.00046942697
76	0xbc4350da	-0.011921132
77	0x3deeefac	0.116668075
78	0x3c55c784	0.0130480565
79	0x3d9f6533	0.07782974
80	0xbdd56607	-0.10419851
81	0x3db2220b	0.086978994
82	0xbcb7bce2	-0.022428934
83	0xbd54a2e6	-0.051913165
84	0x3dec9c24	0.11553219
85	0x3c85bb62	0.016324703
86	0x3dd8f176	0.1059293
87	0x3e0c2fc7	0.136901
88	0xbc4041dd	-0.011734453
89	0x3da9919b	0.08279725
90	0xbdcb075d	-0.09913514
91	0x3d25047f	0.04028749
92	0xbe314772	-0.1731241
93	0x3db0c989	0.0863219
94	0x3dacf618	0.08445376
95	0x3defe99c	0.11714479
96	0x3ba662c5	0.005077692
97	0x3d60e3af	0.054904636
98	0x3cf50807	0.029911054
99	0x3d450eed	0.048109937
100	0x3d57ad88	0.052655727
101	0x3de23483	0.11045172
102	0xbdd466cf	-0.10371172
103	0x3d76f3c4	0.060291067
104	0xbe0c8ff8	-0.13726795
105	0x3da79bb6	0.081839964
106	0xbe08a84e	-0.13345453
107	0x3dc29a6d	0.09502111
108	0xbcc66102	-0.024216179
109	0xbdd775b1	-0.10520495
110	0xbd2df0b8	-0.042465895
111	0xbcf3c8e3	-0.029758876
112	0xbce081c9	-0.027405636
113	0xbc804871	-0.015659543
114	0xbe6716ed	-0.22567339
115	0x3e050027	0.1298834
116	0xbcbb3081	-0.022850277
117	0x3cb2dbf9	0.021833407
118	0xbe157491	-0.14595248
119	0xbd837db8	-0.06420463
120	0x3e29d657	0.1658567
121	0xbc0f86f7	-0.0087602055
122	0xbd8826a3	-0.06647994
123	0xbcfa517e	-0.030556437
124	0x3da0a3aa	0.078437164
125	0x3d60417e	0.05474996
126	0xbde8ff3f	-0.11376809
127	0x3d465383	0.048419487
128	0x3d2f71f9	0.042833302
129	0x3c3b6646	0.011437958
130	0x3e42c1b1	0.190192
131	0x3d28ca3a	0.041208483
132	0x3dac4f19	0.08413524
133	0xbe019c69	-0.12657322
134	0x3c98c816	0.018650096
135	0x3cf9021d	0.030396516
136	0xbb64b311	-0.003489677
137	0xbe356c08	-0.17716992
138	0x3dd15ece	0.10223161
139	0xbd0cae8d	-0.034346152
140	0xbd0dba5b	-0.03460155
141	0xbd9a9d26	-0.07549505
142	0xbde577d6	-0.112044975
143	0x3d179b06	0.037013076
144	0x3dee3c3c	0.116325825
145	0xbe01a31e	-0.1265988
146	0x3dbcdb50	0.09221518
147	0x3cb42923	0.021992272
148	0xbda58c3a	-0.08083387
149	0xbb242d96	-0.0025051585
150	0xbd73333b	-0.05937503
151	0xbcac733f	-0.021051047
152	0x3ccacb16	0.024755042
153	0xbe74799e	-0.23874518
154	0x3d38a15f	0.04507577
155	0xbdb2fb50	-0.0873934
156	0xbdeda630	-0.116039634
157	0x3dd39647	0.103313975
158	0xbcc08352	-0.023500118
159	0x3c0e571e	0.008687763
160	0x3e3d1e35	0.18468554
161	0xbd72d0d9	-0.059281204
162	0x3db5c02c	0.088745445
163	0xbe53ddb5	-0.20690043
164	0x3dd6bd6d	0.10485349
165	0x3cae9fa5	0.021316359
166	0xbbc1f4c2	-0.00591907
167	0x3dc9673b	0.09834143
168	0xbd75c810	-0.060005248
169	0xbe8053c5	-0.2506391
170	0x3d5a0240	0.053224802
171	0x3beb0d33	0.0071732043
172	0xbdb82b45	-0.08992628
173	0xbe143163	-0.14471965
174	0xbd8abf76	-0.067747995
175	0xbe1356fb	-0.14388649
176	0x3d38560f	0.045003947
177	0x3d3991d2	0.04530508
178	0xbd144c4d	-0.03620558
179	0xbdaff894	-0.085923344
180	0xbd138754	-0.03601773
181	0x3d9f6938	0.07783741
182	0xbcb4a281	-0.022050144
183	0xbd3a6a47	-0.04551151
184	0xbd55f0e6	-0.05223169
185	0x3c3f45b3	0.011674332
186	0x3d2491d5	0.04017814
187	0xbda8a46d	-0.08234487
188	0x3dc44350	0.09583151
189	0xbd0d6055	-0.034515698
190	0xbcbc0b06	-0.022954475
191	0xbd883445	-0.066505946
192	0x3dd087a4	0.101821214
193	0x3d9791b1	0.07400835
194	0x3dfd5a9e	0.123707995
195	0xbcfd75eb	-0.030940017
196	0x3c95c996	0.0182846
197	0xbd7756db	-0.060385566
198	0x3d45e57f	0.048314568
199	0xbcd6ed6f	-0.026236264
200	0x3bc3433c	0.0059589427
201	0x3cf6a3b3	0.030107355
202	0xbcf36645	-0.029711852
203	0xbc08d7fd	-0.008352277
204	0xbc5cc803	-0.013475421
205	0xbe468fa8	-0.19390738
206	0xbd4ff652	-0.05077202
207	0x3e0d1e74	0.13781148
208	0x3e33d296	0.17560801
209	0x3d2ccf31	0.04218978
210	0x3d075a6e	0.033045225
211	0x3e338646	0.1753169
212	0x3e1d1ce9	0.1534306
213	0x3d295e10	0.04134947
214	0x3dd337bf	0.10313367
215	0xbe3df389	-0.18549933
216	0x3de99d84	0.11406997
217	0x3cbe80e2	0.023254815
218	0x3deff025	0.11715726
219	0x3e0345c5	0.12819584
220	0xbe4af5ce	-0.1982033
221	0x3e26ce21	0.1628957
222	0x3d0db73c	0.034598574
223	0x3cb9c556	0.022677105
224	0xbdd9925f	-0.10623621
225	0xbd7b905d	-0.061416972
226	0xbb823f4c	-0.0039748307
227	0xbd484548	-0.048894197
228	0xbd581b25	-0.052760262
229	0xbe8126de	-0.25224966
230	0x3d4aea2e	0.049539737
231	0xbe049df3	-0.12950878
232	0x3d43ce5e	0.04780423
233	0xbe36ad61	-0.17839576
234	0xbd4eaf79	-0.050460313
235	0x3e3d8a83	0.1850987
236	0x3daf39d4	0.08555952
237	0xbe67abdc	-0.22624153
238	0xbdae2ed9	-0.08505029
239	0xbc5cd5fd	-0.013478753
240	0xbda044b8	-0.07825607
241	0x3d9fde05	0.07806019
242	0x3e2d71c1	0.16937925
243	0xbdab01ef	-0.08349978
244	0xbe0491f8	-0.12946308
245	0xbd95c713	-0.07313361
246	0x3da3c7a9	0.079970665
247	0xbd8991e3	-0.06717279
248	0xbe76b07b	-0.2409076
249	0xbe0c3fad	-0.13696165
250	0xbcf7457d	-0.030184502
251	0x3de4ead0	0.111775994
252	0xbe241639	-0.16024102
253	0xbded07dd	-0.115737654
254	0x3dd68ed4	0.10476461
255	0xbd6aff9e	-0.05737268
