results/opponentR/OpponentR/OpponentR-5999948.onnx (onnx, 125740 bytes, 5 tensors)

action_model._continuous_distribution.mu.weight f4 [1, 128]
00000000: 4993 6e3d 8f77 9cbd 6d21 08be 79a5 41bd
00000010: f0ac d8bd 9998 b6bd baac 573c f457 3e3d
00000020: d518 0f3d f208 e13d 9b94 e43c 98ff 81bd
00000030: 031b f93d 1e73 043d 1cd3 89bd a251 b03d
00000040: 1cd5 ee3d 2d09 813d f86d 9d3d 61f8 393c
00000050: bbad 84bd 45dd a53d a965 a43d c2bb 7d3d
00000060: aed9 d0bd ebef df3d 837d 443d cc22 a0bd
00000070: 573f 98bd 3c3a cebd 8c52 cd3d 0d39 3c3d
00000080: bed3 e9bd 4291 823d dbad 0dbe d987 9b3d
00000090: ce48 713d 2ae8 e1bd c6f6 b8bd b555 84bd
000000a0: b5ee 38bd 43eb e4bd 07a5 8bbb 4ca1 dfbd
000000b0: b690 ea3d ac9b e4bd 2243 9b3d e7a8 f9bd
000000c0: 5de7 7dbd 62f8 dabd 33a4 ebbd ba60 893d
000000d0: 2a35 8abd 449f babd 9042 113e 8974 cebd
000000e0: a849 1fbb dc43 9abd 3018 83bd 6758 35bd
000000f0: 0c5b 21be 2398 f5bd 7835 fb3d ccbe 03be
00000100: 0596 b0bd 4f3b 8ebd abbb ad3d 05c6 a6bd
00000110: 133f 99bd 41d0 973d 2fc7 bb3d 5b76 4e3b
00000120: 2204 89bd c6fe aabd 0892 08be 90e7 cf3d
00000130: 72f4 c2bd d13d 55bc 1f38 babd 7ec2 bcbd
00000140: 6e12 ac3d bbfb e13c 85ee 473d a3c8 cf3d
00000150: 98d6 073d 6d54 903d 087b 95bd df83 ce3d
00000160: 9634 ae3d 7fad b53d 1a61 b33d fb18 ca3d
00000170: 350a 97bc 051a 703d e788 b6bc 3b37 48bd
00000180: f76c c2bd 85b6 37bd 3a2f b6bd e206 c5bd
00000190: 18b0 99bd 2853 a73c f36c 8b3d 57dc 96bd
000001a0: b1ae 2d3d c73b 993d 964d a43d d31e ddbd
000001b0: 5b7a 013e c98d eebd 0c81 03be 61d4 e43d
000001c0: 15e9 b33d be01 9abd f290 d6bd 4329 d63d
000001d0: 7e6f 963d 6506 253d e96a cb3d b3d7 a53d
000001e0: 55a1 033e f056 bdbd 39da 6e3d 221c 8abd
000001f0: 7177 a0bd fc29 943d 7e38 023e f157 f6bd
0.05824593 -0.076399915 -0.13294001 -0.047276948 -0.1057986 -0.089158244 0.01316374 0.046470597
0.03493579 0.10988034 0.027902892 -0.06347579 0.12163355 0.032336347 -0.06729719 0.0860932
0.11661741 0.06300578 0.076869905 0.011350722 -0.06478449 0.080988444 0.08027203 0.061946638
-0.10197769 0.109344326 0.04797126 -0.07819137 -0.07433956 -0.10069701 0.1002551 0.045952845
-0.1141734 0.06375362 -0.13835852 0.0759427 0.058907323 -0.1103061 -0.09031443 -0.0646166
-0.045149524 -0.11177685 -0.004261616 -0.10919437 0.11453383 -0.111625046 0.07581164 -0.12190419
-0.061988223 -0.106919065 -0.11505928 0.06707902 -0.067484215 -0.09112409 0.14185548 -0.10080821
-0.0024305377 -0.075324744 -0.06401098 -0.04427376 -0.15757388 -0.119919084 0.12266058 -0.12865752
-0.08622364 -0.06944906 0.084830604 -0.08143238 -0.074827336 0.07412768 0.09168851 0.003150365
-0.066902414 -0.083493754 -0.13336957 0.10151589 -0.095192805 -0.013015226 -0.090927355 -0.09216784
0.08401953 0.027585855 0.048811454 0.1014569 0.033163637 0.07047353 -0.07298857 0.10083746
0.08506124 0.088709824 0.08758755 0.09868046 -0.018437484 0.058618564 -0.022282077 -0.048880797
-0.0949344 -0.0448518 -0.088957265 -0.096204534 -0.0750429 0.020425394 0.0680789 -0.07366245
0.042402927 0.07482105 0.08022611 -0.10796895 0.12644331 -0.11648137 -0.12842196 0.111733206
0.08784691 -0.075198635 -0.10476865 0.10457089 0.07345484 0.0402893 0.09932501 0.08097782
0.12854512 -0.09245098 0.058313582 -0.06743647 -0.07835282 0.072345704 0.12716863 -0.12028492

network_body._body_endoder.seq_layers.0.bias f4 [128]
00000000: 8804 7c39 a5c2 c43c 3e55 f43c ae42 0e3d
00000010: 0a2e 8f3c 0751 133c ffa6 a73b e211 ff3c
00000020: cf9f 8b3a e66d 793c 1502 923b 73ee 253d
00000030: 74d5 f53c 718f 963c 800c ce3c d8bf 383c
00000040: 711e ca3b d974 113c 1192 873c f5a5 31bc
00000050: 5616 5f3b 04da 963c e78f 1e3c 76b8 a53b
00000060: c7c4 2c3c 4061 ce3b 9257 0a3c fe19 c33b
00000070: a556 723c 32f2 263b 26e9 843c f9d2 e73b
00000080: dfef d93c ffa2 edbc 813e 013c 9317 63bc
00000090: 0d4a 1a3b 43f9 d03a 0e2f a63c 0eaf ba3c
000000a0: d84b d73c 2fd0 f4bb 740d 893d 6160 e6bc
000000b0: 3fac 133c 6ea9 9e3b 6319 ed3c bbee 763d
000000c0: 4472 2abb 3c00 a03a e01f f53c 3cdf cd3b
000000d0: 4b4f 453c 8bca babc ce11 c13c 7de5 843c
000000e0: acbd 09bc 229b f53c d35d 20bc 6d5a 953b
000000f0: 8fcc c3bb 0512 9e3c f738 dd3c 8c84 85bb
00000100: 34ec e6bb b5cf 0f3c d55e 4d3c be52 fa3c
00000110: 4808 a63c a9a4 d0bb bf72 cbbc db95 f83c
00000120: 9225 ae3c 6e44 a13b 31ac 4f3c 732a 84bb
00000130: 7e6d 30bc ce61 3ebc 9a38 0b3d d184 eebc
00000140: 13ac de3a 16c2 a63c a274 213c b43e ae3c
00000150: 231f 043c 869a fc3c 104e 053d 49e0 f93c
00000160: 57f1 02b4 5182 273c 7f47 4c3c f9be b0bc
00000170: d682 9d3c 09be 193b 82d0 df3c 513e 623c
00000180: 4ad0 053c fb92 a03d 2be7 623c 4409 d83b
00000190: 136c 0d3c c091 7cbc 6593 513c e8a4 2b3d
000001a0: 544b d5bc 6dcb 963b 697c 95bb ca1b 023c
000001b0: c4f3 013d fe1b d23b 3cf9 de3c 575e 963c
000001c0: 9e14 a73b d35f 0dbd 7d83 3d3a f895 d83b
000001d0: 95b0 d5bb 6f10 6b3b 86ea 6abb d22b 8b3c
000001e0: abe3 6b3d 9258 ef3c a69e 813c 3ff7 b33c
000001f0: 0f34 823c ecd7 bc3c 9bef 8c3a 0fce 803c
0.00024034281 0.024018595 0.029825803 0.03473156 0.017478008 0.008991486 0.005116343 0.031136457
0.0010652485 0.015223956 0.0044558146 0.040510606 0.030009009 0.018378945 0.025152445 0.011276208
0.0061681797 0.008877956 0.016549142 -0.01084279 0.0034040413 0.018414505 0.009677864 0.00505739
0.010544962 0.006298214 0.00844373 0.0059540262 0.0147911655 0.002547395 0.016224455 0.0070747104
0.026603637 -0.029008387 0.007888437 -0.013860601 0.0023542673 0.0015943426 0.02028611 0.02278855
0.026281282 -0.0074711065 0.06692019 -0.028122129 0.009013235 0.004841975 0.02894277 0.060286265
-0.002600805 0.0012207101 0.029922426 0.006282715 0.012042831 -0.022801658 0.02356806 0.01622271
-0.008407038 0.0299812 -0.009787994 0.0045578987 -0.005975313 0.019295702 0.027004702 -0.0040746387
-0.0070472006 0.008777549 0.012534817 0.030557033 0.02026762 -0.0063672853 -0.024834989 0.030344894
0.02125815 0.0049214875 0.012675331 -0.0040333807 -0.0107682925 -0.011619998 0.033989526 -0.029116066
0.0016988538 0.02035622 0.009854468 0.021270134 0.008064064 0.030835401 0.03254515 0.030502455
-1.2194992e-07 0.010223941 0.012468218 -0.021575438 0.019227426 0.0023459217 0.027321104 0.013808803
0.008167336 0.07840534 0.01384906 0.0065929014 0.008631724 -0.015415609 0.012791489 0.041905314
-0.026036896 0.004601887 -0.00456195 0.007941196 0.031726614 0.0064120283 0.027218454 0.018355532
0.0050988933 -0.034515213 0.0007229371 0.0066096745 -0.0065212944 0.003586795 -0.0035845353 0.016988669
0.057590168 0.029217038 0.01582272 0.021968482 0.015893964 0.023052178 0.001075256 0.015723256

network_body._body_endoder.seq_layers.0.weight f4 [128, 111]
00000000: d4a6 6dbd bb97 ec3d 683c 08bd 4f6f 5cbd
00000010: ce92 803e 69f9 833e 0722 28bd c8a6 833d
00000020: 4493 38bd 52ae 3dbe ffe0 54be 0311 45bc
00000030: d273 693b 9f45 54bd 0eff 003e 9812 233e
00000040: d313 94be 7ed8 c3bd 18aa b4bd e1b4 b23d
00000050: 1dd6 38bd b2f9 243e 1805 383d c3f9 e83d
00000060: 7cc5 bcbc d163 58bc 894c 33be b3c0 323d
00000070: 072b bfbd 2023 23be 13f6 343e b2ea a73c
00000080: ced6 d53d 31af 983b 5d1f 9dbd a072 5cbd
00000090: d1f4 c43e 2d0f 6d3e 578b d43d 41a8 f4bd
000000a0: b412 eb3b c0c4 79be ef3b 87bd 2d2f 8cbc
000000b0: 6052 07bd 9789 1bbe be46 f03d 2c44 87bd
000000c0: b267 913d e847 293d 1969 49be aec0 27be
000000d0: 16bf dc3a 8c29 5cbe f9c8 42bc 1445 cf3d
000000e0: 0bf5 b23c f19a c73d b769 f8bc d38e b83d
000000f0: 5733 b2bd ccf4 bfbe 1dcd f63d fd33 01bd
00000100: 5ecd 373e 8f8f 0a3e 3304 963d 1ca4 77bd
00000110: d8c0 71bd 5865 0fbe b957 ca3c cbea 263d
00000120: f10c b93b 5855 d1ba 1868 8cbd b9ab 14bd
00000130: 1b08 e0bd fb35 aabe 852b acbd 8dc3 363e
00000140: 2b63 bb3d 4ac2 15bd b6fd 4cbd b9cd a93d
00000150: 3908 7cbd ffcc 003e 9880 f6bc 01a9 823c
00000160: 113c 1b3d 791d 3fbe 130e b63c 7d08 f4bd
00000170: 160a 3c3d 9079 acbe ef35 2a3e 9b33 373d
00000180: 6149 0cbd 9e81 49be 10a3 1b3e 921d 0e3d
00000190: 2399 8fbd 6879 1abe 1c31 aa3c a714 10be
000001a0: 7b04 293d 8ed0 683c 5e7f af3c 2914 d73c
000001b0: 5a28 10bc d409 24be 8370 053e 0b5a 9dbd
000001c0: 188a 4abb 71cc 033e 4d4e 0f3e bcf0 a9bc
000001d0: e927 12bd 5280 24be c493 a3bd e07e 943d
000001e0: bd57 183e addc b53d 266a 8f3d 4966 b03d
000001f0: 500c 9bbd 4ac7 5c3d f51c 67bc 9578 9c3d
00000200: 879e 6ebb 8295 ce3b 3214 6fbd b9da 64bb
00000210: 9917 1dbe d373 053e 775c 5cbe f04a 583c
00000220: 5ffa cdbc 35a0 683d a864 81bc f742 2c3e
00000230: 19f4 5e3e 9c71 2e3e 133c f63d a26c 303e
00000240: c0a6 713d 80cd 8f3e a1ef 5e3c ebc8 90bb
00000250: 16d3 f03c 4d10 063c 97be 0ebe 0e38 6cbe
00000260: d441 903d 3a2c d93d 93dd eb3c 3900 5ebe
00000270: c371 2bbc d3d4 f63d 5d4c 023e 46f6 b1bd
00000280: b0ce 9dbe 530f cb3d 8c3c 413e e5f2 88bd
00000290: d2d1 413e 9993 33bc a340 9f3c f3e3 e3bd
000002a0: 2f8e cf3c 22b7 033c 1eb0 91bc d4b0 943d
000002b0: c317 cb3c 8a7f 23bb 0688 413d 61b2 493d
000002c0: d9f0 9fbd 7e83 373d 89a8 b53c a4a6 643e
000002d0: 2a64 fa3c 98bf f33c 4cc9 95bd 2d75 b2bd
000002e0: d805 18be fd11 c739 5540 073e 466c 083e
000002f0: 8460 1f3d 9b5e aebd a1cc 1ebd 6052 a93d
00000300: 797b 39be 910b 0f3e 355a 543e 31e4 1cbe
00000310: eedb 42bd 9ff4 873d 22e6 e3ba 8c2f 003d
00000320: 5330 333d 75da 8bbd f9a8 10bd 2527 95bd
00000330: 4c9f 7fbd 8bb9 4a3c 7b04 01bd a244 3cbc
00000340: 30e8 c73d edaa 0e3e 7472 acbd 0228 363e
00000350: b4c8 353e 7f59 233c 29de 493d dd82 81be
00000360: 95da 3cbd 6d02 b53b 7d74 59bd 3a08 c3bb
00000370: 5a46 d33c 9c92 08be be4f 2b3e 4a5c 633d
00000380: fb9e 0b3d d927 bbbd 912d 5bbe 648d bf3d
00000390: 3e1a 11be efb0 65be d8ca 22bd 053c d6bd
000003a0: e618 b23d d517 b73d 3bce 7a3d bd43 9b3c
000003b0: c54d e4bc 0290 d83d 7879 d13d 595a 1cbe
000003c0: 134e ccbd 23f8 963d 6ebd f23c 56c6 31be
000003d0: 8cfd c7b9 a8e1 8cbd 96ad d03d 96a1 1ebd
000003e0: 9b8a a83b 5f56 323b a0a5 f13d 1f4f 36bd
000003f0: 3349 3fbc 1b20 613e 9236 81bb 8e79 08bd
-0.058020428 0.11552378 -0.033260733 -0.05381709 0.25112003 0.25776222 -0.041048076 0.064282954
-0.04506232 -0.18523529 -0.20788954 -0.012027982 0.0035622013 -0.05182421 0.12597296 0.15925062
-0.28921375 -0.09562777 -0.08821505 0.08725906 -0.04512607 0.16110876 0.044926733 0.11375763
-0.023043387 -0.013207392 -0.17509665 0.043640804 -0.09334379 -0.15931368 0.17671995 0.020497654
0.10441361 0.0046595563 -0.07671998 -0.053820252 0.3846803 0.2315032 0.103781395 -0.119461544
0.0071738604 -0.2439146 -0.06603228 -0.017112339 -0.033037543 -0.15189205 0.11732243 -0.066048
0.070998564 0.04132834 -0.19668998 -0.16382095 0.0016841616 -0.21500224 -0.011888736 0.101205975
0.021845361 0.097463496 -0.030323846 0.090116166 -0.087011985 -0.37491453 0.12050841 -0.03154372
0.17949435 0.13531326 0.0732502 -0.06045924 -0.0590218 -0.14003503 0.024700033 0.04075126
0.0056472947 -0.0015970869 -0.06855792 -0.03629658 -0.10939046 -0.3324431 -0.08406738 0.17848034
0.09149774 -0.03656224 -0.050046645 0.082911916 -0.06153128 0.125782 -0.030090615 0.015949728
0.03789908 -0.18663587 0.022223508 -0.119156815 0.045908056 -0.33686495 0.16622137 0.04472695
-0.034249667 -0.19678351 0.15198922 0.03469617 -0.070116304 -0.15085375 0.02077537 -0.14070378
0.04126404 0.01420988 0.021423038 0.02625473 -0.008798683 -0.16019374 0.13031201 -0.0768319
-0.0030905064 0.12870957 0.13994713 -0.020744674 -0.035682593 -0.16064575 -0.079871684 0.07250762
0.1487722 0.08879981 0.07002668 0.08613259 -0.07570708 0.053900994 -0.014106025 0.07640187
-0.0036410408 0.006304444 -0.05836887 -0.0034920408 -0.15341033 0.13032465 -0.21519648 0.01320146
-0.0251438 0.05679341 -0.015795067 0.1682242 0.21772803 0.17035526 0.12023177 0.1722894
0.058996916 0.28086472 0.013606937 -0.0044184825 0.029397529 0.008182597 -0.13939892 -0.23068258
0.07043806 0.10604139 0.028792178 -0.21679772 -0.010464135 0.12052312 0.12724443 -0.08689551
-0.30821753 0.09915032 0.18870753 -0.066869535 0.18927696 -0.010960483 0.01944 -0.11127462
0.025336353 0.008039268 -0.017784175 0.0726029 0.024791604 -0.0024947845 0.047248863 0.04924238
-0.0780961 0.044803135 0.02217509 0.22329193 0.03056534 0.029754445 -0.07313785 -0.08713756
-0.14845979 0.0003796964 0.13208134 0.13322553 0.038910404 -0.08514138 -0.038769368 0.08267665
-0.18113507 0.13969256 0.20737536 -0.15321423 -0.047573023 0.06638455 -0.001738731 0.031295344
0.043747257 -0.06828777 -0.035317395 -0.07282857 -0.062407777 0.012373338 -0.031498414 -0.011490973
0.09761083 0.1393239 -0.08420268 0.177887 0.17752343 0.009970068 0.049284134 -0.25295153
-0.046106894 0.005523971 -0.053089608 -0.0059519084 0.025790382 -0.13337177 0.16729638 0.055507936
0.034087162 -0.0913846 -0.21404101 0.0935314 -0.14170167 -0.22430776 -0.039744228 -0.104606666
0.08696155 0.089400925 0.061231833 0.018953199 -0.027869115 0.10574342 0.102282465 -0.1526884
-0.09975829 0.07371547 0.029631343 -0.17360815 -0.00038145145 -0.06878978 0.10189359 -0.03872832
0.005143476 0.0027212126 0.117991686 -0.04450905 -0.011675167 0.21984904 -0.003943273 -0.03331905

network_body._body_endoder.seq_layers.2.bias f4 [128]
00000000: 1e19 ef3c 6315 1c3c baef 743c ebf6 cc3b
00000010: 001e ba3c abdc 463c de68 a13a 5ab1 103c
00000020: 8f41 e33b ccc3 d73c a430 c0bb dbcc dc3b
00000030: 3d96 bb3c 5da2 183c a1cc a639 7d02 b53c
00000040: 3cd5 113d 5b86 e73c e2f9 343d db68 5f3b
00000050: 4f0f dd3b d94b 0a3d 57ec f83c 073d 583c
00000060: 0b79 e33c 038f dd3c 39e6 863c 0f8b 823b
00000070: b8e7 663c e9ac be3c c160 c33c 973b 773c
00000080: 54d2 cd3c 37bd f03c e90f 0b3d 1533 c43c
00000090: 8490 b23c 444d a33c ebf2 1c3c de8d 6e3c
000000a0: 4e02 9ab9 dbc3 933c dbc0 7dbc fe25 8e3c
000000b0: 2972 213d 345e 5e3c 819f ac3c cf03 743c
000000c0: 45ff fb3b 727a cf3c e255 b73c 9124 ef3c
000000d0: d18e 623c 3939 703c 24d2 103d 2426 d83c
000000e0: cfa2 25ba 3221 e43b c68f 843b 649b 48bb
000000f0: 39fb e33c 3cea d53c e148 4d3d c6af a53c
00000100: 0f55 c43c b21f 933c 3efb d43c beb1 553c
00000110: 7a82 923c f1bf d73c f830 ed3c f95d a8bc
00000120: 5a0f 6b3c fbd7 f83b bc5f ac3c 2eb2 d83c
00000130: adeb 2d3c fec7 ddbc d619 be3b 5c9a a33c
00000140: baa6 8b3c 1dc0 b53b 8fbe 9a3c e735 073d
00000150: ecaa 903c 9ab1 cc3c 3e32 633c 84e1 d13c
00000160: bec6 ec3c 8da5 1a3d ebbe 203d 8973 153d
00000170: 4229 50bb f43a 7b3c bc68 1ebc 5be7 ca3b
00000180: 48f4 e33c c84b 9a3a 4143 913b ea10 aa3c
00000190: 5dd6 083c 3f69 543a 2f36 583c a4cd 823c
000001a0: 54b2 ae3b 9b68 943c 7dda 873c 80c3 183d
000001b0: 8489 0b3d 61f9 d23c 603f 613c 38fa 133d
000001c0: 060d cd3c 63bb 533c 80ef 853c 7b74 da3c
000001d0: bdf8 c13c b6d1 5c3c 790f 2a3d 65a9 aa3c
000001e0: 4606 243d 3c5e 5e3c 4ad8 823c a007 d73a
000001f0: 17ca 7c3c c481 ca3c e89e 2b3d 3bf2 9c3c
0.029186781 0.009526583 0.014949733 0.006255021 0.022719383 0.012137572 0.0012314578 0.008831346
0.0069353054 0.02633848 -0.0058651734 0.006738288 0.022898788 0.009316054 0.00031814448 0.022095913
0.035603747 0.028262308 0.04418362 0.0034089598 0.0067462097 0.03376374 0.030386133 0.013198144
0.027767679 0.027045732 0.0164672 0.003983862 0.014093332 0.02327581 0.023849847 0.015089891
0.025124706 0.0293871 0.03395072 0.023950139 0.021797426 0.019934304 0.0095794005 0.014560191
-0.00029374886 0.018037727 -0.015487875 0.0173521 0.039415512 0.013572264 0.021072151 0.014893486
0.0076903426 0.025326941 0.02237982 0.02919224 0.013827995 0.01466208 0.035356656 0.026385374
-0.0006318511 0.006961965 0.0040454594 -0.0030610198 0.027829753 0.026112668 0.05011833 0.020225417
0.02396634 0.01795945 0.025998708 0.013042865 0.017884482 0.026336642 0.028954014 -0.020552622
0.014346922 0.0075941063 0.021041743 0.02645215 0.0106152715 -0.027072903 0.0058014197 0.019971065
0.017047275 0.0055465833 0.018889694 0.03301039 0.017659627 0.02498703 0.013866959 0.02562023
0.028903361 0.037755538 0.039244574 0.036487136 -0.0031762873 0.01533388 -0.009668525 0.0061921305
0.027826443 0.0011771852 0.004433066 0.020760018 0.008351889 0.0008102841 0.013196512 0.015967198
0.005331317 0.018116286 0.016583676 0.03729582 0.034066692 0.025753679 0.01374802 0.0361273
0.025030624 0.012923094 0.016349554 0.02666687 0.023678178 0.013477733 0.041518662 0.020832727
0.040045045 0.013572272 0.015972275 0.0016405471 0.015429041 0.02472008 0.04189959 0.019158473

network_body._body_endoder.seq_layers.2.weight f4 [128, 128]
00000000: 1b49 d9bd a32b 27bd 2c01 723c b339 e8bc
00000010: ed50 933c 345c fb3c 5bbc f23d 8361 c23d
00000020: b90b f53d ead1 ec3d a787 e0bd 4198 203e
00000030: 911d e5bc 3904 313d 74e4 4b3c b369 af3d
00000040: b120 6fbb a41e 6abc 2f66 7c3d 37bb 22bd
00000050: 1f2a 813d d71c 0b3e cfbb e8bd 21ae ca3d
00000060: 497c ac3d bf3a 7a3d 6817 eebd cabe 073d
00000070: f9f0 dbbb 5245 78bd 8e17 133e f9fa 4dbd
00000080: 93d2 a8bd 237d 743d cc33 37be 51a8 f2bd
00000090: 6cc8 debd ac28 19be f205 bf3c dc6e a43c
000000a0: 3f86 28bc 0d42 6fbd cc25 f43c f7fc 51bc
000000b0: ad69 443e b15f 273e a8c7 f03c fbfb 703e
000000c0: 6612 ca3d e735 e93d 4698 3abe 1e25 87bd
000000d0: 4a3f 23be 5d5a babd 6c07 ef3d aa11 0a3b
000000e0: 5a68 4fbe c8cd debd 9ca9 473d 3a43 b93c
000000f0: 2da2 25bd d7ff 023e 0bd8 09bd 6bc1 dc3c
00000100: 360e a2bd c92a 96bc b87e e2bb 0a0b b9bb
00000110: 1869 ce3d 031d 49bb fe2f bcbc 4db8 143e
00000120: 99e2 b33d 90b9 1abe 9c1b 0f3e fca7 1b3b
00000130: 83fb 48bc 7769 f13d 174c 683c f942 9e3d
00000140: 452e dabd 5f2f b33d 1344 c5bc c0b2 57bd
00000150: cfe9 e93d ab84 5f3c dd91 d83d 78d1 093e
00000160: b528 35bc b8a7 a73d d24f c8bd cb32 2b3d
00000170: 7326 32be c190 b33d 6eb3 ab3d 83c5 ef3d
00000180: 0bba a13b a970 623d 55f1 f33c 8568 3f3d
00000190: 7e31 3a3d 3a85 e43d b02b d8bd 6f49 803d
000001a0: cd40 0dbe ca0b a33d 6153 0abe 6f32 c13d
000001b0: 75c0 d1bc e00f ddbd 889b 35bd d440 efbc
000001c0: 4f71 e8bc 7a9a 96bc 8159 66be 050c 063e
000001d0: c47a cfbc ee6b db3c 4529 19be 6229 86bd
000001e0: fecd 2a3e f9b1 15bc 42c5 80bd f7de 00bd
000001f0: aed4 9c3d e1cf 6a3d 5240 ebbd 9c26 483d
00000200: c8ed 333d d5e9 1d3c 6948 433e fb59 2e3d
00000210: 2678 ae3d 5a76 01be 2f2a ba3c 0b0c fb3c
00000220: 2eee f8ba ee97 37be 2619 d43d c7e8 10bd
00000230: 6485 10bd ade5 9cbd 3314 ecbd bc62 193d
00000240: 5129 f23d b5f4 02be 843f bf3d 7501 ac3c
00000250: 46bc a5bd e3c8 41bb 99ab 74bd e711 a0bc
00000260: eca0 dc3c abf0 75be 869e 363d dd6f b1bd
00000270: 9658 eabd 749e d53d 4b43 cabc 2603 083c
00000280: 58ba 3d3e 2bc2 61bd 4c77 b33d 14a1 55be
00000290: 0b97 d63d dc61 bf3c 0f9d cabb f0cf c83d
000002a0: d78e 79bd 5c32 80be 03ec 513d d585 163c
000002b0: 9a26 b5bd 2a3d 11be 42ba 85bd dfe6 15be
000002c0: 15e2 403d f2f7 3d3d c325 22bd 9c51 afbd
000002d0: 96d3 14bd ae79 9f3d b496 a9bc 4abc 36bd
000002e0: 0c97 55bd cf68 6b3c f8c3 263d db88 aabd
000002f0: 1a40 bf3d 6423 0ebd 7225 bfbc 967e 8abd
00000300: 5e5b d33d 7ca5 a13d f577 fc3d accb f4bc
00000310: 47e5 6e3c 1e8f 73bd 9d56 483d cb68 d9bc
00000320: 4c18 5e3b 571a dd3c 2d92 0cbd 2fb8 52bc
00000330: 13d0 6cbc c590 49be 9a7d 58bd 2b0f 0f3e
00000340: 8e02 363e 5d63 293d ec64 0d3d d720 333e
00000350: 079a 1c3e 72e9 333d 8945 d43d 75c5 3dbe
00000360: 43a5 e53d 32de c23c 9e34 f23d 005b 033e
00000370: f1a4 49be b054 263e f974 103d 4c86 bb3c
00000380: 0dc7 d6bd f639 7abd b28a afba 6a85 42bd
00000390: c9dc 39bd 6343 81be 79eb 4d3d e1bf 02be
000003a0: d1b9 4c3d eeaf 34be 347e 46bd 4ee8 3d3e
000003b0: f056 b03d ea3d 67be c3aa aabd 92ae 5ebc
000003c0: 7ac7 9abd d1a5 a63d 219e 2d3e b81b aebd
000003d0: 5dd9 03be 5ab4 9abd 2716 ab3d 75f1 88bd
000003e0: cf75 77be 7c01 0cbe 8123 03bd 41eb e63d
000003f0: a134 25be 5971 f2bd d67d d83d 0afa 66bd
-0.10609647 -0.0408131 0.014770787 -0.028347826 0.017982924 0.030683614 0.11852332 0.09491255
0.119651265 0.115634754 -0.10963374 0.1568308 -0.0279682 0.043216918 0.012444604 0.085650824
-0.0036487991 -0.014289532 0.061620887 -0.039729323 0.06306862 0.1358522 -0.11363947 0.09896494
0.08422143 0.06109118 -0.11625558 0.033140935 -0.006712076 -0.060612984 0.14364454 -0.050288174
-0.08243289 0.059689652 -0.17890853 -0.1184851 -0.10878071 -0.14956921 0.023318265 0.020072393
-0.010285913 -0.0584126 0.02980318 -0.012816659 0.19180937 0.16345097 0.029392079 0.23533623
0.098667905 0.11387234 -0.1822215 -0.065988764 -0.15942112 -0.09099267 0.116713375 0.0021067658
-0.2025465 -0.108790934 0.048745736 0.022615064 -0.040437866 0.12792908 -0.0336533 0.026947698
-0.07912867 -0.018330948 -0.0069120787 -0.005647068 0.10078639 -0.0030687458 -0.022972103 0.1452343
0.087834544 -0.15109849 0.13975376 0.002375125 -0.012266996 0.11787694 0.0141782975 0.07727618
-0.106533565 0.0874927 -0.024080312 -0.052660704 0.114215486 0.01364247 0.10574696 0.13458812
-0.011057069 0.08186287 -0.097808495 0.041796487 -0.1739748 0.08767844 0.08383833 0.11707594
0.004935508 0.055283222 0.029778162 0.046730537 0.045457356 0.111582235 -0.10555208 0.06264006
-0.13794251 0.07961233 -0.13508369 0.094334476 -0.025604466 -0.107940435 -0.04433778 -0.029205717
-0.028374342 -0.018384207 -0.2249508 0.13090523 -0.025327094 0.026784863 -0.1495715 -0.06550862
0.16680142 -0.00913667 -0.06287624 -0.031462636 0.07657753 0.057327155 -0.114868775 0.048864946
0.043927938 0.009638269 0.19070591 0.04256628 0.0851901 -0.12642804 0.022725193 0.030645391
-0.0018991882 -0.1792905 0.10356359 -0.035378244 -0.03528346 -0.07660995 -0.1152729 0.037447676
0.11824287 -0.12788661 0.093382865 0.020996789 -0.08092551 -0.00295692 -0.05973396 -0.019539787
0.026932202 -0.24017589 0.044584773 -0.08663914 -0.11442678 0.10430613 -0.02469029 0.008301532
0.18528116 -0.055116814 0.087629884 -0.20862228 0.10478028 0.023362093 -0.0061832736 0.09805286
-0.06092724 -0.2503842 0.05125047 0.0091871815 -0.08845253 -0.14183488 -0.065296665 -0.14638852
0.04709061 0.046379037 -0.039586794 -0.08560488 -0.036334597 0.077868804 -0.020701744 -0.04461316
-0.052146003 0.01436825 0.040714234 -0.08326884 0.09338398 -0.03470172 -0.023333285 -0.067624256
0.10320161 0.07892892 0.123275675 -0.029882275 0.014581031 -0.05946266 0.048910726 -0.026539227
0.0033888994 0.026990099 -0.03431909 -0.012861296 -0.014453906 -0.19684131 -0.052854158 0.1397063
0.17774412 0.041354526 0.034520075 0.17492996 0.15293132 0.043923803 0.10364825 -0.18532355
0.11213162 0.023787592 0.11826442 0.12827682 -0.19691826 0.16243243 0.035267804 0.022891186
-0.10487185 -0.061090432 -0.0013392775 -0.047490515 -0.045376573 -0.25246724 0.050273392 -0.12768508
0.049981896 -0.17645237 -0.0484602 0.18545648 0.08610332 -0.22582212 -0.083333515 -0.0135914255
-0.075575784 0.08137096 0.16954853 -0.08501381 -0.12875886 -0.075539306 0.083538346 -0.06686679
-0.24166034 -0.13672441 -0.03201628 0.1127534 -0.16133358 -0.118380256 0.10570876 -0.0563908
