results/opponentR/OpponentR/OpponentR-5999948.pt (torch, 760415 bytes, 30 tensors)

network_body._body_endoder.seq_layers.0.weight f4 [128, 111]
0	0xbd6da6d4	-0.058020428
1	0x3dec97bb	0.11552378
2	0xbd083c68	-0.033260733
3	0xbd5c6f4f	-0.05381709
4	0x3e8092ce	0.25112003
5	0x3e83f969	0.25776222
6	0xbd282207	-0.041048076
7	0x3d83a6c8	0.064282954
8	0xbd389344	-0.04506232
9	0xbe3dae52	-0.18523529
10	0xbe54e0ff	-0.20788954
11	0xbc451103	-0.012027982
12	0x3b6973d2	0.0035622013
13	0xbd54459f	-0.05182421
14	0x3e00ff0e	0.12597296
15	0x3e231298	0.15925062
16	0xbe9413d3	-0.28921375
17	0xbdc3d87e	-0.09562777
18	0xbdb4aa18	-0.08821505
19	0x3db2b4e1	0.08725906
20	0xbd38d61d	-0.04512607
21	0x3e24f9b2	0.16110876
22	0x3d380518	0.044926733
23	0x3de8f9c3	0.11375763
24	0xbcbcc57c	-0.023043387
25	0xbc5863d1	-0.013207392
26	0xbe334c89	-0.17509665
27	0x3d32c0b3	0.043640804
28	0xbdbf2b07	-0.09334379
29	0xbe232320	-0.15931368
30	0x3e34f613	0.17671995
31	0x3ca7eab2	0.020497654
32	0x3dd5d6ce	0.10441361
33	0x3b98af31	0.0046595563
34	0xbd9d1f5d	-0.07671998
35	0xbd5c72a0	-0.053820252
36	0x3ec4f4d1	0.3846803
37	0x3e6d0f2d	0.2315032
38	0x3dd48b57	0.103781395
39	0xbdf4a841	-0.119461544
40	0x3beb12b4	0.0071738604
41	0xbe79c4c0	-0.2439146
42	0xbd873bef	-0.06603228
43	0xbc8c2f2d	-0.017112339
44	0xbd075260	-0.033037543
45	0xbe1b8997	-0.15189205
46	0x3df046be	0.11732243
47	0xbd87442c	-0.066048
48	0x3d9167b2	0.070998564
49	0x3d2947e8	0.04132834
50	0xbe496919	-0.19668998
51	0xbe27c0ae	-0.16382095
52	0x3adcbf16	0.0016841616
53	0xbe5c298c	-0.21500224
54	0xbc42c8f9	-0.011888736
55	0x3dcf4514	0.101205975
56	0x3cb2f50b	0.021845361
57	0x3dc79af1	0.097463496
58	0xbcf869b7	-0.030323846
59	0x3db88ed3	0.090116166
60	0xbdb23357	-0.087011985
61	0xbebff4cc	-0.37491453
62	0x3df6cd1d	0.12050841
63	0xbd0133fd	-0.03154372
64	0x3e37cd5e	0.17949435
65	0x3e0a8f8f	0.13531326
66	0x3d960433	0.0732502
67	0xbd77a41c	-0.06045924
68	0xbd71c0d8	-0.0590218
69	0xbe0f6558	-0.14003503
70	0x3cca57b9	0.024700033
71	0x3d26eacb	0.04075126
72	0x3bb90cf1	0.0056472947
73	0xbad15558	-0.0015970869
74	0xbd8c6818	-0.06855792
75	0xbd14abb9	-0.03629658
76	0xbde0081b	-0.10939046
77	0xbeaa35fb	-0.3324431
78	0xbdac2b85	-0.08406738
79	0x3e36c38d	0.17848034
80	0x3dbb632b	0.09149774
81	0xbd15c24a	-0.03656224
82	0xbd4cfdb6	-0.050046645
83	0x3da9cdb9	0.082911916
84	0xbd7c0839	-0.06153128
85	0x3e00ccff	0.125782
86	0xbcf68098	-0.030090615
87	0x3c82a901	0.015949728
88	0x3d1b3c11	0.03789908
89	0xbe3f1d79	-0.18663587
90	0x3cb60e13	0.022223508
91	0xbdf4087d	-0.119156815
92	0x3d3c0a16	0.045908056
93	0xbeac7990	-0.33686495
94	0x3e2a35ef	0.16622137
95	0x3d37339b	0.04472695
96	0xbd0c4961	-0.034249667
97	0xbe49819e	-0.19678351
98	0x3e1ba310	0.15198922
99	0x3d0e1d92	0.03469617
100	0xbd8f9923	-0.070116304
101	0xbe1a7968	-0.15085375
102	0x3caa311c	0.02077537
103	0xbe1014a7	-0.14070378
104	0x3d29047b	0.04126404
105	0x3c68d08e	0.01420988
106	0x3caf7f5e	0.021423038
107	0x3cd71429	0.02625473
108	0xbc10285a	-0.008798683
109	0xbe2409d4	-0.16019374
110	0x3e057083	0.13031201
111	0xbd9d5a0b	-0.0768319
112	0xbb4a8a18	-0.0030905064
113	0x3e03cc71	0.12870957
114	0x3e0f4e4d	0.13994713
115	0xbca9f0bc	-0.020744674
116	0xbd1227e9	-0.035682593
117	0xbe248052	-0.16064575
118	0xbda393c4	-0.079871684
119	0x3d947ee0	0.07250762
120	0x3e1857bd	0.1487722
121	0x3db5dcad	0.08879981
122	0x3d8f6a26	0.07002668
123	0x3db06649	0.08613259
124	0xbd9b0c50	-0.07570708
125	0x3d5cc74a	0.053900994
126	0xbc671cf5	-0.014106025
127	0x3d9c7895	0.07640187
128	0xbb6e9e87	-0.0036410408
129	0x3bce9582	0.006304444
130	0xbd6f1432	-0.05836887
131	0xbb64dab9	-0.0034920408
132	0xbe1d1799	-0.15341033
133	0x3e0573d3	0.13032465
134	0xbe5c5c77	-0.21519648
135	0x3c584af0	0.01320146
136	0xbccdfa5f	-0.0251438
137	0x3d68a035	0.05679341
138	0xbc8164a8	-0.015795067
139	0x3e2c42f7	0.1682242
140	0x3e5ef419	0.21772803
141	0x3e2e719c	0.17035526
142	0x3df63c13	0.12023177
143	0x3e306ca2	0.1722894
144	0x3d71a6c0	0.058996916
145	0x3e8fcd80	0.28086472
146	0x3c5eefa1	0.013606937
147	0xbb90c8eb	-0.0044184825
148	0x3cf0d316	0.029397529
149	0x3c06104d	0.008182597
150	0xbe0ebe97	-0.13939892
151	0xbe6c380e	-0.23068258
152	0x3d9041d4	0.07043806
153	0x3dd92c3a	0.10604139
154	0x3cebdd93	0.028792178
155	0xbe5e0039	-0.21679772
156	0xbc2b71c3	-0.010464135
157	0x3df6d4d3	0.12052312
158	0x3e024c5d	0.12724443
159	0xbdb1f646	-0.08689551
160	0xbe9dceb0	-0.30821753
161	0x3dcb0f53	0.09915032
162	0x3e413c8c	0.18870753
163	0xbd88f2e5	-0.066869535
164	0x3e41d1d2	0.18927696
165	0xbc339399	-0.010960483
166	0x3c9f40a3	0.01944
167	0xbde3e3f3	-0.11127462
168	0x3ccf8e2f	0.025336353
169	0x3c03b722	0.008039268
170	0xbc91b01e	-0.017784175
171	0x3d94b0d4	0.0726029
172	0x3ccb17c3	0.024791604
173	0xbb237f8a	-0.0024947845
174	0x3d418806	0.047248863
175	0x3d49b261	0.04924238
176	0xbd9ff0d9	-0.0780961
177	0x3d37837e	0.044803135
178	0x3cb5a889	0.02217509
179	0x3e64a6a4	0.22329193
180	0x3cfa642a	0.03056534
181	0x3cf3bf98	0.029754445
182	0xbd95c94c	-0.07313785
183	0xbdb2752d	-0.08713756
184	0xbe1805d8	-0.14845979
185	0x39c711fd	0.0003796964
186	0x3e074055	0.13208134
187	0x3e086c46	0.13322553
188	0x3d1f6084	0.038910404
189	0xbdae5e9b	-0.08514138
190	0xbd1ecca1	-0.038769368
191	0x3da95260	0.08267665
192	0xbe397b79	-0.18113507
193	0x3e0f0b91	0.13969256
194	0x3e545a35	0.20737536
195	0xbe1ce431	-0.15321423
196	0xbd42dbee	-0.047573023
197	0x3d87f49f	0.06638455
198	0xbae3e622	-0.001738731
199	0x3d002f8c	0.031295344
200	0x3d333053	0.043747257
201	0xbd8bda75	-0.06828777
202	0xbd10a8f9	-0.035317395
203	0xbd952725	-0.07282857
204	0xbd7f9f4c	-0.062407777
205	0x3c4ab98b	0.012373338
206	0xbd01047b	-0.031498414
207	0xbc3c44a2	-0.011490973
208	0x3dc7e830	0.09761083
209	0x3e0eaaed	0.1393239
210	0xbdac7274	-0.08420268
211	0x3e362802	0.177887
212	0x3e35c8b4	0.17752343
213	0x3c23597f	0.009970068
214	0x3d49de29	0.049284134
215	0xbe8182dd	-0.25295153
216	0xbd3cda95	-0.046106894
217	0x3bb5026d	0.005523971
218	0xbd59747d	-0.053089608
219	0xbbc3083a	-0.0059519084
220	0x3cd3465a	0.025790382
221	0xbe08929c	-0.13337177
222	0x3e2b4fbe	0.16729638
223	0x3d635c4a	0.055507936
224	0x3d0b9efb	0.034087162
225	0xbdbb27d9	-0.0913846
226	0xbe5b2d91	-0.21404101
227	0x3dbf8d64	0.0935314
228	0xbe111a3e	-0.14170167
229	0xbe65b0ef	-0.22430776
230	0xbd22cad8	-0.039744228
231	0xbdd63c05	-0.104606666
232	0x3db218e6	0.08696155
233	0x3db717d5	0.089400925
234	0x3d7ace3b	0.061231833
235	0x3c9b43bd	0.018953199
236	0xbce44dc5	-0.027869115
237	0x3dd89002	0.10574342
238	0x3dd17978	0.102282465
239	0xbe1c5a59	-0.1526884
240	0xbdcc4e13	-0.09975829
241	0x3d96f823	0.07371547
242	0x3cf2bd6e	0.029631343
243	0xbe31c656	-0.17360815
244	0xb9c7fd8c	-0.00038145145
245	0xbd8ce1a8	-0.06878978
246	0x3dd0ad96	0.10189359
247	0xbd1ea196	-0.03872832
248	0x3ba88a9b	0.005143476
249	0x3b32565f	0.0027212126
250	0x3df1a5a0	0.117991686
251	0xbd364f1f	-0.04450905
252	0xbc3f4933	-0.011675167
253	0x3e61201b	0.21984904
254	0xbb813692	-0.003943273
255	0xbd08798e	-0.03331905

network_body._body_endoder.seq_layers.0.bias f4 [128]
0	0x397c0488	0.00024034281
1	0x3cc4c2a5	0.024018595
2	0x3cf4553e	0.029825803
3	0x3d0e42ae	0.03473156
4	0x3c8f2e0a	0.017478008
5	0x3c135107	0.008991486
6	0x3ba7a6ff	0.005116343
7	0x3cff11e2	0.031136457
8	0x3a8b9fcf	0.0010652485
9	0x3c796de6	0.015223956
10	0x3b920215	0.0044558146
11	0x3d25ee73	0.040510606
12	0x3cf5d574	0.030009009
13	0x3c968f71	0.018378945
14	0x3cce0c80	0.025152445
15	0x3c38bfd8	0.011276208
16	0x3bca1e71	0.0061681797
17	0x3c1174d9	0.008877956
18	0x3c879211	0.016549142
19	0xbc31a5f5	-0.01084279
20	0x3b5f1656	0.0034040413
21	0x3c96da04	0.018414505
22	0x3c1e8fe7	0.009677864
23	0x3ba5b876	0.00505739
24	0x3c2cc4c7	0.010544962
25	0x3bce6140	0.006298214
26	0x3c0a5792	0.00844373
27	0x3bc319fe	0.0059540262
28	0x3c7256a5	0.0147911655
29	0x3b26f232	0.002547395
30	0x3c84e926	0.016224455
31	0x3be7d2f9	0.0070747104
32	0x3cd9efdf	0.026603637
33	0xbceda2ff	-0.029008387
34	0x3c013e81	0.007888437
35	0xbc631793	-0.013860601
36	0x3b1a4a0d	0.0023542673
37	0x3ad0f943	0.0015943426
38	0x3ca62f0e	0.02028611
39	0x3cbaaf0e	0.02278855
40	0x3cd74bd8	0.026281282
41	0xbbf4d02f	-0.0074711065
42	0x3d890d74	0.06692019
43	0xbce66061	-0.028122129
44	0x3c13ac3f	0.009013235
45	0x3b9ea96e	0.004841975
46	0x3ced1963	0.02894277
47	0x3d76eebb	0.060286265
48	0xbb2a7244	-0.002600805
49	0x3aa0003c	0.0012207101
50	0x3cf51fe0	0.029922426
51	0x3bcddf3c	0.006282715
52	0x3c454f4b	0.012042831
53	0xbcbaca8b	-0.022801658
54	0x3cc111ce	0.02356806
55	0x3c84e57d	0.01622271
56	0xbc09bdac	-0.008407038
57	0x3cf59b22	0.0299812
58	0xbc205dd3	-0.009787994
59	0x3b955a6d	0.0045578987
60	0xbbc3cc8f	-0.005975313
61	0x3c9e1205	0.019295702
62	0x3cdd38f7	0.027004702
63	0xbb85848c	-0.0040746387
64	0xbbe6ec34	-0.0070472006
65	0x3c0fcfb5	0.008777549
66	0x3c4d5ed5	0.012534817
67	0x3cfa52be	0.030557033
68	0x3ca60848	0.02026762
69	0xbbd0a4a9	-0.0063672853
70	0xbccb72bf	-0.024834989
71	0x3cf895db	0.030344894
72	0x3cae2592	0.02125815
73	0x3ba1446e	0.0049214875
74	0x3c4fac31	0.012675331
75	0xbb842a73	-0.0040333807
76	0xbc306d7e	-0.0107682925
77	0xbc3e61ce	-0.011619998
78	0x3d0b389a	0.033989526
79	0xbcee84d1	-0.029116066
80	0x3adeac13	0.0016988538
81	0x3ca6c216	0.02035622
82	0x3c2174a2	0.009854468
83	0x3cae3eb4	0.021270134
84	0x3c041f23	0.008064064
85	0x3cfc9a86	0.030835401
86	0x3d054e10	0.03254515
87	0x3cf9e049	0.030502455
88	0xb402f157	-1.2194992e-07
89	0x3c278251	0.010223941
90	0x3c4c477f	0.012468218
91	0xbcb0bef9	-0.021575438
92	0x3c9d82d6	0.019227426
93	0x3b19be09	0.0023459217
94	0x3cdfd082	0.027321104
95	0x3c623e51	0.013808803
96	0x3c05d04a	0.008167336
97	0x3da092fb	0.07840534
98	0x3c62e72b	0.01384906
99	0x3bd80944	0.0065929014
100	0x3c0d6c13	0.008631724
101	0xbc7c91c0	-0.015415609
102	0x3c519365	0.012791489
103	0x3d2ba4e8	0.041905314
104	0xbcd54b54	-0.026036896
105	0x3b96cb6d	0.004601887
106	0xbb957c69	-0.00456195
107	0x3c021bca	0.007941196
108	0x3d01f3c4	0.031726614
109	0x3bd21bfe	0.0064120283
110	0x3cdef93c	0.027218454
111	0x3c965e57	0.018355532
112	0x3ba7149e	0.0050988933
113	0xbd0d5fd3	-0.034515213
114	0x3a3d837d	0.0007229371
115	0x3bd895f8	0.0066096745
116	0xbbd5b095	-0.0065212944
117	0x3b6b106f	0.003586795
118	0xbb6aea86	-0.0035845353
119	0x3c8b2bd2	0.016988669
120	0x3d6be3ab	0.057590168
121	0x3cef5892	0.029217038
122	0x3c819ea6	0.01582272
123	0x3cb3f73f	0.021968482
124	0x3c82340f	0.015893964
125	0x3cbcd7ec	0.023052178
126	0x3a8cef9b	0.001075256
127	0x3c80ce0f	0.015723256

network_body._body_endoder.seq_layers.2.weight f4 [128, 128]
0	0xbdd9491b	-0.10609647
1	0xbd272ba3	-0.0408131
2	0x3c72012c	0.014770787
3	0xbce839b3	-0.028347826
4	0x3c9350ed	0.017982924
5	0x3cfb5c34	0.030683614
6	0x3df2bc5b	0.11852332
7	0x3dc26183	0.09491255
8	0x3df50bb9	0.119651265
9	0x3decd1ea	0.115634754
10	0xbde087a7	-0.10963374
11	0x3e209841	0.1568308
12	0xbce51d91	-0.0279682
13	0x3d310439	0.043216918
14	0x3c4be474	0.012444604
15	0x3daf69b3	0.085650824
16	0xbb6f20b1	-0.0036487991
17	0xbc6a1ea4	-0.014289532
18	0x3d7c662f	0.061620887
19	0xbd22bb37	-0.039729323
20	0x3d812a1f	0.06306862
21	0x3e0b1cd7	0.1358522
22	0xbde8bbcf	-0.11363947
23	0x3dcaae21	0.09896494
24	0x3dac7c49	0.08422143
25	0x3d7a3abf	0.06109118
26	0xbdee1768	-0.11625558
27	0x3d07beca	0.033140935
28	0xbbdbf0f9	-0.006712076
29	0xbd784552	-0.060612984
30	0x3e13178e	0.14364454
31	0xbd4dfaf9	-0.050288174
32	0xbda8d293	-0.08243289
33	0x3d747d23	0.059689652
34	0xbe3733cc	-0.17890853
35	0xbdf2a851	-0.1184851
36	0xbddec86c	-0.10878071
37	0xbe1928ac	-0.14956921
38	0x3cbf05f2	0.023318265
39	0x3ca46edc	0.020072393
40	0xbc28863f	-0.010285913
41	0xbd6f420d	-0.0584126
42	0x3cf425cc	0.02980318
43	0xbc51fcf7	-0.012816659
44	0x3e4469ad	0.19180937
45	0x3e275fb1	0.16345097
46	0x3cf0c7a8	0.029392079
47	0x3e70fbfb	0.23533623
48	0x3dca1266	0.098667905
49	0x3de935e7	0.11387234
50	0xbe3a9846	-0.1822215
51	0xbd87251e	-0.065988764
52	0xbe233f4a	-0.15942112
53	0xbdba5a5d	-0.09099267
54	0x3def076c	0.116713375
55	0x3b0a11aa	0.0021067658
56	0xbe4f685a	-0.2025465
57	0xbddecdc8	-0.108790934
58	0x3d47a99c	0.048745736
59	0x3cb9433a	0.022615064
60	0xbd25a22d	-0.040437866
61	0x3e02ffd7	0.12792908
62	0xbd09d80b	-0.0336533
63	0x3cdcc16b	0.026947698
64	0xbda20e36	-0.07912867
65	0xbc962ac9	-0.018330948
66	0xbbe27eb8	-0.0069120787
67	0xbbb90b0a	-0.005647068
68	0x3dce6918	0.10078639
69	0xbb491d03	-0.0030687458
70	0xbcbc2ffe	-0.022972103
71	0x3e14b84d	0.1452343
72	0x3db3e299	0.087834544
73	0xbe1ab990	-0.15109849
74	0x3e0f1b9c	0.13975376
75	0x3b1ba7fc	0.002375125
76	0xbc48fb83	-0.012266996
77	0x3df16977	0.11787694
78	0x3c684c17	0.0141782975
79	0x3d9e42f9	0.07727618
80	0xbdda2e45	-0.106533565
81	0x3db32f5f	0.0874927
82	0xbcc54413	-0.024080312
83	0xbd57b2c0	-0.052660704
84	0x3de9e9cf	0.114215486
85	0x3c5f84ab	0.01364247
86	0x3dd891dd	0.10574696
87	0x3e09d178	0.13458812
88	0xbc3528b5	-0.011057069
89	0x3da7a7b8	0.08186287
90	0xbdc84fd2	-0.097808495
91	0x3d2b32cb	0.041796487
92	0xbe322673	-0.1739748
93	0x3db390c1	0.08767844
94	0x3dabb36e	0.08383833
95	0x3defc583	0.11707594
96	0x3ba1ba0b	0.004935508
97	0x3d6270a9	0.055283222
98	0x3cf3f155	0.029778162
99	0x3d3f6885	0.046730537
100	0x3d3a317e	0.045457356
101	0x3de4853a	0.111582235
102	0xbdd82bb0	-0.10555208
103	0x3d80496f	0.06264006
104	0xbe0d40cd	-0.13794251
105	0x3da30bca	0.07961233
106	0xbe0a5361	-0.13508369
107	0x3dc1326f	0.094334476
108	0xbcd1c075	-0.025604466
109	0xbddd0fe0	-0.107940435
110	0xbd359b88	-0.04433778
111	0xbcef40d4	-0.029205717
112	0xbce8714f	-0.028374342
113	0xbc969a7a	-0.018384207
114	0xbe665981	-0.2249508
115	0x3e060c05	0.13090523
116	0xbccf7ac4	-0.025327094
117	0x3cdb6bee	0.026784863
118	0xbe192945	-0.1495715
119	0xbd862962	-0.06550862
120	0x3e2acdfe	0.16680142
121	0xbc15b1f9	-0.00913667
122	0xbd80c542	-0.06287624
123	0xbd00def7	-0.031462636
124	0x3d9cd4ae	0.07657753
125	0x3d6acfe1	0.057327155
126	0xbdeb4052	-0.114868775
127	0x3d48269c	0.048864946
128	0x3d33edc8	0.043927938
129	0x3c1de9d5	0.009638269
130	0x3e434869	0.19070591
131	0x3d2e59fb	0.04256628
132	0x3dae7826	0.0851901
133	0xbe01765a	-0.12642804
134	0x3cba2a2f	0.022725193
135	0x3cfb0c0b	0.030645391
136	0xbaf8ee2e	-0.0018991882
137	0xbe3797ee	-0.1792905
138	0x3dd41926	0.10356359
139	0xbd10e8c7	-0.035378244
140	0xbd108564	-0.03528346
141	0xbd9ce5ad	-0.07660995
142	0xbdec1433	-0.1152729
143	0x3d1962bc	0.037447676
144	0x3df22951	0.11824287
145	0xbe02f4b5	-0.12788661
146	0x3dbf3f84	0.093382865
147	0x3cac0175	0.020996789
148	0xbda5bc46	-0.08092551
149	0xbb41c8e3	-0.00295692
150	0xbd74ab99	-0.05973396
151	0xbca011e7	-0.019539787
152	0x3cdca0ec	0.026932202
153	0xbe75f0ab	-0.24017589
154	0x3d369e86	0.044584773
155	0xbdb16fdd	-0.08663914
156	0xbdea5896	-0.11442678
157	0x3dd59e74	0.10430613
158	0xbcca434b	-0.02469029
159	0x3c080326	0.008301532
160	0x3e3dba58	0.18528116
161	0xbd61c22b	-0.055116814
162	0x3db3774c	0.087629884
163	0xbe55a114	-0.20862228
164	0x3dd6970b	0.10478028
165	0x3cbf61dc	0.023362093
166	0xbbca9d0f	-0.0061832736
167	0x3dc8cff0	0.09805286
168	0xbd798ed7	-0.06092724
169	0xbe80325c	-0.2503842
170	0x3d51ec03	0.05125047
171	0x3c1685d5	0.0091871815
172	0xbdb5269a	-0.08845253
173	0xbe113d2a	-0.14183488
174	0xbd85ba42	-0.065296665
175	0xbe15e6df	-0.14638852
176	0x3d40e215	0.04709061
177	0x3d3df7f2	0.046379037
178	0xbd2225c3	-0.039586794
179	0xbdaf519c	-0.08560488
180	0xbd14d396	-0.036334597
181	0x3d9f79ae	0.077868804
182	0xbca996b4	-0.020701744
183	0xbd36bc4a	-0.04461316
184	0xbd55970c	-0.052146003
185	0x3c6b68cf	0.01436825
186	0x3d26c3f8	0.040714234
187	0xbdaa88db	-0.08326884
188	0x3dbf401a	0.09338398
189	0xbd0e2364	-0.03470172
190	0xbcbf2572	-0.023333285
191	0xbd8a7e96	-0.067624256
192	0x3dd35b5e	0.10320161
193	0x3da1a57c	0.07892892
194	0x3dfc77f5	0.123275675
195	0xbcf4cbac	-0.029882275
196	0x3c6ee547	0.014581031
197	0xbd738f1e	-0.05946266
198	0x3d48569d	0.048910726
199	0xbcd968cb	-0.026539227
200	0x3b5e184c	0.0033888994
201	0x3cdd1a57	0.026990099
202	0xbd0c922d	-0.03431909
203	0xbc52b82f	-0.012861296
204	0xbc6cd013	-0.014453906
205	0xbe4990c5	-0.19684131
206	0xbd587d9a	-0.052854158
207	0x3e0f0f2b	0.1397063
208	0x3e36028e	0.17774412
209	0x3d29635d	0.041354526
210	0x3d0d64ec	0.034520075
211	0x3e3320d7	0.17492996
212	0x3e1c9a07	0.15293132
213	0x3d33e972	0.043923803
214	0x3dd44589	0.10364825
215	0xbe3dc575	-0.18532355
216	0x3de5a543	0.11213162
217	0x3cc2de32	0.023787592
218	0x3df2349e	0.11826442
219	0x3e035b00	0.12827682
220	0xbe49a4f1	-0.19691826
221	0x3e2654b0	0.16243243
222	0x3d1074f9	0.035267804
223	0x3cbb864c	0.022891186
224	0xbdd6c70d	-0.10487185
225	0xbd7a39f6	-0.061090432
226	0xbaaf8ab2	-0.0013392775
227	0xbd42856a	-0.047490515
228	0xbd39dcc9	-0.045376573
229	0xbe814363	-0.25246724
230	0x3d4deb79	0.050273392
231	0xbe02bfe1	-0.12768508
232	0x3d4cb9d1	0.049981896
233	0xbe34afee	-0.17645237
234	0xbd467e34	-0.0484602
235	0x3e3de84e	0.18545648
236	0x3db056f0	0.08610332
237	0xbe673dea	-0.22582212
238	0xbdaaaac3	-0.083333515
239	0xbc5eae92	-0.0135914255
240	0xbd9ac77a	-0.075575784
241	0x3da6a5d1	0.08137096
242	0x3e2d9e21	0.16954853
243	0xbdae1bb8	-0.08501381
244	0xbe03d95d	-0.12875886
245	0xbd9ab45a	-0.075539306
246	0x3dab1627	0.083538346
247	0xbd88f175	-0.06686679
248	0xbe7775cf	-0.24166034
249	0xbe0c017c	-0.13672441
250	0xbd032381	-0.03201628
251	0x3de6eb41	0.1127534
252	0xbe2534a1	-0.16133358
253	0xbdf27159	-0.118380256
254	0x3dd87dd6	0.10570876
255	0xbd66fa0a	-0.0563908

network_body._body_endoder.seq_layers.2.bias f4 [128]
0	0x3cef191e	0.029186781
1	0x3c1c1563	0.009526583
2	0x3c74efba	0.014949733
3	0x3bccf6eb	0.006255021
4	0x3cba1e00	0.022719383
5	0x3c46dcab	0.012137572
6	0x3aa168de	0.0012314578
7	0x3c10b15a	0.008831346
8	0x3be3418f	0.0069353054
9	0x3cd7c3cc	0.02633848
10	0xbbc030a4	-0.0058651734
11	0x3bdcccdb	0.006738288
12	0x3cbb963d	0.022898788
13	0x3c18a25d	0.009316054
14	0x39a6cca1	0.00031814448
15	0x3cb5027d	0.022095913
16	0x3d11d53c	0.035603747
17	0x3ce7865b	0.028262308
18	0x3d34f9e2	0.04418362
19	0x3b5f68db	0.0034089598
20	0x3bdd0f4f	0.0067462097
21	0x3d0a4bd9	0.03376374
22	0x3cf8ec57	0.030386133
23	0x3c583d07	0.013198144
24	0x3ce3790b	0.027767679
25	0x3cdd8f03	0.027045732
26	0x3c86e639	0.0164672
27	0x3b828b0f	0.003983862
28	0x3c66e7b8	0.014093332
29	0x3cbeace9	0.02327581
30	0x3cc360c1	0.023849847
31	0x3c773b97	0.015089891
32	0x3ccdd254	0.025124706
33	0x3cf0bd37	0.0293871
34	0x3d0b0fe9	0.03395072
35	0x3cc43315	0.023950139
36	0x3cb29084	0.021797426
37	0x3ca34d44	0.019934304
38	0x3c1cf2eb	0.0095794005
39	0x3c6e8dde	0.014560191
40	0xb99a024e	-0.00029374886
41	0x3c93c3db	0.018037727
42	0xbc7dc0db	-0.015487875
43	0x3c8e25fe	0.0173521
44	0x3d217229	0.039415512
45	0x3c5e5e34	0.013572264
46	0x3cac9f81	0.021072151
47	0x3c7403cf	0.014893486
48	0x3bfbff45	0.0076903426
49	0x3ccf7a72	0.025326941
50	0x3cb755e2	0.02237982
51	0x3cef2491	0.02919224
52	0x3c628ed1	0.013827995
53	0x3c703939	0.01466208
54	0x3d10d224	0.035356656
55	0x3cd82624	0.026385374
56	0xba25a2cf	-0.0006318511
57	0x3be42132	0.006961965
58	0x3b848fc6	0.0040454594
59	0xbb489b64	-0.0030610198
60	0x3ce3fb39	0.027829753
61	0x3cd5ea3c	0.026112668
62	0x3d4d48e1	0.05011833
63	0x3ca5afc6	0.020225417
64	0x3cc4550f	0.02396634
65	0x3c931fb2	0.01795945
66	0x3cd4fb3e	0.025998708
67	0x3c55b1be	0.013042865
68	0x3c92827a	0.017884482
69	0x3cd7bff1	0.026336642
70	0x3ced30f8	0.028954014
71	0xbca85df9	-0.020552622
72	0x3c6b0f5a	0.014346922
73	0x3bf8d7fb	0.0075941063
74	0x3cac5fbc	0.021041743
75	0x3cd8b22e	0.02645215
76	0x3c2debad	0.0106152715
77	0xbcddc7fe	-0.027072903
78	0x3bbe19d6	0.0058014197
79	0x3ca39a5c	0.019971065
80	0x3c8ba6ba	0.017047275
81	0x3bb5c01d	0.0055465833
82	0x3c9abe8f	0.018889694
83	0x3d0735e7	0.03301039
84	0x3c90aaec	0.017659627
85	0x3cccb19a	0.02498703
86	0x3c63323e	0.013866959
87	0x3cd1e184	0.02562023
88	0x3cecc6be	0.028903361
89	0x3d1aa58d	0.037755538
90	0x3d20beeb	0.039244574
91	0x3d157389	0.036487136
92	0xbb502942	-0.0031762873
93	0x3c7b3af4	0.01533388
94	0xbc1e68bc	-0.009668525
95	0x3bcae75b	0.0061921305
96	0x3ce3f448	0.027826443
97	0x3a9a4bc8	0.0011771852
98	0x3b914341	0.004433066
99	0x3caa10ea	0.020760018
100	0x3c08d65d	0.008351889
101	0x3a54693f	0.0008102841
102	0x3c58362f	0.013196512
103	0x3c82cda4	0.015967198
104	0x3baeb254	0.005331317
105	0x3c94689b	0.018116286
106	0x3c87da7d	0.016583676
107	0x3d18c380	0.03729582
108	0x3d0b8984	0.034066692
109	0x3cd2f961	0.025753679
110	0x3c613f60	0.01374802
111	0x3d13fa38	0.0361273
112	0x3ccd0d06	0.025030624
113	0x3c53bb63	0.012923094
114	0x3c85ef80	0.016349554
115	0x3cda747b	0.02666687
116	0x3cc1f8bd	0.023678178
117	0x3c5cd1b6	0.013477733
118	0x3d2a0f79	0.041518662
119	0x3caaa965	0.020832727
120	0x3d240646	0.040045045
121	0x3c5e5e3c	0.013572272
122	0x3c82d84a	0.015972275
123	0x3ad707a0	0.0016405471
124	0x3c7cca17	0.015429041
125	0x3cca81c4	0.02472008
126	0x3d2b9ee8	0.04189959
127	0x3c9cf23b	0.019158473

action_model._continuous_distribution.mu.weight f4 [1, 128]
0	0x3d6e9349	0.05824593
1	0xbd9c778f	-0.076399915
2	0xbe08216d	-0.13294001
3	0xbd41a579	-0.047276948
4	0xbdd8acf0	-0.1057986
5	0xbdb69899	-0.089158244
6	0x3c57acba	0.01316374
7	0x3d3e57f4	0.046470597
8	0x3d0f18d5	0.03493579
9	0x3de108f2	0.10988034
10	0x3ce4949b	0.027902892
11	0xbd81ff98	-0.06347579
12	0x3df91b03	0.12163355
13	0x3d04731e	0.032336347
14	0xbd89d31c	-0.06729719
15	0x3db051a2	0.0860932
16	0x3deed51c	0.11661741
17	0x3d81092d	0.06300578
18	0x3d9d6df8	0.076869905
19	0x3c39f861	0.011350722
20	0xbd84adbb	-0.06478449
21	0x3da5dd45	0.080988444
22	0x3da465a9	0.08027203
23	0x3d7dbbc2	0.061946638
24	0xbdd0d9ae	-0.10197769
25	0x3ddfefeb	0.109344326
26	0x3d447d83	0.04797126
27	0xbda022cc	-0.07819137
28	0xbd983f57	-0.07433956
29	0xbdce3a3c	-0.10069701
30	0x3dcd528c	0.1002551
31	0x3d3c390d	0.045952845
32	0xbde9d3be	-0.1141734
33	0x3d829142	0.06375362
34	0xbe0daddb	-0.13835852
35	0x3d9b87d9	0.0759427
36	0x3d7148ce	0.058907323
37	0xbde1e82a	-0.1103061
38	0xbdb8f6c6	-0.09031443
39	0xbd8455b5	-0.0646166
40	0xbd38eeb5	-0.045149524
41	0xbde4eb43	-0.11177685
42	0xbb8ba507	-0.004261616
43	0xbddfa14c	-0.10919437
44	0x3dea90b6	0.11453383
45	0xbde49bac	-0.111625046
46	0x3d9b4322	0.07581164
47	0xbdf9a8e7	-0.12190419
48	0xbd7de75d	-0.061988223
49	0xbddaf862	-0.106919065
50	0xbdeba433	-0.11505928
51	0x3d8960ba	0.06707902
52	0xbd8a352a	-0.067484215
53	0xbdba9f44	-0.09112409
54	0x3e114290	0.14185548
55	0xbdce7489	-0.10080821
56	0xbb1f49a8	-0.0024305377
57	0xbd9a43dc	-0.075324744
58	0xbd831830	-0.06401098
59	0xbd355867	-0.04427376
60	0xbe215b0c	-0.15757388
61	0xbdf59823	-0.119919084
62	0x3dfb3578	0.12266058
63	0xbe03becc	-0.12865752
64	0xbdb09605	-0.08622364
65	0xbd8e3b4f	-0.06944906
66	0x3dadbbab	0.084830604
67	0xbda6c605	-0.08143238
68	0xbd993f13	-0.074827336
69	0x3d97d041	0.07412768
70	0x3dbbc72f	0.09168851
71	0x3b4e765b	0.003150365
72	0xbd890422	-0.066902414
73	0xbdaafec6	-0.083493754
74	0xbe089208	-0.13336957
75	0x3dcfe790	0.10151589
76	0xbdc2f472	-0.095192805
77	0xbc553dd1	-0.013015226
78	0xbdba381f	-0.090927355
79	0xbdbcc27e	-0.09216784
80	0x3dac126e	0.08401953
81	0x3ce1fbbb	0.027585855
82	0x3d47ee85	0.048811454
83	0x3dcfc8a3	0.1014569
84	0x3d07d698	0.033163637
85	0x3d90546d	0.07047353
86	0xbd957b08	-0.07298857
87	0x3dce83df	0.10083746
88	0x3dae3496	0.08506124
89	0x3db5ad7f	0.088709824
90	0x3db3611a	0.08758755
91	0x3dca18fb	0.09868046
92	0xbc970a35	-0.018437484
93	0x3d701a05	0.058618564
94	0xbcb688e7	-0.022282077
95	0xbd48373b	-0.048880797
96	0xbdc26cf7	-0.0949344
97	0xbd37b685	-0.0448518
98	0xbdb62f3a	-0.088957265
99	0xbdc506e2	-0.096204534
100	0xbd99b018	-0.0750429
101	0x3ca75328	0.020425394
102	0x3d8b6cf3	0.0680789
103	0xbd96dc57	-0.07366245
104	0x3d2daeb1	0.042402927
105	0x3d993bc7	0.07482105
106	0x3da44d96	0.08022611
107	0xbddd1ed3	-0.10796895
108	0x3e017a5b	0.12644331
109	0xbdee8dc9	-0.11648137
110	0xbe03810c	-0.12842196
111	0x3de4d461	0.111733206
112	0x3db3e915	0.08784691
113	0xbd9a01be	-0.075198635
114	0xbdd690f2	-0.10476865
115	0x3dd62943	0.10457089
116	0x3d966f7e	0.07345484
117	0x3d250665	0.0402893
118	0x3dcb6ae9	0.09932501
119	0x3da5d7b3	0.08097782
120	0x3e03a155	0.12854512
121	0xbdbd56f0	-0.09245098
122	0x3d6eda39	0.058313582
123	0xbd8a1c22	-0.06743647
124	0xbda07771	-0.07835282
125	0x3d9429fc	0.072345704
126	0x3e02387e	0.12716863
127	0xbdf657f1	-0.12028492

exp_avg f4 [128, 111]
0	0x3abe13f6	0.0014501798
1	0xba2c42cb	-0.0006571232
2	0x381b5d8f	3.7042013e-05
3	0x00000004	6e-45
4	0xb9663d15	-0.00021957264
5	0x3a823f76	0.0009937126
6	0xbae45712	-0.0017420969
7	0xb91d8f0a	-0.00015025973
8	0x3afd51cc	0.0019326746
9	0xba8399f3	-0.0010040387
10	0xb9331370	-0.00017078011
11	0x80000004	-6e-45
12	0xb713e83e	-8.815956e-06
13	0x3a88d9e9	0.0010440919
14	0xbafd1942	-0.0019309896
15	0xbabe019c	-0.0014496329
16	0xbb07d3fc	-0.0020725718
17	0x3a0ecbfa	0.0005447265
18	0x39229d80	0.00015508197
19	0x80000004	-6e-45
20	0x3a41ee51	0.00073978776
21	0xb885eb5a	-6.385772e-05
22	0x3a12883e	0.00055897597
23	0x3999a790	0.00029307278
24	0x3a93471e	0.0011236405
25	0xba66a697	-0.00087986275
26	0x3808a844	3.2581636e-05
27	0x00000000	0.0
28	0xb815e977	-3.57418e-05
29	0x3a2eab46	0.0006663095
30	0xba88f12e	-0.0010447854
31	0xb9a24c66	-0.0003095597
32	0x38fd7f02	0.00012087637
33	0x3923ebcf	0.00015632737
34	0xba25e425	-0.00063282467
35	0x00000004	6e-45
36	0x39229f14	0.00015508785
37	0x3951027f	0.00019932723
38	0xb90f4a38	-0.00013665191
39	0xb9a5b7a4	-0.00031608075
40	0xb9e2490f	-0.00043160512
41	0xb9a0b7e2	-0.00030654581
42	0x380d14b2	3.3636294e-05
43	0x80000004	-6e-45
44	0x3900bc05	0.00012277074
45	0x396fd9c6	0.00022873943
46	0x39619900	0.00021514669
47	0x39e94a5d	0.00044496628
48	0xb91fc5f9	-0.00015237172
49	0xba2bc26c	-0.00065521034
50	0x3a0d6759	0.0005394123
51	0x00000004	6e-45
52	0xb88bcb74	-6.6659326e-05
53	0x39fde389	0.00048425447
54	0xb9969e71	-0.00028728278
55	0xb8dfb989	-0.00010668027
56	0xba981e30	-0.0011605676
57	0x3a9012d2	0.0010991937
58	0x36b133fd	5.2810633e-06
59	0x00000000	0.0
60	0x3836fc62	4.362723e-05
61	0xb980d129	-0.000245699
62	0x38fc4d2e	0.00012030672
63	0x3972730c	0.00023121777
64	0x3b03d608	0.0020116586
65	0x3a5908ed	0.0008279223
66	0xba65b30e	-0.0008762338
67	0x80000004	-6e-45
68	0x3851e32f	5.0041064e-05
69	0x3946e5e4	0.00018968392
70	0xbb196a48	-0.0023409296
71	0xb8db5648	-0.00010458805
72	0xba8f0ced	-0.0010913886
73	0xb8fe690d	-0.00012131231
74	0x381d4486	3.7495534e-05
75	0x80000004	-6e-45
76	0xb63aabe3	-2.781621e-06
77	0x388e58d4	6.787633e-05
78	0x3a7edec8	0.0009722528
79	0x3a26b7dd	0.0006359795
80	0x3a457246	0.00075319817
81	0x3a6ce40a	0.0009036666
82	0x3a06f661	0.00051484077
83	0x80000004	-6e-45
84	0xb752ff3e	-1.2576404e-05
85	0xb8615d7b	-5.373124e-05
86	0xbb130392	-0.0022432548
87	0xbacdb660	-0.0015694611
88	0xb9b924be	-0.00035313325
89	0xba466b81	-0.000756912
90	0x376b0bc5	1.4009832e-05
91	0x80000004	-6e-45
92	0x36d6c6af	6.400827e-06
93	0x38bbc0c4	8.95276e-05
94	0x3a620889	0.00086224877
95	0x3a44cc63	0.00075072626
96	0xb94528f5	-0.00018802642
97	0xb87610ae	-5.8666505e-05
98	0x399abac3	0.00029512317
99	0x00000004	6e-45
100	0x37972ebd	1.8022367e-05
101	0xb779dd14	-1.489303e-05
102	0xb9469e66	-0.0001894176
103	0xba250354	-0.00062947464
104	0x393e5fa3	0.0001815544
105	0xb8841d8b	-6.299753e-05
106	0x38e9d445	0.00011149844
107	0x3adb8185	0.0016746974
108	0xb8804fb2	-6.11836e-05
109	0x3ba6cf7c	0.005090652
110	0xba5ff63a	-0.00085434655
111	0x39934ca1	0.00028095118
112	0xb8ab7c14	-8.177027e-05
113	0xb9ccd0a9	-0.00039065376
114	0x80000004	-6e-45
115	0xb8afbbf3	-8.3796585e-05
116	0x3aee236e	0.0018168518
117	0x3a835acf	0.001002157
118	0x3ae2d993	0.0017307274
119	0x3a07944c	0.0005171939
120	0x3aa7d77d	0.0012805309
121	0x3805259d	3.17447e-05
122	0x00000004	6e-45
123	0x3a487779	0.00076471973
124	0xb9fbb682	-0.0004801043
125	0x39e14343	0.00042965458
126	0x3adf624a	0.0017042842
127	0x3b11c2dd	0.0022241392
128	0xba292ace	-0.0006453217
129	0xb9d968ba	-0.00041467493
130	0x00000004	6e-45
131	0xba6900da	-0.00088883715
132	0x399fac80	0.00030455366
133	0x3b00b478	0.0019638818
134	0x3b3366e5	0.0027374562
135	0xb8879ada	-6.466145e-05
136	0x3a1bde0b	0.0005945868
137	0xb82c3661	-4.105864e-05
138	0x00000000	0.0
139	0xb8abe9cb	-8.197463e-05
140	0xb907219b	-0.00012887122
141	0x3b147c75	0.002265719
142	0x3aa96559	0.0012923881
143	0x3aa76a1c	0.0012772712
144	0xba84df27	-0.0010137305
145	0x3a202257	0.00061086327
146	0x00000004	6e-45
147	0x39a2bf71	0.00031041683
148	0x3b063308	0.0020477194
149	0xba3490a6	-0.00068880094
150	0x3adc4698	0.0016805707
151	0x3a0cf1af	0.000537659
152	0x3a757aae	0.0009364289
153	0xb8392b6f	-4.4147888e-05
154	0x00000004	6e-45
155	0x3a46de17	0.00075861946
156	0x3a85716f	0.00101809
157	0xba2dc729	-0.00066291034
158	0x394e2d64	0.000196626
159	0x3a07da45	0.0005182366
160	0xb8e4b07f	-0.00010904762
161	0xba7f574f	-0.0009740488
162	0x80000004	-6e-45
163	0xb7b432fc	-2.1481414e-05
164	0x3b17d912	0.0023170155
165	0x3a5523e7	0.0008130655
166	0x3adaccc1	0.0016693101
167	0x3adc9d4a	0.0016831544
168	0xba1c9715	-0.0005973441
169	0xb6a692f1	-4.9642917e-06
170	0x00000000	0.0
171	0x3a2c6d63	0.0006577579
172	0x3af00e8b	0.0018314881
173	0xba8686b5	-0.0010263534
174	0x39e73283	0.00044097388
175	0xbaa5bdc0	-0.0012645051
176	0xba494228	-0.00076773996
177	0x3a4aa887	0.0007730801
178	0x00000004	6e-45
179	0x3a37de5b	0.00070140295
180	0x3b0d5477	0.0021565238
181	0x3a77b872	0.0009449787
182	0xba2bdb15	-0.0006555778
183	0x3aecfc2c	0.0018080524
184	0x3a1dd694	0.00060210493
185	0xb84dfd05	-4.911145e-05
186	0x00000004	6e-45
187	0x396294f9	0.00021608536
188	0x3a993f83	0.0011691902
189	0xba9d9ff3	-0.0012025818
190	0x399678d3	0.0002870025
191	0xba9f6146	-0.0012159727
192	0x3978399b	0.00023672583
193	0xb771c443	-1.4410415e-05
194	0x80000004	-6e-45
195	0xb840cc9e	-4.596693e-05
196	0x3a85086f	0.0010149608
197	0x3b2852ad	0.0025684044
198	0x3b06634a	0.0020505958
199	0x3b25fd21	0.0025327879
200	0x3aa10780	0.001228556
201	0xb791465d	-1.7318112e-05
202	0x80000004	-6e-45
203	0x389c8f85	7.465392e-05
204	0x3ae5b1cb	0.00175243
205	0xbb4666d1	-0.0030273686
206	0xbaadf451	-0.0013271665
207	0x399ab8d2	0.0002951087
208	0x3994ffb5	0.00028419276
209	0xb939440c	-0.00017668324
210	0x80000004	-6e-45
211	0x39457463	0.00018830741
212	0x3ac09bca	0.0014694866
213	0x39fd6704	0.00048332673
214	0x3add459f	0.0016881711
215	0x385c79c9	5.256551e-05
216	0x37db2b22	2.612692e-05
217	0x38d6ab26	0.00010236194
218	0x3ba8d4f1	0.0051523377
219	0x3782364b	1.552249e-05
220	0x3c6827a0	0.014169604
221	0x3a79917d	0.00095202756
222	0x39c3438d	0.00037243628
223	0x3a2882c0	0.00064281747
224	0xb78dc179	-1.6898603e-05
225	0x80000004	-6e-45
226	0xb91f57e6	-0.00015196166
227	0xb90a1d1e	-0.00013171553
228	0x3aaafd87	0.0013045528
229	0x3aaa2ad7	0.0012982738
230	0xb88d53ee	-6.739037e-05
231	0x3a4b25d7	0.0007749474
232	0xb7ea07dc	-2.7898634e-05
233	0x00000004	6e-45
234	0x39831ad7	0.00025006264
235	0xba93abc2	-0.0011266398
236	0x3b113cd2	0.0022161496
237	0x3b2387c5	0.002495275
238	0x3b1282f0	0.0022355877
239	0xb9334da1	-0.0001709969
240	0x398031a8	0.0002445106
241	0x80000004	-6e-45
242	0xba3083a9	-0.0006733486
243	0xb92a53ca	-0.00016243677
244	0x3a0f1bc0	0.0005459152
245	0x3ac5fdc0	0.0015105531
246	0x3a78409a	0.00094700756
247	0x3912f9a3	0.00014016642
248	0xb89156fe	-6.930342e-05
249	0x00000000	0.0
250	0xb7797cd8	-1.4870624e-05
251	0xbaa764fc	-0.0012771185
252	0x3b164c04	0.0022933492
253	0x3ab2f79f	0.0013654119
254	0x3a3019f2	0.00067177333
255	0x38d5d7a2	0.00010196796

exp_avg_sq f4 [128, 111]
0	0x382d0916	4.1254876e-05
1	0x37b12504	2.1117281e-05
2	0x36d8f9ea	6.4663955e-06
3	0x281df518	8.768397e-15
4	0x35dbf4db	1.6388034e-06
5	0x38fb0556	0.000119696066
6	0x39291075	0.00016123227
7	0x39d5dac8	0.0004078953
8	0x382cfa0f	4.124088e-05
9	0x3743c4bd	1.1668712e-05
10	0x36152d79	2.2229199e-06
11	0x2980cbc1	5.7196876e-14
12	0x3380524b	5.9754335e-08
13	0x3869ccaf	5.5742155e-05
14	0x3990a6a2	0.0002758997
15	0x39e88398	0.00044348533
16	0x37b4907d	2.1524955e-05
17	0x377cecf2	1.5075539e-05
18	0x36a97a7f	5.050853e-06
19	0x2a57636c	1.913033e-13
20	0x36601a0c	3.3393762e-06
21	0x3893baab	7.044276e-05
22	0x3995c123	0.00028563393
23	0x39f47561	0.0004662676
24	0x3864eb91	5.4578824e-05
25	0x375f6b73	1.3316853e-05
26	0x334bc673	4.744511e-08
27	0x00000000	0.0
28	0x336e4dc7	5.548443e-08
29	0x3763075b	1.3531967e-05
30	0x39b0bd51	0.00033710388
31	0x39dac80f	0.00041729255
32	0x385af094	5.2199306e-05
33	0x377ef89b	1.5197463e-05
34	0x372e1789	1.0376688e-05
35	0x29188665	3.386735e-14
36	0x34886665	2.5406476e-07
37	0x360ef275	2.1300777e-06
38	0x39bd7ac1	0.00036140348
39	0x39e2f7d7	0.00043290734
40	0x38710055	5.7459187e-05
41	0x3723f12c	9.771709e-06
42	0x33593e17	5.058072e-08
43	0x29d2328a	9.3346405e-14
44	0x3325f75c	3.864203e-08
45	0x36c60da3	5.9024474e-06
46	0x39c21347	0.00037016926
47	0x39db363a	0.00041811337
48	0x3885130e	6.3454834e-05
49	0x37622084	1.347822e-05
50	0x388188af	6.176659e-05
51	0x29b30dc3	7.951584e-14
52	0x32ee0cef	2.7712728e-08
53	0x35850f11	9.913657e-07
54	0x3980b287	0.00024547076
55	0x39c2b6b0	0.00037138676
56	0x3823843a	3.8985374e-05
57	0x373f37d2	1.1397484e-05
58	0x32c57528	2.2987095e-08
59	0x00000000	0.0
60	0x334d5be6	4.7813863e-08
61	0x363b02d2	2.7866813e-06
62	0x39dbbb45	0.00041910462
63	0x39eb5897	0.00044888697
64	0x3890c3d2	6.9029295e-05
65	0x375b58e9	1.3074118e-05
66	0x38081c02	3.245101e-05
67	0x282e439b	9.6736e-15
68	0x32708136	1.3999218e-08
69	0x36b8a6da	5.5030514e-06
70	0x39934ba2	0.00028094376
71	0x39c36adf	0.00037272924
72	0x37b9a145	2.2128816e-05
73	0x37066924	8.011502e-06
74	0x32bb303f	2.1791605e-08
75	0x22d0646f	5.648485e-18
76	0x32a48eb7	1.9157012e-08
77	0x35ca9a73	1.5095123e-06
78	0x39fa1b4f	0.00047704062
79	0x3a00ae3f	0.0004908777
80	0x3833c267	4.2857977e-05
81	0x3738732e	1.0994072e-05
82	0x3819c725	3.666351e-05
83	0x27d19a1f	5.817625e-15
84	0x32804d1f	1.4936232e-08
85	0x3821cf45	3.8578426e-05
86	0x39837ac6	0.0002507774
87	0x39cce117	0.00039077617
88	0x37c69920	2.3674744e-05
89	0x369c851f	4.6646596e-06
90	0x327e3b65	1.4798251e-08
91	0x208061eb	2.174884e-19
92	0x32ab7f70	1.9964972e-08
93	0x3586356e	9.999328e-07
94	0x3a002c85	0.00048894464
95	0x3a025f0b	0.0004973269
96	0x374e650e	1.2302085e-05
97	0x3713629d	8.784843e-06
98	0x385542c0	5.0845323e-05
99	0x2508ed60	1.1876545e-16
100	0x3296a836	1.7538792e-08
101	0x35d528a6	1.5881567e-06
102	0x39c6f9cd	0.0003795162
103	0x39d6cd14	0.00040970056
104	0x38aa99d0	8.1348815e-05
105	0x35ff9f49	1.9045339e-06
106	0x3818ef67	3.6462585e-05
107	0x3a8edcdf	0.0010899565
108	0x34d626c6	3.9888818e-07
109	0x3b9f5e33	0.0048635243
110	0x3766d28e	1.3758092e-05
111	0x39200916	0.00015262174
112	0x37c708f2	2.3726814e-05
113	0x36bc2754	5.607415e-06
114	0x283f7b7c	1.0629406e-14
115	0x3766c98d	1.37559955e-05
116	0x39598b98	0.00020746735
117	0x392f8267	0.00016737879
118	0x3a193a72	0.0005845196
119	0x38dda02d	0.00010567936
120	0x37a21e85	1.9326117e-05
121	0x35c3e6f1	1.4595845e-06
122	0x2bb97d94	1.3179896e-12
123	0x36f7e66f	7.3879996e-06
124	0x394e7d33	0.00019692331
125	0x39895264	0.00026192062
126	0x3a1cdfd9	0.00059842836
127	0x3908cdb4	0.00013046601
128	0x37ac2e7d	2.0525646e-05
129	0x368d5691	4.212205e-06
130	0x2a908eca	2.5678618e-13
131	0x37636531	1.3553815e-05
132	0x389e3fa7	7.545883e-05
133	0x39ca36d1	0.00038569284
134	0x3a3b43d3	0.00071435905
135	0x38989fbc	7.277678e-05
136	0x3781738e	1.5431808e-05
137	0x341c76e3	1.4571883e-07
138	0x00000000	0.0
139	0x36deb881	6.6375947e-06
140	0x392a0ece	0.00016217979
141	0x39c425b5	0.00037412127
142	0x3a15afe0	0.00057101063
143	0x38eabb1b	0.000111928406
144	0x378be3ea	1.6676222e-05
145	0x37df634f	2.6629916e-05
146	0x2a20f044	1.4294214e-13
147	0x3616183f	2.2365855e-06
148	0x3857bf4c	5.1438154e-05
149	0x39eec4e8	0.00045541604
150	0x3a299c45	0.00064701244
151	0x3853efa4	5.0529503e-05
152	0x37a22f0b	1.9333811e-05
153	0x340f197a	1.3327181e-07
154	0x2a54d5f2	1.890361e-13
155	0x362dcdf6	2.5898894e-06
156	0x391b4358	0.0001480704
157	0x39ea8bd0	0.00044736126
158	0x3a1445fe	0.00056561816
159	0x38d645de	0.00010217329
160	0x3728afbd	1.0054498e-05
161	0x38c08bc4	9.181307e-05
162	0x2a7bc821	2.2362712e-13
163	0x35b33ee0	1.3354838e-06
164	0x38d1d4d9	0.000100055426
165	0x3999bf8d	0.0002932515
166	0x3a0bbe5d	0.00053307955
167	0x382d02d2	4.124904e-05
168	0x377ef8e3	1.5197528e-05
169	0x33cdcdad	9.5834686e-08
170	0x00000000	0.0
171	0x36876a9f	4.035726e-06
172	0x391acbe4	0.0001476254
173	0x3a01901b	0.0004942433
174	0x3a19792a	0.00058545417
175	0x391749b5	0.0001442794
176	0x3748431e	1.1936556e-05
177	0x38630816	5.4128548e-05
178	0x28c17497	2.1477867e-14
179	0x35a191d2	1.2037874e-06
180	0x390cd0d8	0.00013429241
181	0x3992678c	0.00027924438
182	0x39fdbfb7	0.0004839876
183	0x383d5f67	4.514996e-05
184	0x373fe589	1.143793e-05
185	0x3414fabb	1.387479e-07
186	0x22c806f1	5.421746e-18
187	0x35e59c8b	1.710739e-06
188	0x390c71bf	0.00013393814
189	0x3a0c322c	0.00053480524
190	0x3a1f2887	0.00060714077
191	0x38bc2baa	8.972672e-05
192	0x37046a50	7.892566e-06
193	0x3863e794	5.433669e-05
194	0x28a32db7	1.8116461e-14
195	0x34f31f01	4.5284835e-07
196	0x3951e471	0.00020016894
197	0x398fd827	0.00027436131
198	0x3a058125	0.00050927914
199	0x3878d991	5.9330432e-05
200	0x3737fa5f	1.0965944e-05
201	0x34077877	1.261668e-07
202	0x212cacf6	5.850478e-19
203	0x359983d2	1.1437753e-06
204	0x38dc4dc7	0.00010504905
205	0x3a11f3b7	0.00055676274
206	0x3a215990	0.00061550085
207	0x37fa75dd	2.9857207e-05
208	0x3713ab31	8.801741e-06
209	0x38839590	6.274425e-05
210	0x2506a12b	1.1677253e-16
211	0x34e1ec7c	4.208158e-07
212	0x3914102f	0.00014120409
213	0x39e71cc7	0.00044081194
214	0x3a0da8a9	0.00054038555
215	0x37d6cb54	2.560547e-05
216	0x3565caee	8.560445e-07
217	0x370ad9fa	8.276193e-06
218	0x3b4a0b3b	0.0030829448
219	0x340afd1d	1.2944334e-07
220	0x3ce9673e	0.028491613
221	0x378fcbad	1.7141772e-05
222	0x38871c1e	6.442539e-05
223	0x373d588d	1.1285895e-05
224	0x36fa5790	7.460774e-06
225	0x28a08350	1.7820516e-14
226	0x365e2860	3.310408e-06
227	0x389cd410	7.4781594e-05
228	0x38bdce98	9.0507034e-05
229	0x39896f09	0.00026213404
230	0x38468a65	4.733577e-05
231	0x370cd7fd	8.394939e-06
232	0x366a021e	3.486995e-06
233	0x2c58f45e	3.0831097e-12
234	0x35969c03	1.1221276e-06
235	0x3883007c	6.246657e-05
236	0x3917c200	0.00014472753
237	0x39987ed9	0.00029086208
238	0x38466146	4.729747e-05
239	0x36fe1e3e	7.5733105e-06
240	0x36a8ef91	5.0346794e-06
241	0x2ac97508	3.578598e-13
242	0x370667e2	8.0112095e-06
243	0x37c1f4df	2.312142e-05
244	0x394d39f5	0.00019571914
245	0x39a8b454	0.00032177812
246	0x388741e4	6.449575e-05
247	0x373912e9	1.1031262e-05
248	0x34086eff	1.2706367e-07
249	0x00000000	0.0
250	0x35df6f16	1.6647125e-06
251	0x38359d6d	4.3300377e-05
252	0x3924da33	0.00015721544
253	0x397da637	0.0002418988
254	0x3812afbc	3.4972778e-05
255	0x370531e8	7.9390375e-06

exp_avg f4 [128]
0	0xb9108e09	-0.00013785822
1	0x3b26b4de	0.0025437395
2	0x3b045511	0.0020192305
3	0x3b0bb64f	0.0021318381
4	0xb9a6a9f3	-0.0003178861
5	0x3b29eff5	0.002593038
6	0xba0a6979	-0.0005279999
7	0x36b2a27f	5.3237304e-06
8	0xb800edfe	-3.0739226e-05
9	0x3b0af7f2	0.0021204916
10	0x3a06a3ed	0.0005136121
11	0x39b01707	0.00033586493
12	0x3935f5f6	0.00017353133
13	0x3a749996	0.00093307474
14	0x3b625d34	0.0034540417
15	0x39b1432a	0.00033810112
16	0xba1d9b0f	-0.000601218
17	0x39ded0b6	0.0004249864
18	0xba889de5	-0.0010423033
19	0xbab2504e	-0.0013604255
20	0x3abaa16e	0.0014238784
21	0x3a836399	0.0010024189
22	0x39aed6c5	0.00033347882
23	0xba30aaae	-0.00067393004
24	0x39dc8a1c	0.0004206457
25	0x3a43e125	0.0007472209
26	0xbb890dbd	-0.004182546
27	0xba8524b9	-0.0010158039
28	0xbb130af2	-0.0022436944
29	0xbadd3083	-0.001687542
30	0x3ae138ae	0.001718303
31	0xb9d36af9	-0.00040324757
32	0xbba24b80	-0.004952848
33	0x39502a44	0.00019852171
34	0xba62996d	-0.0008644078
35	0xbb33a88a	-0.002741369
36	0xba144929	-0.00056566537
37	0xb7397cd3	-1.1055922e-05
38	0xba3743d7	-0.0006991005
39	0x3a8ba64b	0.0010654418
40	0x3b35528e	0.0027667615
41	0x3a664f2c	0.0008785601
42	0x3b4da333	0.0031377792
43	0x3972b6ed	0.00023147064
44	0x3aa0db34	0.0012272359
45	0x3abebb22	0.001455162
46	0x3b1dd62d	0.0024083958
47	0x3ba6c169	0.0050889743
48	0xba45d15f	-0.00075461523
49	0x3b05eb80	0.0020434558
50	0xb9fbe1d0	-0.00048042694
51	0x39ea3b63	0.00044676205
52	0x3a64f09e	0.00087333645
53	0x3a06b8c9	0.00051392295
54	0x3af89599	0.0018965482
55	0x3aadeb63	0.0013269003
56	0x3adfb020	0.0017066039
57	0x3b26ed57	0.0025471055
58	0xba34687c	-0.00068820245
59	0x3a8a8a9b	0.0010569872
60	0x3a802cfe	0.0009779034
61	0x3b017943	0.0019756116
62	0x3a185ffa	0.00058126415
63	0x394cb905	0.00019523881
64	0xb9a8014e	-0.0003204443
65	0x371d904f	9.391529e-06
66	0x3abe1cc4	0.0014504422
67	0xbae4e2a7	-0.0017462567
68	0xb774e0ba	-1.4595857e-05
69	0xba87189a	-0.0010307014
70	0x3acb00d1	0.0015487914
71	0x3a4f310f	0.00079037336
72	0x3b2af929	0.0026088452
73	0xba60b2dd	-0.00085715746
74	0xba1fe0e4	-0.000609888
75	0x3a94f409	0.0011364232
76	0xba3e024d	-0.00072482676
77	0x395c0052	0.00020980954
78	0x3ad6ceef	0.0016388575
79	0xbb755351	-0.0037433694
80	0xbb467c42	-0.0030286466
81	0x39de2349	0.0004236943
82	0xba34ce83	-0.0006897228
83	0xba920932	-0.0011141656
84	0x3a6fefdb	0.0009152868
85	0x3b0a8d19	0.002114123
86	0x3a9ac64d	0.0011808366
87	0x3af1a9e9	0.0018437478
88	0xbaaedf04	-0.001334161
89	0x39de0a09	0.00042350616
90	0xbb8052df	-0.003916129
91	0xbb89f5e6	-0.0042102216
92	0xbb2ced7a	-0.0026386664
93	0x39ead8ad	0.00044793394
94	0x3b37e744	0.002806143
95	0x3abceca3	0.0014413785
96	0xb6571749	-3.205105e-06
97	0x3b2b31e6	0.002612227
98	0x3a6dc590	0.00090702716
99	0x39269c87	0.00015889305
100	0xba9584dc	-0.0011407393
101	0x3abf8680	0.0014612228
102	0xb9ce07b2	-0.00039297115
103	0x3b9a9406	0.004717353
104	0xbb18c77f	-0.0023312268
105	0x3abffdfa	0.0014647834
106	0xbb13983b	-0.0022521156
107	0xbac0856d	-0.0014688201
108	0xba8669d5	-0.0010254929
109	0x39a789ae	0.00031955302
110	0xbad88ad6	-0.0016520869
111	0x3a8fe221	0.0010977426
112	0x3a56f143	0.0008199403
113	0xbb7d92d7	-0.003869226
114	0xbb21f784	-0.0024714181
115	0x3b2e61c2	0.0026608561
116	0xba1b170d	-0.00059162156
117	0x3b0d868f	0.0021595096
118	0xbaf965b7	-0.0019027506
119	0x3a23f3df	0.0006254296
120	0x396d993d	0.00022659167
121	0x3b6b77ba	0.0035929517
122	0x3a75805f	0.0009365137
123	0xba8a32df	-0.0010543725
124	0x398dcc6f	0.0002704593
125	0x3a959fd7	0.0011415434
126	0xbb226f6f	-0.0024785658
127	0x3ae7a84a	0.0017674055

exp_avg_sq f4 [128]
0	0x3a1585dd	0.0005703846
1	0x3a82e1b9	0.0009985483
2	0x39ea544f	0.00044694773
3	0x399c9b05	0.00029870137
4	0x398b953f	0.00026623343
5	0x3a051801	0.0005077124
6	0x36001617	1.9086344e-06
7	0x37dbe4bb	2.6213345e-05
8	0x36bd9e81	5.651091e-06
9	0x39e8d72b	0.000444108
10	0x3891bdc8	6.949488e-05
11	0x36bc5c78	5.6136014e-06
12	0x39c2ee55	0.00037180135
13	0x37849602	1.5805479e-05
14	0x3acbf358	0.0015560193
15	0x37681e69	1.3835358e-05
16	0x3962db6c	0.0002163478
17	0x37429b26	1.1599424e-05
18	0x399679fc	0.00028701115
19	0x394e5fa8	0.00019681326
20	0x39bdf25a	0.00036229455
21	0x38d6efe8	0.00010249001
22	0x38a47d96	7.8435216e-05
23	0x38c05a2f	9.1720714e-05
24	0x37b9eddb	2.2164479e-05
25	0x39b2a616	0.0003407455
26	0x3a3b8a8b	0.00071541284
27	0x39939042	0.00028145505
28	0x3a5481e9	0.00081065163
29	0x3a6fe277	0.00091508724
30	0x395d0cf2	0.00021081025
31	0x359d219f	1.1707197e-06
32	0x3b86fbfa	0.0041193934
33	0x3855fb9f	5.1017498e-05
34	0x3924f5ce	0.00015731828
35	0x39a45453	0.00031343344
36	0x391db1c0	0.00015038904
37	0x38821cf3	6.204275e-05
38	0x3979166e	0.00023754846
39	0x3905662c	0.0001272193
40	0x3a126836	0.00055849866
41	0x380ee50d	3.406876e-05
42	0x3a88721b	0.0010409983
43	0x3916de58	0.00014387944
44	0x38cfa1b9	9.9006524e-05
45	0x3981ab22	0.000247323
46	0x3a1ecf14	0.0006058079
47	0x3b0c99c1	0.002145395
48	0x384dd087	4.9070015e-05
49	0x39d9aa8b	0.0004151653
50	0x3afdcf6c	0.0019364185
51	0x381ba87f	3.7111804e-05
52	0x3839f434	4.433487e-05
53	0x38928527	6.986624e-05
54	0x39ed3b80	0.00045248494
55	0x39457484	0.0001883079
56	0x395c5deb	0.00021015822
57	0x3a2cd89e	0.0006593558
58	0x393f9b1e	0.00018272965
59	0x3933ddd4	0.00017153408
60	0x3932bf48	0.0001704666
61	0x39ce90a5	0.0003939915
62	0x3a6287ec	0.000864147
63	0x3900a07c	0.00012266816
64	0x36440bea	2.921321e-06
65	0x389ae471	7.385843e-05
66	0x3902db92	0.00012479562
67	0x3a17faa3	0.00057975407
68	0x35f7b501	1.8455613e-06
69	0x38c06369	9.17379e-05
70	0x3920814f	0.0001530696
71	0x38cf5e32	9.8880744e-05
72	0x3a23ceff	0.00062488014
73	0x399d0d7d	0.00029955423
74	0x3997347f	0.00028840077
75	0x38d59f0e	0.00010186258
76	0x38b95889	8.8379784e-05
77	0x34cf8d24	3.8659448e-07
78	0x3a2f2a7e	0.0006682052
79	0x3a245d24	0.00062699826
80	0x3aa3d77c	0.0012500132
81	0x3746db79	1.185282e-05
82	0x39c9a4e6	0.00038460566
83	0x3a793054	0.00095057976
84	0x388f24a3	6.8255955e-05
85	0x39c293d5	0.00037112707
86	0x38c64af2	9.4553354e-05
87	0x3a47e652	0.0007625568
88	0x39efc21d	0.00045730258
89	0x382ec13c	4.1664796e-05
90	0x3aaa3535	0.0012985828
91	0x3a2e1cbb	0.00066418544
92	0x3a4b29c9	0.0007750062
93	0x35ef4141	1.7825879e-06
94	0x3a5d8eb4	0.00084517454
95	0x39a5ae5c	0.0003160116
96	0x38888758	6.510195e-05
97	0x3a0d8196	0.0005398033
98	0x382f2bd0	4.1764055e-05
99	0x3a28673f	0.0006424076
100	0x394964bd	0.00019206382
101	0x3991b8f4	0.00027794356
102	0x35b9fedd	1.3857749e-06
103	0x3b16d0b0	0.002301257
104	0x391a9459	0.00014741848
105	0x39643a4f	0.00021765496
106	0x39e28bef	0.00043210338
107	0x3aa047e2	0.0012228454
108	0x3a05e5d7	0.0005107796
109	0x37f8470e	2.9596991e-05
110	0x38dfcfd1	0.000106721775
111	0x38e7b6d1	0.000110489906
112	0x38a6b1e6	7.948633e-05
113	0x39e35a7c	0.0004336423
114	0x3a18befc	0.0005826799
115	0x3a23bf9d	0.0006246509
116	0x370a00b2	8.225603e-06
117	0x39c67b53	0.00037857387
118	0x3a296121	0.0006461312
119	0x38840411	6.295008e-05
120	0x3a478b90	0.0007612044
121	0x3a87053b	0.0010301241
122	0x38c8ed6c	9.5809664e-05
123	0x3a2ae87f	0.000651963
124	0x37b390c2	2.1405871e-05
125	0x38ccb7d5	9.7617194e-05
126	0x3a5e82ed	0.00084881374
127	0x3a7d4f21	0.0009662975
