results/opponentR/OpponentR/OpponentR-5864720.pt (torch, 760415 bytes, 30 tensors)

network_body._body_endoder.seq_layers.0.weight f4 [128, 111]
00000000: f0a6 67bd db28 f13d 4803 05bd 4f6f 5cbd
00000010: 7fe2 783e 3faf 833e d557 2bbd 564a 843d
00000020: 8ea8 49bd 4269 3bbe 65b8 55be 0311 45bc
00000030: 276c 483b 9d43 5ebd 7225 033e f5bd 233e
00000040: 1cbe 94be dc44 c1bd 03f2 b2bd e1b4 b23d
00000050: e1c8 3cbd 6141 263e 4a14 353d b649 e73d
00000060: eca5 a9bc 9101 86bc 35e8 3dbe b3c0 323d
00000070: cdaf cabd ca23 23be 5fb3 343e 9e33 a73c
00000080: e305 df3d c283 bb3b d4c2 a8bd a072 5cbd
00000090: 3905 c63e e71b 6c3e e180 d23d f64e f6bd
000000a0: 27ce 053c 8448 7fbe d6a0 8dbd 2d2f 8cbc
000000b0: 517d 0ebd f237 19be fd8f f03d db5d 87bd
000000c0: 0fd7 943d 7084 263d 7ecf 48be aec0 27be
000000d0: 34c5 b4bb 9941 5abe 6252 55bc 78f7 cd3d
000000e0: 81eb 9c3c ca86 c43d ddde 1dbd d38e b83d
000000f0: 0dd2 a3bd cb5a babe dd46 f73d ef71 01bd
00000100: 3bdb 343e 9e56 0c3e 9c89 9c3d 1ca4 77bd
00000110: 2f4b 5cbd 6509 0ebe 4ef2 c53c c8b0 253d
00000120: b8b4 1d3b 22c8 203a e8f4 90bd b9ab 14bd
00000130: f403 d6bd de21 a6be 6071 acbd b86f 363e
00000140: ff1c ad3d e1cb 00bd b874 53bd b9cd a93d
00000150: 148e 67bd d89c 013e 9454 e8bc cb02 833c
00000160: f2fb 2a3d fd57 3ebe 086c bf3c 7d08 f4bd
00000170: 9c9f 2e3d e01c adbe 7333 293e 803e 333d
00000180: da26 0ebd 73b3 4cbe 6ca0 193e 921d 0e3d
00000190: 5ffe 7fbd 8bfb 17be d9d2 b13c ca1c 0fbe
000001a0: 0bbe 2c3d 0f1c 593c ec80 c23c 9c1a d33c
000001b0: aee3 1abc 781c 25be 3451 033e 83cf 9abd
000001c0: efce c7bb a3c8 003e 4d4e 0f3e 8c90 7dbc
000001d0: 14b2 11bd 5665 25be a85c a3bd 93ea 9b3d
000001e0: 054f 163e b7b6 b73d 266a 8f3d a973 b23d
000001f0: 6edf 99bd 937c 523d b8a5 81bc fa0a 9c3d
00000200: 3f88 babb 3e20 893b 3214 6fbd cccb a7bb
00000210: 6b19 1dbe 65aa 063e 6968 5bbe 6926 4b3c
00000220: fa31 bbbc 2948 863d a864 81bc 9365 283e
00000230: d99c 5d3e a3a0 2f3e ea3b f63d ef3b 2f3e
00000240: 028f 6c3d 6e1c 923e a1ef 5e3c dca5 533b
00000250: bda9 f63c 7a50 ea3b 9be9 0ebe 327b 6dbe
00000260: a36c 973d aeb1 ea3d 93dd eb3c 7ab8 5ebe
00000270: 8ff1 37bc ddfa f63d d5ec 023e a7bf b8bd
00000280: a2bb 9cbe 0e58 ca3d 8c3c 413e f3de 81bd
00000290: a589 443e 2130 38bc 3089 9b3c 01a8 d9bd
000002a0: 5520 b33c 033b 8f3c 1eb0 91bc 406e a43d
000002b0: c8d5 aa3c 66ea 01bb f4b8 443d aa1b 483d
000002c0: 580e a3bd 39c8 2b3d 89a8 b53c 02b0 693e
000002d0: 1475 013d e64f f93c 530e 97bd 5338 b0bd
000002e0: eca6 1ebe 0a96 053b 5540 073e 3285 0a3e
000002f0: 49c9 193d c3e8 abbd 22dc 19bd c346 a83d
00000300: 9db9 3cbe 101d 0f3e 355a 543e 4395 19be
00000310: f8d4 40bd b948 883d d720 4eba 06c5 df3c
00000320: fce7 343d 1a5b 8bbd f9a8 10bd 9bd5 9abd
00000330: f391 77bd 71d3 533c 490c fabc 7529 7fbc
00000340: 612f ce3d 5964 0d3e 7472 acbd 797e 373e
00000350: 4f8f 363e 7787 293c b56d 493d baa5 81be
00000360: c792 3bbd fee6 973b 6fc6 57bd 835c c5bb
00000370: 8c28 d83c 4eeb 07be 72ae 2b3e c8ac 563d
00000380: 1f41 0c3d d927 bbbd ee64 57be 0e96 bc3d
00000390: 43b0 10be 651d 66be 9111 13bd 2202 ddbd
000003a0: 871c b33d d517 b73d 9356 803d 8a1b 873c
000003b0: 729d ebbc 9da2 d53d 7500 d63d 2508 20be
000003c0: 18d2 c9bd 23f8 963d 197f e53c 041f 31be
000003d0: 9038 d8ba 74ce 8cbd 0bd4 ce3d 0f02 0dbd
000003e0: 1bbf 343c 5f56 323b 849d e93d b135 47bd
000003f0: b00e 2fbc cbc3 603e 0812 92bb 06a8 11bd
-0.05655569 0.11775371 -0.032473832 -0.05381709 0.24305151 0.2571964 -0.04183181 0.06459491
-0.049233012 -0.18301871 -0.20871122 -0.012027982 0.0030582042 -0.0542637 0.12807253 0.15990432
-0.29051292 -0.09436962 -0.08737566 0.08725906 -0.04609001 0.16235878 0.044208802 0.11293356
-0.020709 -0.016358169 -0.18545611 0.043640804 -0.098968126 -0.15931621 0.1764655 0.020410355
0.10889795 0.005722494 -0.082402855 -0.053820252 0.3867586 0.23057519 0.10278488 -0.12026779
0.008166826 -0.24930006 -0.06915443 -0.017112339 -0.03478748 -0.14962748 0.117462136 -0.066096984
0.07267582 0.040653646 -0.19610402 -0.16382095 -0.0055166725 -0.21314086 -0.01302013 0.100569665
0.019155266 0.095960215 -0.038542617 0.090116166 -0.079990484 -0.36397395 0.12074063 -0.031602796
0.17661755 0.13704917 0.076434344 -0.06045924 -0.05378264 -0.13870771 0.024163391 0.040451795
0.0024064016 0.0006133338 -0.07077962 -0.03629658 -0.10449973 -0.32447714 -0.08420062 0.17816055
0.08452796 -0.031444434 -0.051624984 0.082911916 -0.05653198 0.12657487 -0.028360642 0.015992543
0.04174418 -0.18588252 0.023366943 -0.119156815 0.042632684 -0.33811092 0.16523533 0.043760777
-0.03470502 -0.1999033 0.15002602 0.03469617 -0.062498447 -0.1484205 0.021706985 -0.13975826
0.042173427 0.013251319 0.023743115 0.025769524 -0.009453697 -0.16124141 0.12823945 -0.07559111
-0.0060976665 0.12576537 0.13994713 -0.015476357 -0.03557022 -0.16151938 -0.07976657 0.07613101
0.14678581 0.08970397 0.07002668 0.08713467 -0.07513319 0.051388334 -0.015826091 0.07619281
-0.0056925113 0.004184752 -0.05836887 -0.00512073 -0.15341727 0.13150938 -0.21426548 0.012399294
-0.02285098 0.06556732 -0.015795067 0.16444997 0.21641864 0.17151122 0.120231465 0.17112707
0.05775357 0.28537315 0.013606937 0.0032294905 0.030110234 0.007150707 -0.13956301 -0.23191527
0.07393768 0.11459671 0.028792178 -0.2175006 -0.011227026 0.12059567 0.12785657 -0.0902093
-0.30611902 0.09880076 0.18870753 -0.06341352 0.19193132 -0.011241944 0.018986315 -0.10627747
0.021866003 0.017484194 -0.017784175 0.08028841 0.020853892 -0.001982355 0.048027948 0.048854508
-0.0796172 0.041938994 0.02217509 0.22821048 0.031605795 0.030433606 -0.07375779 -0.08604493
-0.15493363 0.002038362 0.13208134 0.13527372 0.037545476 -0.08394005 -0.03756345 0.08216622
-0.18430181 0.1397593 0.20737536 -0.14998345 -0.047078103 0.06654496 -0.000786317 0.027315628
0.04416655 -0.068044856 -0.035317395 -0.07560273 -0.060441922 0.0129288295 -0.030523436 -0.015573849
0.100676306 0.13807811 -0.08420268 0.17919339 0.17828105 0.010347239 0.04917689 -0.25321752
-0.045794275 0.0046356907 -0.052679475 -0.006022991 0.026386522 -0.13273355 0.16765764 0.05241087
0.03424179 -0.0913846 -0.21034595 0.09208308 -0.14129739 -0.2247215 -0.035905425 -0.107914224
0.087456755 0.089400925 0.06266513 0.016492624 -0.0287616 0.10431407 0.10449306 -0.15628107
-0.09854525 0.07371547 0.028014706 -0.17296988 -0.0016496349 -0.06875315 0.10099038 -0.03442579
0.011031891 0.0027212126 0.11406997 -0.04863519 -0.010684654 0.21949689 -0.004457716 -0.03556063

network_body._body_endoder.seq_layers.0.bias f4 [128]
00000000: b5b9 0739 0deb c43c 966d f03c 6fb2 0c3d
00000010: 5305 903c 698d 113c 42f2 f73b f8b8 f93c
00000020: 815a 613a fadc 773c 7771 8c3b 9183 1e3d
00000030: 1449 f53c d94d 933c 5bf0 ca3c 9891 343c
00000040: 3d17 c43b d622 133c 2a4d 873c bb23 2ebc
00000050: 73b8 603b fa5b 943c 874e 2e3c aa88 a23b
00000060: 4d6a 2f3c 9c79 d83b c410 0d3c 7bdc c43b
00000070: bb78 6f3c a4b4 1c3b 4b5f 833c 680b fe3b
00000080: 36b9 d93c 1138 e8bc 1818 073c e2d9 4cbc
00000090: 0ccf d83a 9964 bc3a d5fa a73c 2396 b83c
000000a0: c5c2 d53c cc5d ebbb f0f4 873d 52a2 e0bc
000000b0: ef2b 133c 7a75 a03b af0d ec3c e1bc 753d
000000c0: 35cb 3abb 772d d639 3de8 f53c 987a de3b
000000d0: 0aa7 453c db9a bbbc a113 c13c d9b6 853c
000000e0: fbd7 09bc 0a4b f63c 719c 1ebc 45ea 8b3b
000000f0: 7835 e2bb 9a1a 9b3c 86fd d93c ed6d 83bb
00000100: 0750 e8bb 8beb 063c 38b4 523c 511e fb3c
00000110: 7608 a03c 38e9 cbbb 1392 ccbc c550 fd3c
00000120: 41fe a93c b0e8 a73b e43e 563c 7d34 6cbb
00000130: 119f 2cbc 3b6f 54bc 7adf 083d 7b6d f0bc
00000140: a32e cc3a 4347 a53c 2b74 1c3c 01a7 af3c
00000150: 5c6f 053c 4ddf fb3c 0aff 043d 2916 fc3c
00000160: 9104 063a a456 273c 60b2 4f3c ca40 aebc
00000170: afa2 9d3c 1134 a0b8 9c2d dd3c 2de7 633c
00000180: 66eb 103c 6891 a03d cec1 453c 9018 c73b
00000190: c690 093c 5ac3 81bc 3d23 323c ead9 2c3d
000001a0: 74ad cdbc 5f23 9d3b fc37 93bb f034 013c
000001b0: 4102 033d 1046 d73b 9935 e43c a8cf 943c
000001c0: b118 c73b 2f0a 0ebd aa07 993a 54e9 cc3b
000001d0: d719 c0bb fb97 4a3b a32e 72bb db12 8d3c
000001e0: 6c80 6a3d 063f f13c 7710 773c 2000 b53c
000001f0: 7bb1 783c 7d37 ba3c c32f 923a 9dac 823c
0.00012943785 0.024037862 0.02934913 0.034349855 0.017580664 0.008883812 0.007566721 0.030483708
0.0008596555 0.0151283685 0.004285987 0.03869969 0.029942073 0.017981457 0.024772814 0.01102104
0.0059842155 0.0089804735 0.016516287 -0.010628636 0.0034289628 0.018110264 0.01063884 0.0049601393
0.010706496 0.006606294 0.008609954 0.0060077286 0.014616187 0.002391138 0.01603665 0.0077528246
0.026577573 -0.028347047 0.0082454905 -0.012503119 0.0016541197 0.0014373242 0.020505348 0.022532528
0.02609385 -0.0071828123 0.06638515 -0.02742115 0.008982643 0.004896817 0.028815119 0.059994582
-0.0028502468 0.00040851135 0.030017966 0.0067895167 0.012063751 -0.02290099 0.02356893 0.01632254
-0.00841331 0.030065078 -0.009680853 0.0042698705 -0.0069033466 0.018933583 0.026610147 -0.004010907
-0.007089618 0.008234869 0.01286035 0.030654104 0.019535284 -0.00622287 -0.024971997 0.030922303
0.02075112 0.005124174 0.013076518 -0.0036042028 -0.010535971 -0.012965973 0.03341625 -0.02934908
0.0015577864 0.020175582 0.009549181 0.021441938 0.008144226 0.030746127 0.032469787 0.030772286
0.0005112375 0.010213528 0.012676805 -0.021271128 0.019242613 -7.639093e-05 0.026999287 0.013910097
0.008845186 0.07840234 0.012070132 0.006075926 0.008396333 -0.015840221 0.010872659 0.042200007
-0.025107123 0.0047954763 -0.004492758 0.007886156 0.03198457 0.0065696314 0.027857589 0.018165424
0.0060759415 -0.03467768 0.0011675258 0.006253401 -0.0058624553 0.0030913341 -0.0036954067 0.017220905
0.05725138 0.029448997 0.015079609 0.022094786 0.015179033 0.022731537 0.001115315 0.015951449

network_body._body_endoder.seq_layers.2.weight f4 [128, 128]
00000000: b15d dabd 4c24 28bd ed42 6a3c c888 e4bc
00000010: 05d8 903c 1121 fd3c f50f f23d 2205 c53d
00000020: 7b33 f63d cf61 f03d 60ab e1bd b00f 213e
00000030: c24e e9bc 4028 303d 74a5 5e3c 5c5b b03d
00000040: 9c70 22bb e21b 5abc 0f0b 7c3d 461a 27bd
00000050: a45a 833d aed8 0b3e 036f e2bd 75e0 ca3d
00000060: b35f b03d 1dd2 843d 0f66 f0bd 31c5 093d
00000070: c4a7 d0bb ed50 78bd 9e41 133e a51a 53bd
00000080: 5104 aabd dc50 783d 6452 38be 98fa f5bd
00000090: 4dc9 dbbd 6462 18be c5ab b83c b453 ae3c
000000a0: 752d 33bc 60ce 6ebd 529c ef3c 56d3 22bc
000000b0: 12c4 453e 5d00 293e 6e96 e63c 87fd 6e3e
000000c0: 951a cc3d 38e2 e83d d2cc 3bbe be75 7ebd
000000d0: ea38 22be 468b b9bd 9007 f33d efa0 1f3b
000000e0: c6d9 4ebe 99df dabd dfd6 4a3d 291c ba3c
000000f0: fda7 2abd 3748 033e 31e5 06bd bf07 cd3c
00000100: 5965 a0bd 4b8d 87bc 8d9b bbbb 2657 d1bb
00000110: 4924 ca3d 8c1a 3cbb d9e2 bebc 33eb 153e
00000120: e0ef b43d d5df 1abe c6af 0c3e 9ab3 843b
00000130: 59b5 53bc ccf8 eb3d 4457 5a3c b95d 9f3d
00000140: b3a4 d7bd bee6 b13d 5043 c2bc d44e 57bd
00000150: cbad ea3d 9859 7a3c 8f60 d83d cdc2 0b3e
00000160: a7c8 46bc 7bd6 a93d 53e8 c9bd d9a8 273d
00000170: 8f4e 32be 96ca b43d 517d ad3d 5553 f13d
00000180: 2e95 953b e9dc 663d 5a21 ed3c 1fed 3e3d
00000190: 4daf 463d 6f27 e73d 12d4 d9bd b143 823d
000001a0: 8300 0ebe bec4 a63d dce8 09be 1e3a c13d
000001b0: f8a5 d9bc d973 d9bd 87ee 38bd d242 ecbc
000001c0: a567 dbbc db73 8fbc 60ac 67be 64e2 053e
000001d0: e10a c9bc 8f90 d33c 1889 17be 04f8 84bd
000001e0: 279c 283e 3bed ffbb 6474 7ebd 4ea8 02bd
000001f0: 0eea 973d 5e15 683d f8ee e9bd cee1 4a3d
00000200: 2ee2 2d3d ebe3 003c cdd2 433e 7ef2 2b3d
00000210: 873c ac3d 9b27 01be a632 b43c 0a81 ee3c
00000220: 0cb6 46bb 10df 37be 21f7 d43d 6443 18bd
00000230: 7f8f 15bd b942 9bbd c68a ebbd 6900 183d
00000240: 6e7c ed3d 36ee 02be b53e be3d e42b ba3c
00000250: 03cc a5bd 5879 4abb 9da7 7cbd 4b4e 95bc
00000260: 81d7 d53c 51c0 77be 7afa 3a3d 10b2 b3bd
00000270: 5a5c eebd c678 d53d ce6b cdbc fa26 0c3c
00000280: b509 3e3e ea88 6bbd f785 b23d 2bab 54be
00000290: e852 d23d 56a2 aa3c b34b bbbb 7db2 c83d
000002a0: 2bfe 7abd 48d2 80be 48c4 553d eb3d aa3b
000002b0: 35fd b6bd ed08 12be fd42 83bd 0a75 13be
000002c0: b29c 423d cf98 3a3d 6e80 25bd 04df b9bd
000002d0: d2d7 15bd 63c8 9d3d f088 b1bc b6ef 35bd
000002e0: 2a62 57bd 3672 5f3c a55c 233d e430 aabd
000002f0: 26a3 c53d e913 0cbd d077 cbbc f671 8abd
00000300: a042 d03d c939 9d3d 4595 fa3d b5cf fabc
00000310: 5c41 8b3c 6d8e 72bd a546 4c3d 9ecf dcbc
00000320: 9e36 7e3b 78c0 d13c 8239 01bd ac96 5ebc
00000330: 642c 6abc b118 47be 4878 4dbd 259b 0e3e
00000340: 16ba 343e 122b 2d3d 191d 063d ca8a 333e
00000350: 3dd8 1c3e 3260 2f3d 65a4 d43d 8426 3ebe
00000360: 078a e93d 2e69 bd3c ae0c f23d fd3e 043e
00000370: 4628 4abe af37 243e be16 0f3d b722 aa3c
00000380: 42ab d8bd 7509 7cbd 85ef d2ba 4d46 4fbd
00000390: 2a2f 46bd 94ee 7fbe bee3 4f3d e38a 06be
000003a0: 13cd 4d3d 0f59 36be e089 4fbd ae74 3e3e
000003b0: dd95 b13d 7198 68be 2e9e aabd 4198 60bc
000003c0: 5cc7 9fbd 4942 a53d 2791 2e3e d34b abbd
000003d0: b54e 03be 9c80 93bd 454e a93d ba4c 8bbd
000003e0: b579 77be 3256 0dbe 3aae 00bd 06c8 e73d
000003f0: eb4a 20be eaea f5bd b276 d73d 5a92 67bd
-0.106624015 -0.04105024 0.014298183 -0.027897254 0.017681131 0.030899556 0.1181945 0.0962012
0.12021538 0.117374055 -0.11019015 0.1572864 -0.028479937 0.043007135 0.013589252 0.086111754
-0.0024786359 -0.013312312 0.061533984 -0.04079654 0.06413773 0.13656875 -0.1105633 0.09906093
0.08612003 0.064853884 -0.11738216 0.033635322 -0.0063676555 -0.06062405 0.143805 -0.051539082
-0.083016045 0.06062399 -0.1800018 -0.120106876 -0.107317545 -0.14881283 0.022542844 0.021280147
-0.010936131 -0.058302283 0.029249344 -0.009938082 0.19313076 0.16504045 0.028147902 0.233389
0.099660076 0.11371273 -0.18339851 -0.062124006 -0.15842023 -0.090597674 0.11866677 0.0024357399
-0.20200261 -0.10687179 0.049521323 0.022718506 -0.041664112 0.12820517 -0.032933418 0.025028108
-0.078318305 -0.016546866 -0.00572533 -0.0063885627 0.09870202 -0.0028702347 -0.023301529 0.14640503
0.08834815 -0.15124448 0.13738927 0.0040497305 -0.012921655 0.115220636 0.01332647 0.07781548
-0.10529461 0.08686589 -0.023713738 -0.05256541 0.1145893 0.01528015 0.10565292 0.1364853
-0.0121328 0.08292862 -0.098587655 0.04093251 -0.1741278 0.08827703 0.08471168 0.117834724
0.0045649027 0.05636302 0.028946567 0.046612855 0.048507024 0.11286818 -0.10636152 0.06360567
-0.13867383 0.08142994 -0.13467735 0.09434913 -0.026568398 -0.10617799 -0.045149352 -0.028840456
-0.02678282 -0.017511299 -0.2262435 0.13074642 -0.02454132 0.025825767 -0.14798391 -0.06492618
0.16465817 -0.0078102625 -0.062122717 -0.03189879 0.07417689 0.056661002 -0.11422533 0.04953175
0.04245203 0.00786684 0.19123383 0.041979305 0.08409982 -0.12612765 0.021996807 0.029114265
-0.003032091 -0.17956185 0.103986986 -0.037173644 -0.0365138 -0.07581086 -0.11501078 0.037109766
0.11595999 -0.12786183 0.09289304 0.022726007 -0.08095553 -0.003089508 -0.061683286 -0.01822581
0.026103737 -0.24194457 0.04564903 -0.08774197 -0.116387084 0.10423426 -0.02507582 0.008554215
0.1855839 -0.05750362 0.08716958 -0.2076842 0.10269719 0.020829361 -0.005715811 0.09799669
-0.06127755 -0.25160432 0.05218914 0.0051953695 -0.08935014 -0.14261217 -0.064092614 -0.14400116
0.047512718 0.045555886 -0.040405683 -0.0907574 -0.036582775 0.07704236 -0.021671742 -0.04441806
-0.05258385 0.01363807 0.039883275 -0.083101064 0.09650259 -0.034198675 -0.024837404 -0.067600176
0.10168958 0.07677037 0.12235502 -0.03061662 0.01699894 -0.05921786 0.04987206 -0.026954468
0.0038789879 0.025604472 -0.031548984 -0.013585728 -0.01429281 -0.19443013 -0.050163537 0.1392637
0.17649111 0.042277403 0.032742593 0.17533413 0.15316863 0.04281635 0.10382918 -0.1856938
0.1140328 0.023121443 0.11818825 0.12914653 -0.19741926 0.16036867 0.034933798 0.020768506
-0.1057954 -0.061532456 -0.0016093111 -0.050604153 -0.048384823 -0.24993354 0.0507543 -0.13138919
0.050244402 -0.1780741 -0.050668597 0.18599197 0.08671162 -0.22714402 -0.08330952 -0.013708175
-0.07801697 0.080692835 0.17047559 -0.08364072 -0.12822993 -0.07202265 0.08266882 -0.06801744
-0.24167521 -0.13802412 -0.031416155 0.11317448 -0.15653579 -0.12007697 0.10520686 -0.056536056

network_body._body_endoder.seq_layers.2.bias f4 [128]
00000000: 50fc ec3c 27a5 1c3c be61 753c 071a d33b
00000010: f412 ba3c cb8a 453c 6d2b ab3a ff35 0f3c
00000020: dd54 da3b 18cc d63c 3a66 c9bb 195c e03b
00000030: 1550 ba3c fce1 123c 8e05 a839 0a18 b33c
00000040: f4dd 0f3d 3bd9 e53c 842e 333d 609a 3d3b
00000050: 0b1f d83b 76b1 083d 8b21 f83c 0bb8 563c
00000060: 5abb e33c 9e00 dc3c d18f 833c 2984 803b
00000070: 4018 653c d745 bf3c 69a4 c03c f753 733c
00000080: f8b9 cd3c 0671 ef3c cd8d 0c3d 2a0d c23c
00000090: 16db b53c 8c78 a43c 07ca 1b3c 8e65 6f3c
000000a0: 4f31 21ba 9a62 953c 5d5b 76bc 86ad 8c3c
000000b0: 3d5e 203d 7c10 5f3c 15c3 aa3c 9ff0 713c
000000c0: 41f3 033c 1731 ce3c ee44 b93c 3bdd ec3c
000000d0: 0de9 633c c0ea 703c 7c09 0f3d 1c09 d93c
000000e0: 1676 26ba 787a e03b acd1 803b 0d30 44bb
000000f0: 4f26 e43c 8a57 d63c 7d28 4c3d 3408 a43c
00000100: 5363 c33c d30c 903c af6f d33c 9c6e 523c
00000110: 6621 933c ab14 d83c a26b eb3c e3ba a8bc
00000120: bc87 693c 8ac0 fa3b 7c08 aa3c c3ca d73c
00000130: 50c6 303c 0891 dcbc e750 bc3b 7db1 a43c
00000140: 4e84 883c cea9 b83b 8cdd 9a3c 140d 063d
00000150: 2aba 8c3c 5481 cb3c ef0b 633c baf1 ce3c
00000160: 1e8c eb3c 725e 1b3d e803 1f3d e2be 133d
00000170: 2a17 44bb ff14 793c d3c6 1fbc 3a20 d03b
00000180: 3f66 e43c a2e5 8b3a d0a3 913b d775 aa3c
00000190: 05f3 093c f191 2e3a be7f 553c 6aab 843c
000001a0: c536 a93b 3d80 933c 0c3a 883c 4246 193d
000001b0: 41f2 0a3d 08fc d13c d5fb 5a3c 0265 123d
000001c0: 069a c93c 6a03 583c e301 853c 3add d73c
000001d0: 1dfe be3c 1d13 5e3c d119 283d fee8 a83c
000001e0: b99e 213d e79d 5f3c c09c 803c ff69 d33a
000001f0: f1a3 803c bce5 c63c 72aa 2a3d 39ba 9d3c
0.028928906 0.00956086 0.014976917 0.0064423117 0.022714116 0.012057017 0.0013059207 0.008740901
0.0066629485 0.026220366 -0.0061462196 0.0068469164 0.022743264 0.008965012 0.00032047596 0.021862049
0.03512378 0.028057685 0.043745533 0.0028931126 0.0065954975 0.033372365 0.030289432 0.013105403
0.027799297 0.026855763 0.016059788 0.0039220047 0.013982832 0.023348732 0.023515897 0.014851562
0.02511309 0.029228698 0.03431492 0.023687918 0.022199195 0.020077012 0.009508616 0.014611615
-0.000614901 0.018235493 -0.015036431 0.017172586 0.039152373 0.01361477 0.020844975 0.014766841
0.008053602 0.025169892 0.022615876 0.028914085 0.013910544 0.014704406 0.034921154 0.026493602
-0.00063499936 0.006850537 0.003931245 -0.0029935867 0.027850298 0.026164789 0.0498433 0.020023443
0.023851072 0.01758424 0.02581009 0.012843754 0.017960262 0.026377043 0.028737847 -0.020596927
0.014253553 0.007652347 0.020755999 0.026341802 0.010789469 -0.026924625 0.005746949 0.020104164
0.01666465 0.0056354767 0.01890447 0.032727316 0.017178614 0.024841942 0.013857826 0.025261749
0.028753337 0.037931867 0.038822085 0.036070712 -0.0029921033 0.01520276 -0.009751993 0.006351498
0.027880786 0.0010673294 0.004444577 0.020808144 0.008419757 0.000665932 0.013030944 0.016195018
0.0051639997 0.018005485 0.016629241 0.03742052 0.033922438 0.025632873 0.0133657055 0.03574086
0.024609577 0.013184408 0.016236251 0.026350606 0.02331453 0.013554362 0.041040245 0.020618912
0.03945801 0.013648487 0.015699744 0.0016129612 0.015703173 0.024279468 0.041666456 0.019253837

action_model._continuous_distribution.mu.weight f4 [1, 128]
00000000: 5e6f 723d 877a 9cbd 68c3 07be 29c9 41bd
00000010: 73be d5bd a3b7 b4bd 0a79 753c c0d6 403d
00000020: 892a 113d 0188 e23d 8465 e93c 90df 80bd
00000030: 1f67 f83d eb5e fb3c aa7e 88bd 844b b13d
00000040: cca8 f03d 4c5c 833d fc36 9f3d 2506 2a3c
00000050: 86dc 83bd 26af a63d 4848 a63d 9eba 803d
00000060: a93b cdbd 5585 e13d 166b 433d 3158 9ebd
00000070: 51ce 94bd 5156 cdbd 4849 ce3d 033c 3b3d
00000080: 8185 e7bd aee2 843d d360 0dbe af3f 9d3d
00000090: a071 803d 80a1 e0bd 6306 b8bd 6204 83bd
000000a0: 73c8 2fbd 46ac e3bd 16ee 7dbb 0666 dfbd
000000b0: a9c9 eb3d 7992 e2bd 501b 9d3d cbcd f7bd
000000c0: d64e 7dbd f928 d9bd 732e e9bd 6f63 8a3d
000000d0: 5aa3 88bd bc52 b9bd bb6a 113e 4d9b ccbd
000000e0: 2d51 59ba 6c0d 99bd 55af 80bd 7236 2bbd
000000f0: 347b 20be f5b4 f4bd 9284 fc3d 00d0 03be
00000100: b052 acbd 3cd3 88bd 9775 af3d 9b25 a5bd
00000110: fb86 97bd 6794 9a3d e542 bc3d 23ed 023b
00000120: 2553 85bd 1020 aabd b4c1 05be 8ae8 d23d
00000130: f295 bfbd f5cd 50bc f207 b4bd bf16 b9bd
00000140: f0c8 ab3d 6c60 f13c 13b2 483d 98f7 d03d
00000150: 08a3 053d 9928 913d d0b8 93bd 273d ce3d
00000160: 4359 af3d 5a33 ba3d 40ce b33d 9fc2 ca3d
00000170: 6f00 93bc 3eda 743d ecbc abbc c44d 45bd
00000180: 8bba bdbd 8b51 32bd 4da4 b3bd 64e2 c1bd
00000190: 0e79 98bd 4ece a83c 5960 8c3d f6c3 96bd
000001a0: 2e94 2e3d 4379 9b3d 4bc3 a63d a74f dbbd
000001b0: c599 013e d9a0 ebbd c836 03be 63f0 e53d
000001c0: 6dea b33d e538 96bd 0dc6 d5bd c1bf d63d
000001d0: 80ea 983d ea50 2d3d f14b cb3d 5d31 a83d
000001e0: a4ae 033e 7fdd bbbd 5205 713d 0e74 89bd
000001f0: 685e 9fbd b1bf 923d 9f03 033e efc8 f2bd
0.05918824 -0.07640558 -0.13258135 -0.047310982 -0.10436716 -0.088240884 0.014982471 0.0470798
0.035440955 0.11061097 0.02849079 -0.06292641 0.12129044 0.030684909 -0.06664784 0.086569816
0.117509454 0.064140886 0.07774159 0.0103774415 -0.06438546 0.08138876 0.08119255 0.062855944
-0.10021145 0.11011759 0.047709547 -0.07731665 -0.07265914 -0.10026229 0.10072571 0.04571153
-0.11304761 0.06488548 -0.13806467 0.07678162 0.06271672 -0.10968304 -0.08985593 -0.0639732
-0.042915773 -0.11116843 -0.0038746647 -0.10908131 0.11513073 -0.11063094 0.07671225 -0.12099799
-0.061842762 -0.10603518 -0.113858126 0.06757247 -0.06671782 -0.090489835 0.1420087 -0.09990559
-0.0008289989 -0.07473263 -0.06283442 -0.04179997 -0.15671998 -0.11948577 0.12329973 -0.12872314
-0.08414209 -0.06680915 0.0856735 -0.08063813 -0.07398792 0.07547837 0.091924466 0.001997777
-0.06509999 -0.08306897 -0.13062173 0.102982596 -0.09354772 -0.0127444165 -0.08790578 -0.090375416
0.08387935 0.029464923 0.04899795 0.10203475 0.03262618 0.070878215 -0.072129846 0.10070258
0.08561947 0.09091826 0.087795734 0.09900402 -0.017944543 0.059778444 -0.020964108 -0.048169866
-0.09264096 -0.043534797 -0.08771572 -0.09467009 -0.07444964 0.020606186 0.06854314 -0.07361595
0.042621784 0.07591488 0.08142718 -0.10708552 0.12656315 -0.11505289 -0.12813866 0.11227491
0.087849475 -0.073350705 -0.10438166 0.10485793 0.07466602 0.042313494 0.09926594 0.0821254
0.12859589 -0.091731064 0.058842964 -0.06711589 -0.077816784 0.071654685 0.1279435 -0.11854731

exp_avg f4 [128, 111]
00000000: 0406 adb9 ad2c b1b9 d48d 183a 0400 0000
00000010: 8cc7 bc38 b59d a4ba 589d 8638 4bfe 15ba
00000020: 1ca1 353a c02e 3eb8 1b80 94b9 0400 0080
00000030: e792 1036 bad0 d2b7 3c69 c8ba c6bb eaba
00000040: e184 02b9 f3cc 4eba 1857 d038 0400 0080
00000050: 8ce5 99b8 b5f1 91b9 272d b8b7 50dc 1bba
00000060: d4b9 063b fd8b dab8 b102 99b6 0000 0000
00000070: ad70 6336 02f4 74b9 2059 3ebb 1c28 0bbb
00000080: f95c cfba da09 973a 4d1c 3eb9 0400 0000
00000090: 87c2 ccb8 a963 edb9 345a dcb7 b584 00b8
000000a0: 7b91 8f39 cbc2 1d3a cc07 99b8 0400 0080
000000b0: c8b7 c435 f48f f9b8 937a f5ba 9bfe 06bb
000000c0: b913 82b8 75ad 7cba 93b8 6e3a 0400 0000
000000d0: dd62 b0b7 b0dd 89b9 fab0 4eba ccd1 c5ba
000000e0: cc4c cd3a dde6 16ba e42b 9538 0000 0000
000000f0: f48b 4538 ca39 d1b9 27b7 f8ba a06e f2ba
00000100: 2bc1 d9ba 2154 513a 1549 a33a 0400 0080
00000110: e983 2f36 b934 07ba 829c 8aba 6380 12bb
00000120: 9bc5 6a3a ca2a 3aba f22b 01b8 0400 0080
00000130: 8d5d 0038 1b2c 1d39 9899 c7ba 5952 82ba
00000140: d3a8 3a3a 0327 f539 5702 b4b8 0400 0080
00000150: 57dc 1ab7 a925 95ba cbaf 94ba bf2a 18bb
00000160: a298 863a a9ec 24b9 5d8b 8db8 0400 0080
00000170: 92f4 5e37 e41c 2639 7da8 0dbb d4e8 f3ba
00000180: 286a 553a 9e6e be3a 26f1 2cbb 0400 0000
00000190: ee38 1a36 e7ee 06b9 87bb 34ba fd8b 7dba
000001a0: bfd2 e7b8 4c2c bdb8 32e1 1bba 095a 49ba
000001b0: 737e 0737 bb5b 00bb 78e3 8eba 5316 863a
000001c0: 670c 053a 4b99 c1b9 0400 0080 4a65 b639
000001d0: 35bb d23a e069 9339 ffb9 1e3b 4025 75b9
000001e0: a812 8537 fc43 7d39 0400 0000 1591 9838
000001f0: 7734 3d3b 4b6c d939 ae47 da3a 50c6 1f3a
00000200: 50ea a93a 0f54 2039 0400 0000 2edf 34b7
00000210: dd96 07ba 66c2 f43a 35dd 253b bf7f 8cba
00000220: c179 49ba 16d3 57b7 0000 0000 bbae 9938
00000230: 25fe 1a3b 265d 383b 5edc 4c3b 0e23 223a
00000240: 0046 8fb9 d444 043a 0400 0000 1735 f239
00000250: fb32 783a ff5b 953a 74ba f93a 42a4 6db9
00000260: 2379 a5ba 692e 4c37 0400 0000 0672 f337
00000270: 0eef 2d3b 54a7 0f3b 2397 693b e6cf bfba
00000280: 285f a03a 1ad2 6bba 0400 0080 95d8 76b9
00000290: 198c 513b ef81 ce3a b3d8 2e3b c6b6 42ba
000002a0: 969b 86ba 103f 63b8 0000 0000 8315 e539
000002b0: 1410 703b 9b10 933a c6ed 323b 316c 9a39
000002c0: 0759 99b9 077d 293a 0400 0000 1dda ca36
000002d0: ccd2 123b ece2 033a 88bd 0a3b fea1 f639
000002e0: 7e5b fcb9 829b cb38 0400 0000 29ad 1e39
000002f0: 4e73 823a 75e8 0d3b 70eb 183b b81f fbba
00000300: a8f6 283a d782 3e3a 0400 0080 5057 1bb8
00000310: ca47 523b a626 4a3a bd89 223b 8587 8eb7
00000320: 4f3c 56ba 6233 2d39 0400 0080 7acb f338
00000330: 6bd1 743a d3b8 453b 0862 413b 0e65 62ba
00000340: 398e 62ba c744 283b 0400 0080 7a61 8636
00000350: 95b9 0839 e1db 1e3b a8f0 013b 30df 0b39
00000360: b617 4bb8 04ed 68b8 cc1a c23b f821 b837
00000370: 63fc 8a3c f1b8 993a 09c3 6739 9169 053a
00000380: 352c c1b9 0400 0080 8fed eb39 7785 123a
00000390: 43c4 90ba aced 79b9 fb73 49ba 7e3d 8038
000003a0: 1e0d ce39 0400 0000 86e8 7a38 5196 693a
000003b0: 774e c2b9 8ae4 f3b8 b6bf 7e3a 9a37 1238
000003c0: 684e a7b9 0400 0080 400c 51b8 b495 83b8
000003d0: 4b01 a2b9 a4bb 4939 20a6 f3ba f924 15ba
000003e0: 6ec3 97b7 0000 0000 8b5d 8db8 bb45 803a
000003f0: ba03 ec3a 9157 aa3a 7781 fd39 65d1 18ba
-0.00033001613 -0.00033793357 0.0005819474 6e-45 9.001707e-05 -0.0012559207 6.4189255e-05 -0.00057217915
0.0006928609 -4.534307e-05 -0.00028324206 -6e-45 2.154318e-06 -2.5131147e-05 -0.0015290151 -0.0017908744
-0.00012447267 -0.0007888816 9.9344354e-05 -6e-45 -7.338365e-05 -0.0002783664 -2.1955535e-05 -0.000594561
0.002055754 -0.00010421125 -4.5600686e-06 0.0 3.3891222e-06 -0.00023360553 -0.0029044822 -0.0021233624
-0.0015820555 0.0011523322 -0.00018130355 6e-45 -9.7637116e-05 -0.00045278415 -2.6268048e-05 -3.064117e-05
0.00027383477 0.0006018101 -7.297061e-05 -6e-45 1.4656625e-06 -0.000119000586 -0.0018728547 -0.0020598534
-6.202557e-05 -0.0009638884 0.0009106483 6e-45 -2.1026872e-05 -0.00026295846 -0.0007884648 -0.0015092432
0.0015663146 -0.0005756447 7.113049e-05 0.0 4.70988e-05 -0.00039906643 -0.0018975482 -0.0018496104
-0.0016613355 0.00079852535 0.0012457693 -6e-45 2.6153814e-06 -0.00051576976 -0.0010575207 -0.0022354356
0.0008955837 -0.0007101713 -3.0796924e-05 -6e-45 3.0604704e-05 0.00014989117 -0.001522827 -0.0009942754
0.00071204937 0.00046759107 -8.583505e-05 -6e-45 -9.230417e-06 -0.0011379021 -0.0011343894 -0.0023218838
0.0010268877 -0.00015728422 -6.7493624e-05 -6e-45 1.3289175e-05 0.00015841756 -0.002161532 -0.0018608817
0.00081411237 0.0014528816 -0.0026388853 6e-45 2.2980926e-06 -0.00012868234 -0.0006894399 -0.0009672044
-0.00011054193 -9.020473e-05 -0.00059463375 -0.0007680958 8.076068e-06 -0.0019585926 -0.0010901531 0.0010230042
0.00050753955 -0.0003692604 -6e-45 0.0003478921 0.001607752 0.00028116908 0.002421975 -0.00023378897
1.5863523e-05 0.00024153286 6e-45 7.2749484e-05 0.0028870383 0.0004147015 0.0016653442 0.00060949195
0.0012963507 0.00015290103 6e-45 -1.0780799e-05 -0.00051723217 0.0018673658 0.0025308852 -0.0010719224
-0.0007685684 -1.2864146e-05 0.0 7.3281546e-05 0.0023650017 0.0028131693 0.0031259279 0.0006185033
-0.0002732724 0.00050456566 6e-45 0.00046197392 0.0009468046 0.0011395215 0.001905276 -0.00022663272
-0.0012624603 1.2170153e-05 6e-45 2.9020954e-05 0.0026540193 0.0021919804 0.0035643063 -0.0014634102
0.001223539 -0.0008995846 -6e-45 -0.00023541071 0.0031974374 0.0015755276 0.0026679456 -0.0007427748
-0.0010269757 -5.417975e-05 0.0 0.0004369431 0.0036630677 0.0011220159 0.0027302369 0.00029453778
-0.00029248765 0.0006465469 6e-45 6.045461e-06 0.0022403477 0.00050310674 0.0021170098 0.0004704147
-0.00048133353 9.70876e-05 6e-45 0.00015132561 0.0009952576 0.0021653448 0.002333369 -0.0019159233
0.0006445446 0.00072674215 -6e-45 -3.7036196e-05 0.0032086247 0.00077114475 0.0024801337 -1.6990825e-05
-0.0008172439 0.00016517707 -6e-45 0.000116250434 0.0009339067 0.0030169978 0.0029507894 -0.0008636274
-0.00086424086 0.002567576 -6e-45 4.004859e-06 0.00013039105 0.0024239945 0.001982728 0.00013339217
-4.8421054e-05 -5.553385e-05 0.0059236046 2.1950327e-05 0.01696605 0.001172809 0.00022102533 0.0005089278
-0.00036844765 -6e-45 0.00044999688 0.0005589346 -0.0011044819 -0.0002383503 -0.0007684824 6.1149694e-05
0.00039301155 6e-45 5.98212e-05 0.00089106435 -0.00037061024 -0.00011629712 0.0009717898 3.4860896e-05
-0.0003191114 -6e-45 -4.984089e-05 -6.274451e-05 -0.0003090001 0.00019238755 -0.0018588938 -0.0005689408
-1.8091607e-05 0.0 -6.740828e-05 0.0009786406 0.0018006482 0.0012996068 0.0004835238 -0.0005829542

exp_avg_sq f4 [128, 111]
00000000: 3a1f 0338 bcfb 9737 4d59 dd36 2958 6928
00000010: 619d 8034 de77 0839 70f1 1b39 fc54 ca39
00000020: a155 fc37 b342 2037 6b53 1336 eb43 be29
00000030: 70c7 9b33 747a 6938 65fd 8d39 6dbf dd39
00000040: e8a3 8337 ce06 6037 51ee a036 a517 9f2a
00000050: 2347 5536 c842 a538 dfb9 8939 ff66 e239
00000060: c2e2 4338 910f 3e37 09cf 1a33 0000 0000
00000070: 33f0 9633 728c 1637 81d5 b239 0b9b d239
00000080: 7830 3738 4828 5e37 db11 1a37 b651 6129
00000090: 8eb6 a534 4858 2236 979f b639 8c59 d839
000000a0: 407d 5638 1772 1637 1b99 2233 2242 1b2a
000000b0: 3639 4033 d109 0a36 8038 c039 5a33 d239
000000c0: 132d 5638 2f95 4b37 2297 8838 2e41 042a
000000d0: 948c d032 e2d4 aa35 c6fe 7a39 520b b739
000000e0: c0a9 1b38 a7ec 2437 f578 8732 0000 0000
000000f0: 91fa 7a33 51a7 b735 3034 d239 ca7e dd39
00000100: 0fc5 2338 468c 4137 b06c 0f38 80b7 8028
00000110: 884c 6932 1d40 0437 5ce6 9639 1035 b839
00000120: 54a9 b937 c166 e736 2f73 a632 c4ec 1923
00000130: 44fb cd32 3fa3 b335 e166 eb39 c18e f039
00000140: fc54 a937 1266 2737 79ee 2a38 89d1 1a28
00000150: 9e4b 9132 ecba 6d38 324d 6c39 4824 bb39
00000160: f0bf c437 b534 9136 d1a6 8632 8ea7 bd20
00000170: d5f4 ae32 24bd a635 e91d ee39 8036 f139
00000180: de32 3637 96a2 0b37 6dc0 5d38 0847 4a25
00000190: 5a42 9331 276a 0c36 cdf3 b639 7ec8 c439
000001a0: 9fcc c137 9da3 8435 7c0f 3e37 8c34 833a
000001b0: 91df e733 9db2 993b a4e3 6237 c12a 3c39
000001c0: 4557 b137 3f55 c636 4e6f 8d28 ec7f 8136
000001d0: 7d8c 5639 e6bb 2839 19ad 193a 0369 f438
000001e0: e96a 8b37 7ae9 be35 4d02 092c 65f2 2037
000001f0: 9773 3739 3021 8739 36e6 173a 33d9 2239
00000200: 714e a837 1484 8236 c38c d52a e749 4537
00000210: d430 b538 91bc aa39 a30c 303a f4a5 9f38
00000220: 4a08 7737 7228 e533 0000 0000 4b58 1237
00000230: 9834 1a39 4015 c539 14cf 0f3a 279c f038
00000240: 69af 8037 7c8a c337 8cbf 6d2a d10c ea35
00000250: 3bc0 8d38 64e0 cf39 652b 1e3a 8e0f 5938
00000260: ef5b aa37 d60c a533 fb34 9d2a 6cf7 5036
00000270: 1a9e 1739 65dc e839 2d23 0f3a 2ddb 9538
00000280: 07ad 2b37 0690 bf38 4cf9 b92a 6902 ac35
00000290: 6846 0d39 927d 9439 a016 fe39 b633 2d38
000002a0: 0dc4 8437 bb9d 5433 0000 0000 62bd a536
000002b0: 4e86 2139 24fa f539 2812 113a 1da7 5738
000002c0: 51ca 5037 db52 6738 5ee4 0e29 3e36 a335
000002d0: fae7 3e39 fd97 9f39 ce90 ea39 d28f 4a38
000002e0: 2dda 4237 9770 8333 10bf 1323 9822 1236
000002f0: 15f6 2139 c8dd 003a 37d5 123a 1295 d337
00000300: fbd2 0737 3f64 6c38 b50e f128 3e2e d034
00000310: db54 9239 7ec1 8339 fe47 ee39 b003 8738
00000320: 650e 4737 22ad 6f33 4216 7f21 f526 9835
00000330: f196 0a39 9338 003a 9304 103a fc00 3637
00000340: 61eb 1137 c811 7338 0be2 4625 0a1e d834
00000350: 7f2a 4939 eae1 d439 65dc ff39 d96b 1a38
00000360: 85bc a335 bade 3b37 abb1 5b3b b041 3134
00000370: 1781 033d d51e 9737 0a67 8638 9c1c 2537
00000380: b9da 0437 a71e ed28 c10d 5135 6583 9538
00000390: fd25 be38 7e4e 8839 9ea6 3f38 7d57 e836
000003a0: db9a 6636 d93f a02c b600 c235 6e22 6638
000003b0: cd16 1739 d87a 9239 3a82 4f38 6f14 ee36
000003c0: d9a9 b436 6fcd 142b 67e3 df36 828d de37
000003d0: 4c3c 3439 ce21 9c39 b952 8038 84c0 2a37
000003e0: 3a15 bb33 0000 0000 f464 0e36 b273 1038
000003f0: d076 2539 9cc1 6e39 a311 1238 9da8 f136
3.1261916e-05 1.8117826e-05 6.596709e-06 1.2953215e-14 2.3956366e-07 0.00013014625 0.00014871894 0.0003859176
3.0080615e-05 9.552273e-06 2.1953263e-06 8.449477e-14 7.2540274e-08 5.5665572e-05 0.0002708241 0.00042295028
1.5692742e-05 1.3353025e-05 4.7961153e-06 2.826048e-13 3.178088e-06 7.880252e-05 0.0002626916 0.00043182817
4.6702808e-05 1.1328507e-05 3.6044217e-08 0.0 7.028611e-08 8.973397e-06 0.00034109878 0.00040169837
4.367574e-05 1.324161e-05 9.183273e-06 5.003091e-14 3.086647e-07 2.4191268e-06 0.0003483265 0.00041265448
5.1138224e-05 8.96726e-06 3.7857813e-08 1.378971e-13 4.4755517e-08 2.0569316e-06 0.0003666319 0.0004009258
5.1063555e-05 1.2134477e-05 6.513136e-05 1.1746569e-13 2.4278314e-08 1.2727944e-06 0.00023936768 0.00034912914
3.711297e-05 9.830262e-06 1.5771073e-08 0.0 5.843555e-08 1.3683258e-06 0.00040093204 0.0004224687
3.9045754e-05 1.1536356e-05 3.419508e-05 1.4290435e-14 1.3579786e-08 7.882741e-06 0.0002878186 0.0003513475
2.2132568e-05 6.8962986e-06 1.9377323e-08 8.344284e-18 2.3979403e-08 1.338405e-06 0.00044899344 0.00045882727
2.0185944e-05 9.977741e-06 4.0753253e-05 8.594153e-15 1.6914608e-08 5.6679288e-05 0.00022535471 0.0003569445
2.3454399e-05 4.3274727e-06 1.5675512e-08 3.2128724e-19 2.0367603e-08 1.2423011e-06 0.00045417182 0.00046007708
1.0859889e-05 8.322901e-06 5.2869716e-05 1.7544773e-16 4.2858064e-09 2.0923414e-06 0.0003489539 0.00037533412
2.3102677e-05 9.882384e-07 1.1328488e-05 0.0010010167 1.0797442e-07 0.004690482 1.3523651e-05 0.00017945004
2.1140682e-05 5.910784e-06 1.5702415e-14 3.8593917e-06 0.00020460966 0.00016091726 0.00058622804 0.000116543866
1.6619875e-05 1.4224054e-06 1.9470148e-12 9.59318e-06 0.000174953 0.00025773933 0.0005794497 0.00015530437
2.0063688e-05 3.889678e-06 3.7934074e-13 1.1759322e-05 8.6398475e-05 0.0003256542 0.000671575 7.612622e-05
1.4724277e-05 1.06710004e-07 0.0 8.722835e-06 0.00014706177 0.000375906 0.0005485874 0.000114731774
1.534047e-05 2.3310298e-05 2.1116285e-13 1.7438089e-06 6.75921e-05 0.000396493 0.0006033688 5.1751318e-05
2.030839e-05 7.685746e-08 2.7925565e-13 3.1138434e-06 0.0001445938 0.00044414695 0.00054602587 7.145698e-05
1.023268e-05 9.134416e-05 3.3035586e-13 1.28157e-06 0.00013473036 0.00028322317 0.00048463512 4.1294574e-05
1.582692e-05 4.950355e-08 0.0 4.9394303e-06 0.00015404189 0.0004691641 0.00055340165 5.141563e-05
1.2444872e-05 5.5151857e-05 3.172841e-14 1.2160233e-06 0.0001820623 0.00030440083 0.00044739846 4.8294496e-05
1.1614099e-05 6.120643e-08 8.009345e-18 2.1775832e-06 0.00015445829 0.00049158605 0.00056012295 2.5222576e-05
8.09575e-06 5.6360146e-05 2.6762753e-14 3.8776665e-07 0.00027910512 0.0002513043 0.00045448536 6.4379885e-05
1.1864676e-05 5.5803987e-08 8.642682e-19 1.133622e-06 0.00013216936 0.0004891243 0.00054938457 1.08482745e-05
8.697477e-06 5.7952275e-05 1.7250349e-16 4.0254992e-07 0.00019184685 0.0004060411 0.00048801597 3.6816902e-05
1.2199313e-06 1.1197926e-05 0.0033522646 1.6508307e-07 0.03210553 1.801496e-05 6.4088104e-05 9.8414275e-06
7.918738e-06 2.6325579e-14 7.787858e-07 7.129348e-05 9.066982e-05 0.00025998423 4.5693123e-05 6.9243238e-06
3.4362808e-06 4.554562e-12 1.4454333e-06 5.486834e-05 0.00014408976 0.00027938816 4.947393e-05 7.0953315e-06
5.384191e-06 5.286526e-13 6.672391e-06 2.6530357e-05 0.000171886 0.00029779825 6.118924e-05 1.0177613e-05
8.711727e-08 0.0 2.1218411e-06 3.4440025e-05 0.00015779887 0.00022769574 3.4825538e-05 7.201989e-06

exp_avg f4 [128]
00000000: 22ad 9bba 9cb2 5e3b bb6f 8b39 9b89 a33a
00000010: fed5 a0ba 580e a73a 8ddb 0939 ac0c 0cba
00000020: d575 6639 3822 9d3a a331 6a39 776e 10b9
00000030: f024 c7b9 fe32 61b9 0907 a53b 3c0b bd35
00000040: af5d c5b9 6676 7b39 20a3 7aba 4e73 a0ba
00000050: 671a 7e3a 52a4 073a 0c8e ea38 8028 a039
00000060: b10e 2db9 bee1 833a 5dd9 11bb 4476 b8ba
00000070: cd8d 0ebb 13e2 f7ba 40a1 533a 08ff d238
00000080: 58ae 87bb f68c 3d39 08ed 07b9 52f2 d338
00000090: 2ed0 f5b9 28eb deb9 8841 47ba 9715 623a
000000a0: fbcb 1d3a 1a45 d039 3f4e d03a d345 8739
000000b0: 178b ea39 89d6 693a c47b ae3a a660 313b
000000c0: c41c 2e37 09d3 143b c01a 19bb 24a9 1e3a
000000d0: 3736 1e39 6132 583a 23ee 8a3a 3a8c 293a
000000e0: 9c00 b53a e1a1 193b 28da 9fba 19ec 873a
000000f0: 8471 8839 1f2d 383a 97df 2fbb 2610 38ba
00000100: e3c7 f2b7 e10c 29ba 6143 c539 2e06 0bbb
00000110: 8dfe 47b6 3ebb 28ba 18a8 083a 9c0e 2b39
00000120: e622 d73a 5828 1aba d76b 81ba 3c7a f239
00000130: d8fd 2dba 2230 b136 a9d3 5d3a f79c 48ba
00000140: 0e59 41bb 4a2f dbb9 1e45 d0ba 2443 28bb
00000150: db34 363a c4f5 e63a 47a5 f739 909f a63a
00000160: 6075 b0ba 012c 1ab8 3d89 54bb 81c7 f7ba
00000170: a952 11bb a130 e8b8 fa8d f23a 7dde 933a
00000180: 2eb1 aa39 c579 4d3a 7fd4 943a d265 07ba
00000190: 3e8c 46ba 3d52 073a 1de0 8239 c5ba df3a
000001a0: fae9 b9ba 47f4 243a c68a 27bb b06e 25bb
000001b0: f99e efba 9b89 c539 db39 8cb9 65af 063a
000001c0: 3d85 a23a d9c5 c8ba d00b c1ba 4d94 ed3a
000001d0: 29cb 0639 e3d2 283a cdc2 ddba 9741 173a
000001e0: 6ee2 043b de43 0d3b 96a4 8cb9 ef79 10bb
000001f0: eede cf39 040c 463a 929f 08bb 424a c03a
-0.0011877159 0.0033980971 0.00026595392 0.0012476923 -0.0012270806 0.0012745364 0.00013147127 -0.00053424644
0.00021978405 0.0011988347 0.0002233447 -0.00013774062 -0.00037983758 -0.00021476668 0.005036239 1.4084867e-06
-0.00037644568 0.00023981332 -0.00095610507 -0.0012241395 0.00096932653 0.0005174327 0.00011184448 0.00030547753
-0.00016504039 0.0010061783 -0.0022254803 -0.0014073332 -0.0021752 -0.001891198 0.00080730394 0.000100610836
-0.0041406564 0.00018076957 -0.00012962904 0.000101064 -0.00046885147 -0.00042518345 -0.00076010125 0.0008624433
0.000601947 0.00039724336 0.001589246 0.0002580123 0.00044735588 0.0008920213 0.0013312032 0.0027065664
1.0377906e-05 0.0022708795 -0.0023361892 0.00060524256 0.00015088251 0.0008247253 0.0010599535 0.0006467734
0.0013809386 0.0023442435 -0.0012195753 0.0010370045 0.00026024517 0.00070257665 -0.002683615 -0.0007021449
-2.8941728e-05 -0.00064487575 0.0003762497 -0.00212134 -2.9801479e-06 -0.00064365927 0.0005213036 0.00016313273
0.0016413599 -0.00058806455 -0.0009874058 0.0004624891 -0.0006637252 5.2806145e-06 0.0008462021 -0.0007652784
-0.0029502544 -0.00041806168 -0.0015889739 -0.0025674785 0.0006950625 0.0017620851 0.00047234652 0.0012712348
-0.0013462715 -3.6757443e-05 -0.0032430433 -0.0018904061 -0.0022174513 -0.0001107168 0.0018505447 0.0011281517
0.00032556936 0.00078382745 0.0011354833 -0.0005165014 -0.00075739983 0.0005162096 0.0002496251 0.0017069211
-0.001418411 0.00062925037 -0.0025564893 -0.0025242977 -0.001828163 0.00037677292 -0.00026745987 0.000513783
0.0012399327 -0.0015317752 -0.0014728252 0.0018125862 0.00012854919 0.0006440116 -0.0016919017 0.00057699665
0.0020276564 0.0021555345 -0.00026825507 -0.0022045334 0.00039648212 0.0007554891 -0.0020847064 0.0014670568

exp_avg_sq f4 [128]
00000000: 4c78 093a 8c8c 803a 9627 de39 431e a339
00000010: 2667 7e39 a1a0 033a 80d5 e935 f1d2 ee37
00000020: 8ad6 c236 c0b4 f239 4a06 7a38 5964 c336
00000030: efaf af39 0e6d 8737 0e15 d13a 205b 6037
00000040: f5f9 4639 9dd0 5537 e4c6 9739 0561 4c39
00000050: 15ea b339 47d6 d538 a5a0 9538 bc9e c238
00000060: cbee a337 edbe b639 5492 3f3a 2dd5 8d39
00000070: 7963 3d3a dd17 6d3a 9b12 5b39 0d06 9d35
00000080: 2bce 853b 1637 4d38 c537 1139 e704 9939
00000090: c62f 0039 1865 6b38 1355 7439 01cb 0539
000000a0: 7deb 153a 327d 1438 57f6 843a 355d 1139
000000b0: 6186 d138 6cbc 8739 2d52 173a 5f61 083b
000000c0: 9968 5c38 9553 d739 6321 e63a 8125 2338
000000d0: 1794 4238 30a0 8d38 d38a f139 6842 4639
000000e0: 9f14 6a39 e935 2d3a 2b8a 4139 b5b1 3039
000000f0: 91ee 1c39 c113 cd39 af70 483a 8fb5 f138
00000100: 3fda 1d36 f5da 8c38 a569 0439 6bdd 0e3a
00000110: 66b0 7135 c3a3 be38 0fc2 2239 af40 bf38
00000120: dde1 283a 9778 9539 ea5b 8b39 fa10 f138
00000130: 0f7c be38 8c09 eb34 baea 193a eb37 4a3a
00000140: fa57 a93a 5e70 3737 324e c239 e5ec 6b3a
00000150: feeb 9938 4fc4 ca39 5bc9 c438 ac6b 453a
00000160: 599e fc39 30ca 1138 d87a b03a fd19 423a
00000170: e800 463a 0021 0036 b830 5f3a fb3a a539
00000180: 8ec4 8038 c489 083a d724 0a38 f96d 163a
00000190: b727 3e39 7387 7439 ac7f a935 e4b4 143b
000001a0: 0816 3639 7689 7039 124d e539 67d2 993a
000001b0: 5125 ff39 2b18 0138 2f51 d738 2368 e438
000001c0: 298a 9738 6a5c 023a 8eeb 243a 887f 213a
000001d0: a8a1 ee36 61d2 b839 fdf9 333a 396d 8638
000001e0: c695 2d3a a6e9 893a e5cc b038 a824 253a
000001f0: 16d2 b937 3f51 cb38 bc18 5d3a 3269 773a
0.0005244061 0.0009807511 0.00042372633 0.0003111233 0.00024261753 0.0005021189 1.742199e-06 2.8470038e-05
5.806626e-06 0.00046292506 5.9610502e-05 5.823135e-06 0.00033509682 1.6144037e-05 0.0015951709 1.3372657e-05
0.00018975868 1.2744361e-05 0.0002894915 0.00019491099 0.00034315945 0.00010196544 7.134796e-05 9.2802075e-05
1.954231e-05 0.00034855996 0.00073078764 0.00027052444 0.00072246004 0.00090443884 0.00020892399 1.1699173e-06
0.004083415 4.892711e-05 0.00013849053 0.00029186087 0.00012224828 5.6122517e-05 0.00023301346 0.00012759493
0.00057189894 3.5402547e-05 0.0010144216 0.00013863 9.9909266e-05 0.00025889592 0.0005772438 0.002080999
5.25495e-05 0.0004107027 0.0017557557 3.8897157e-05 4.6391124e-05 6.753241e-05 0.00046070534 0.0001890749
0.00022323661 0.00066074595 0.00018457386 0.00016850869 0.00014966192 0.00039115365 0.00076461857 0.000115255934
2.352186e-06 6.716504e-05 0.00012627857 0.0005449864 9.003619e-07 9.090409e-05 0.00015521816 9.119638e-05
0.00064423477 0.0002850934 0.00026580627 0.00011494938 9.083014e-05 4.3779107e-07 0.0005871464 0.0007714021
0.0012919896 1.09338125e-05 0.00037060824 0.00089998386 7.3395655e-05 0.00038674704 9.383514e-05 0.0007530998
0.00048183164 3.4758996e-05 0.0013464345 0.0007404385 0.00075532356 1.9092695e-06 0.00085140346 0.00031515196
6.140127e-05 0.0005208517 3.2936074e-05 0.0005738433 0.00018134607 0.00023320112 1.2628639e-06 0.0022690827
0.0001736508 0.00022939392 0.00043735706 0.0011735678 0.00048665193 3.0778505e-05 0.000102671205 0.00010891284
7.2259754e-05 0.0004972877 0.0006291204 0.0006160666 7.111772e-06 0.0003525196 0.0006865559 6.409962e-05
0.0006621744 0.0010521903 8.4304986e-05 0.00062997127 2.2151547e-05 9.6949276e-05 0.00084341667 0.00094379776

exp_avg f4 [128, 128]
00000000: 96f5 2839 fde0 0739 156e c2b8 e603 4738
00000010: cbaf d638 d12f 53b8 94a9 adb7 8b7f 0238
00000020: 5310 2e38 4955 48b8 f3dc e3b7 0e7b e638
00000030: 2b74 c6b8 aa23 a2b8 f25e 1d39 35ba 3439
00000040: b5e7 9d37 84f3 ceb7 88f9 77b8 00a2 c738
00000050: f0b7 dcb7 4025 a736 cc3e e4b8 3dc7 2bb9
00000060: c101 94b8 0abe d5b8 ba6b 2d38 5df0 b938
00000070: d5ae e438 7371 d038 7149 cbb8 ab1c b537
00000080: d7f8 ac38 0cf2 0db8 2503 98b8 8e6e 0937
00000090: 19ee 0a37 a9b4 6b38 2606 7db8 0e21 9638
000000a0: 1489 fbb8 b549 5838 c25b 2836 a1cc 9cb8
000000b0: f0e7 3539 bb81 97b8 8a87 2fb8 e380 5336
000000c0: 5664 82b8 2ed9 0c39 257f 6438 81eb 80b7
000000d0: 8242 da37 f9f3 be39 bdfe dcb8 4d75 0139
000000e0: 443b 4239 a91f c137 a69c d038 a93b 8839
000000f0: 2cb2 feb8 1ec2 0f39 074a 0e38 5380 ec37
00000100: 6fa0 7738 57bb 2e37 a518 89b8 0275 2b39
00000110: 8532 9eb8 d52c 7e38 f2df a2b8 26b2 f1b8
00000120: f427 7338 84e3 6236 169f d6b8 0c48 03b8
00000130: b063 0838 d025 deb6 522f 07b9 3ce1 3837
00000140: ace3 8139 e024 9838 9f15 0c39 193a 2639
00000150: 8392 d938 0d0e 5838 8f6c 4039 2b18 16b9
00000160: ee05 6738 f087 1cb8 2b80 2939 a6a1 8338
00000170: f8bd c239 2351 4eb8 bd18 bf38 aeca 2b38
00000180: 75e0 07b9 95fd 6cb8 2e9b e238 fc22 2b38
00000190: 07ca 04b8 b8a9 43b9 5a47 5937 4015 5eb8
000001a0: 966f 0139 620c 3db8 2d59 de38 3dc1 9138
000001b0: e6cf f838 b7a0 9237 af19 a6b7 ffc7 9d39
000001c0: 5026 8437 7a03 ae38 2d23 efb6 e1b0 d538
000001d0: bc25 bcb6 8794 2fb9 f6d3 6a37 1210 1239
000001e0: 1b34 b638 aff4 cb38 60d4 24b9 38d2 0e39
000001f0: 61df 0338 2113 8538 b672 6239 f5ec b3b7
00000200: 3af4 abb8 7f20 fdb8 8875 8d36 fd53 81b8
00000210: 5e57 f6b8 74f1 89b8 9b1f b538 f7e4 85b9
00000220: 4d9f 4d38 551d 43b9 0c12 e938 207d 03b9
00000230: dc5d f638 7dad d4b8 98a3 67b9 6c4a f7b9
00000240: cf07 8238 e55c bc38 416a b3b8 5962 79b9
00000250: cb9d 56b9 5d7a 1eb9 0057 bb38 d689 d138
00000260: 72c5 ed38 c3cf ba38 9911 43b9 9f74 4ab9
00000270: 0175 7ab6 16d9 1fba 4a76 b436 5c47 4538
00000280: 6945 d8b9 011f 1439 d1ec 0539 4d13 2739
00000290: 98f7 8438 b93a afb8 8a08 5937 faa6 7eb9
000002a0: 9c78 a037 80ce 86b8 429a 0ab9 0031 f138
000002b0: bfaf 8cb9 36e0 abb8 9ca3 21b9 c8a6 acb8
000002c0: 84bd b138 311a 72b8 7f50 a3b8 72c2 f436
000002d0: a4dc 10b9 b22c 1eba c0be 0eb9 c07f e6b9
000002e0: 7b26 f5b9 d918 0ab9 4caf 2cb9 6e2f 0aba
000002f0: 22cc a238 1377 47ba 0dad 4cb8 355e 3cb8
00000300: 62cd 3cb8 8114 14b9 44d4 2cb9 e8e8 c6b9
00000310: 4f1c c738 5c92 88b9 3254 85b8 d7dd 0239
00000320: 8f07 d6b8 cdb7 5438 eded 70b8 c53f 3538
00000330: c6db a5b8 06b5 6037 b6e5 18b6 10f7 5cb9
00000340: dfd7 e3b9 f9f2 95b9 3c56 82b9 73de c5b9
00000350: 6ed7 6bb9 ee4c efb8 80ee 00ba 573c 2b38
00000360: 5a3a 31b9 96ec e238 7de2 f1b9 d5e7 8db9
00000370: 9b6c 3eba 948b 3d38 4724 f6b9 8857 88b8
00000380: 1557 4639 6cdf feb8 12b2 42b7 554e 7337
00000390: 84e9 8ab8 a853 0d39 73d9 af38 87d1 8e38
000003a0: 89f5 42b9 7fd5 5038 356e d4b8 c0d4 60b9
000003b0: 5be6 3bb9 930c 3638 04c9 2238 de0a 43ba
000003c0: 5715 7d38 e899 c4b8 ce0f 2eb8 0967 ceb9
000003d0: 7d8c b638 52fd be38 bdba e6b8 9c1d 54b9
000003e0: 04c6 4338 3ce7 13b9 1f5f 1b39 bbc1 bdb9
000003f0: 2bbe 9bb7 25ae 03b9 1413 41ba 0fc8 11ba
0.00016113216 0.00012958418 -9.271145e-05 4.7448928e-05 0.00010237059 -5.0350853e-05 -2.0702173e-05 3.11132e-05
4.1500036e-05 -4.7763144e-05 -2.7163396e-05 0.00010990175 -9.463014e-05 -7.731405e-05 0.00015008057 0.00017235505
1.8823755e-05 -2.467051e-05 -5.9121783e-05 9.519234e-05 -2.6311696e-05 4.9813243e-06 -0.00010883584 -0.00016382053
-7.0575166e-05 -0.00010192029 4.1346742e-05 8.8662586e-05 0.00010904452 9.9393445e-05 -9.693474e-05 2.1590231e-05
8.247949e-05 -3.3842443e-05 -7.2485105e-05 8.191577e-06 8.280877e-06 5.619662e-05 -6.0325627e-05 7.158714e-05
-0.000119941455 5.1567058e-05 2.508736e-06 -7.476775e-05 0.00017347909 -7.224405e-05 -4.1849482e-05 3.1516472e-06
-6.217572e-05 0.00013432346 5.447785e-05 -1.5368454e-05 2.6018595e-05 0.00036421398 -0.00010537866 0.00012346097
0.0001852336 2.3022136e-05 9.947391e-05 0.00025984392 -0.00012144851 0.00013709857 3.392438e-05 2.8193148e-05
5.9038804e-05 1.0414827e-05 -6.5372595e-05 0.0001635142 -7.543437e-05 6.0600072e-05 -7.766475e-05 -0.00011524958
5.7972924e-05 3.3809056e-06 -0.00010233947 -3.1299933e-05 3.2517768e-05 -6.6205175e-06 -0.00012892231 1.1019696e-05
0.00024774426 7.254793e-05 0.00013359495 0.00015852637 0.00010374656 5.15115e-05 0.00018350988 -0.00014314118
5.5080214e-05 -3.73199e-05 0.00016164842 6.276676e-05 0.000371441 -4.918979e-05 9.1121976e-05 4.0958337e-05
-0.0001295822 -5.650295e-05 0.00010805424 4.080216e-05 -3.1659405e-05 -0.00018659874 1.2950821e-05 -5.2948715e-05
0.00012343968 -4.5072644e-05 0.00010602395 6.950132e-05 0.000118642856 1.7479395e-05 -1.9800702e-05 0.00030094382
1.5753467e-05 8.297614e-05 -7.12685e-06 0.00010189578 -5.6072295e-06 -0.00016744631 1.3996838e-05 0.00013929632
8.688142e-05 9.72537e-05 -0.00015719375 0.00013620488 3.144087e-05 6.345497e-05 0.00021595773 -2.1448805e-05
-8.199406e-05 -0.00012070033 4.21581e-06 -6.1668434e-05 -0.000117464675 -6.577643e-05 8.6366395e-05 -0.0002553833
4.902417e-05 -0.00018607576 0.00011113667 -0.00012539746 0.00011747677 -0.000101412625 -0.0002209082 -0.0004716696
6.2003375e-05 8.9818415e-05 -8.5551765e-05 -0.00023783128 -0.00020467413 -0.00015113638 8.93306e-05 9.9915706e-05
0.00011337818 8.90787e-05 -0.00018603205 -0.00019307666 -3.7321008e-06 -0.0006097717 5.3781887e-06 4.703492e-05
-0.00041250445 0.0001412593 0.0001277209 0.00015933551 6.3403684e-05 -8.355588e-05 1.2936196e-05 -0.00024285531
1.912965e-05 -6.4280815e-05 -0.00013218171 0.000115009025 -0.00026833822 -8.195678e-05 -0.00015415106 -8.2326645e-05
8.475318e-05 -5.772169e-05 -7.787439e-05 7.294403e-06 -0.00013815105 -0.0006033882 -0.00013613235 -0.000439642
-0.00046758712 -0.00013169962 -0.00016468501 -0.000527135 7.762785e-05 -0.0007608991 -4.8798556e-05 -4.491043e-05
-4.501397e-05 -0.00014122018 -0.00016482273 -0.00037939032 9.494332e-05 -0.00026048988 -6.357617e-05 0.00012480408
-0.00010205723 5.0715917e-05 -5.7442045e-05 4.3213153e-05 -7.908749e-05 1.3393588e-05 -2.2783474e-06 -0.00021072873
-0.0004345765 -0.00028600523 -0.00024859782 -0.00037740506 -0.000224916 -0.00011410737 -0.0004918352 4.0825773e-05
-0.00016901773 0.00010820587 -0.0004613585 -0.00027066344 -0.0007264108 4.5191104e-05 -0.00046947805 -6.501289e-05
0.00018915192 -0.000121532794 -1.1604761e-05 1.4502167e-05 -6.6238485e-05 0.00013477972 8.385153e-05 6.810115e-05
-0.0001859275 4.97899e-05 -0.000101294754 -0.0002144156 -0.00017919524 4.3403892e-05 3.881102e-05 -0.0007440279
6.0339775e-05 -9.3746756e-05 -4.1499552e-05 -0.0003936815 8.704604e-05 9.1070906e-05 -0.00011002037 -0.00020228926
4.667604e-05 -0.00014105154 0.00014817387 -0.0003619323 -1.8565994e-05 -0.00012558007 -0.00073652086 -0.0005561122
