results/opponentR/OpponentR/OpponentR-6499982.onnx (onnx, 125740 bytes, 5 tensors)

action_model._continuous_distribution.mu.weight f4 [1, 128]
00000000: 9581 643d 5fea 9abd dc0d 07be f281 3bbd
00000010: e884 d7bd 103c b3bd 3586 413c f83a 3c3d
00000020: 2170 0b3d 0fe0 de3d f77d 903c aa05 7bbd
00000030: 26ca f43d fc05 f93c 0d3e 85bd 7238 ab3d
00000040: b3ac ee3d dd1e 733d ea89 9b3d fdfd 0a3c
00000050: 7370 81bd 4bc4 a53d e462 9d3d 53d9 723d
00000060: 4418 cfbd 161a dd3d c3ed 393d cee9 9ebd
00000070: 3b9a 95bd cc33 cbbd 57a4 c93d f8bb 343d
00000080: 7f4f ebbd 823b 813d 9e24 0bbe 88c7 993d
00000090: e212 603d 8742 dbbd 8c26 b7bd 77fc 80bd
000000a0: ccac 3ebd afe7 e1bd 1fa5 a9bb 61d3 d4bd
000000b0: d0b2 e73d 3809 e0bd 1609 9c3d a8d8 f8bd
000000c0: 8d7b 72bd 5b19 d8bd f8ac e9bd 53de 883d
000000d0: 00c7 88bd 51cd b7bd 05a8 103e c5e6 cbbd
000000e0: eb98 c33b ce91 97bd 0769 80bd c85a 23bd
000000f0: 8d2f 20be 144f f3bd aee0 f53d 3da1 00be
00000100: 944a b3bd 87ad 90bd de03 ac3d 6314 a3bd
00000110: 7556 94bd 615f 913d 9bf1 b93d 6412 cd3b
00000120: 3efe 88bd ed9e aabd 8983 06be c0b3 ca3d
00000130: 2296 c3bd be6c 5cbc cb60 bcbd af3d babd
00000140: 302a ab3d 09c2 bf3c f6f9 453d b0c7 ca3d
00000150: 5a3b ed3c b758 943d 8e02 93bd dc32 d03d
00000160: 7a2b b03d 98ad b83d 8124 b13d 3ff7 c83d
00000170: aea0 61bc acb6 643d ff0c b5bc 6f07 38bd
00000180: 46e7 c0bd 83a9 33bd 9f18 b7bd 6888 c1bd
00000190: ce1c 99bd 634b 9a3c 7a66 8a3d 46a9 94bd
000001a0: 0925 293d 9638 973d 2e04 9f3d 334c d8bd
000001b0: e987 013e d696 f0bd beeb 01be c81a e43d
000001c0: 36db b23d 08d6 97bd 13b3 d3bd 32d7 d33d
000001d0: 28cc 913d 1b2b 063d d1c3 c83d c2a9 9c3d
000001e0: 0d92 013e c21b b9bd 2851 6b3d c27e 84bd
000001f0: 9453 9abd 15c4 8e3d 4452 013e 7b19 f2bd
0.05578764 -0.07564234 -0.1318888 -0.045778222 -0.10523397 -0.087516904 0.011811783 0.045954674
0.03404248 0.108825795 0.01763819 -0.0612847 0.11952619 0.030398361 -0.06505976 0.083603755
0.116540335 0.059355605 0.075946644 0.008483407 -0.06320276 0.080940805 0.076848775 0.059289288
-0.1011205 0.10795991 0.045392763 -0.077594385 -0.07304808 -0.09921989 0.098457985 0.044124573
-0.11489772 0.06310178 -0.13588187 0.07508761 0.054705508 -0.107060485 -0.08942899 -0.06298154
-0.04655151 -0.11030518 -0.0051771547 -0.1039188 0.11313403 -0.10939258 0.076189205 -0.12150699
-0.05919986 -0.10551711 -0.11409944 0.0668303 -0.06678581 -0.08974708 0.14126594 -0.09956125
0.005969157 -0.07400857 -0.062700324 -0.039881498 -0.15643139 -0.11880317 0.12005745 -0.12561508
-0.08754459 -0.07064348 0.08399175 -0.07962873 -0.07243053 0.0709827 0.09079286 0.006258296
-0.06689118 -0.08331094 -0.13136114 0.09897566 -0.0955012 -0.0134536605 -0.09198149 -0.090937965
0.08357656 0.023407953 0.048334084 0.099013686 0.028958965 0.072434835 -0.07178222 0.10165951
0.086020425 0.090174854 0.08649541 0.098127834 -0.013771219 0.055838272 -0.022100924 -0.044928964
-0.09419112 -0.04386283 -0.08940243 -0.094498456 -0.07476197 0.018834775 0.06757827 -0.07258849
0.041295085 0.0738384 0.07764469 -0.10561409 0.12649502 -0.1174752 -0.12687585 0.111379206
0.087332174 -0.0741387 -0.1033689 0.103437796 0.07119018 0.032755952 0.09802974 0.07649566
0.1265337 -0.090384975 0.057450444 -0.0646949 -0.075354725 0.069709934 0.12629038 -0.11821266

network_body._body_endoder.seq_layers.0.bias f4 [128]
00000000: 7fce 2f3a 642f ca3c 39b9 f53c cbfd 0e3d
00000010: 1add 883c 28c6 193c 8924 8b3b 2e0f f73c
00000020: 6d69 ef3a 6a31 733c cce9 963b 2dbf 1c3d
00000030: 769f f13c 02aa 8e3c d995 d33c 8f51 123c
00000040: b9b7 cd3b 1451 243c 9db1 823c 7078 48bc
00000050: 1bf9 983b 201b 963c 63f3 393c 5a88 8c3b
00000060: 4c21 2c3c 8703 d13b bfdd f53b 9171 ba3b
00000070: 6a54 5a3c 7e1c fc3a d143 7e3c 319c 023c
00000080: 78d3 d33c c543 e8bc b03b c23b 7cbe 7ebc
00000090: c649 ad39 cac1 c03a b736 9e3c 2bd4 bd3c
000000a0: 7e60 d63c 25e4 01bc 926d 893d 0b5e f3bc
000000b0: 06bd 073c cace 9e3b 6251 ec3c eb9d 7a3d
000000c0: 2434 49bb 1b8d 1b3b 002b ef3c 816e db3b
000000d0: 0fce 463c 4d47 b5bc 876c c43c 1e1e 823c
000000e0: ceb8 f7bb caa0 fc3c afd9 25bc c541 ac3b
000000f0: 9979 84bb 435f 9f3c 2ee6 d93c f6a9 a3bb
00000100: 4a43 eabb baa9 123c 621f 4b3c d459 f33c
00000110: 88f5 b93c a58e 02bc 97e1 c1bc 0c96 e63c
00000120: f960 ad3c 3d0c 9d3b c640 423c 11f3 b3bb
00000130: fcc8 37bc 952e 47bc 2fd5 0e3d f125 f0bc
00000140: 5e8c 9a3a e2cd 813c 40c1 173c 6346 a83c
00000150: ecb0 023c 186f 023d 15fc 023d de97 f73c
00000160: 1b88 e0ba dfb4 403c 5188 3b3c 20e1 bdbc
00000170: a862 943c b242 c4ba a9b3 e13c b832 533c
00000180: 900e 0a3c 7b09 a03d 60d7 503c ed8a ed3b
00000190: e9b1 0f3c 87a9 61bc 7905 713c 147c 293d
000001a0: 90d0 e2bc 59f5 923b dd6b 80bb 8d40 f53b
000001b0: b450 003d be59 cb3b 63f1 d73c 0835 963c
000001c0: a73f a33a 0213 0fbd fd9a 4b39 b60c ec3b
000001d0: 441a 0cbc ea06 a53b 72db 71bb 8433 883c
000001e0: efe1 683d 7706 ee3c f380 863c 4033 b33c
000001f0: 6377 933c e3c8 b93c ca81 be39 3b21 853c
0.00067064905 0.0246808 0.029995548 0.034910005 0.016706992 0.009385623 0.0042462987 0.030158605
0.0018265672 0.014843324 0.0046055075 0.038268257 0.029494982 0.01741505 0.025828289 0.008930578
0.006278005 0.010029096 0.015953833 -0.012235746 0.0046683676 0.018323481 0.011349532 0.0042887153
0.0105059855 0.0063785943 0.007503241 0.0056898077 0.01332579 0.0019234566 0.015519098 0.007971809
0.025857672 -0.028352628 0.0059275255 -0.015548345 0.00033052097 0.0014706191 0.0193132 0.023172459
0.026169058 -0.007927929 0.06710352 -0.02970793 0.008284813 0.0048464285 0.0288474 0.06118576
-0.0030701244 0.0023735228 0.029195309 0.0066965227 0.012134089 -0.022128725 0.023977531 0.015883502
-0.007559872 0.030838389 -0.010122701 0.005256864 -0.004042816 0.019454604 0.026599016 -0.004994626
-0.0071491348 0.008951599 0.012397619 0.02970592 0.022700086 -0.007968579 -0.02366714 0.02814772
0.021164404 0.0047927187 0.0118562635 -0.0054916223 -0.011217352 -0.012157102 0.034871276 -0.029314967
0.00117911 0.015845243 0.009262383 0.020541376 0.007976752 0.03184423 0.031978685 0.030223783
-0.0017130406 0.011761873 0.011446075 -0.023178637 0.01811345 -0.001497349 0.027551489 0.01289051
0.0084263235 0.07814308 0.012746662 0.0072492273 0.008770444 -0.013773329 0.014710777 0.041378096
-0.027687341 0.004484814 -0.0039191083 0.0074845017 0.031326964 0.0062057665 0.02636022 0.018335834
0.0012454883 -0.034930237 0.00019417326 0.0072036637 -0.008551184 0.0050362246 -0.0036904481 0.016626127
0.056856092 0.029055817 0.01641891 0.021875024 0.018001264 0.022678798 0.00036336324 0.016251197

network_body._body_endoder.seq_layers.0.weight f4 [128, 111]
00000000: 13c5 4dbd fcfd ec3d f7cc 0cbd 4f6f 5cbd
00000010: 9eb8 823e 60ca 833e 3032 34bd 23b2 833d
00000020: 62d1 2cbd 7949 3bbe c286 43be 0311 45bc
00000030: ef7f 573c 9920 49bd a4fb f93d f306 223e
00000040: 9871 94be d434 b6bd 3fa6 a4bd e1b4 b23d
00000050: b9f7 4ebd 3ab6 1f3e 1441 3e3d f15b e83d
00000060: c421 d5bc fb87 1abc 0dae 36be b3c0 323d
00000070: e65a cabd 0f3b 20be 5d69 353e b052 b13c
00000080: 7dc5 de3d f636 e1ba 0346 adbd a072 5cbd
00000090: 3596 cc3e e723 623e eb44 d93d dffa f0bd
000000a0: 0d17 df3b a6b8 74be ee52 93bd 2d2f 8cbc
000000b0: 228c c5bc 87fb 1ebe 4e24 f13d 8660 85bd
000000c0: 2717 943d 9853 373d 44c7 4abe aec0 27be
000000d0: 2c20 3dbb d258 5dbe fe7a 44bc 24b9 d03d
000000e0: 2c13 c23c 0897 de3d 749e cabc d38e b83d
000000f0: 7c91 a6bd d26a c7be dc38 f53d 3c9a ffbc
00000100: fc04 3b3e 4b85 0b3e 011e 8a3d 1ca4 77bd
00000110: 75c4 82bd ca49 12be bfe7 d33c bbc1 253d
00000120: 4435 723a 15fe a63c a358 8cbd b9ab 14bd
00000130: ee85 f0bd 2d13 b4be 71ab acbd 858b 363e
00000140: d02f d83d 1931 25bd b360 64bd b9cd a93d
00000150: 058c 82bd 7732 ff3d 3220 05bd 919c 853c
00000160: 99ce 133d d649 3ebe aa38 563c 7d08 f4bd
00000170: 4343 103d c101 aebe 6f50 2b3e 0b65 3b3d
00000180: ba16 bcbc 78cc 47be b591 1e3e 921d 0e3d
00000190: a963 94bd 71c1 1cbe 8137 933c 83bc 11be
000001a0: 6062 283d 1083 9a3c ba14 b83c d261 dc3c
000001b0: 686a 56bc 3137 22be 7ef5 f83d 8aee 99bd
000001c0: d48c adbb 991c 033e 4d4e 0f3e 7d6b efbc
000001d0: 6bc3 08bd b2b4 23be f576 a5bd f848 933d
000001e0: 26cd 193e b910 9b3d 266a 8f3d 9df4 bf3d
000001f0: f5ee 98bd 5bd5 5c3d b111 49bc 4647 a83d
00000200: 1e3f 5ebc d5c6 003b 3214 6fbd 197d 81bb
00000210: 9e70 1dbe 35c5 053e 3022 5bbe 8805 c93b
00000220: 2edf afbc fb0d 783d a864 81bc 3dc3 253e
00000230: 4c7f 623e 0ba7 303e d381 f83d 12a7 333e
00000240: c8e2 613d 6939 913e a1ef 5e3c 9926 88bc
00000250: ef4a de3c e323 153c 5592 0bbe 7817 69be
00000260: 4264 8b3d a804 d93d 93dd eb3c 6762 58be
00000270: 2cc8 dfbb 03fc f13d 86e3 ff3d 3227 a6bd
00000280: 6c5a a0be 420b c73d 8c3c 413e 8865 96bd
00000290: 8cde 3e3e fd96 15bc 05a1 b53c 2624 e8bd
000002a0: 90b7 bd3c 1841 543b 1eb0 91bc a1d0 9e3d
000002b0: 52fc f03c 3628 58bb ccbb 3b3d f37d 663d
000002c0: d3ad 9ebd 4be3 4a3d 89a8 b53c c918 633e
000002d0: bbbd dd3c d079 ce3c 4cf5 8fbd 6415 a6bd
000002e0: eb09 19be 4274 01bb 5540 073e cc4d 033e
000002f0: bc81 333d 52ab b4bd 47ce 28bd 81aa a93d
00000300: 77c5 3fbe 6e11 173e 355a 543e af64 18be
00000310: 62f6 51bd c1b2 8a3d 1a39 5bba c353 193d
00000320: 28bc 4a3d 1b99 79bd f9a8 10bd 6607 98bd
00000330: 143f 86bd 9d3b 3f3c 9fff 06bd 23b3 8d3b
00000340: d03f ac3d f588 143e 7472 acbd 6af8 363e
00000350: 5f82 313e 7c68 013c b3c0 503d 934d 81be
00000360: 2489 48bd e398 043c 5397 5abd bfba f5bb
00000370: 6f17 db3c c134 09be f4c1 283e e3ab 543d
00000380: 477a 163d d927 bbbd 6efc 60be 0630 c23d
00000390: de1b 0ebe 8868 66be e122 22bd e100 dbbd
000003a0: ab80 9a3d d517 b73d cc36 8d3d c84e b43c
000003b0: e352 e7bc 9867 da3d 6d54 d33d 1731 1fbe
000003c0: b804 e1bd 23f8 963d 72a8 ec3c 584b 36be
000003d0: f426 5d3b d483 89bd 53bc cd3d 3388 45bd
000003e0: d407 b63b 5f56 323b 3ae6 e23d ce73 1cbd
000003f0: b265 2abc f0e0 613e 4489 ccbb 878c fcbc
-0.050236773 0.11571881 -0.034375157 -0.05381709 0.25531477 0.25740337 -0.043993175 0.06430461
-0.04219187 -0.18289746 -0.19094375 -0.012027982 0.01315306 -0.049103353 0.122062 0.15822963
-0.28992915 -0.08896795 -0.080395214 0.08725906 -0.050529215 0.15596858 0.046448782 0.113456614
-0.026017077 -0.009431834 -0.17839833 0.043640804 -0.09880619 -0.15647529 0.17715974 0.021645874
0.10877512 -0.0017182517 -0.08460619 -0.053820252 0.3995835 0.22084008 0.10608848 -0.117666
0.006808168 -0.23898563 -0.07193552 -0.017112339 -0.024114672 -0.15525638 0.11774503 -0.06512551
0.072309785 0.044757456 -0.19802576 -0.16382095 -0.0028858287 -0.21615914 -0.011992214 0.10191563
0.023690782 0.10868651 -0.02473376 0.090116166 -0.08133218 -0.38948685 0.11973736 -0.031201474
0.1826362 0.13625066 0.06744004 -0.06045924 -0.063851275 -0.14285961 0.025867341 0.04046796
0.00092395046 0.020384828 -0.068528436 -0.03629658 -0.11744295 -0.3517088 -0.08431137 0.1782666
0.105559945 -0.040330026 -0.055756282 0.082911916 -0.06374363 0.12460797 -0.032501407 0.016310008
0.0360857 -0.18582854 0.013075033 -0.119156815 0.035220396 -0.33985713 0.16729902 0.04575066
-0.022960056 -0.19511592 0.1548527 0.03469617 -0.07245571 -0.15308167 0.017970802 -0.14232068
0.041109443 0.018861324 0.02247082 0.026902113 -0.013086893 -0.15841366 0.12156199 -0.07516201
-0.005296329 0.12803878 0.13994713 -0.02922606 -0.03338949 -0.15986899 -0.0807933 0.07191652
0.15019664 0.07571549 0.07002668 0.09372828 -0.074674524 0.05391441 -0.012272284 0.08216719
-0.013564853 0.0019649763 -0.05836887 -0.0039516804 -0.15374991 0.1306351 -0.2139976 0.0061346926
-0.021468725 0.060560208 -0.015795067 0.16187759 0.22118872 0.17251222 0.12134137 0.17544201
0.055147916 0.28364113 0.013606937 -0.016619967 0.02713534 0.009102794 -0.1363004 -0.22762859
0.06806232 0.10596591 0.028792178 -0.21131288 -0.0068292823 0.118156455 0.124945685 -0.08112945
-0.31318986 0.09718944 0.18870753 -0.07343584 0.18639582 -0.009130237 0.022171507 -0.1133502
0.023158818 0.0032387432 -0.017784175 0.077546366 0.02941719 -0.0032982952 0.045833394 0.05627246
-0.07747998 0.04953317 0.02217509 0.22177424 0.02706801 0.02520457 -0.070292085 -0.08109549
-0.1494519 -0.0019753133 0.13208134 0.12822646 0.043824896 -0.08821739 -0.041212346 0.08284474
-0.1872767 0.14752743 0.20737536 -0.14882158 -0.05126036 0.06772376 -0.0008362696 0.037433397
0.049495846 -0.06093703 -0.035317395 -0.07423286 -0.06555 0.011671928 -0.032958623 0.0043243333
0.08410609 0.1450537 -0.08420268 0.178682 0.17334889 0.007898446 0.050965022 -0.25254497
-0.048958912 0.008093092 -0.05336697 -0.0074990685 0.026744572 -0.1339903 0.16480237 0.051921736
0.036737707 -0.0913846 -0.21971294 0.09481816 -0.13877818 -0.22500813 -0.039584044 -0.10693527
0.07544073 0.089400925 0.06895217 0.022010222 -0.028237766 0.1066429 0.10318837 -0.1554607
-0.10987228 0.07371547 0.028888915 -0.17802179 0.0033745142 -0.06714597 0.100456856 -0.048225593
0.0055551324 0.0027212126 0.110790685 -0.038196377 -0.010400223 0.22058463 -0.0062419493 -0.030828727

network_body._body_endoder.seq_layers.2.bias f4 [128]
00000000: b90d f03c 7bb3 133c 610e 683c 64c2 b63b
00000010: 9c9c b73c bc6a 393c f5f5 993a 4684 143c
00000020: bb74 f03b b69f d83c a837 e9bb d5f9 b93b
00000030: 4f0d b73c aa13 0d3c 2bbf f8b8 6999 b33c
00000040: 5e2d 133d e09b e53c 00bf 353d 9d51 3c3b
00000050: 4567 d93b c201 0c3d cae8 f63c 4e76 523c
00000060: 7862 e13c 2898 de3c 5f7a 863c f3ee 233b
00000070: 2e07 593c 358d b73c c7f1 c43c 37eb 743c
00000080: d580 cb3c ffb6 f03c 5b35 073d 560d c53c
00000090: 4996 ad3c be49 983c 2a76 153c c493 5f3c
000000a0: e5c4 bab9 ad87 8e3c d50a 84bc 9353 863c
000000b0: 49b3 213d 7aff 4d3c 4a24 b03c 3c50 703c
000000c0: 0ba2 c83b 0334 cb3c 9836 b23c c595 f03c
000000d0: 1d2c 533c d3e3 603c 5145 123d f339 d23c
000000e0: cb76 b8b9 ba63 ca3b 5638 353b 398d 98bb
000000f0: c294 dd3c f189 d23c 0f52 4c3d f439 a03c
00000100: 2b50 c33c 564d 923c df91 d83c ab9d 483c
00000110: 9ad0 873c 570f d83c 6f9d ee3c c12a a4bc
00000120: f7e4 5f3c 33f8 ea3b b605 a63c 3de2 d53c
00000130: 16fc 283c 6446 e6bc 50df b33b cff2 9d3c
00000140: 5b14 8e3c 769b af3b f76a 993c e2c3 063d
00000150: ceca 8c3c a8e1 cf3c 6477 573c cccb d53c
00000160: 13d5 f13c 52ac 1c3d 11d9 223d 8111 163d
00000170: 7434 92bb 0b01 773c d6c2 30bc 0f20 913b
00000180: 81c1 dd3c 115c 253a abca 813b 18e8 a33c
00000190: fcce f83b 3396 333a 0362 573c 6817 7c3c
000001a0: 6ebb a93b 28bb 953c c343 893c 4197 143d
000001b0: f98c 0d3d 7bae d03c 07c3 643c 0998 163d
000001c0: 6a43 cf3c 3cbd 483c 2344 823c 2999 da3c
000001d0: 89d8 c13c a478 4e3c 9875 2b3d b884 a53c
000001e0: 1888 243d 25b8 4b3c ce28 843c 161a 4b3a
000001f0: 3b28 683c e18c ca3c e6b4 2b3d d48f 953c
0.029303418 0.009014959 0.014163584 0.0055773724 0.022413544 0.011316951 0.0011746275 0.00906474
0.007338134 0.026443344 -0.0071172304 0.0056755343 0.022345213 0.008610645 -0.00011861169 0.021923738
0.035931937 0.028028429 0.044371605 0.0028735169 0.006634625 0.034181364 0.0301403 0.012845589
0.027512774 0.027172163 0.016415773 0.002501425 0.013246341 0.0224062 0.02404107 0.014948658
0.024841705 0.029384134 0.033009868 0.02405421 0.021189826 0.01858985 0.009122411 0.01364607
-0.00035623382 0.01739868 -0.016118446 0.016397273 0.03947762 0.012573117 0.021501679 0.014667567
0.0061228327 0.024805075 0.021754548 0.02936829 0.012888935 0.0137261925 0.035710637 0.025662398
-0.00035183723 0.006176439 0.0027651987 -0.004655507 0.027048472 0.025700541 0.049882945 0.019558884
0.023841938 0.017859142 0.026436744 0.012244622 0.016578961 0.026374502 0.029127805 -0.020039918
0.013665429 0.007170701 0.020266395 0.026108855 0.010314008 -0.028109737 0.0054892674 0.01928082
0.01734369 0.0053591086 0.018727763 0.032901652 0.017186549 0.025376156 0.013151024 0.026098154
0.029520547 0.038250275 0.039757792 0.036637787 -0.0044618193 0.015075932 -0.01078864 0.0044288705
0.027069809 0.00063079695 0.0039609275 0.020008132 0.007593034 0.00068506895 0.013145926 0.01538644
0.005179814 0.01827772 0.016755944 0.03627706 0.03455827 0.025473824 0.013962514 0.036766086
0.0253007 0.012252148 0.01590163 0.02668436 0.023662822 0.012602005 0.041860193 0.020204887
0.04016885 0.01243404 0.016132738 0.00077477226 0.014169748 0.02472538 0.041920565 0.01825706

network_body._body_endoder.seq_layers.2.weight f4 [128, 128]
00000000: 3ca5 dcbd 63f8 1ebd 6fdb 4e3c 1a57 e8bc
00000010: e8f3 8d3c 4bb5 f53c e5cd f13d 3191 bc3d
00000020: ddb2 f63d 5487 e43d 09ec e7bd 9547 1d3e
00000030: 2082 e2bc e28c 2b3d 2896 463c d5b7 af3d
00000040: 9abd b2bb 3c2e 62bc c490 793d a32d 07bd
00000050: 0ede 873d d51d 093e e47c d9bd 125a c93d
00000060: 0284 a63d 3df2 6e3d 8077 e4bd b1c0 013d
00000070: fece 2bbb 0e98 73bd 6c26 113e 1ed9 50bd
00000080: ddda a7bd f2c2 773d b7ca 31be 4e77 efbd
00000090: 6aa5 dfbd 7c08 1cbe 42c5 b63c 84ff af3c
000000a0: fe1b 45bc e176 70bd bb7a f13c 4f0d a1bc
000000b0: 8a70 443e f547 243e 7e76 ee3c 5df3 723e
000000c0: d720 c93d c1df ec3d bb9f 39be 8de5 84bd
000000d0: e181 24be 4254 bebd 75d4 ed3d 22cc 333b
000000e0: 4a50 4ebe ae62 e0bd d92c 3e3d 8346 bf3c
000000f0: 99a1 20bd d939 043e aab5 09bd 44dd e43c
00000100: 971a a0bd c677 a3bc e444 babb 235f 60bb
00000110: ebe3 e03d d25d b639 4256 94bc b838 0f3e
00000120: 7b42 ad3d 2d54 1abe f6ab 103e b21a 5d3a
00000130: 8017 75bc 832f e73d 9fd1 5d3c 3002 9a3d
00000140: 0220 dabd cfa8 b33d 29fc cabc 7d01 57bd
00000150: e803 ec3d 2b04 523c da94 d93d f318 073e
00000160: a8ab 4bbc 6d2a a63d f2bb c3bd 226e 3e3d
00000170: b513 30be 5b70 ab3d 4bb7 ab3d 0862 e83d
00000180: 2206 213c c8de 5c3d 2ca2 f93c 658a 3e3d
00000190: 7810 2c3d 1aae eb3d 9d10 d8bd 120c 723d
000001a0: d798 0cbe 7342 9c3d bd0f 0dbe 2d65 c13d
000001b0: 7ba2 d1bc f5de e2bd b17e 26bd 1dfd f0bc
000001c0: 3a51 f0bc 73d3 adbc c300 67be f9fd 073e
000001d0: 760d c3bc 8c95 f13c e6ef 1dbe d05c 85bd
000001e0: 7ba3 293e f156 27bc ebf3 89bd 0033 00bd
000001f0: 8961 9d3d 537b 653d fd40 ebbd d771 4a3d
00000200: 8102 383d 9b5d da3b 15a7 433e 1091 313d
00000210: e929 ab3d 037f 02be 9d41 be3c 19bb 093d
00000220: 8cbf 2fba 198f 34be 4418 d23d dcf6 0dbd
00000230: 32c7 0fbd 7cc3 9ebd 55fb efbd 722f 133d
00000240: c7cd f83d e8db 02be accf c03d fbc1 533c
00000250: d3a5 adbd 1baf 01bb e689 80bd da6e 97bc
00000260: 7e48 ee3c c452 74be 1751 1e3d 0d57 afbd
00000270: 6e8c f8bd b776 d23d 768f 96bc a27f 463c
00000280: b701 3d3e 8aa9 55bd 1b82 ae3d b22b 58be
00000290: aff2 d33d 2c1d d93c 9b57 0dbc 827b c43d
000002a0: 4dfd 73bd 10a8 81be 06a8 463d e271 8b3c
000002b0: 91fb b8bd bff0 0ebe 3809 85bd 91b2 1abe
000002c0: d2a1 3f3d 86eb 383d 8076 26bd 440d a5bd
000002d0: 2c3c 0abd f4ec 9f3d 75c4 a7bc 1c0b 3ebd
000002e0: 31b6 54bd 3831 753c 1fef 263d df3d abbd
000002f0: 5e81 b83d fd42 14bd 0faa cabc 4de0 8ebd
00000300: 830f cf3d 6895 a43d d865 fb3d 6a82 fdbc
00000310: 4f30 8d3b 60eb 7fbd 1cf7 3c3d cf60 b5bc
00000320: 5d32 833b d57a d23c 87b2 15bd f98f 53bc
00000330: bc40 3fbc 4186 49be bed8 58bd 2eae 103e
00000340: 8587 353e 16b4 1e3d 7d92 133d 1c35 303e
00000350: e0ae 213e 7351 403d b32a d03d a0c5 3ebe
00000360: c4d3 e03d 7349 be3c 398f ee3d 30f0 fd3d
00000370: 39ad 4bbe 0ae4 2a3e cdac 0b3d 8dc1 c43c
00000380: 0f42 d4bd de43 7cbd fbd6 4dba 9e86 34bd
00000390: 4cbc 2abd 9bc2 83be fb40 523d f160 f8bd
000003a0: 8538 4b3d 6a24 34be 44a8 4abd 0499 3b3e
000003b0: 53f2 a93d 909b 63be 20c8 acbd 7d2e 66bc
000003c0: 602d 93bd 9bba a93d a364 2c3e 84b5 b2bd
000003d0: 12f6 05be 5464 a3bd 8ef4 ab3d 518f 86bd
000003e0: 7b63 77be 7c25 0bbe 3f16 f9bc 785c e23d
000003f0: c2f3 2abe fcf2 eebd 17a6 d63d 8916 68bd
-0.107737035 -0.0388111 0.012625559 -0.028361846 0.017328218 0.029993674 0.118068494 0.092073806
0.12045834 0.11158624 -0.11324317 0.15359338 -0.027649939 0.041882403 0.012120761 0.08579985
-0.005454731 -0.013804968 0.060929075 -0.033002507 0.066341504 0.13390286 -0.10619524 0.09831633
0.08130647 0.058336485 -0.11155605 0.031677905 -0.0026215906 -0.059471183 0.14174813 -0.05098831
-0.08196042 0.06048865 -0.17362486 -0.116926774 -0.10920222 -0.15237612 0.022310857 0.021484144
-0.0120306 -0.05870712 0.029477468 -0.019659666 0.19183555 0.16043074 0.029109236 0.23725648
0.09820717 0.11566115 -0.18127339 -0.06489096 -0.1606517 -0.09293415 0.116127886 0.0027434905
-0.20147815 -0.10956322 0.04642949 0.023349052 -0.03921661 0.12912692 -0.033620514 0.027937539
-0.078175716 -0.019954573 -0.005684482 -0.0034236393 0.10980972 0.00034783647 -0.018107537 0.1398648
0.08459946 -0.15071173 0.14128098 0.0008434459 -0.014959216 0.11288359 0.013538747 0.075199485
-0.10650636 0.08772432 -0.024778442 -0.052491654 0.115241826 0.0128183765 0.10624094 0.13193111
-0.012431063 0.08113561 -0.09557332 0.04649175 -0.17195018 0.083710395 0.0838457 0.11346823
0.009828122 0.0539234 0.030472837 0.046518702 0.042007893 0.115078166 -0.10550044 0.059093542
-0.13730179 0.07629862 -0.13775535 0.09443126 -0.025590172 -0.11077682 -0.040648166 -0.029417569
-0.029335607 -0.02121899 -0.22558884 0.13280477 -0.02381013 0.029490255 -0.15423545 -0.06511843
0.16566269 -0.0102136 -0.06735977 -0.031298637 0.07684619 0.056025814 -0.11487005 0.049424972
0.044924263 0.0066639907 0.19106705 0.043351233 0.08357603 -0.12743764 0.023224646 0.033625696
-0.0006704263 -0.17632712 0.102585346 -0.03465925 -0.035102077 -0.077521294 -0.1171786 0.03593392
0.12148624 -0.127792 0.0941461 0.0129246665 -0.08478894 -0.001978821 -0.06276302 -0.018485475
0.029087301 -0.23859698 0.038651552 -0.085615255 -0.1213616 0.10276549 -0.018378954 0.012115391
0.18457685 -0.05216364 0.085209094 -0.21110418 0.103490226 0.026503168 -0.008626844 0.0959387
-0.05956774 -0.25323534 0.048500083 0.017022077 -0.090323575 -0.13959025 -0.06495899 -0.1510718
0.046785183 0.045146488 -0.040640354 -0.08059171 -0.03374879 0.07808867 -0.02047942 -0.046397313
-0.051931564 0.014965348 0.040755387 -0.0836141 0.0900905 -0.036196698 -0.024739293 -0.06976376
0.101103805 0.080363095 0.122752845 -0.030945975 0.0043087373 -0.06248033 0.0461341 -0.022140888
0.0040038065 0.025693337 -0.03654721 -0.012912744 -0.011673149 -0.1968012 -0.052941076 0.14128944
0.17727478 0.038745962 0.036028374 0.1720776 0.15789366 0.046952676 0.10164394 -0.18630075
0.10977891 0.023228383 0.11648411 0.12399328 -0.19890298 0.16688552 0.034100343 0.024018073
-0.10364162 -0.06158816 -0.0007852164 -0.044073693 -0.04168348 -0.2573441 0.0513315 -0.12127865
0.049614448 -0.17592016 -0.049476877 0.1832009 0.08298173 -0.22227311 -0.08436608 -0.01404917
-0.07186389 0.08287545 0.16835265 -0.087260276 -0.1308215 -0.079781204 0.083962545 -0.06570304
-0.24159043 -0.13588518 -0.030406116 0.11052793 -0.16694549 -0.11667439 0.10480898 -0.056662116
