results/opponentR/OpponentR/OpponentR-6619144.onnx (onnx, 125740 bytes, 5 tensors)

action_model._continuous_distribution.mu.weight f4 [1, 128]
0	0x3d63dd62	0.05563105
1	0xbd9c2264	-0.07623747
2	0xbe079453	-0.13240175
3	0xbd3dbd4b	-0.046323102
4	0xbdd5d3c9	-0.104407854
5	0xbdb41f14	-0.0879499
6	0x3c3087c0	0.010774553
7	0x3d3cfa94	0.046137407
8	0x3d072f3a	0.033004023
9	0x3dde67f3	0.108596705
10	0x3c8fe79d	0.017566497
11	0xbd7d7b07	-0.061884906
12	0x3df60198	0.12012023
13	0x3cfb281c	0.030658774
14	0xbd858f30	-0.065214515
15	0x3dab5129	0.083650894
16	0x3dee55b6	0.11637442
17	0x3d72492c	0.059151813
18	0x3d9b99e3	0.07597711
19	0x3c1475fd	0.009061334
20	0xbd81a93e	-0.063311085
21	0x3da59abe	0.08086155
22	0x3d9e5e90	0.0773288
23	0x3d7400f7	0.059571233
24	0xbdce93b4	-0.10086766
25	0x3ddf3c3d	0.109001614
26	0x3d3c5df4	0.04598804
27	0xbd9f63d0	-0.077827096
28	0xbd96d4f4	-0.07364836
29	0xbdcc41d9	-0.09973497
30	0x3dc99426	0.0984271
31	0x3d34c8c6	0.044136785
32	0xbded1472	-0.11576165
33	0x3d81000d	0.06298838
34	0xbe0b6a2b	-0.13614719
35	0x3d9adc59	0.07561559
36	0x3d61567b	0.055014115
37	0xbddbd315	-0.1073362
38	0xbdb880c1	-0.09008933
39	0xbd820b1f	-0.063497774
40	0xbd41b009	-0.04728702
41	0xbde1bb18	-0.110220134
42	0xbba557d5	-0.005045871
43	0xbdd563bc	-0.104194134
44	0x3de98b2e	0.114034995
45	0xbde0b2da	-0.10971613
46	0x3d9e983b	0.077438794
47	0xbdf965b2	-0.121776
48	0xbd72c023	-0.059265267
49	0xbdd88c71	-0.10573662
50	0xbde94da9	-0.113917656
51	0x3d88bb50	0.06676352
52	0xbd88ae3b	-0.06673857
53	0xbdb95042	-0.09048511
54	0x3e10c779	0.14138593
55	0xbdcbf52a	-0.09958871
56	0x3ba4711b	0.005018366
57	0xbd98f279	-0.07468123
58	0xbd8293d0	-0.06375849
59	0xbd259d69	-0.04043332
60	0xbe20d6ab	-0.1570689
61	0xbdf49da6	-0.119441316
62	0x3df6e783	0.12055876
63	0xbe014d25	-0.12627085
64	0xbdb3070f	-0.08741581
65	0xbd8df31c	-0.06931135
66	0x3dad7eff	0.08471488
67	0xbda4485d	-0.08021615
68	0xbd959ba5	-0.073050775
69	0x3d946246	0.07245307
70	0x3dba1f7e	0.09088038
71	0x3bbe9f7b	0.0058173514
72	0xbd8e3859	-0.06944341
73	0xbdac4099	-0.084107585
74	0xbe063e78	-0.13109767
75	0x3dca0d86	0.09865861
76	0xbdc2875b	-0.09498473
77	0xbc5f968f	-0.013646736
78	0xbdbac693	-0.09119906
79	0xbdb99c09	-0.090629645
80	0x3daab91e	0.083360896
81	0x3cb3fc56	0.02197091
82	0x3d4d27fa	0.050086953
83	0x3dcc007c	0.0996103
84	0x3cf17059	0.029472517
85	0x3d94faa8	0.072743714
86	0xbd933f96	-0.071898624
87	0x3dd1c6f8	0.102430284
88	0x3db105d5	0.086436905
89	0x3dbc015b	0.09179946
90	0x3db061dc	0.08612415
91	0x3dc96ceb	0.098352276
92	0xbc7712b2	-0.015080141
93	0x3d6015d8	0.05470833
94	0xbcbc08e0	-0.02295345
95	0xbd3d2b2b	-0.046183746
96	0xbdc53723	-0.09629657
97	0xbd318571	-0.04334015
98	0xbdb997c1	-0.09062148
99	0xbdc225d4	-0.094798714
100	0xbd98e85d	-0.07466195
101	0x3ca0479c	0.019565396
102	0x3d8a8755	0.06764094
103	0xbd9504e5	-0.07276324
104	0x3d28ea07	0.04123881
105	0x3d978bff	0.07399749
106	0x3d9f9452	0.07791962
107	0xbdd8ce97	-0.10586279
108	0x3e029112	0.12750652
109	0xbdf054f2	-0.11734952
110	0xbe029c60	-0.12754965
111	0x3de3f6be	0.11131047
112	0x3db3296a	0.087481335
113	0xbd963260	-0.07333827
114	0xbdd55c06	-0.10417943
115	0x3dd282c4	0.10278848
116	0x3d93540d	0.07193766
117	0x3d08a6d1	0.033362214
118	0x3dc8e28c	0.098088354
119	0x3d9abe6d	0.07555852
120	0x3e01cee7	0.12676583
121	0xbdb80b33	-0.08986511
122	0x3d6ffe02	0.05859185
123	0xbd85ec86	-0.06539254
124	0xbd9a2096	-0.075257465
125	0x3d8dbc48	0.069206774
126	0x3e020382	0.1269665
127	0xbdf3af74	-0.118986994

network_body._body_endoder.seq_layers.0.bias f4 [128]
0	0x3a63b710	0.0008686641
1	0x3cc94d95	0.024573127
2	0x3cf4f514	0.029902019
3	0x3d0cc622	0.03436864
4	0x3c897a3a	0.016781915
5	0x3c1462f8	0.009056799
6	0x3be98943	0.0071269586
7	0x3cf8cde5	0.030371616
8	0x3b256bd5	0.0025241275
9	0x3c6a64e6	0.014306283
10	0x3b766fe0	0.0037603304
11	0x3d201b3c	0.039088473
12	0x3cf513d5	0.029916683
13	0x3c8cc52a	0.017183859
14	0x3cd228ad	0.025654161
15	0x3c0d480f	0.008623137
16	0x3bdfc31e	0.0068286797
17	0x3c12314d	0.008922887
18	0x3c83f42b	0.01610764
19	0xbc434553	-0.011918384
20	0x3b880d2c	0.004151961
21	0x3c958784	0.018253095
22	0x3c3817dd	0.011236158
23	0x3b9a7cf2	0.0047146017
24	0x3c1768c8	0.00924129
25	0x3bc82d70	0.006108932
26	0x3c0becc6	0.008540338
27	0x3bc56305	0.006023767
28	0x3c6174e1	0.013760776
29	0x3b05e982	0.002043337
30	0x3c76efd5	0.015071829
31	0x3c246aa1	0.010035188
32	0x3cd62030	0.026138395
33	0xbcec6a9f	-0.028859435
34	0x3bccc7f4	0.006249422
35	0xbc6d6372	-0.014489042
36	0xb98c9ac3	-0.00026818187
37	0x3ad8fb1c	0.0016554329
38	0x3ca0e18a	0.019638795
39	0x3cbc0ee5	0.022956321
40	0x3cd4811c	0.02594047
41	0xbc043098	-0.008068226
42	0x3d88fc20	0.06688714
43	0xbcfa4899	-0.030552195
44	0x3c01a3a6	0.007912552
45	0x3b948ca0	0.0045333654
46	0x3ce9ca80	0.028538942
47	0x3d7947b3	0.060859393
48	0xbaeb7624	-0.0017964286
49	0x3b1273fd	0.0022346966
50	0x3cecc512	0.028902564
51	0x3bce8bac	0.0063032713
52	0x3c49049b	0.012269164
53	0xbcb7966d	-0.022410596
54	0x3cc21ea2	0.023696247
55	0x3c80d6c8	0.015727416
56	0xbbf41e3b	-0.007449893
57	0x3cf57c63	0.029966539
58	0xbc239efc	-0.009986635
59	0x3bb86613	0.0056274026
60	0xbb801fae	-0.0039100265
61	0x3c9c8370	0.019105643
62	0x3cdf7ff7	0.027282698
63	0xbba58a6d	-0.005051902
64	0xbbcdf27d	-0.0062850104
65	0x3c14b1ef	0.009075626
66	0x3c4620d0	0.012092784
67	0x3cf48e84	0.029853113
68	0x3cb65ec3	0.022261983
69	0xbbf9d44e	-0.0076241856
70	0xbcc02c43	-0.023458606
71	0x3ce3aac9	0.027791398
72	0x3caccb66	0.021093082
73	0x3b9eee50	0.0048501864
74	0x3c427dc6	0.011870807
75	0xbbc81375	-0.006105835
76	0xbc318967	-0.010835982
77	0xbc4859e6	-0.012228465
78	0x3d0cb886	0.034355663
79	0xbcebfe7c	-0.028807871
80	0x3ab7bd73	0.0014018252
81	0x3c8d56e7	0.017253352
82	0x3c1c7e31	0.009551571
83	0x3caa5fda	0.020797659
84	0x3c01a3b4	0.007912565
85	0x3d02306f	0.03178447
86	0x3d027e52	0.03185875
87	0x3cf4670d	0.029834295
88	0xba793e5a	-0.00095078873
89	0x3c3f4946	0.011675185
90	0x3c3ac842	0.011400284
91	0xbcb7cf62	-0.022437755
92	0x3c959c2a	0.018262941
93	0xbb188552	-0.0023272824
94	0x3ce13bb0	0.027494282
95	0x3c4b8964	0.012422893
96	0x3c059e7a	0.00815546
97	0x3d9f311c	0.07773039
98	0x3c48f451	0.012265281
99	0x3bf3190f	0.0074187587
100	0x3c0ef7b3	0.008726048
101	0xbc651add	-0.0139834555
102	0x3c8ceb10	0.01720193
103	0x3d294a3a	0.041330554
104	0xbce16b4b	-0.027516982
105	0x3b8b2b9e	0.004247143
106	0xbb560512	-0.003265683
107	0x3bfe6ebd	0.007764666
108	0x3d00f012	0.03147895
109	0x3bbb38a2	0.0057135383
110	0x3cdd30a4	0.027000733
111	0x3c948396	0.018129151
112	0x39c721a7	0.0003798131
113	0xbd0ee074	-0.034882024
114	0x3921df4f	0.00015437345
115	0x3be2ab02	0.0069173584
116	0xbbc11b72	-0.0058931643
117	0x3ba08574	0.0048987214
118	0xbb56747a	-0.0032723234
119	0x3c8695f9	0.016428934
120	0x3d6509e2	0.055917628
121	0x3cec6531	0.028856846
122	0x3c84efd5	0.016227642
123	0x3cb48dbd	0.022040242
124	0x3c9453d2	0.018106375
125	0x3cb68883	0.02228189
126	0x3a15854e	0.0005703763
127	0x3c8388ec	0.0160565

network_body._body_endoder.seq_layers.0.weight f4 [128, 111]
0	0xbd45f5a4	-0.048329964
1	0x3de204c1	0.11036063
2	0xbd1e135f	-0.038592692
3	0xbd5c6f4f	-0.05381709
4	0x3e83d667	0.25749514
5	0x3e83f187	0.25770208
6	0xbd2d118f	-0.042253073
7	0x3d85ceb5	0.06533567
8	0xbd2c8701	-0.042120937
9	0xbe4018a8	-0.18759406
10	0xbe3f6289	-0.18689932
11	0xbc451103	-0.012027982
12	0x3c50e323	0.012749466
13	0xbd416bb4	-0.047221854
14	0x3dfa0bec	0.12209305
15	0x3e222975	0.15836127
16	0xbe90df06	-0.28295153
17	0xbdb1d1ab	-0.08682569
18	0xbda170be	-0.07882832
19	0x3db2b4e1	0.08725906
20	0xbd3fac3a	-0.046795107
21	0x3e1f445d	0.15553422
22	0x3d336855	0.04380067
23	0x3de7472a	0.1129287
24	0xbce5da76	-0.028058272
25	0xbc021a93	-0.007940906
26	0xbe333443	-0.17500405
27	0x3d32c0b3	0.043640804
28	0xbdc2162f	-0.094768874
29	0xbe1fed54	-0.15617877
30	0x3e3609ca	0.17777172
31	0x3cb2fb91	0.021848472
32	0x3de0511c	0.109529704
33	0xbb8a25ae	-0.0042159176
34	0xbda9980f	-0.08280956
35	0xbd5c72a0	-0.053820252
36	0x3ecfc7c0	0.40582085
37	0x3e6298d8	0.22128618
38	0x3dd915a5	0.105998315
39	0xbdf0ce5c	-0.1175811
40	0x3bbd0566	0.005768466
41	0xbe7202a2	-0.23633817
42	0xbd93238d	-0.07184515
43	0xbc8c2f2d	-0.017112339
44	0xbce8a493	-0.028398788
45	0xbe1a654f	-0.15077709
46	0x3df089af	0.11745011
47	0xbd858acd	-0.06520615
48	0x3d9a1659	0.07523794
49	0x3d3364bb	0.043797236
50	0xbe4987d8	-0.19680727
51	0xbe27c0ae	-0.16382095
52	0xbc224e68	-0.009906389
53	0xbe5bca57	-0.21463905
54	0xbc5f87e6	-0.013643241
55	0x3dcfaf18	0.10140818
56	0x3cd71f80	0.026260138
57	0x3de63a30	0.11241567
58	0xbcb168a5	-0.021656344
59	0x3db88ed3	0.090116166
60	0xbda74442	-0.08167316
61	0xbec72046	-0.3889181
62	0x3df2a1d5	0.11847273
63	0xbd03f1b9	-0.032212947
64	0x3e3c30ce	0.18377993
65	0x3e0b8bba	0.1362752
66	0x3d8b0007	0.067871146
67	0xbd77a41c	-0.06045924
68	0xbd815177	-0.06314366
69	0xbe12485e	-0.14285418
70	0x3ccf67a0	0.025317967
71	0x3d240f81	0.04005385
72	0x3b79995f	0.00380858
73	0x3c9f254f	0.01942697
74	0xbd8e2839	-0.069412656
75	0xbd14abb9	-0.03629658
76	0xbdefd1b3	-0.11709919
77	0xbeb3d17d	-0.35120764
78	0xbdad4b16	-0.08461587
79	0x3e3630ad	0.17792006
80	0x3de62a87	0.1123858
81	0xbd383b52	-0.044978447
82	0xbd5f72ce	-0.054552846
83	0x3da9cdb9	0.082911916
84	0xbd7518bd	-0.059838045
85	0x3dfe68c0	0.12422323
86	0xbd108888	-0.035286456
87	0x3c802725	0.015643666
88	0x3d1466e4	0.036230937
89	0xbe37e200	-0.17957306
90	0x3c86a131	0.016434284
91	0xbdf4087d	-0.119156815
92	0x3cfd7fcc	0.030944727
93	0xbeae749c	-0.3407334
94	0x3e2ae876	0.1669024
95	0x3d39c5c9	0.04535464
96	0xbc945243	-0.018105632
97	0xbe440bac	-0.19145077
98	0x3e1f61b4	0.15564615
99	0x3d0e1d92	0.03469617
100	0xbd95ddcd	-0.07317696
101	0xbe1eae45	-0.15496166
102	0x3c86d0f4	0.016457058
103	0xbe12e0bf	-0.14343546
104	0x3d2928f6	0.04129883
105	0x3cadd6f3	0.02122066
106	0x3cc0142a	0.023447115
107	0x3cd8db61	0.026471796
108	0xbc5833c7	-0.013195938
109	0xbe222679	-0.15834989
110	0x3dfc46ea	0.12318213
111	0xbd99011e	-0.07470916
112	0xba464bbf	-0.00075643876
113	0x3e046062	0.12927392
114	0x3e0f4e4d	0.13994713
115	0xbcf96cdb	-0.030447414
116	0xbd0aa428	-0.033847958
117	0xbe2591cb	-0.16168897
118	0xbda6b284	-0.08139518
119	0x3d97cb28	0.07411796
120	0x3e19eedf	0.15032528
121	0x3d91cdfd	0.07119367
122	0x3d8f6a26	0.07002668
123	0x3dc01f78	0.09381002
124	0xbd99d387	-0.07511049
125	0x3d587304	0.052844062
126	0xbc434ac8	-0.011919685
127	0x3da72595	0.08161465
128	0xbc65cbd4	-0.014025647
129	0x39c6fdb5	0.0003795453
130	0xbd6f1432	-0.05836887
131	0xbbf39afb	-0.0074342466
132	0xbe1d75ed	-0.15377016
133	0x3e070917	0.13187061
134	0xbe5b2269	-0.21399845
135	0x3bb167b4	0.0054139737
136	0xbcc507b1	-0.02405152
137	0x3d68d6bb	0.056845408
138	0xbc8164a8	-0.015795067
139	0x3e2b0ca6	0.16704044
140	0x3e63dd46	0.22252378
141	0x3e2fc18f	0.1716368
142	0x3df928ea	0.12166007
143	0x3e334e83	0.17510419
144	0x3d6d7a04	0.05797769
145	0x3e910aad	0.28328457
146	0x3c5eefa1	0.013606937
147	0xbc82d2af	-0.015969602
148	0x3cdd75fa	0.027033795
149	0x3c0e3529	0.008679667
150	0xbe0beaca	-0.13663784
151	0xbe67e095	-0.22644265
152	0x3d8e2b1e	0.06941818
153	0x3dd974b1	0.1061796
154	0x3cebdd93	0.028792178
155	0xbe5d05cf	-0.21584247
156	0xbc170bda	-0.009219134
157	0x3df38d1f	0.11892151
158	0x3e00531c	0.12531704
159	0xbda7cbd1	-0.08193172
160	0xbe9e2d48	-0.30893922
161	0x3dc5500a	0.09634407
162	0x3e413c8c	0.18870753
163	0xbda2d355	-0.07950465
164	0x3e402d36	0.18767247
165	0xbc1a88a0	-0.009431988
166	0x3cb01d5a	0.02149837
167	0xbdef7fae	-0.11694275
168	0x3cae2ecb	0.021262547
169	0xba812d8c	-0.0009855493
170	0xbc91b01e	-0.017784175
171	0x3d9b26e9	0.07575781
172	0x3cf9c552	0.030489597
173	0xbb15cad4	-0.002285649
174	0x3d3e78c7	0.0465019
175	0x3d6ced0e	0.05784326
176	0xbd9ec2e0	-0.07752013
177	0x3d4997e8	0.049217135
178	0x3cb5a889	0.02217509
179	0x3e6320b8	0.2218045
180	0x3cdc67ad	0.026904905
181	0x3cc3e713	0.023913896
182	0xbd90ba73	-0.07066812
183	0xbda86fcb	-0.08224448
184	0xbe19a4de	-0.15004298
185	0xbb0a708b	-0.002112421
186	0x3e074055	0.13208134
187	0x3e061b3b	0.13096325
188	0x3d34fdc2	0.044187315
189	0xbdb4c87b	-0.08827301
190	0xbd2a0d55	-0.04151662
191	0x3da259d3	0.07927289
192	0xbe3f3683	-0.18673138
193	0x3e15c9dd	0.14627786
194	0x3e545a35	0.20737536
195	0xbe191ec7	-0.14953147
196	0xbd51183a	-0.051048495
197	0x3d8feb1a	0.07027264
198	0xb9bb6963	-0.0003574594
199	0x3d1d5bd7	0.038417663
200	0x3d3d1259	0.046160076
201	0xbd84e1b2	-0.064883605
202	0xbd10a8f9	-0.035317395
203	0xbda07e4b	-0.078365885
204	0xbd8495f5	-0.064739145
205	0x3c3bc9d6	0.011461696
206	0xbd0957fe	-0.03353118
207	0x3bf7ec0b	0.0075659803
208	0x3da1c5a4	0.07899025
209	0x3e13dd8f	0.14439987
210	0xbdac7274	-0.08420268
211	0x3e369359	0.17829646
212	0x3e31829d	0.17334981
213	0x3c0036c6	0.007825559
214	0x3d51ff51	0.05126888
215	0xbe834919	-0.25641707
216	0xbd5c3e43	-0.053770315
217	0x3bf07c46	0.0073390333
218	0xbd597cab	-0.05309741
219	0xbc0d5976	-0.008627286
220	0x3cdec9ef	0.027195899
221	0xbe0ccfbe	-0.13751122
222	0x3e282c30	0.16423106
223	0x3d5ff4dd	0.05467688
224	0x3d22ccf1	0.03974623
225	0xbdbb27d9	-0.0913846
226	0xbe61f581	-0.22066309
227	0x3dc1d815	0.094650425
228	0xbe0f6712	-0.14004162
229	0xbe66e0d0	-0.22546697
230	0xbd19fa9f	-0.037592527
231	0xbdd8e954	-0.10591379
232	0x3d940324	0.072271615
233	0x3db717d5	0.089400925
234	0x3d8d0146	0.068850085
235	0x3caca6e1	0.021075668
236	0xbcebde25	-0.02879245
237	0x3ddac1fb	0.1068153
238	0x3dceab02	0.10091211
239	0xbe1fadc2	-0.15593627
240	0xbde4fc15	-0.11180893
241	0x3d96f823	0.07371547
242	0x3cd802ad	0.026368463
243	0xbe36b733	-0.17843322
244	0x3bb95e90	0.0056570247
245	0xbd88b4bb	-0.066750966
246	0x3dce7b6e	0.10082136
247	0xbd4caaf2	-0.049967714
248	0x3a9f4d60	0.0012153797
249	0x3b32565f	0.0027212126
250	0x3ded3c79	0.115838
251	0xbd175474	-0.036945775
252	0xbc3b5cb2	-0.0114356745
253	0x3e61e0c1	0.22058393
254	0xbbfe20ab	-0.007755359
255	0xbcdd3c78	-0.027006373

network_body._body_endoder.seq_layers.2.bias f4 [128]
0	0x3ceb06b3	0.028689718
1	0x3c1a47f7	0.009416572
2	0x3c6f18d5	0.014593323
3	0x3bc3c45b	0.005974335
4	0x3cba5e5a	0.022750068
5	0x3c3f86dd	0.011689869
6	0x39c6c256	0.00037910294
7	0x3c0bb3ff	0.008526801
8	0x3bd563eb	0.0065121553
9	0x3cd51c10	0.026014358
10	0xbbfaedf4	-0.0076577608
11	0x3bc8e121	0.006130353
12	0x3cb262b6	0.021775585
13	0x3c00e760	0.007867664
14	0x38fca7df	0.00012047565
15	0x3cb0f68a	0.021601934
16	0x3d120916	0.035653196
17	0x3ce3a37c	0.027787916
18	0x3d33a43f	0.04385781
19	0x3b154ed2	0.0022782576
20	0x3bdfe805	0.006833079
21	0x3d09ccce	0.033642583
22	0x3cf4664f	0.02983394
23	0x3c4ea079	0.012611502
24	0x3ce3b0b8	0.027794227
25	0x3cddbe6e	0.027068343
26	0x3c82681c	0.015918784
27	0x3b3e67e2	0.0029053618
28	0x3c624482	0.013810279
29	0x3cba09e4	0.022709794
30	0x3cc23621	0.023707451
31	0x3c6d36e8	0.014478423
32	0x3ccfb876	0.025356513
33	0x3ced09a0	0.028935254
34	0x3d08c48c	0.033390567
35	0x3cc12b65	0.023580262
36	0x3ca934b6	0.020655017
37	0x3c9b285f	0.018940149
38	0x3c1d15de	0.009587733
39	0x3c67783d	0.014127788
40	0x36eda8ac	7.0827864e-06
41	0x3c913e2d	0.017729843
42	0xbc7b998d	-0.015356434
43	0x3c8980be	0.016785022
44	0x3d20ec67	0.03928795
45	0x3c520062	0.012817474
46	0x3caf6d1e	0.021414336
47	0x3c76f583	0.015073183
48	0x3be24fd4	0.006906489
49	0x3cce964e	0.025218155
50	0x3cb52c6c	0.022115909
51	0x3cee1c60	0.029066265
52	0x3c5612e3	0.013066026
53	0x3c653bdf	0.013991325
54	0x3d1087f1	0.035285894
55	0x3cd39635	0.02582846
56	0xbab9f5d0	-0.0014187638
57	0x3bdea937	0.0067950743
58	0x3b553ef4	0.0032538744
59	0xbb84df93	-0.0040549724
60	0x3ce0b0c1	0.027428033
61	0x3cd736cd	0.026271248
62	0x3d4bad3d	0.04972576
63	0x3ca2ad60	0.019858062
64	0x3cc97a6e	0.024594512
65	0x3c9480ae	0.018127766
66	0x3cd80bf8	0.026372895
67	0x3c4c84f4	0.01248287
68	0x3c8d34ae	0.017237034
69	0x3cd656eb	0.026164493
70	0x3ceb9993	0.028759753
71	0xbcad458a	-0.021151323
72	0x3c7170ea	0.0147363935
73	0x3bfdde16	0.007747422
74	0x3ca9f7f5	0.020748118
75	0x3cd3c0e7	0.025848819
76	0x3c2e077c	0.010621902
77	0xbce09e18	-0.027419135
78	0x3bbe3014	0.005804071
79	0x3ca0879b	0.019595912
80	0x3c8a1c36	0.016859155
81	0x3b97306e	0.0046139276
82	0x3c987fd4	0.01861564
83	0x3d058956	0.032601677
84	0x3c87e0e3	0.016586727
85	0x3ccbedba	0.02489363
86	0x3c5bab11	0.013407485
87	0x3cd2684e	0.025684502
88	0x3cee5984	0.029095419
89	0x3d1c6bdb	0.038188796
90	0x3d21b182	0.039475925
91	0x3d13d9db	0.036096435
92	0xbb72fc9c	-0.0037076836
93	0x3c6bb6fc	0.014386889
94	0xbc24db04	-0.010061983
95	0x3bacbb06	0.0052713184
96	0x3ce9fb29	0.028562145
97	0x3a41a9c1	0.0007387661
98	0x3b9364d5	0.004498104
99	0x3ca6ae6a	0.020346839
100	0x3c0091ec	0.0078472905
101	0x38f2d4d0	0.00011579099
102	0x3c50213a	0.012703234
103	0x3c7fb624	0.015607391
104	0x3b969f03	0.0045965924
105	0x3c9115b6	0.017710548
106	0x3c840fba	0.01612078
107	0x3d159d0d	0.03652673
108	0x3d0c89b5	0.034311015
109	0x3cd156ff	0.025554178
110	0x3c690098	0.014221333
111	0x3d1519d6	0.036401592
112	0x3ccb5ab4	0.024823524
113	0x3c4ce8f1	0.012506709
114	0x3c8602ea	0.016358811
115	0x3cd4d944	0.025982507
116	0x3cbd9923	0.02314431
117	0x3c476f45	0.012172525
118	0x3d2a5a43	0.041589987
119	0x3ca07c15	0.019590417
120	0x3d23d240	0.039995432
121	0x3c50892f	0.01272802
122	0x3c81c1f4	0.015839554
123	0x3aafc64c	0.0013410538
124	0x3c73bccb	0.014876555
125	0x3cc758fb	0.024334421
126	0x3d2af716	0.041739546
127	0x3c9a1ed0	0.01881352

network_body._body_endoder.seq_layers.2.weight f4 [128, 128]
0	0xbddc679e	-0.10761951
1	0xbd0f7bec	-0.03503029
2	0x3c5054bf	0.012715518
3	0xbcf9d5aa	-0.03049739
4	0x3c8ec9c7	0.0174302
5	0x3cf0ab91	0.029378684
6	0x3dec899e	0.11549686
7	0x3dbc9ae9	0.09209234
8	0x3df887b1	0.12135256
9	0x3de53b34	0.11192933
10	0xbdef47e3	-0.11683633
11	0x3e1ccfdc	0.15313667
12	0xbced944f	-0.029001383
13	0x3d2e4607	0.042547252
14	0x3c5ffd63	0.013671252
15	0x3db0a781	0.08625699
16	0xbbcda455	-0.0062756934
17	0xbc53a0d8	-0.012916766
18	0x3d79b3d0	0.0609625
19	0xbd08d294	-0.033403948
20	0x3d881804	0.066452056
21	0x3e0a04f7	0.13478456
22	0xbdd85cb4	-0.10564557
23	0x3dce696a	0.100787
24	0x3da3d601	0.079998024
25	0x3d754d9e	0.059888475
26	0xbde53373	-0.11191454
27	0x3cfe02c2	0.031007174
28	0xbb5b64f6	-0.0033476925
29	0xbd7240fb	-0.059144
30	0x3e0fcc42	0.14042762
31	0xbd60b2dd	-0.054858077
32	0xbda7f37e	-0.08200739
33	0x3d7c09b3	0.061532687
34	0xbe32751f	-0.1742749
35	0xbdf4a914	-0.119463116
36	0xbddd94ba	-0.10819383
37	0xbe1d16fb	-0.15340798
38	0x3cb964f4	0.022631146
39	0x3cb7d0ae	0.022438373
40	0xbc51f58a	-0.012814889
41	0xbd6be232	-0.057588764
42	0x3cf31440	0.029672742
43	0xbca7185c	-0.020397358
44	0x3e440860	0.1914382
45	0x3e23a31b	0.15980189
46	0x3cf4fa42	0.029904488
47	0x3e73667f	0.23769568
48	0x3dc871f3	0.09787359
49	0x3de9a551	0.11408485
50	0xbe36bd81	-0.17845728
51	0xbd8dae89	-0.069180556
52	0xbe23c0ec	-0.15991563
53	0xbdbe2ea9	-0.092862435
54	0x3dedeaa9	0.116170235
55	0x3b49948f	0.0030758714
56	0xbe4d3c0b	-0.20042436
57	0xbde51651	-0.11185897
58	0x3d3de028	0.04635635
59	0x3cc9b509	0.024622457
60	0xbd23ecc2	-0.04002071
61	0x3e043a4f	0.12912868
62	0xbd0deba3	-0.03464855
63	0x3ceefcce	0.029173281
64	0xbda87bb3	-0.08226719
65	0xbc9d7fd2	-0.019225989
66	0xbbc89bc1	-0.006122083
67	0xbb6a2bc2	-0.0035731648
68	0x3de0a830	0.10969579
69	0xb93064b5	-0.00016822184
70	0xbc8944a4	-0.016756363
71	0x3e0e7280	0.13910866
72	0x3daba8a6	0.083817765
73	0xbe18d090	-0.1492331
74	0x3e1337d3	0.14376764
75	0x3b40e1b9	0.0029431416
76	0xbc6df017	-0.014522574
77	0x3dee2400	0.1162796
78	0x3c628d19	0.013827586
79	0x3d9a2c66	0.075279996
80	0xbdd9c0a3	-0.10632446
81	0x3db501e7	0.088382535
82	0xbcc8a23f	-0.024491427
83	0xbd568655	-0.052374203
84	0x3ded26c8	0.115796626
85	0x3c68c2aa	0.014206568
86	0x3dda677d	0.1066427
87	0x3e0777b1	0.13229252
88	0xbc538137	-0.012909225
89	0x3da704a9	0.08155186
90	0xbdc2efce	-0.09518395
91	0x3d3da6cd	0.04630165
92	0xbe303334	-0.17207032
93	0x3daba944	0.08381894
94	0x3dad1bd1	0.08452571
95	0x3de74058	0.112915695
96	0x3c2461a8	0.010033049
97	0x3d598ae6	0.05311098
98	0x3cf5ca6a	0.030003745
99	0x3d3f3466	0.04668083
100	0x3d2d9db5	0.04238673
101	0x3de8cba8	0.11366969
102	0xbdda5b7b	-0.1066198
103	0x3d72e724	0.059302464
104	0xbe0c472c	-0.13699025
105	0x3d9a2273	0.07526102
106	0xbe0d4aea	-0.13798109
107	0x3dc16694	0.09443393
108	0xbcd0c55c	-0.025484733
109	0xbde6e79c	-0.11274645
110	0xbd2503e4	-0.040286914
111	0xbcef66a6	-0.029223751
112	0xbcea8c74	-0.028631426
113	0xbcb407a0	-0.021976292
114	0xbe654632	-0.22390059
115	0x3e077b27	0.13230573
116	0xbcd3aac9	-0.025838273
117	0x3cebaf75	0.028770188
118	0xbe1e6c68	-0.15471041
119	0xbd851a0f	-0.06499111
120	0x3e2857fb	0.16439812
121	0xbc3443bb	-0.011002476
122	0xbd86afa1	-0.06576467
123	0xbd006abf	-0.0313518
124	0x3d9d9c45	0.07695822
125	0x3d616d82	0.055036075
126	0xbdeaa38b	-0.114569746
127	0x3d4c0cc5	0.049816865
128	0x3d3590d1	0.04432756
129	0x3ba98dcc	0.005174374
130	0x3e43d67b	0.19124787
131	0x3d33bfab	0.04388396
132	0x3dab9631	0.08378256
133	0xbe025e15	-0.12731202
134	0x3cc2e903	0.02379275
135	0x3d0c4f5d	0.034255374
136	0x3970d56c	0.0002296769
137	0xbe343b70	-0.17600799
138	0x3dd58ac0	0.10426855
139	0xbd0629be	-0.032754652
140	0xbd0b6800	-0.03403473
141	0xbda0004f	-0.07812559
142	0xbdf29374	-0.11844531
143	0x3d134455	0.03595384
144	0x3df8f543	0.12156155
145	0xbe0323cd	-0.12806626
146	0x3dc1e4e7	0.09467488
147	0x3c53bf92	0.012924092
148	0xbdae4e6e	-0.08511053
149	0xbb278db7	-0.0025566646
150	0xbd83508a	-0.06411846
151	0xbc924e5e	-0.017859634
152	0x3cf52584	0.029925115
153	0xbe75a191	-0.23987414
154	0x3d20942b	0.039203804
155	0xbdaf06ca	-0.08546217
156	0xbdf71c37	-0.120659284
157	0x3dd35bc4	0.10320237
158	0xbc9196f1	-0.01777217
159	0x3c5e7834	0.013578463
160	0x3e3da9be	0.18521783
161	0xbd560137	-0.052247252
162	0x3dade8b6	0.08491652
163	0xbe581d62	-0.21104959
164	0x3dd286db	0.10279628
165	0x3ce51d3d	0.027968043
166	0xbc098a2b	-0.008394758
167	0x3dc2f705	0.095197715
168	0xbd7535e6	-0.059865855
169	0xbe8228cf	-0.2542176
170	0x3d4656f6	0.048422776
171	0x3c924915	0.017857114
172	0xbdb91765	-0.09037665
173	0xbe0e54eb	-0.13899581
174	0xbd8678c0	-0.06566
175	0xbe1a8de0	-0.15093184
176	0x3d42eabd	0.047587145
177	0x3d364d4b	0.044507306
178	0xbd2bd35b	-0.04194961
179	0xbda2ecd2	-0.07955326
180	0xbd0addf3	-0.033903074
181	0x3da0436f	0.07825362
182	0xbca8f334	-0.02062378
183	0xbd3ea433	-0.04654331
184	0xbd54e8d1	-0.051979844
185	0x3c8cc0d3	0.01718179
186	0x3d299f13	0.04141147
187	0xbdad250d	-0.084543325
188	0x3db64f03	0.08901789
189	0xbd1569be	-0.036477797
190	0xbcb2627c	-0.021775477
191	0xbd8e29e2	-0.06941582
192	0x3dd6d2c3	0.10489418
193	0x3da61b67	0.08110695
194	0x3dfb3842	0.1226659
195	0xbcfef153	-0.031120932
196	0x3b538443	0.003227488
197	0xbd7f2143	-0.06228758
198	0x3d3ab150	0.045579255
199	0xbcb5eda2	-0.022208039
200	0x3b60755e	0.0034249644
201	0x3cc42333	0.023942566
202	0xbd197487	-0.037464645
203	0xbc6dd970	-0.014517173
204	0xbc0b94eb	-0.0085193915
205	0xbe4ae163	-0.1981254
206	0xbd5a0762	-0.053229697
207	0x3e112dea	0.14177671
208	0x3e35b91a	0.17746392
209	0x3d1e9a47	0.03872135
210	0x3d14c9ea	0.036325373
211	0x3e307ab0	0.17234302
212	0x3e210e55	0.15728123
213	0x3d3e4ca4	0.04645981
214	0x3dcfee2a	0.10152848
215	0xbe3f470b	-0.18679444
216	0x3de33603	0.11094286
217	0x3cc1ebf8	0.023672089
218	0x3def2ca7	0.11678439
219	0x3dff793d	0.12474296
220	0xbe4b7fb4	-0.19872934
221	0x3e2ac390	0.16676164
222	0x3d0a4e0e	0.033765845
223	0x3cc87066	0.024467658
224	0xbdd56570	-0.10419738
225	0xbd797160	-0.06089914
226	0xb89467f5	-7.0765534e-05
227	0xbd32b105	-0.04362585
228	0xbd2565f7	-0.040380444
229	0xbe84670e	-0.25859874
230	0x3d53fabe	0.0517528
231	0xbdf9c22f	-0.12195241
232	0x3d4ce15a	0.0500196
233	0xbe340316	-0.17579302
234	0xbd4cfd05	-0.050045986
235	0x3e3c94f4	0.18416196
236	0x3dab0959	0.08351392
237	0xbe62fbf2	-0.22166422
238	0xbdabfb2f	-0.08397519
239	0xbc6a95e5	-0.014317964
240	0xbd92c254	-0.071659714
241	0x3dac96e1	0.08427215
242	0x3e2bbb35	0.16770633
243	0xbdb2de83	-0.08733847
244	0xbe054234	-0.13013536
245	0xbda6787d	-0.0812845
246	0x3dae758f	0.08518516
247	0xbd879898	-0.06620902
248	0xbe76a197	-0.24085079
249	0xbe0b5fdc	-0.13610786
250	0xbd03b849	-0.03215817
251	0x3de450f3	0.11148252
252	0xbe2b95b1	-0.16756321
253	0xbdee9df0	-0.11651218
254	0x3dd67f7b	0.10473534
255	0xbd67c251	-0.0565818
