results/opponentR/OpponentR/OpponentR-5499937.pt (torch, 760415 bytes, 30 tensors)

network_body._body_endoder.seq_layers.0.weight f4 [128, 111]
00000000: b0d9 62bd 082b f13d 5e55 ebbc 4f6f 5cbd
00000010: d0d1 6b3e 478d 853e 76b7 3abd 776e 823d
00000020: 11b0 44bd 0f6d 37be a20a 56be 038e a3bc
00000030: a988 6039 4674 49bd 031e 003e 0881 223e
00000040: 7a94 92be c112 cabd 7936 b6bd e1b4 b23d
00000050: 44ed 48bd ad23 253e bbae 3a3d adfe e73d
00000060: 42f2 60bc 1f0c 5abc ccc4 3ebe b3c0 323d
00000070: a6f8 dcbd b416 23be 59ca 313e 8532 983c
00000080: e1fd d43d 1f35 6a3c 4136 a5bd a072 5cbd
00000090: 243c c13e d22e 6c3e fd24 d33d 2ab6 f6bd
000000a0: 9b88 fe3b cfa3 7cbe 9bfa 85bd 2d2f 8cbc
000000b0: ea03 e6bc 0605 26be 8641 f23d 242f 87bd
000000c0: 97a7 913d a2a9 233d 3a35 44be aec0 27be
000000d0: a931 103b 33d9 5bbe ce09 68bc ac5f cc3d
000000e0: e155 9d3c 6bd8 bd3d 863d f1bc d38e b83d
000000f0: dd3a 8fbd 6902 bcbe 7bc7 f83d cd3e 00bd
00000100: 0032 333e 2361 093e cf15 9e3d 1ca4 77bd
00000110: cbf0 6cbd 72e8 fdbd c27d bd3c 9f97 293d
00000120: f55c 673a 0434 c2ba aa62 a1bd b9ab 14bd
00000130: 5a9d d6bd 795b a5be 18e0 aabd 8e5b 373e
00000140: ca2a b13d 6a59 e6bc e559 5fbd b9cd a93d
00000150: ffc4 35bd 3038 053e fbb7 f4bc 2348 833c
00000160: 73b8 223d 2e08 36be 798c ab3c 7d08 f4bd
00000170: 8dc5 323d 86e0 abbe 6af0 283e 5f64 333d
00000180: 05e8 fdbc e1ed 42be 3a1c 173e 921d 0e3d
00000190: 7c6a 68bd 55e4 14be 453a a83c 91b9 0fbe
000001a0: 6ac0 203d c5de 783c b73e de3c 197b d63c
000001b0: 2e21 5abc a850 23be cab2 f83d 81ed 9dbd
000001c0: 3b31 e2bb f8b6 fa3d 4d4e 0f3e 9de1 24bc
000001d0: acb3 15bd bd51 23be 54af a4bd cfd5 993d
000001e0: 0788 143e c698 bf3d 44e9 9f3d a7c0 af3d
000001f0: f17b 9fbd c02b 5d3d 38cd 8dbc e730 953d
00000200: 6038 7dbb 2c57 143c 3214 6fbd 372b 6cba
00000210: 390e 1ebe 591f 073e c8ae 59be c3d1 8e3c
00000220: 88ee dcbc 6cff 773d a864 81bc 2ffa 1d3e
00000230: ed26 5d3e 6c71 2f3e 97c5 f43d 069c 2f3e
00000240: a1d3 503d 0992 913e a1ef 5e3c 9df5 c23b
00000250: 61d9 f13c 42ba 053c 65e6 0ebe 2952 67be
00000260: 33f8 953d 83d9 ec3d 93dd eb3c 9ae2 5abe
00000270: 552a 48bc 468a f23d 6e8d 013e 056f b4bd
00000280: 1d64 9dbe c343 c23d 8c3c 413e 975c 6bbd
00000290: 8d6b 433e c46b 24bc d3dc af3c be46 d6bd
000002a0: ba81 bf3c 2d8b 3f3c 1eb0 91bc d42e bd3d
000002b0: e032 9b3c 86c5 5cbb 4a92 423d e9e7 403d
000002c0: 8c42 aebd 85e6 2b3d 89a8 b53c c464 693e
000002d0: cf9b 003d d166 023d bbab 96bd 2b92 a5bd
000002e0: 66f0 1ebe 7c7b 913c 5540 073e f13f 053e
000002f0: a6e2 1b3d b71a b0bd a69d 21bd 572a a63d
00000300: 4ab6 33be f581 0e3e 355a 543e a003 1bbe
00000310: 47a6 4cbd 5266 8b3d 8b33 34b8 f408 f53c
00000320: 4c21 2b3d dc70 80bd f9a8 10bd 9039 a0bd
00000330: 1cc4 81bd 62c1 5d3c 346d f9bc f2cd 06bc
00000340: 4a60 bd3d b8ad 0e3e 7472 acbd 5f5f 333e
00000350: c029 343e ffc0 363c 2611 4c3d f14f 82be
00000360: 596f 3cbd b899 693b c618 59bd 3bad d6bb
00000370: e484 d43c 981d 03be c1bd 2a3e 9938 5a3d
00000380: f13b ee3c d927 bbbd 78f9 50be b71a b83d
00000390: ecc6 0ebe a70b 67be f72a 16bd e017 d9bd
000003a0: 5eec bb3d 049a c73d c14e 7f3d e84b 5e3c
000003b0: ae33 ecbc 1350 d13d f3f3 d33d 7054 19be
000003c0: b7e3 c6bd 23f8 963d 4a02 f73c 7e01 31be
000003d0: f98d 8cbb 8874 8cbd 1830 d13d ad56 23bd
000003e0: d98a 883c 5f56 323b 6376 d13d a4aa 46bd
000003f0: b1cb 23bc 2c8e 613e 46d2 84b9 551f 2ebd
-0.055383384 0.11775786 -0.02872723 -0.05381709 0.23029256 0.2608435 -0.04558512 0.06368726
-0.048019473 -0.17912696 -0.20902494 -0.019965177 0.00021413215 -0.049183153 0.12511449 0.15869534
-0.28628904 -0.09866858 -0.088971086 0.08725906 -0.0490544 0.1612689 0.045576792 0.113278724
-0.013729634 -0.013308554 -0.1862976 0.043640804 -0.107896134 -0.1592663 0.17362346 0.018578777
0.10399986 0.014294892 -0.08066989 -0.053820252 0.37741196 0.23064736 0.10309789 -0.12046464
0.0077677495 -0.24671863 -0.0654194 -0.017112339 -0.028078038 -0.16212854 0.11828904 -0.06600788
0.07112043 0.039956696 -0.1916093 -0.16382095 0.0022002256 -0.21469574 -0.014162494 0.099791855
0.01920599 0.09269794 -0.029448282 0.090116166 -0.06993649 -0.3672059 0.12147423 -0.03130989
0.17499542 0.13415961 0.077190034 -0.06045924 -0.057846826 -0.12397851 0.023131255 0.041404363
0.00088258024 -0.0014816527 -0.07880147 -0.03629658 -0.10479231 -0.3229635 -0.08343524 0.17906019
0.086507395 -0.028118808 -0.05452909 0.082911916 -0.044377323 0.13009715 -0.029872885 0.016025608
0.039726686 -0.17776558 0.020941006 -0.119156815 0.04364543 -0.33569735 0.1649796 0.043796893
-0.030994425 -0.19036056 0.14756861 0.03469617 -0.056742176 -0.14540227 0.020535598 -0.14035632
0.039246 0.015189831 0.027129514 0.026181744 -0.013313575 -0.15948737 0.12143476 -0.07711316
-0.0069028414 0.1224193 0.13994713 -0.010063556 -0.0365483 -0.1594915 -0.08041254 0.07511484
0.14505015 0.09355311 0.07808164 0.085816674 -0.07787312 0.0539968 -0.01730977 0.07284718
-0.0038638338 0.0090539865 -0.05836887 -0.0009009125 -0.15435113 0.13195552 -0.2125808 0.017434007
-0.02696921 0.060546324 -0.015795067 0.15427469 0.2159688 0.17133111 0.1195175 0.17149362
0.050983075 0.28431728 0.013606937 0.0059496895 0.0295226 0.008162083 -0.13955076 -0.22589935
0.07322731 0.115649246 0.028792178 -0.21375504 -0.012217124 0.1184278 0.12651607 -0.08810238
-0.30740443 0.09485581 0.18870753 -0.057461347 0.19083996 -0.010035459 0.021467602 -0.10462712
0.023377288 0.011690897 -0.017784175 0.092374474 0.018945158 -0.003368707 0.047502793 0.047096167
-0.085087866 0.041967887 0.02217509 0.22792345 0.03139859 0.031836335 -0.07356974 -0.0808452
-0.15521392 0.017759077 0.13208134 0.13012673 0.038057946 -0.085988455 -0.039456986 0.081135444
-0.17550007 0.13916762 0.20737536 -0.15138102 -0.049963262 0.068066254 -4.2963347e-05 0.029911496
0.0417798 -0.06271526 -0.035317395 -0.07823479 -0.06336233 0.013534876 -0.03044758 -0.008227812
0.09246881 0.13933456 -0.08420268 0.1751685 0.17594051 0.011154412 0.04982104 -0.25451615
-0.046004627 0.0035644602 -0.05300214 -0.0065514124 0.025942273 -0.12804258 0.16673948 0.053276632
0.029081317 -0.0913846 -0.20407665 0.089894705 -0.1394307 -0.22563039 -0.03666207 -0.10600257
0.09175943 0.09746173 0.062330965 0.013567902 -0.028833237 0.10220351 0.10349264 -0.14973617
-0.09711402 0.07371547 0.030152459 -0.17285725 -0.0042893854 -0.06858164 0.10214251 -0.039877582
0.01666777 0.0027212126 0.102276586 -0.04850258 -0.009997294 0.2202689 -0.00025333668 -0.04251035

network_body._body_endoder.seq_layers.0.bias f4 [128]
00000000: bf97 ae39 7b94 c23c 0ae6 ea3c b206 0c3d
00000010: 604f 8d3c 6155 153c 5360 313c 43f6 fd3c
00000020: d5c6 f93a ca96 6d3c 83fe b63b 125d 203d
00000030: 2bab f93c 8de3 7f3c 854f c63c 74b9 2c3c
00000040: a751 cb3b 4b3a 123c f614 893c 3d68 2ebc
00000050: 6536 4f3b f843 9a3c 78d1 123c 605c a93b
00000060: b18c 2e3c d894 c83b ca6b 0c3c e271 c93b
00000070: 6839 6b3c 82e3 3f3b f484 7d3c ffe6 2a3c
00000080: 830a de3c 3f8c e2bc 0b9c 073c 3710 5cbc
00000090: ab9c 123b aa34 da3a 4272 a83c 7ce7 b83c
000000a0: 55da d13c 25e1 03bc afc8 863d 5158 e7bc
000000b0: 3565 0e3c bdf5 a83b 7d34 ef3c 6f73 743d
000000c0: cb14 1bbb 91c3 c039 7f27 f93c 4a08 e33b
000000d0: 0535 393c 9652 bdbc 0ddd c23c 7799 823c
000000e0: e379 10bc 94bf f93c 8a5d 1bbc 5f2b 7e3b
000000f0: c46b e3bb ef95 9b3c 914b df3c 595d 75bb
00000100: 63bc bcbb 8e0a 123c e649 4a3c 5d15 f93c
00000110: e53e 773c bd65 bdbb 6bc7 d0bc c614 fa3c
00000120: 4726 a53c 0858 c83b b9fa 523c deec a9bb
00000130: 466c 23bc 97c3 37bc 2c01 093d ab08 edbc
00000140: 102a d93a 1899 9e3c 328e 203c df3e b03c
00000150: 6767 043c 5c9d fd3c 3d15 033d 2385 fb3c
00000160: 34d5 833a 85db 2e3c d902 5c3c 95f8 a9bc
00000170: 42fc 9e3c 115e 5f3a 0b75 da3c cd87 583c
00000180: 6e6a 233c c472 9e3d c546 623c 8d6d de3b
00000190: a2c8 073c 82c0 72bc 41dc 443c 5ab3 293d
000001a0: 4c3c cfbc f813 9a3b 3903 8bbb 91cd 033c
000001b0: b9b0 013d 5d30 ca3b 776c e33c 92f9 903c
000001c0: 08e7 bd3b e867 0cbd 9005 9f3a e93a d33b
000001d0: 56d4 d1bb e4e5 643b 8afd 62bb c2dd 8a3c
000001e0: 86b0 663d a2a0 ee3c 074a 763c af99 b83c
000001f0: 775d 873c 677c af3c 2225 943a 2430 7e3c
0.00033300926 0.023752442 0.028674144 0.034186073 0.017249763 0.009114594 0.010826188 0.031001216
0.0019056449 0.014501283 0.0055845394 0.03915126 0.030477127 0.015618217 0.02420784 0.010542262
0.006204802 0.008925031 0.016733628 -0.0106449695 0.0031618115 0.018831238 0.008961074 0.0051684827
0.010653661 0.006121259 0.008570621 0.006147609 0.014356948 0.0029279892 0.015473593 0.01043105
0.027104622 -0.027654765 0.00827695 -0.0134316 0.0022371213 0.0016647775 0.020562295 0.022571318
0.025616804 -0.008049284 0.06581246 -0.028240355 0.008691122 0.0051562474 0.029199833 0.0596804
-0.0023663517 0.00036766802 0.030414341 0.0069284784 0.011304145 -0.02311067 0.023787046 0.015942318
-0.008818123 0.03048686 -0.009482751 0.0038783175 -0.006940337 0.018992392 0.027257713 -0.0037439673
-0.005759762 0.008913649 0.01234672 0.030405695 0.015090679 -0.0057799504 -0.025485715 0.030527484
0.020159854 0.00611401 0.01287716 -0.0051857075 -0.009974545 -0.011216066 0.033448383 -0.028934797
0.0016568322 0.01936011 0.009799527 0.021514354 0.008081294 0.030958824 0.032002676 0.030703133
0.0010058046 0.010672455 0.013428413 -0.020748416 0.019407395 0.0008520792 0.026667139 0.013215971
0.009974105 0.077367336 0.013810818 0.006787962 0.008287581 -0.014816405 0.012015403 0.04143081
-0.025297306 0.0047020875 -0.0042423275 0.008044616 0.031662676 0.006170316 0.027761681 0.01769713
0.0057953633 -0.03427878 0.0012132395 0.0064462316 -0.0064034862 0.0034927065 -0.0034635984 0.016951445
0.05632069 0.02912933 0.015032298 0.02253422 0.01652406 0.021421624 0.001130257 0.015514407

network_body._body_endoder.seq_layers.2.weight f4 [128, 128]
00000000: 727f d3bd 972f 2dbd ad25 553c 889d e1bc
00000010: b237 a13c 9fcb ef3c fae3 f43d 9d6f c13d
00000020: 15d6 f83d ca5b ea3d a466 dcbd 2688 1e3e
00000030: ba93 e0bc 527d 263d a1eb 353c 6b6d b03d
00000040: 0ab1 a2ba 32e1 6ebc 7b1e 803d ed50 24bd
00000050: adbf 803d dcd4 093e 9bcb e8bd 2994 cd3d
00000060: cc65 b13d 6d44 7b3d 4737 f1bd 70dd 0c3d
00000070: 8b64 39bb 2e50 76bd b3f8 103e 0c7f 54bd
00000080: 8f7f a9bd 7295 873d 361b 37be 2532 ecbd
00000090: f0de dcbd 8729 17be 1fe5 b53c 1f49 a73c
000000a0: f134 3cbc 495a 6ebd b4be ee3c ab69 72bc
000000b0: 7f03 463e b927 283e 987b e53c 2955 6e3e
000000c0: d7d0 cd3d a5dc e83d 941e 3bbe 805b 89bd
000000d0: 6863 23be 562b bbbd 5fcd ef3d 5897 1a3b
000000e0: b7cd 4fbe 91d5 dbbd e84f 503d feb9 b03c
000000f0: 69a6 2bbd d763 023e cc16 03bd 1190 dc3c
00000100: e552 9abd 3c93 6dbc 71b8 d7bb 2e10 a5bb
00000110: e0ae c13d 395d 23bb 6d83 cfbc 7b0d 143e
00000120: b429 b13d 1edb 1bbe 2e3f 0d3e 6c1d f639
00000130: da50 43bc acef ee3d 84c7 553c 3365 9f3d
00000140: 0766 d5bd 0b22 b23d e2bc b7bc e6a2 54bd
00000150: 249c ec3d 62bb 853c 76f1 d83d c72f 0c3e
00000160: dd41 40bc 9b91 a93d 5d07 cbbd 7f04 253d
00000170: 7247 31be 89c9 b03d 18f6 ac3d 9ce9 ef3d
00000180: c562 a63b afe3 603d 0708 f53c ed0e 453d
00000190: 88ad 573d 8334 e23d cf66 d4bd c4f3 763d
000001a0: f88f 0cbe b69b a73d 4ea8 08be 6d9a c23d
000001b0: 0261 c6bc b175 d7bd b8f0 2dbd e3c8 f3bc
000001c0: c981 e0bc 7148 80bc ed16 67be 2700 053e
000001d0: 8130 bbbc f9db b23c 9174 15be b87d 83bd
000001e0: 57d6 293e f786 0fbc a326 88bd 7e51 fabc
000001f0: aaa3 a03d 7e41 603d 3fff e8bd 8353 463d
00000200: f971 2f3d 4666 3b3c b1c1 423e 3aca 283d
00000210: 194f ac3d 699c 01be 16c8 983c 1d02 f93c
00000220: 11b3 64bb 086c 35be ce5e d13d 8dae 0cbd
00000230: 5bba 0dbd 269d 9abd d677 e5bd 069b 173d
00000240: 3c3c ee3d 1ea3 01be 50db bc3d 2329 b43c
00000250: 3a8c a5bd 962d 24bb 3b33 73bd 3f73 acbc
00000260: 16cb ca3c 9e79 74be 5fa1 383d 50fb b2bd
00000270: 30a6 edbd 4796 d33d 5283 c0bc 1e57 0e3c
00000280: 351e 3d3e d9d0 72bd 2cc0 b53d b5dd 53be
00000290: 6dbd d63d a59f ae3c c2f4 c1bb 3b67 c93d
000002a0: 10c8 75bd c553 80be 4002 5a3d 330d eb3b
000002b0: 452b b8bd 6331 14be 76bf 8abd fb56 13be
000002c0: 0f56 383d d291 393d 4d4c 14bd 94f8 afbd
000002d0: 5487 13bd 3869 9f3d 81a2 b4bc 476a 3abd
000002e0: e6f0 55bd b345 3f3c d591 243d 6da4 a8bd
000002f0: 5043 c43d 5560 0dbd 060b bcbc 4534 88bd
00000300: a487 d03d b191 973d 9e5a fd3d eb75 fdbc
00000310: 96c9 953c db56 77bd 7fe5 453d 6fed d6bc
00000320: 3c43 c33b b3a3 f63c 4566 f3bc fdd7 08bc
00000330: 03c8 5cbc a88f 46be 52f6 4fbd 741e 0d3e
00000340: 96d2 333e 31cf 2c3d 6e5a 073d 4686 333e
00000350: e91c 1d3e 105e 293d bf37 d33d 89f3 3dbe
00000360: 849d e93d e280 be3c 25f0 ef3d c545 033e
00000370: cef5 4abe 21ce 263e 3cb7 0d3d 56c5 b93c
00000380: 5f92 d9bd 5d90 7bbd 4c3f 82bb 4845 48bd
00000390: 251b 58bd de26 81be 2eea 4a3d f39d 04be
000003a0: 5ece 433d 61ad 36be 79af 4ebd 838a 3d3e
000003b0: d439 af3d dcab 67be d92e aebd fdd5 5cbc
000003c0: b844 a0bd 05de 9f3d c171 2d3e ef01 abbd
000003d0: f891 04be 13c7 95bd a9c7 a33d e391 89bd
000003e0: 7bb0 76be ad3f 0cbe 7d45 f7bc d0ea e43d
000003f0: 3916 24be dd07 edbd d48e d63d 9eff 6abd
-0.10327043 -0.042281713 0.013009471 -0.027540937 0.019679878 0.029271899 0.119575456 0.09445117
0.12150208 0.114432886 -0.10761765 0.15481624 -0.027414192 0.04064686 0.011103542 0.0861462
-0.0012412381 -0.014580058 0.06255814 -0.04011624 0.06286559 0.13460106 -0.1136696 0.10038025
0.08661994 0.061344553 -0.117781214 0.034390867 -0.0028288688 -0.06013506 0.14157371 -0.051878974
-0.08276283 0.06620301 -0.17881474 -0.11533002 -0.107847095 -0.14761935 0.02220398 0.020420609
-0.011487232 -0.05819157 0.029143669 -0.014795701 0.19337271 0.16421403 0.028013036 0.23274674
0.10049599 0.113702096 -0.18273383 -0.06706905 -0.15955889 -0.09139125 0.11709093 0.0023588743
-0.20293318 -0.10734094 0.050857455 0.021573063 -0.041906748 0.12733398 -0.032004163 0.026924165
-0.07535342 -0.014500435 -0.0065832664 -0.005037329 0.09457183 -0.0024927391 -0.025331223 0.14458267
0.08650532 -0.15220305 0.13793632 0.00046942697 -0.011921132 0.116668075 0.0130480565 0.07782974
-0.10419851 0.086978994 -0.022428934 -0.051913165 0.11553219 0.016324703 0.1059293 0.136901
-0.011734453 0.08279725 -0.09913514 0.04028749 -0.1731241 0.0863219 0.08445376 0.11714479
0.005077692 0.054904636 0.029911054 0.048109937 0.052655727 0.11045172 -0.10371172 0.060291067
-0.13726795 0.081839964 -0.13345453 0.09502111 -0.024216179 -0.10520495 -0.042465895 -0.029758876
-0.027405636 -0.015659543 -0.22567339 0.1298834 -0.022850277 0.021833407 -0.14595248 -0.06420463
0.1658567 -0.0087602055 -0.06647994 -0.030556437 0.078437164 0.05474996 -0.11376809 0.048419487
0.042833302 0.011437958 0.190192 0.041208483 0.08413524 -0.12657322 0.018650096 0.030396516
-0.003489677 -0.17716992 0.10223161 -0.034346152 -0.03460155 -0.07549505 -0.112044975 0.037013076
0.116325825 -0.1265988 0.09221518 0.021992272 -0.08083387 -0.0025051585 -0.05937503 -0.021051047
0.024755042 -0.23874518 0.04507577 -0.0873934 -0.116039634 0.103313975 -0.023500118 0.008687763
0.18468554 -0.059281204 0.088745445 -0.20690043 0.10485349 0.021316359 -0.00591907 0.09834143
-0.060005248 -0.2506391 0.053224802 0.0071732043 -0.08992628 -0.14471965 -0.067747995 -0.14388649
0.045003947 0.04530508 -0.03620558 -0.085923344 -0.03601773 0.07783741 -0.022050144 -0.04551151
-0.05223169 0.011674332 0.04017814 -0.08234487 0.09583151 -0.034515698 -0.022954475 -0.066505946
0.101821214 0.07400835 0.123707995 -0.030940017 0.0182846 -0.060385566 0.048314568 -0.026236264
0.0059589427 0.030107355 -0.029711852 -0.008352277 -0.013475421 -0.19390738 -0.05077202 0.13781148
0.17560801 0.04218978 0.033045225 0.1753169 0.1534306 0.04134947 0.10313367 -0.18549933
0.11406997 0.023254815 0.11715726 0.12819584 -0.1982033 0.1628957 0.034598574 0.022677105
-0.10623621 -0.061416972 -0.0039748307 -0.048894197 -0.052760262 -0.25224966 0.049539737 -0.12950878
0.04780423 -0.17839576 -0.050460313 0.1850987 0.08555952 -0.22624153 -0.08505029 -0.013478753
-0.07825607 0.07806019 0.16937925 -0.08349978 -0.12946308 -0.07313361 0.079970665 -0.06717279
-0.2409076 -0.13696165 -0.030184502 0.111775994 -0.16024102 -0.115737654 0.10476461 -0.05737268

network_body._body_endoder.seq_layers.2.bias f4 [128]
00000000: 70e7 ea3c 9cc4 203c 7b3e 783c a242 d53b
00000010: 92ea b93c b5dd 463c f374 583a 66cf 093c
00000020: 8d2b cb3b 561b d13c d424 d2bb 0bdf db3b
00000030: 4274 b53c f14c 043c b84a 7439 1e31 ab3c
00000040: a888 0e3d 1cba de3c e232 313d 3468 183b
00000050: 48cf e23b 17d7 063d 3abe f13c b546 4b3c
00000060: 593b e03c 0315 d53c 416a 813c 1cee 6e3b
00000070: ca51 663c c493 be3c 9ae3 b93c 4e0c 693c
00000080: b688 ca3c aaac ee3c b4a9 0a3d 69d8 bb3c
00000090: 4548 ae3c bec1 a23c 58b3 1d3c 5e06 703c
000000a0: 6bf0 17ba a704 933c 221d 6dbc 6599 8a3c
000000b0: 6c74 1d3d 209a 5c3c b8b6 a53c f7a8 6f3c
000000c0: deae f53b e8c2 cc3c 4594 b63c 0e10 e83c
000000d0: 8a7d 633c 488d 703c 6cd7 0c3d d0ce d63c
000000e0: af43 d0b8 6b5c eb3b 421e 7c3b 1177 3bbb
000000f0: 632f e13c 4fbb d23c dac7 493d 0bb2 a53c
00000100: 193e c03c 03bc 8f3c c445 cf3c d2ee 563c
00000110: e19b 903c ac8d cf3c 4149 e63c 2866 acbc
00000120: dfc6 5a3c d0fa f53b ec7f ae3c 6887 d13c
00000130: ee8c 343c 77a3 d9bc 123b bd3b d085 a63c
00000140: eff0 813c 46fb ad3b 5417 973c ace4 033d
00000150: 5669 883c 1631 c93c 2bb1 613c a78a c63c
00000160: de97 e63c 6849 173d afb5 1d3d a43c 113d
00000170: 90fe 2dbb 8d11 703c 9094 1ebc 8ab5 c63b
00000180: e316 e03c 4a36 c93a 4276 983b 0868 a83c
00000190: 7045 0c3c 4c04 e739 bb91 4e3c d211 833c
000001a0: 5473 9e3b fb10 8e3c 4656 813c e6ac 163d
000001b0: 304a 073d 28cb ce3c 79ed 5d3c fb73 0f3d
000001c0: dbed c63c 4243 573c ebe9 853c 88bc d53c
000001d0: 4bde b53c 38d4 4b3c 6a85 263d 97c1 a63c
000001e0: f9fd 1d3d 95a4 593c 33f8 7c3c 6602 e43a
000001f0: ea89 783c a546 bf3c 4ccb 283d 1080 9a3c
0.028674811 0.0098125 0.015151615 0.0065081874 0.02269486 0.01213782 0.0008257173 0.008411264
0.00620026 0.02552573 -0.0064130817 0.0067099384 0.022150163 0.008074985 0.00023297488 0.020897444
0.034798294 0.027188353 0.043261416 0.002325547 0.0069216825 0.03291997 0.029509652 0.012406995
0.02737205 0.026010996 0.015797736 0.0036457842 0.014057586 0.02326382 0.022691537 0.014224125
0.024723392 0.029135067 0.033853248 0.02293034 0.021274695 0.019867774 0.009625278 0.014649956
-0.0005796018 0.017946554 -0.014472278 0.016918847 0.038441107 0.013464481 0.020228729 0.014627687
0.0074976524 0.024995282 0.022287497 0.028327968 0.013884911 0.014682122 0.03438513 0.026221663
-9.93082e-05 0.007182648 0.0038470183 -0.0028604905 0.027488416 0.025724081 0.04926286 0.020226499
0.02346711 0.017545706 0.025301822 0.013118463 0.017652454 0.02533611 0.028111102 -0.021044806
0.013353079 0.007506706 0.021301232 0.025577262 0.011019928 -0.026567204 0.005774864 0.020327479
0.015861956 0.005309495 0.01844374 0.0322005 0.01665179 0.024559539 0.01377515 0.024236036
0.028148588 0.03693524 0.038503345 0.035458222 -0.0026549436 0.014652622 -0.009678975 0.0060641216
0.027354663 0.0015351262 0.0046527693 0.020557418 0.008561477 0.00044062955 0.012607987 0.015999708
0.0048355255 0.017342081 0.015788209 0.036785983 0.033029735 0.025243357 0.013545387 0.035022717
0.02428334 0.013138594 0.016346892 0.026090875 0.022200724 0.012440734 0.040654577 0.020355983
0.038572285 0.013283868 0.015440035 0.0017395734 0.0151696 0.023349116 0.041209504 0.018859893

action_model._continuous_distribution.mu.weight f4 [1, 128]
00000000: 53ef 693d cea5 99bd 0bca 07be dc9c 3ebd
00000010: 978f d6bd 62a2 b5bd e5f2 473c 0dd9 303d
00000020: d829 053d da69 dd3d afe2 e43c 3337 7fbd
00000030: cd71 f33d e73a f73c f9db 85bd f136 ad3d
00000040: 1c67 eb3d 9d3a 7b3d ee7d 9c3d 7dc1 2c3c
00000050: 8683 82bd 58f6 a33d f6b4 a13d 1a89 773d
00000060: 045d cfbd 71f6 d93d 3dda 3e3d 194c 9dbd
00000070: 7ada 93bd 426a ccbd d578 ca3d 1446 393d
00000080: 918f e9bd a7ae 823d d61a 0cbe 91f2 973d
00000090: 9a2e 6a3d 0991 dfbd 4eab b5bd eb11 81bd
000000a0: 0500 2abd e6ee e0bd 7a00 88bb b9b1 dcbd
000000b0: 180b e73d 5abf e5bd d8b3 983d b49d f5bd
000000c0: e04f 68bd 6c37 d7bd 0070 ecbd 6dd3 853d
000000d0: 29e2 85bd 609e b7bd 0a75 0f3e b04a cbbd
000000e0: 3bd4 9fbb 31be 98bd 21f9 7abd d789 22bd
000000f0: 4dbb 1fbe 19f2 f0bd 7309 fa3d fd84 02be
00000100: 0631 aabd 1621 8abd 4e03 ab3d 27d8 a2bd
00000110: 7a31 93bd bf40 903d 09f4 b83d 245c 583b
00000120: 29a1 77bd 6f30 a7bd af52 08be 5017 cd3d
00000130: 39a5 c1bd 27b8 32bc 912a b5bd a697 bfbd
00000140: 5ef6 a63d 58ab e53c 1027 403d 9b55 ca3d
00000150: 6d8b 023d 5b3c 8b3d 88ef 91bd aec4 c73d
00000160: dc32 ab3d f873 b33d 25c8 af3d 7881 c63d
00000170: 18de 8ebc 6c6b 6c3d 104b a2bc 68e6 39bd
00000180: b589 b7bd 88e6 35bd c6f2 b5bd 0a8d c1bd
00000190: b4e6 97bd ac8f 9c3c 72e4 893d 7bf0 94bd
000001a0: 0e5e 2a3d 440e 993d dcd9 9f3d c726 d9bd
000001b0: 2907 fd3d 2ac8 e9bd 271a 02be 8eaf e23d
000001c0: c2f3 b03d 2650 99bd d0e0 d3bd 2f7c d43d
000001d0: ee59 913d 33dc 1d3d 58fa c63d dc31 a63d
000001e0: 1eef 003e 30f2 babd 431b 6a3d da6c 89bd
000001f0: dc55 9dbd 2322 8f3d 99b4 003e 0932 f0bd
0.057113003 -0.07502328 -0.13260667 -0.04653631 -0.10476606 -0.08868863 0.012203907 0.043175746
0.03251061 0.10811205 0.027940122 -0.0623085 0.1188694 0.030179454 -0.06536097 0.08457745
0.11494276 0.061335195 0.07641207 0.010544178 -0.06372742 0.08005971 0.07895844 0.060433485
-0.10125163 0.10642708 0.046594847 -0.0768053 -0.072194055 -0.099812046 0.09886328 0.045232847
-0.11404336 0.063809685 -0.13682112 0.07419313 0.05717335 -0.10916335 -0.088705644 -0.06302246
-0.041503925 -0.10983066 -0.0041504474 -0.107760854 0.11281413 -0.11218138 0.074561775 -0.1199297
-0.0567168 -0.10508618 -0.115448 0.06534467 -0.06537277 -0.089657545 0.1400949 -0.09926355
-0.0048775948 -0.07458151 -0.061272744 -0.039682236 -0.15598793 -0.117649265 0.122088335 -0.12746044
-0.08310132 -0.06744592 0.0835024 -0.07951384 -0.07187171 0.07043599 0.09030921 0.0033013904
-0.06045643 -0.08163535 -0.13312791 0.10014212 -0.09455342 -0.010908163 -0.088460095 -0.093550965
0.081524596 0.028035805 0.046912253 0.09879609 0.031871248 0.06798621 -0.07125765 0.097543105
0.0835931 0.08762354 0.085830964 0.09692663 -0.017439887 0.057719633 -0.019811183 -0.04538575
-0.089618124 -0.044409305 -0.08884196 -0.09450729 -0.0741705 0.019111477 0.067330256 -0.072724305
0.041593604 0.07473424 0.07805225 -0.10603099 0.12354881 -0.114151314 -0.12705289 0.11068641
0.08640243 -0.0748599 -0.10345614 0.10375249 0.07097231 0.038540076 0.09715718 0.08114979
0.12591216 -0.09128225 0.057154905 -0.06710215 -0.07682392 0.06988933 0.12568893 -0.117282934

exp_avg f4 [128, 111]
00000000: 43ae d2b8 c161 9439 e1df 453a 0400 0000
00000010: e8d4 9eb8 0b36 ea39 3a68 b6b7 5b31 b13a
00000020: 2f6e ceb9 e30b f1b9 8d49 5137 0400 0000
00000030: d1f4 d738 93d8 5738 fa50 013b b5eb ac3a
00000040: cd12 903a 9d16 a1ba 2f2e bcb9 0400 0080
00000050: acbf b139 e879 4c3a 290d 2c3a 15f2 de3a
00000060: 785c 14b6 409c 8b3a eb9e 8bb6 0000 0000
00000070: 2265 86b6 fcb8 333a ebe1 edb9 5a33 c8b8
00000080: 69a4 093a fb7b 7dba 1c9a 023a 0400 0000
00000090: fcfb 6c38 0bac 2f39 76e5 833a 2eec d93a
000000a0: a158 19ba 30a9 6f3a 8ac5 0eb7 7454 f880
000000b0: 2856 0a38 107b 8639 be4f 313a bc50 443a
000000c0: 4a8f 9d3a 1bee 1dba 8e6f 95ba 0400 0000
000000d0: e1bd 7836 c342 2b39 aa96 d93a 2798 e63a
000000e0: 8e23 41ba a3f3 ea38 64f7 efb6 0000 0000
000000f0: fa06 67b8 58b0 6739 c3b8 e53a c7ec e33a
00000100: cb73 3bba b01e ddba d7e9 3939 0400 0080
00000110: 5fdf c337 bdd0 153a cc23 3f3b 42ee 413b
00000120: 57bd 8eba e0e8 85b7 81d3 03b7 0400 0080
00000130: a36b a4b7 816b ab38 d62d 193b 354c 033b
00000140: 24cb d8b9 31e4 89b9 e825 103a 0400 0080
00000150: fc91 23b7 29e5 ae38 be95 af3a 8e14 f13a
00000160: ae57 62ba 5032 5939 f440 2836 0400 0080
00000170: 9dc1 3f38 12b6 b238 0a2c ed3a df52 dc3a
00000180: 548d 7239 47c2 0fb9 7221 bd3a 0400 0000
00000190: e052 05b7 9624 90b8 b14e 36b9 2fcf 6e38
000001a0: cd37 19b8 c2b7 3537 1d6e 9c3a 6ba5 d73a
000001b0: 4d9e 07b6 6739 4fbb fc62 d6b8 493a d6b9
000001c0: e499 0dba bd8e 44ba 0400 0080 6213 05b8
000001d0: ec69 283b 5417 7dba 2927 e0b9 3348 1dbb
000001e0: 41c0 bb3a 43e5 8c38 0400 0080 c52a b63a
000001f0: 610c cd3a 4edc 0ebb 0473 9cba 81dd a4ba
00000200: 6af5 533a b1c7 e1b7 0400 0000 399f 30b9
00000210: 8181 8f3a f50d 17ba f8bc e8b9 65c1 8fba
00000220: 2382 d9b8 8718 2838 0000 0000 32ed 4bb7
00000230: 73cc 743a d670 ec38 f0f7 283a 6571 e3ba
00000240: 5825 ba3a 081f 7dba 0400 0000 48ab 6238
00000250: cfdb d43a d631 09ba 5490 c7ba 4a9c 8cba
00000260: cf62 8fb9 7b85 2338 88e4 3101 39c2 49b9
00000270: b978 db3a d9ab 9db9 cb61 5fb9 bc7c 1abb
00000280: f240 a739 25de 503a 0400 0080 f883 0239
00000290: 67e0 ac3a 51e8 abb9 e6f5 5dba d06c 97b9
000002a0: 1f35 da39 6d57 a937 0000 0000 0f83 9db9
000002b0: 4962 063b 4d9f 04bb b56e c2ba 0b19 083a
000002c0: 292f e539 6e00 30ba 0400 0000 a1df fe38
000002d0: e053 0d3b 9438 30bb 13bf 03bb ebf7 6839
000002e0: d340 b3b9 9d1a 9037 0400 0000 7ff4 3cb9
000002f0: 983d 183b 95f7 0dbb c78e 86ba b4c7 6e3a
00000300: 0f6c 1e39 0c25 94ba 0400 0080 359f 3b38
00000310: f814 d439 b4e3 04ba 39f9 a7ba ebd5 983a
00000320: 527a 10ba 6016 23b7 0400 0080 8ee8 c238
00000330: 6798 f139 866a a8ba e7df 36ba 54a4 e2b9
00000340: 1a44 91b8 f399 29ba 0400 0080 585f 60b8
00000350: 9cca cf3a 6081 05ba 9454 f4b9 44bc feb9
00000360: d992 07b6 4ea3 a5ba 7eae 3d3a 408a 4ab6
00000370: 617f 9f3b 3052 493a 0e55 0bba 4add d4b9
00000380: 7dae 9dba 0400 0080 ad98 b036 02c1 c03a
00000390: b7c5 7639 21a9 8eb8 225d d1ba df05 193a
000003a0: 66cb 11b8 0400 0080 cfda 293a d695 5b3a
000003b0: 7d2b 63ba f45c 35b9 2313 42ba 43a3 793a
000003c0: e4ca 0e39 0400 0080 2582 9fb9 cad8 2f3a
000003d0: 43f3 95ba 7ffb 92ba 6fd5 c4b9 20a2 5dba
000003e0: cd81 6438 0000 0000 09f2 a2b8 0ce0 113a
000003f0: e96d 8739 3d07 333a ccce 3dba 9396 7e3a
-0.00010046039 0.00028301592 0.0007548314 6e-45 -7.573684e-05 0.00044672223 -2.1744625e-05 0.0013518737
-0.00039373475 -0.00045975958 1.2474496e-05 6e-45 0.000102975995 5.1461695e-05 0.0019732104 0.0013192805
0.0010991931 -0.0012290064 -0.00035892564 -6e-45 0.00033902877 0.0007800148 0.00065632403 0.0017009402
-2.2107542e-06 0.0010651425 -4.1610233e-06 0.0 -4.0052846e-06 0.0006855873 -0.00045372485 -9.546308e-05
0.0005250634 -0.00096696586 0.00049820705 6e-45 5.6501463e-05 0.00016753392 0.0010062892 0.0016626173
-0.00058496936 0.00091423374 -8.509853e-06 -2.2805499e-38 3.2982003e-05 0.0002565016 0.00067638967 0.0007488837
0.0012020853 -0.0006024555 -0.0011401044 6e-45 3.7065404e-06 0.00016332701 0.0016600688 0.0017592952
-0.0007367664 0.000112033704 -7.151555e-06 0.0 -5.508119e-05 0.0002209557 0.0017526377 0.0017389291
-0.00071507384 -0.0016870108 0.00017730087 -6e-45 2.3349827e-05 0.00057150034 0.0029165624 0.0029591476
-0.0010890168 -1.5963276e-05 -7.857453e-06 -6e-45 -1.9600446e-05 8.1739396e-05 0.0023373268 0.0020034437
-0.00041350082 -0.00026300692 0.00054988125 -6e-45 -9.749547e-06 8.339651e-05 0.0013396067 0.0018392967
-0.0008634281 0.00020713476 2.5071759e-06 -6e-45 4.5718265e-05 8.521615e-05 0.001809479 0.0016809365
0.00023131567 -0.00013709917 0.0014429523 6e-45 -7.946714e-06 -6.87327e-05 -0.00017386187 5.6936577e-05
-3.653001e-05 1.0831225e-05 0.0011934672 0.0016452497 -2.020871e-06 -0.0031619908 -0.000102227525 -0.00040860687
-0.00054016546 -0.00074980763 -6e-45 -3.1727723e-05 0.00256979 -0.000965466 -0.00042753786 -0.0023999333
0.0014324264 6.7184235e-05 -6e-45 0.0013898244 0.0015643948 -0.0021798792 -0.0011936133 -0.001257822
0.0008085581 -2.6915079e-05 6e-45 -0.00016843983 0.0010948629 -0.00057622726 -0.0004439128 -0.001096767
-0.00010371606 4.0077164e-05 0.0 -1.2154969e-05 0.00093383266 0.00011274374 0.0006445637 -0.001735252
0.0014201803 -0.0009655808 6e-45 5.4042117e-05 0.0016239824 -0.00052335614 -0.0015225508 -0.001072773
-0.00027348704 3.898654e-05 3.267373e-38 -0.00019241207 0.0016744352 -0.0003007341 -0.00021303368 -0.0023572883
0.0003190111 0.00079676724 -6e-45 0.00012446928 0.0013189436 -0.0003278875 -0.00084671227 -0.00028882036
0.00041619778 2.018708e-05 0.0 -0.0003004302 0.002050536 -0.0020236552 -0.0014834019 0.000519172
0.0004371342 -0.0006713931 6e-45 0.00012153318 0.0021564886 -0.0026889192 -0.0020102903 0.00022217601
-0.00034189838 1.717853e-05 6e-45 -0.00018020159 0.0023230072 -0.0021662463 -0.001026594 0.00091087376
0.00015108309 -0.0011302545 -6e-45 4.4732547e-05 0.00040451414 -0.0005069331 -0.0012815363 0.0011660432
-0.0005511391 -9.720767e-06 -6e-45 9.2939576e-05 0.0004608065 -0.0012849129 -0.0006976113 -0.00043228513
-6.926824e-05 -0.00064697786 -6e-45 -5.3494558e-05 0.0015853229 -0.0005092826 -0.00046602322 -0.00048586924
-2.0202044e-06 -0.001263717 0.0007235779 -3.0180818e-06 0.0048674797 0.00076797884 -0.00053151033 -0.00040600664
-0.0012030151 -6e-45 5.2629825e-06 0.0014705958 0.00023534043 -6.80259e-05 -0.001597319 0.00058373617
-3.4760124e-05 -6e-45 0.00064794434 0.00083765143 -0.0008665843 -0.00017296133 -0.0007403364 0.0009522924
0.00013617758 -6e-45 -0.00030423808 0.00067080243 -0.0011440295 -0.0011213868 -0.00037543054 -0.00084546395
5.4480322e-05 0.0 -7.7698445e-05 0.00055646966 0.00025831096 0.00068293867 -0.0007240593 0.00097117684

exp_avg_sq f4 [128, 111]
00000000: b2cb f837 6d0a 8f37 646b be36 22ca 2629
00000010: b68f a434 9602 fa38 ea13 1739 1f0d c339
00000020: b6d3 ef37 1f42 1737 bd85 1336 6cc9 0f24
00000030: da10 7033 c5d6 4638 1ffb 8639 721b d539
00000040: bc09 8537 16a1 4d37 4ba0 9236 746e 632b
00000050: c368 3836 390b 9738 e38d 7f39 b808 db39
00000060: 41ef 3538 95e7 3737 77e5 1733 0000 0000
00000070: cabf 6d33 447f fd36 1a46 a839 5ce2 c939
00000080: 71ed 2838 f5ba 4b37 81ec 0c37 b40d 212a
00000090: 1f32 b134 046c 1e36 8e0b af39 5145 d139
000000a0: 7093 5538 6f73 0737 8435 e432 55f3 dd2a
000000b0: 132f 3633 18c8 f135 edb1 b839 206a cb39
000000c0: 895b 3d38 294f 4537 93e6 8438 cd10 bd2a
000000d0: d18d de32 396d 9d35 7ec6 7039 dfb9 b239
000000e0: b587 1338 962e 1b37 f19d c132 0000 0000
000000f0: 0ae1 8233 0524 9e35 9f1a cc39 e7b3 d739
00000100: 7d46 1138 c331 2c37 21a0 0238 0402 3829
00000110: e3c2 6732 a9d0 d936 bc08 9439 e06c b539
00000120: 3a7a 9837 9c2e d736 7d9b b932 620b dc23
00000130: 37d6 ea32 da0f 9635 e60d e639 bf1b eb39
00000140: 0330 9a37 ae12 2137 9845 1c38 7152 dd28
00000150: 94fc d831 8f14 5338 6da0 7039 dd1c b839
00000160: 8592 b437 1b57 8736 c66e 4632 9c8f 8721
00000170: c83d b732 5f07 9435 2ea7 e639 6f1d ea39
00000180: e37e 2337 9e45 0437 33dc 4338 5795 1026
00000190: 627d 6531 7cdb f035 1fa9 b339 7aaa bf39
000001a0: 042a 2238 6ef4 f535 3114 8437 8f2a 813a
000001b0: b77e 2634 d185 8d3b f5c9 5637 fe5c 2239
000001c0: 6a09 a737 1ce7 a736 7a30 4a29 d4ed 8536
000001d0: f999 3539 e62a 1939 e4da 083a 2be9 ef38
000001e0: 5545 8237 3992 b235 66e4 8624 a438 da36
000001f0: 85aa 1039 03b3 7839 31dd 083a 8aff 0b39
00000200: 672b 9837 a4ba 6036 0ea4 982b 0beb 1c37
00000210: bde2 9b38 cce5 9639 3032 1f3a 546f 9d38
00000220: dc22 6137 ad9f 9933 0000 0000 8bfe dc36
00000230: c4f1 f338 cd1f b339 902c 033a f884 ce38
00000240: e8ad 6537 df55 a937 fcef 292b 7acf a735
00000250: 71f8 6d38 492b c239 a04c 113a 769f 5838
00000260: cebf 9137 7115 7c33 80bc 602b b3c5 3636
00000270: fc9b f538 2a8f d639 7dad 033a b856 7b38
00000280: e278 1b37 f206 af38 17ee 842b 304e a935
00000290: 30b3 f038 2cf3 8339 6b33 ea39 26b4 2338
000002a0: a7b6 7d37 4d5e 7633 0000 0000 47bf a336
000002b0: e11e ff38 4704 e539 501b 063a 08bb 2d38
000002c0: af60 3137 2ec2 4b38 c645 cc29 afb3 a335
000002d0: a3af 1c39 0de7 9839 7aba dc39 0329 2d38
000002e0: 5ed3 2f37 fb06 5f33 4336 d323 10a3 1f36
000002f0: d777 fb38 f503 f139 2ae4 073a 8bc3 b237
00000300: 5a32 e536 f1a1 4938 7a4d ac29 7c66 bd34
00000310: 0f85 6a39 2dd8 8339 e06c e239 39d6 6a38
00000320: fead 3237 dc92 3333 a654 3622 8fc0 9635
00000330: 7a1d e238 26a2 ec39 f0c2 033a b87a 1b37
00000340: 7e84 0237 6502 4c38 3d28 0e26 8442 a634
00000350: 7d88 2439 f266 c839 8904 ed39 cf3e d638
00000360: 10ff 6336 7e66 a537 3797 3d3b 162b c634
00000370: 406f da3c 0eb5 8537 7a65 7038 0141 1c37
00000380: 6078 da36 f97c a929 e418 4a35 4ca7 7e38
00000390: 1b59 b638 6e9a 7c39 d2f6 3938 d564 d336
000003a0: 9cc1 6036 c2ff 8825 c9d7 8235 6433 3238
000003b0: edbb 0b39 7967 8739 ac7c 3638 3675 db36
000003c0: 72b2 a936 bbb8 d42b 9a0f b336 a617 be37
000003d0: a94d 2339 b33a 9139 6653 7238 8955 1637
000003e0: d387 a233 0000 0000 bd6f d235 f772 de37
000003f0: 0703 1739 df83 5f39 71aa 0538 9134 d536
2.9658757e-05 1.7051783e-05 5.674943e-06 3.7034727e-14 3.0651944e-07 0.000119214106 0.00014407901 0.00037203074
2.8589606e-05 9.015696e-06 2.1982553e-06 3.1178793e-17 5.589468e-08 4.74069e-05 0.00025745571 0.00040646974
1.5859368e-05 1.2256458e-05 4.3697996e-06 8.0799885e-13 2.7479116e-06 7.2023315e-05 0.00024371552 0.0004177743
4.3376585e-05 1.0961569e-05 3.5366124e-08 0.0 5.5355294e-08 7.5548032e-06 0.00032095687 0.00038506358
4.0275456e-05 1.2143272e-05 8.399716e-06 1.4304427e-13 3.3005287e-07 2.3606708e-06 0.0003338721 0.0003991523
5.092047e-05 8.0735035e-06 2.656703e-08 3.9426332e-13 4.241799e-08 1.8014134e-06 0.0003522778 0.00038798247
4.514636e-05 1.1760546e-05 6.337198e-05 3.3584802e-13 2.5908692e-08 1.17292e-06 0.00022962128 0.0003408929
3.5173918e-05 9.249567e-06 2.253998e-08 0.0 6.094531e-08 1.17824e-06 0.00038929746 0.00041142033
3.463634e-05 1.0263585e-05 3.1143547e-05 4.0857956e-14 1.3490282e-08 6.491395e-06 0.00028235267 0.00034604128
1.8176728e-05 6.4129254e-06 2.1607542e-08 2.3857269e-17 2.7338599e-08 1.1180484e-06 0.00043879374 0.00044843365
1.8380588e-05 9.600697e-06 3.7258113e-05 2.4571682e-14 6.315142e-09 5.0325467e-05 0.00022947947 0.0003511672
2.15259e-05 4.033454e-06 1.1550304e-08 9.185969e-19 2.1332099e-08 1.1029005e-06 0.00043993577 0.00044653888
9.7451e-06 7.884022e-06 4.66967e-05 5.016243e-16 3.3395158e-09 1.7945272e-06 0.00034267546 0.00036557374
3.866294e-05 1.8325061e-06 1.5745029e-05 0.0009854602 1.5506053e-07 0.0043189307 1.2802416e-05 0.00015484166
1.9912335e-05 5.0038925e-06 4.4895057e-14 3.9913957e-06 0.00017318864 0.00014607198 0.00052206055 0.00011439839
1.5529493e-05 1.330459e-06 5.850016e-17 6.5035e-06 0.00013796434 0.0002371781 0.00052209484 0.00013351269
1.8140023e-05 3.348724e-06 1.0845784e-12 9.35305e-06 7.433209e-05 0.00028781442 0.0006072847 7.50708e-05
1.3419161e-05 7.1536626e-08 0.0 6.5861436e-06 0.00011632175 0.00034165234 0.0005003894 9.847613e-05
1.3689954e-05 2.0186357e-05 6.0373906e-13 1.2502853e-06 5.6736582e-05 0.00037034813 0.0005542729 5.1646923e-05
1.7374663e-05 5.8692823e-08 7.984238e-13 2.723519e-06 0.00011711565 0.00040923926 0.0005023105 5.9923826e-05
9.266865e-06 8.345944e-05 9.445247e-13 1.2614237e-06 0.00011477468 0.00025167444 0.00044670267 3.9030005e-05
1.5122502e-05 5.7362104e-08 0.0 4.880046e-06 0.00012165099 0.0004368147 0.0005115764 4.14206e-05
1.0572533e-05 4.8579815e-05 9.0715236e-14 1.2196741e-06 0.00014942749 0.00029163845 0.00042100606 4.128461e-05
1.0480026e-05 5.1927582e-08 2.2899647e-17 2.3787761e-06 0.000119909346 0.0004597005 0.00051838404 2.131031e-05
6.8305935e-06 4.8072954e-05 7.6517745e-14 3.527856e-07 0.00022365547 0.0002514733 0.00043187197 5.5989458e-05
1.06501375e-05 4.1810253e-08 2.4710412e-18 1.1231913e-06 0.0001078201 0.00045134238 0.00050263014 9.267293e-06
7.779452e-06 4.863962e-05 4.932068e-16 3.0968306e-07 0.00015691105 0.00038223673 0.00045207542 0.00010216014
3.3974102e-06 1.971726e-05 0.0028929242 3.6911723e-07 0.026664376 1.5939146e-05 5.7314966e-05 9.3134595e-06
6.51092e-06 7.526787e-14 7.5287085e-07 6.0714126e-05 8.6950335e-05 0.00024090122 4.4337306e-05 6.3000284e-06
3.3491297e-06 2.3765548e-16 9.748557e-07 4.248637e-05 0.00013326081 0.000258263 4.350829e-05 6.5403538e-06
5.0573663e-06 1.5114779e-12 5.336432e-06 2.2660777e-05 0.00015573822 0.0002770029 5.7774967e-05 8.960612e-06
7.568419e-08 0.0 1.5678739e-06 2.6517997e-05 0.0001440161 0.00021316063 3.1868407e-05 6.354014e-06

exp_avg f4 [128]
00000000: 1ba4 a83a a11a 04b9 fe17 e1b9 07e0 8db9
00000010: 8ebe 5b3a 8e3f 45ba fb71 4bb9 0f6e ea39
00000020: a14a 89b9 86bc 9e38 27d2 2036 78c3 d7b8
00000030: 9e84 923a 133a 3639 95a6 053a 7f8c fdb8
00000040: c4af 603a d35c b538 82ba 233a ff5c 1f39
00000050: 40e5 03ba 55ea 23b8 a615 cdb9 92d2 a539
00000060: 7a22 12ba 690a 0aba 316c 1eba d28d 4039
00000070: 2c4a 663a e902 e639 431d 49ba 7e02 31b7
00000080: 02bd b03a d006 8eb9 780f 403a 9ad5 5339
00000090: 7e2c a03a 5df9 c339 fd48 723a 8d61 4339
000000a0: 2029 d7b7 56e0 01b8 4860 79ba 9914 6538
000000b0: 90bc c8b9 6551 dcb8 f8a0 1eba 514d f8b8
000000c0: 73ec 0e38 f102 58ba 053b d93a b6ef 06b8
000000d0: a774 fdb7 c07e aeb8 8777 ec37 8c08 08b9
000000e0: abf9 c339 6820 54ba eeb0 43b8 5448 ceb8
000000f0: ccdb 64ba f936 79b9 1933 6a3a 4a25 2c3a
00000100: abd3 e3b8 06e1 fb39 5ef8 2bb9 7223 283a
00000110: 9cc3 b8b8 c0c0 04b9 a0fa 77b9 8698 71b9
00000120: 5a87 99ba c014 003b 9093 323a 68da aa39
00000130: 676a 183a 18a0 8237 072c cfb9 5bce c639
00000140: 987f 083a eb5e 1c39 4f94 7b3a d062 bc3a
00000150: fc6b a0b9 cdfa 8fb9 6e61 0d37 d02e e3b8
00000160: 3595 763a 2efe 143a 1e8f 9039 db74 8dba
00000170: d66b c839 596b 8d38 ec78 9bb9 7ea7 29ba
00000180: 9c0f 94b9 8e52 2dba 9d53 68ba cd88 da3a
00000190: 84f5 ba39 ff09 3bba a1d0 2fb9 ee6c 06bb
000001a0: cc78 22b9 b5e7 52ba 35db a1b9 01ef cf3a
000001b0: 5d56 93b8 eb49 49b9 be29 c5b9 43d4 9039
000001c0: cba9 4dba 3f89 1239 1fb0 4939 578e d5b9
000001d0: b6f8 72b9 4491 95ba 1715 703a eaf6 52b7
000001e0: 54e4 d2ba 7582 2fba c912 adb9 2949 763a
000001f0: b968 89b9 eaee fcb9 8ad0 4c39 7c52 e838
0.001286629 -0.00012598421 -0.0004293322 -0.0002706053 0.0008382582 -0.0007524424 -0.0001940205 0.00044713958
-0.0002618628 7.569142e-05 2.3964183e-06 -0.00010288408 0.0011178439 0.00017378507 0.000509837 -0.000120901495
0.0008571113 8.6480424e-05 0.00062457484 0.00015198065 -0.00050314143 -3.9080467e-05 -0.00039116776 0.0003162814
-0.00055745954 -0.00052658335 -0.00060433435 0.00018363379 0.0008784856 0.00043871187 -0.0007671902 -1.0550602e-05
0.0013484063 -0.00027089426 0.0007326524 0.00020202101 0.0012220291 0.00037379088 0.00092424435 0.0001863299
-2.5649148e-05 -3.0964926e-05 -0.0009512943 5.4617038e-05 -0.00038287463 -0.000105055784 -0.0006051208 -0.00011839963
3.407565e-05 -0.00082401844 0.0016573375 -3.2171338e-05 -3.021427e-05 -8.3205756e-05 2.8189052e-05 -0.00012973155
0.00037379315 -0.0008091987 -4.66564e-05 -9.8363176e-05 -0.0008730262 -0.0002376697 0.0008934006 0.0006566836
-0.0001086363 0.00048042106 -0.00016400355 0.0006413973 -8.810239e-05 -0.00012660306 -0.0002364912 -0.0002304037
-0.0011713312 0.0019543618 0.00068121497 0.00032587652 0.0005814195 1.5571757e-05 -0.0003951492 0.0003791925
0.0005207001 0.00014912679 0.000959699 0.001437271 -0.00030598033 -0.00027461947 8.4269395e-06 -0.00010832923
0.0009406389 0.00056836277 0.0002757245 -0.0010792272 0.00038227317 6.743399e-05 -0.00029653998 -0.00064717967
-0.0002824039 -0.0006611728 -0.0008862557 0.001667285 0.00035659608 -0.00071349734 -0.00016767021 -0.0020511704
-0.00015494524 -0.00080453913 -0.00030871635 0.0015864075 -7.025593e-05 -0.0001919639 -0.00037605868 0.00027623968
-0.00078454305 0.00013974773 0.00019234464 -0.00040732577 -0.0002317157 -0.001141109 0.0009158416 -1.2574465e-05
-0.0016089776 -0.000669516 -0.00033011127 0.0009395057 -0.000262087 -0.0004824319 0.00019532643 0.00011077986

exp_avg_sq f4 [128]
00000000: b59e 053a b4ee 653a e5a5 cd39 983a 9c39
00000010: 09e0 6639 3931 ed39 0f4f bb35 9e13 f037
00000020: b752 d536 01c5 cd39 2ece 8238 e207 1837
00000030: 48c1 ae39 682d 2237 dbb7 b83a 947b 5437
00000040: 6995 4139 cacb 4337 76b4 9039 3e51 3939
00000050: 72be a039 438f bd38 fd2e 8b38 5898 a938
00000060: e507 bd37 330f b039 bc9f 2c3a 46c1 8039
00000070: 3adb 2c3a 5b3c 593a 0fe6 4739 3f8a 8735
00000080: fbdf 763b d938 5138 3d5d 0639 caa3 8539
00000090: a62b 0839 7083 6938 5f75 7439 67fd f438
000000a0: 5671 103a 9cca 0938 e59c 743a 212b 0239
000000b0: 95f7 c538 edf5 7a39 4189 0d3a bc1d f73a
000000c0: a578 4838 1fb2 c539 0efd e33a e412 1838
000000d0: ffdc 3238 85ce 6d38 0c7a d739 d1b5 3439
000000e0: d194 4939 c1aa 243a c9b4 3639 84dc 1e39
000000f0: 8911 1839 55c4 b939 4a10 453a 79e7 ec38
00000100: 42c7 c135 d76a 7038 1c29 0139 c37a 013a
00000110: c904 b234 57b9 9b38 8339 0939 e101 bb38
00000120: a917 163a 2fc4 9a39 447d 8739 5225 c338
00000130: 4d64 b438 6ada 4c35 7d29 143a a060 303a
00000140: 064d 973a 69f6 3437 b6d9 bb39 a1a6 5f3a
00000150: ce62 9b38 fd06 bf39 f0bd b338 c77f 383a
00000160: 7b7e f739 f15e 1338 a88e 9e3a 479d 283a
00000170: 8d17 323a 3998 2836 b933 4a3a 2533 9339
00000180: 84e1 8738 b8eb f639 ac3a 1038 9087 143a
00000190: 890c 2a39 f18d 6839 4f06 b035 d9de 0a3b
000001a0: 0fa5 1d39 9af3 6539 6b16 cf39 e484 903a
000001b0: 7036 e639 58ee 0338 e34c ae38 3469 c938
000001c0: 4b54 8938 2c0e d439 1a6d 103a ee90 113a
000001d0: 4720 bc36 c305 ae39 1f46 223a b94f 8038
000001e0: 9594 233a dab6 803a de5f 9c38 0da7 123a
000001f0: ab6f e937 5b2e b138 9567 453a 727f 5b3a
0.00050971966 0.0008771226 0.00039224248 0.00029798294 0.00022017969 0.00045240836 1.3955595e-06 2.8619364e-05
6.357524e-06 0.00039247426 6.237287e-05 9.061741e-06 0.00033331872 9.666524e-06 0.0014092879 1.26649575e-05
0.00018461574 1.1670354e-05 0.00027600274 0.0001767324 0.0003065947 9.038907e-05 6.636789e-05 8.086924e-05
2.2534232e-05 0.0003358066 0.00065850816 0.00024558062 0.00065939466 0.0008286887 0.00019063822 1.0098519e-06
0.0037670124 4.9882427e-05 0.0001281397 0.0002548977 0.00012986231 5.567394e-05 0.00023313377 0.000116820265
0.00055100524 3.285204e-05 0.00093312404 0.00012413833 9.439808e-05 0.00023933472 0.00053991756 0.0018853466
4.7796075e-05 0.0003770748 0.0017394142 3.6257217e-05 4.2644326e-05 5.669754e-05 0.00041098928 0.0001723387
0.00019224292 0.0006281548 0.0001742422 0.00015150203 0.00014502382 0.00035432228 0.0007517381 0.00011296472
1.4437612e-06 5.731996e-05 0.00012317713 0.00049392524 3.3158565e-07 7.425498e-05 0.00013086763 8.917205e-05
0.00057255715 0.00029519337 0.00025842537 9.305276e-05 8.601751e-05 7.6313756e-07 0.0005651934 0.00067282654
0.001154334 1.0786208e-05 0.00035829627 0.00085316045 7.40938e-05 0.00036435566 8.570764e-05 0.0007038083
0.00047205747 3.5135952e-05 0.0012096958 0.00064321276 0.00067936705 2.5122556e-06 0.0007713396 0.0002807613
6.479307e-05 0.000470964 3.4386918e-05 0.00056659523 0.00016217133 0.00022178121 1.3114858e-06 0.0021189956
0.00015034176 0.0002192989 0.0003949882 0.0011025933 0.00043909578 3.145481e-05 8.311288e-05 9.6040225e-05
6.54837e-05 0.0004044635 0.00055094215 0.0005552907 5.606594e-06 0.0003319216 0.00061902584 6.118365e-05
0.0006240097 0.0009820119 7.456516e-05 0.00055943505 2.7827764e-05 8.448652e-05 0.00075303885 0.0008373178

exp_avg f4 [128, 128]
00000000: a566 13b9 af80 9038 d866 c5b8 e71b a3b7
00000010: a046 3bb9 8d46 5fb8 a914 d8b8 f27b d6b9
00000020: 7817 4738 a739 2438 d43f 2d38 6513 b9b8
00000030: 75d9 5db9 68eb dfb8 7d46 1337 bb22 49b9
00000040: 2a8a c7b7 6a2e f937 aece 87b8 7e6a b837
00000050: f985 7bb8 277d cb37 b42e a037 5bee 7038
00000060: 6f51 b3b8 0340 ae37 2f7f 8738 9f3e 4235
00000070: bd15 d3b8 0088 36b9 0ccd fbb8 e2d1 b9b7
00000080: 6ca2 87b8 135b bf37 842e ebb7 0c3a 1438
00000090: 256a c9b7 3845 12b9 339f 73b9 9e0b 1738
000000a0: 999d 7b38 02ee 61b7 c53f 55b9 f90c d637
000000b0: 5214 0a38 14a9 8c37 cf36 4cb8 8930 d538
000000c0: 833a 7438 ba3c b7b8 7fdc 14b7 ca55 8b38
000000d0: 8080 afb7 eca6 f838 7210 1db9 faa9 81b6
000000e0: ddbe a938 38e0 d437 1033 1938 5c41 a737
000000f0: 57f7 ceb8 c2b0 5bb8 0eb6 19b8 c309 deb8
00000100: fa56 e038 52c3 a2b8 28cb acb8 fc61 6cb8
00000110: 1589 f3b7 1573 f038 1e9b c3b7 a6c1 0cb7
00000120: b78e 2fb9 d7f9 05b9 f34b e8b7 9c6a f0b7
00000130: 1b60 93b8 be00 5437 24a2 f737 4f60 00b9
00000140: 8ffa 82b8 dc34 c0b8 d8ba 2eb9 2287 9eb9
00000150: efbf a637 23eb 9638 5e38 ccb8 b067 2738
00000160: 4e1e 7fb8 da49 ddb7 0a1b 6437 d73c 2139
00000170: db24 82b8 9eb1 09b9 0bca c5b9 f2ac b6b8
00000180: 87f5 1b38 23c7 6eb9 aeda 90b8 ee8f 12b9
00000190: c021 fcb7 efd2 6d38 05a9 a337 8d81 f8b7
000001a0: bbd4 d237 9888 2eb9 4eae 8638 5214 fcb8
000001b0: 7d14 1a38 84fb 2437 c5dd ac38 295c 6239
000001c0: 771d 9bb7 e4c2 b9b8 e393 6cb8 057e 1839
000001d0: 435c 4b38 7191 0db9 5747 66b8 5f94 7538
000001e0: 7357 12b8 1dd9 42b8 4f99 7a37 dbcc fbb8
000001f0: ec6e 8238 2b2f 06b9 689a a8b9 61b2 4bb8
00000200: cf3a 2739 f06d e1b8 944e 7638 9bb3 82b7
00000210: 598e 2439 cf6a be38 5439 b038 ec07 dc39
00000220: 403b 69b8 de9f b0b7 c7f7 3f38 3a6e dbb7
00000230: 1723 2a39 8349 a738 6b9b 5038 e882 9d39
00000240: 8088 d135 3347 88b8 2554 7739 82e0 4838
00000250: 0c99 9539 07f7 f737 3665 2838 484a b537
00000260: 7ad9 f137 a01d b138 2961 a9b7 238a 2eb8
00000270: 03db 5937 a68c a339 2267 ce38 ecfc 4a36
00000280: b830 4337 441b 4738 1a99 d137 9811 9fb8
00000290: 5fc1 1f36 1e6f a038 d48c 2239 7274 f838
000002a0: bea7 30b8 ba19 89b6 0eb0 cd39 49f3 6eb8
000002b0: 07cc 37b8 39c0 5238 8222 d838 7f22 2038
000002c0: 0fd1 aab8 6ab1 a537 bb71 3638 a821 bab8
000002d0: e0f5 fb38 e739 1cb9 1fe4 9239 e51d 3439
000002e0: 40aa 78b8 2879 c638 177d e5b7 6420 ff38
000002f0: e744 bc38 0e33 c139 d323 2bb8 6a1d 9238
00000300: fa54 f3b8 c45b 0839 e783 7f39 18f3 4738
00000310: dc08 2237 32b8 4638 d17f 7f38 2e2a 9db7
00000320: 194e 2b39 d8cf ed38 dd79 cc38 493d 1238
00000330: 90f0 f638 899f 4bb8 0b67 1238 399e 3639
00000340: d3b1 7438 85ef fe38 c934 1939 af8d ad39
00000350: 29c0 a038 5fbe 4137 1d64 8f39 d737 1639
00000360: 1e27 bf38 8f42 49b7 bcbb bdb8 23c0 0fb9
00000370: 2a06 9739 a6d9 8138 2ebf 1a3a cc76 a037
00000380: 4c8b bc37 63e2 8639 cbab d636 538f 0939
00000390: cbc9 7438 7e8f b138 5bfa 5db8 5df5 af38
000003a0: 0289 2bb8 7cc3 2239 676f 26b9 f2bc 8237
000003b0: 276c 02b8 eac9 b3b7 368f a8b8 e42a b2b8
000003c0: 753c 33b8 e43a cd38 d5cf c838 cf9a 0838
000003d0: d7ee 51b8 6fe1 2239 d019 db37 1428 33b8
000003e0: 7bbc 83b8 6fb0 1738 83e9 e237 4baa 4739
000003f0: b170 91b7 0d83 b038 f824 0b3a 0ce0 9639
-0.0001405725 6.890424e-05 -9.412848e-05 -1.9444107e-05 -0.0001786002 -5.323305e-05 -0.00010303531 -0.00040909607
4.7467154e-05 3.915434e-05 4.130586e-05 -8.8251e-05 -0.00021157211 -0.000106773165 8.778295e-06 -0.00019181792
-2.3786986e-05 2.9704726e-05 -6.475799e-05 2.1984099e-05 -5.9967835e-05 2.4257764e-05 1.9095234e-05 5.7442445e-05
-8.550553e-05 2.0772224e-05 6.4609914e-05 7.236176e-07 -0.00010065313 -0.00017407537 -0.000120068056 -2.2151453e-05
-6.467555e-05 2.2811384e-05 -2.8035844e-05 3.534001e-05 -2.4010495e-05 -0.00013949431 -0.00023233592 3.6012025e-05
5.9989838e-05 -1.3466461e-05 -0.00020337019 2.5516829e-05 3.292069e-05 1.6768034e-05 -4.8688435e-05 0.00010165672
5.8228627e-05 -8.737431e-05 -8.872826e-06 6.644016e-05 -2.0921463e-05 0.00011856653 -0.00014978813 -3.8642875e-06
8.094099e-05 2.537678e-05 3.65256e-05 1.9938387e-05 -9.868916e-05 -5.2378287e-05 -3.6647594e-05 -0.00010587603
0.00010697353 -7.761143e-05 -8.23944e-05 -5.635804e-05 -2.9031691e-05 0.000114655275 -2.3318044e-05 -8.389738e-06
-0.00016742466 -0.00012776941 -2.7691922e-05 -2.8659873e-05 -7.027407e-05 1.26363575e-05 2.9520197e-05 -0.00012242909
-6.245553e-05 -9.165119e-05 -0.00016663538 -0.0003023679 1.9878118e-05 7.196355e-05 -9.737977e-05 3.991247e-05
-6.082496e-05 -2.6379643e-05 1.35961545e-05 0.00015376821 -6.205748e-05 -0.00013131506 -0.00037725302 -8.71065e-05
3.7183545e-05 -0.00022771633 -6.907187e-05 -0.00013977263 -3.0056457e-05 5.670165e-05 1.950982e-05 -2.962423e-05
2.5133011e-05 -0.00016644818 6.422085e-05 -0.00012020081 3.6735542e-05 9.833722e-06 8.242907e-05 0.00021587372
-1.849116e-05 -8.8577886e-05 -5.6404515e-05 0.00014542796 4.8484897e-05 -0.00013500989 -5.4902714e-05 5.8550733e-05
-3.4890556e-05 -4.6455407e-05 1.4936856e-05 -0.0001200677 6.219544e-05 -0.00012796807 -0.000321585 -4.85651e-05
0.00015948269 -0.000107493135 5.8724152e-05 -1.5580843e-05 0.00015693287 9.079801e-05 8.403012e-05 0.00041967572
-5.560671e-05 -2.1055279e-05 4.576871e-05 -2.6158163e-05 0.00016225535 7.976873e-05 4.973581e-05 0.00030042906
1.561144e-06 -6.498247e-05 0.00023587102 4.7892805e-05 0.00028533523 2.9559726e-05 4.014858e-05 2.1611471e-05
2.883071e-05 8.445536e-05 -2.0191614e-05 -4.1613483e-05 1.2985201e-05 0.00031194574 9.8420554e-05 3.0247566e-06
1.1634249e-05 4.747069e-05 2.4986035e-05 -7.584988e-05 2.3805403e-06 7.650092e-05 0.00015501986 0.00011847251
-4.2117892e-05 -4.085913e-06 0.00039231818 -5.69702e-05 -4.3820615e-05 5.0246923e-05 0.0001030611 3.81791e-05
-8.145172e-05 1.9752148e-05 4.34981e-05 -8.87544e-05 0.000120144105 -0.0001489889 0.00028017253 0.00017177274
-5.9286365e-05 9.463943e-05 -2.7357177e-05 0.00012165381 8.9773726e-05 0.00036849867 -4.080294e-05 6.967301e-05
-0.00011602971 0.00013004156 0.00024367833 4.7671696e-05 9.658015e-06 4.7378424e-05 6.0915776e-05 -1.87355e-05
0.00016336924 0.000113397546 9.750177e-05 3.486619e-05 0.00011775002 -4.854755e-05 3.490508e-05 0.00017415815
5.8339745e-05 0.00012156278 0.00014610881 0.00033102694 7.665187e-05 1.1548021e-05 0.00027349676 0.00014325917
9.114876e-05 -1.19960305e-05 -9.0471905e-05 -0.00013709119 0.00028805557 6.1917395e-05 0.0005903122 1.9128805e-05
2.2476212e-05 0.00025727143 6.3976963e-06 0.0001311873 5.8362068e-05 8.466745e-05 -5.2923668e-05 8.390353e-05
-4.0897175e-05 0.00015522348 -0.00015872494 1.5585192e-05 -3.109514e-05 -2.1432486e-05 -8.0375394e-05 -8.4956904e-05
-4.273323e-05 9.786131e-05 9.575455e-05 3.2569103e-05 -5.005192e-05 0.00015533504 2.6118854e-05 -4.271425e-05
-6.281674e-05 3.6165522e-05 2.7050037e-05 0.00019041558 -1.7337823e-05 8.416744e-05 0.0005307938 0.00028777157
