results/ppo/OpponentAI/checkpoint.pt (torch, 720479 bytes, 30 tensors)

network_body._body_endoder.seq_layers.0.weight f4 [128, 98]
0	0x3c0de074	0.008659471
1	0x3d7c0612	0.061529227
2	0x3e26791f	0.16257142
3	0x3db848eb	0.08998283
4	0x3df4b0d1	0.119477876
5	0xbd85228f	-0.06500732
6	0x3a4cf47b	0.0007818413
7	0x3d929beb	0.07158645
8	0x3e833671	0.25627473
9	0x3756f521	1.28124675e-05
10	0x3ceba8ce	0.028767016
11	0xbd955abc	-0.07292697
12	0x3dc7fdf6	0.09765236
13	0xbe0f654e	-0.14003488
14	0x3d3786b8	0.044806212
15	0xbcb0e833	-0.021595096
16	0xbd4ffbd4	-0.05077727
17	0x3c0d00a7	0.008606113
18	0x3d04e497	0.032444563
19	0xbe97a243	-0.29615983
20	0xbcd70830	-0.026249021
21	0x3de6584b	0.11247309
22	0xbcad69f5	-0.021168688
23	0xbd2f7635	-0.04283734
24	0x3dfb141c	0.12259695
25	0x3b9b826a	0.004745771
26	0x3b92e929	0.0044833613
27	0x3d432931	0.047646705
28	0xbe0547bb	-0.13015644
29	0x3dc289c7	0.09498935
30	0xbdc119c5	-0.09428743
31	0xbd387baa	-0.04503981
32	0xbce8ea60	-0.028432071
33	0xbd318303	-0.043337833
34	0xbeb001ad	-0.3437628
35	0xbe3b3890	-0.18283296
36	0xbc093d0e	-0.008376373
37	0xbd0b381e	-0.033989064
38	0xbd960c63	-0.07326581
39	0x3d3e7288	0.046495944
40	0x3dd924cd	0.10602722
41	0xbc18c379	-0.009323948
42	0xbdcd3a08	-0.10020834
43	0x3cca98c7	0.024731053
44	0x3e3c42b5	0.18384822
45	0xbd4a6633	-0.04941387
46	0x3d0f2505	0.034947414
47	0x3db6d1a9	0.08926708
48	0x3c0e8e7f	0.008700966
49	0x3da9dbc6	0.082938716
50	0xbd75dfd0	-0.060027897
51	0x3de3fe25	0.111324586
52	0x3d4bfd14	0.0498019
53	0xbd66daf7	-0.056361165
54	0xbe316420	-0.17323351
55	0x3db41b44	0.08794263
56	0x3d9088ad	0.07057319
57	0xbe27ee28	-0.16399443
58	0x3d157515	0.03648861
59	0x3dd49cdd	0.10381482
60	0xbd1ff8f4	-0.03905578
61	0xbe0ac050	-0.13549924
62	0xbbe2f5b8	-0.0069262646
63	0xbe758c4d	-0.23979302
64	0xbe2211fa	-0.1582717
65	0x3d0ab1e2	0.03386105
66	0x3dd4ce83	0.103909515
67	0x3e5f9a7b	0.21836273
68	0xbe378b96	-0.17924342
69	0xbdfdf461	-0.12400127
70	0xbc12bfeb	-0.00895689
71	0xbdf38ccf	-0.118920915
72	0x3ced26ac	0.028949104
73	0xbd12827d	-0.035768975
74	0x3d347ad1	0.04406244
75	0xbd90b6f8	-0.070661485
76	0xbcd74746	-0.026279103
77	0xbe44c1d0	-0.19214559
78	0x3e00c35b	0.12574522
79	0xbdc0cc40	-0.094139576
80	0x3ddbe0b3	0.10736217
81	0xbde7e14b	-0.11322268
82	0xbe1fa9e3	-0.1559215
83	0xbe3c119c	-0.18366092
84	0x3e721fc2	0.23644927
85	0x3dc28ca7	0.094994836
86	0x3e100f2a	0.14068285
87	0x3d1d2073	0.038361024
88	0xbdcadbcc	-0.09905204
89	0xbe2b3adc	-0.16721672
90	0x3c4484c4	0.011994544
91	0xbd56ae8a	-0.052412547
92	0xbd654a58	-0.055979103
93	0x3cd90b65	0.026494691
94	0xbeb8a10d	-0.36060372
95	0xbd935fb7	-0.071959905
96	0x3dbc31aa	0.0918916
97	0x3b1ac75f	0.002361737
98	0x3dd1fe69	0.10253603
99	0xbdaae923	-0.083452486
100	0x3e41b2b1	0.18915822
101	0xbe102751	-0.14077498
102	0xbd7b7ad6	-0.061396442
103	0xbe063ea7	-0.13109837
104	0xbe06d5fb	-0.13167565
105	0x3ccbd8be	0.024883624
106	0xbe15adf1	-0.14617135
107	0x3dd3c2b9	0.10339875
108	0x3d67dfe3	0.05661
109	0x3e357f54	0.17724353
110	0x3dcb34a7	0.09922152
111	0xbd947737	-0.07249301
112	0x3c777dd5	0.015105684
113	0x3d0072e5	0.031359572
114	0xbd9085ab	-0.07056745
115	0xbd8bcbbb	-0.06825968
116	0x3d27f13f	0.041001555
117	0x3d9acd4e	0.0755869
118	0x3dabfc00	0.083976746
119	0xbe189358	-0.14899957
120	0xbe945a58	-0.28975177
121	0xbd7d5a32	-0.061853595
122	0x3d9639fb	0.07335278
123	0xbd7f09c8	-0.062265188
124	0xbcbe8bd5	-0.023260036
125	0xbe317cad	-0.17332716
126	0x3e26ea9d	0.16300435
127	0x3d538b1e	0.051646344
128	0xbd9ac957	-0.07557934
129	0x3d9e05f6	0.07715981
130	0x3d1b66e7	0.037939932
131	0x3df8924a	0.121372774
132	0xbd04a6b7	-0.032385554
133	0xbd0f7edf	-0.035033103
134	0xbd192f27	-0.037398484
135	0xbd7cf5b1	-0.061757747
136	0xbd131633	-0.035909843
137	0x3d7e39be	0.062066786
138	0xbc8e3001	-0.017356874
139	0xbe0ba881	-0.13638498
140	0xbe3d653a	-0.18495646
141	0xbb9177dc	-0.004439337
142	0x3c043875	0.008070101
143	0xbdbc8075	-0.09204189
144	0xbd81a32c	-0.06329951
145	0x3d3bc982	0.04584647
146	0xbdf9197f	-0.12163066
147	0xbda232cd	-0.07919846
148	0x3d5f2831	0.05448169
149	0x3d4da8e6	0.050209902
150	0xbe012b7c	-0.12614244
151	0xbc68e2e5	-0.014214252
152	0xbe19d899	-0.15024032
153	0xbe57cf3d	-0.21075149
154	0x3c603f6e	0.013686998
155	0xbd20ae95	-0.039228994
156	0x3e05fdd4	0.13085109
157	0x3b141542	0.0022595678
158	0xbe26b403	-0.16279607
159	0xbe03707c	-0.12835878
160	0xbbad367c	-0.005286036
161	0xbd7eb0eb	-0.06218044
162	0xbe2cb52f	-0.16865991
163	0xbe7362e0	-0.23768187
164	0x3ccb5690	0.02482155
165	0x3db86abd	0.09004734
166	0x3df0d075	0.1175851
167	0x3d8b3c73	0.06798639
168	0x3d63853f	0.055546995
169	0x3db490d6	0.08816688
170	0xbc827d18	-0.01592879
171	0xba7298ae	-0.00092543184
172	0x3aeebce1	0.0018214249
173	0x3dabbd2e	0.083856925
174	0xbccab0dc	-0.024742536
175	0x3dbd3e80	0.092404366
176	0x3d0ccafe	0.034373276
177	0xbbb73a9c	-0.0055917036
178	0xbd8abca4	-0.067742616
179	0xbdacbb08	-0.08434111
180	0x3ddca924	0.107744485
181	0xbba2c785	-0.0049676322
182	0x3c00d277	0.007862679
183	0x3debc674	0.11512461
184	0x3e82d427	0.25552484
185	0x3e23a5b8	0.15981185
186	0x3c901742	0.017589215
187	0xbe060656	-0.13088354
188	0xbdd4e464	-0.103951246
189	0x3d40f81f	0.047111627
190	0x3e37cb37	0.17948614
191	0x3d8ea055	0.06964175
192	0xbd20a884	-0.03922321
193	0x3e1c89b6	0.15286908
194	0x3c40e9a9	0.011774459
195	0x3e0fdb1d	0.14048429
196	0x3e308bb0	0.17240787
197	0x3e01f2c6	0.12690267
198	0x3db96923	0.09053256
199	0x3e0a9542	0.135335
200	0xbe2ddb8f	-0.16978286
201	0x3d80739c	0.06272051
202	0xbdf00a60	-0.11720729
203	0xbe55329a	-0.20820084
204	0x3ddc1262	0.10745694
205	0x3e609e34	0.2193535
206	0xbd915c61	-0.07097698
207	0xbda87c15	-0.08226792
208	0x3e216b19	0.15763511
209	0x3bb62192	0.005558201
210	0xbe46973a	-0.19393626
211	0xbd8e95e1	-0.06962181
212	0xbdeb0dce	-0.114772424
213	0x3e2dc718	0.1697048
214	0x3d8041af	0.06262528
215	0x3e9948df	0.2993841
216	0x3dea79b5	0.11448995
217	0xbe09a7b7	-0.13442884
218	0xbcd337fe	-0.025783535
219	0x3c7d99bb	0.015478547
220	0x3d81a9f0	0.06331241
221	0xbda9ad9f	-0.08285069
222	0x3d893926	0.06700353
223	0x3cd42953	0.025898611
224	0x3deff5eb	0.11716827
225	0xbe28beab	-0.16478984
226	0x39e0d9f8	0.0004288701
227	0xbcb45718	-0.022014186
228	0x3ea1e131	0.3161712
229	0xbcae41de	-0.021271642
230	0x3ddd8646	0.10816626
231	0xbe2b753b	-0.16743939
232	0xbdd69659	-0.10477895
233	0xbd117a9c	-0.03551732
234	0x3e327986	0.1742917
235	0xbdbf0cd3	-0.09328618
236	0x3e1d6d9f	0.15373848
237	0xbd662a01	-0.0561924
238	0x3dd08e5a	0.101834014
239	0xbd1dabf6	-0.038494073
240	0xbcfda5ac	-0.030962788
241	0xbdcfc255	-0.10144488
242	0x3ddb8619	0.107189365
243	0xbdd94536	-0.10608904
244	0xbd8ae893	-0.06782641
245	0xbd2e2dad	-0.04252403
246	0xbc0778ff	-0.008268594
247	0x3e0e9663	0.13924555
248	0x3db0843d	0.086189725
249	0x3ac6d480	0.0015169531
250	0xbe674900	-0.22586441
251	0xbcbd7604	-0.023127563
252	0xbd858e07	-0.0652123
253	0x3d697682	0.056997783
254	0x3ca5b00c	0.020225547
255	0xbc24da00	-0.010061741

network_body._body_endoder.seq_layers.0.bias f4 [128]
0	0xbbfc0f19	-0.0076922295
1	0xbcba8310	-0.022767574
2	0x3c0fa2c8	0.008766837
3	0xbbc356b2	-0.0059612626
4	0x3cb4f653	0.022090113
5	0x3c9cef47	0.019157065
6	0xbd19b0d9	-0.03752217
7	0x38092f13	3.2707187e-05
8	0x3c38ea27	0.011286295
9	0x3cf529f8	0.029927239
10	0xbc0bc99e	-0.008531956
11	0xbb3cdf55	-0.002881964
12	0x3d202d1a	0.039105512
13	0xbd4f7e9c	-0.050657853
14	0xbc3159e0	-0.0108246505
15	0x3a774dd8	0.0009433902
16	0x3cc3e5a8	0.02391322
17	0xb9011b33	-0.00012312531
18	0x3c769a2e	0.015051408
19	0x3ab3fec5	0.0013732543
20	0xbc88ce39	-0.016699897
21	0x3b479f5f	0.0030459983
22	0x3c1e8411	0.009675042
23	0xbc2e8c9c	-0.010653641
24	0x3ce6c957	0.028172178
25	0x3c80d8d0	0.015728384
26	0x3bc7e2fd	0.006100057
27	0x3d0c791a	0.03429518
28	0x3cb3a1da	0.021927763
29	0x3c68ecb8	0.014216594
30	0x3c206a92	0.009791033
31	0x3d778081	0.060425285
32	0x3d1a4229	0.03766075
33	0x3b8b0862	0.0042429427
34	0x3d1d12d1	0.038348023
35	0x3ce638db	0.028103283
36	0xbb662c1f	-0.0035121513
37	0xbcbca47b	-0.02302765
38	0x3a03fba1	0.0005034749
39	0xbad65fea	-0.0016355489
40	0x3c5d71d3	0.013515907
41	0x3b205a1d	0.0024467774
42	0x3cde57be	0.027141448
43	0x3aa5fd75	0.0012664037
44	0x3d0c812e	0.034302883
45	0xbc9a2d0e	-0.018820312
46	0xbbc17158	-0.005903404
47	0x3bdd3a7b	0.006751356
48	0x3ce17b89	0.027524726
49	0xbb3481ef	-0.0027543267
50	0x3a0ad589	0.00052961014
51	0x3c90966a	0.017649848
52	0x3c3c98db	0.011511053
53	0x3b6a98e2	0.0035796692
54	0xbca9e41b	-0.020738652
55	0x3cae28a6	0.021259617
56	0x3d27205f	0.040802356
57	0xbc5426fc	-0.012948748
58	0x3cca648b	0.024706146
59	0xbbaf07d7	-0.0053415108
60	0xbc7160aa	-0.014732519
61	0xbcaafe81	-0.02087331
62	0x3d10ab29	0.03531948
63	0xbc108b61	-0.008822293
64	0x3d562086	0.05227711
65	0x3cc437a8	0.02395232
66	0x3d1a4b7c	0.037669644
67	0xbc9b1118	-0.01892905
68	0x3bc6d470	0.006067805
69	0x3c51ffb6	0.012817314
70	0x3cac9dcb	0.021071335
71	0x3cb8c620	0.02255541
72	0xbc98add0	-0.018637568
73	0x3ba54698	0.005043816
74	0x3bc20fb5	0.0059222826
75	0x3cdcf5d0	0.026972681
76	0x3c47a383	0.01218498
77	0x3c5da50e	0.013528122
78	0x3cda9abe	0.026685115
79	0x3cbddc16	0.023176234
80	0x3c089fed	0.0083389105
81	0xbb440f76	-0.0029916442
82	0xbc5e60c5	-0.013572876
83	0x3c9c8d50	0.019110352
84	0x3d2a4d26	0.04157748
85	0x3cd02af3	0.025411105
86	0x3caacd44	0.020849831
87	0x3d00fecf	0.031493004
88	0xbcbd0f6c	-0.023078643
89	0xbc9b93e3	-0.018991416
90	0x3cbb54a8	0.022867516
91	0x3c4d7fd5	0.012542685
92	0xbd171d9d	-0.036893476
93	0x3b7157f4	0.0036826106
94	0x3ce91ca4	0.02845604
95	0x3cdf3f06	0.027251732
96	0x3d15f108	0.03660682
97	0x3ceffe06	0.029295933
98	0xbd302e8e	-0.043013148
99	0x3b643153	0.0034819439
100	0xbbadb5fc	-0.0053012352
101	0x3c2776d7	0.010221205
102	0x3c7fb5e6	0.015607333
103	0x3d30069a	0.042975046
104	0x3be497d3	0.0069761067
105	0x3d1fd44c	0.03902082
106	0x3c2a548e	0.010396136
107	0x3cdc6cbe	0.026907321
108	0x3d531c89	0.051540885
109	0x3d6cc643	0.057806265
110	0x3c6aa753	0.01432212
111	0xbcf1f02e	-0.029533472
112	0xbc71e79a	-0.014764691
113	0xbcc1b075	-0.023643712
114	0x3c98cd93	0.018652713
115	0x3b354221	0.0027657824
116	0x3cb3b3ad	0.021936262
117	0x3c7a47c8	0.015275903
118	0x3d42f8b1	0.04760045
119	0x3be898c9	0.0070982915
120	0x3dbee701	0.09321404
121	0x3d01c7fa	0.031684853
122	0x3c9a3899	0.018825816
123	0x3c8c6c79	0.017141568
124	0x3c4a95a1	0.012364776
125	0x3c9b608a	0.018966932
126	0x3c21afdc	0.009868588
127	0x3c3aeb95	0.011408706

network_body._body_endoder.seq_layers.2.weight f4 [128, 128]
0	0xbe860776	-0.26177567
1	0x3d5c534f	0.053790387
2	0xbcab6e0e	-0.020926502
3	0xbd4034f2	-0.046925493
4	0x3e335021	0.17511036
5	0xbe761097	-0.24029766
6	0xbe939a41	-0.28828624
7	0xbb559d29	-0.0032594895
8	0xbdffc234	-0.12488213
9	0xbe489ef5	-0.19591887
10	0xbdb26d5a	-0.087122634
11	0xbc0fcb2e	-0.008776469
12	0x3e0dda32	0.13852766
13	0x3aa60964	0.0012667594
14	0x3d9ebe4d	0.07751141
15	0xbe608155	-0.21924336
16	0x3dca4ce5	0.09877948
17	0x3c882886	0.016620886
18	0x3d262b43	0.0405686
19	0xb8fee24b	-0.00012153814
20	0xbdea2153	-0.11432137
21	0xbd78ea60	-0.060770392
22	0xbc783557	-0.015149436
23	0xbd07f140	-0.03318906
24	0x3d179738	0.037009448
25	0x3da3ce36	0.07998316
26	0x3cca3faf	0.02468857
27	0xbddaa083	-0.106751464
28	0xbcd49c6c	-0.025953494
29	0x3cf22bdb	0.029561928
30	0xbdc31845	-0.095261134
31	0xbc189863	-0.009313676
32	0xbe0735fe	-0.1320419
33	0x3e40d6ae	0.18831894
34	0xbd7b0ccb	-0.061291497
35	0xbdea4f0f	-0.114408605
36	0xbd8aa9d8	-0.067706764
37	0xbd669329	-0.056292687
38	0x3def2502	0.116769806
39	0x3c94467e	0.01810002
40	0x3e11f8c5	0.14255054
41	0x3d9aee60	0.07564998
42	0x3e387413	0.18013029
43	0xbce176ce	-0.02752247
44	0x3e3dddf5	0.18541701
45	0x3c98226b	0.0185711
46	0x3d76d850	0.060264885
47	0xbe141ef4	-0.14464933
48	0x3e313dab	0.1730868
49	0x3e49fe4e	0.19725916
50	0xbdcf710a	-0.10128982
51	0x3d00a875	0.031410653
52	0xbd6d30b8	-0.05790779
53	0xbd0c4be9	-0.03425208
54	0xbc9a2855	-0.01881806
55	0xbce8158b	-0.028330585
56	0x3e097114	0.13422042
57	0x3d67496e	0.056466512
58	0xbe76b42f	-0.24092172
59	0xbd0edf7b	-0.034881096
60	0xbbaad589	-0.0052134437
61	0x3dab2164	0.08355978
62	0x3c8828fd	0.016621107
63	0x3ac4ab1f	0.0015004611
64	0xbcaef643	-0.021357661
65	0x3bd8f8c8	0.006621454
66	0xbda10b4d	-0.078634836
67	0xbcead44d	-0.028665686
68	0x3d51a6cb	0.051184457
69	0x3d6d699c	0.057962045
70	0xbd313714	-0.043265417
71	0x3c498746	0.012300318
72	0x3d522d83	0.051312935
73	0xbe28bb01	-0.16477586
74	0x3d3b3a38	0.04570982
75	0xba5a917a	-0.0008337718
76	0x3d9ff7ab	0.07810911
77	0xbd842f1a	-0.064542964
78	0xbdc194ff	-0.09452247
79	0x3d941722	0.07230975
80	0xbbfb5395	-0.007669876
81	0xbe00558b	-0.12532632
82	0x3d88af37	0.066740446
83	0x3de61259	0.11233968
84	0x3e4999b1	0.19687535
85	0x3da63c1e	0.08116935
86	0x3e0c64de	0.13710353
87	0xbc90b1e5	-0.017662952
88	0x3c9ebef3	0.019378161
89	0xbd2848ac	-0.04108493
90	0x3d93ef23	0.07223346
91	0xbe79359d	-0.24336858
92	0x3b76af57	0.0037641132
93	0xbc93ac4b	-0.018026492
94	0x3c6402f8	0.013916723
95	0xbd3fe51d	-0.04684936
96	0x3d6be3da	0.057590343
97	0xbe2fe3b4	-0.17176706
98	0xbd46d54c	-0.04854326
99	0x3d68837e	0.056766026
100	0xbe126540	-0.14296436
101	0xbd9459f3	-0.07243719
102	0x3d3d2b2f	0.04618376
103	0x3e0941d7	0.13404022
104	0x3d83814c	0.06421146
105	0x3d1d3e76	0.038389646
106	0x3b872deb	0.004125347
107	0xbe44b5e3	-0.1921001
108	0x3dda81fd	0.106693245
109	0xbde832de	-0.11337827
110	0xbdf882dc	-0.121343344
111	0x3e57b2dc	0.21064323
112	0xbc8b141b	-0.01697736
113	0x3e6d6c30	0.23185802
114	0x3e26060e	0.16213247
115	0xbd19a6ea	-0.037512697
116	0x3d922481	0.07135869
117	0xbd39d322	-0.045367368
118	0xbcc09d31	-0.023512455
119	0x3e0983f5	0.13429244
120	0x3c2a5d9b	0.010398294
121	0xbdc4f300	-0.09616661
122	0x3e1decde	0.15422389
123	0x3e1bc4d9	0.1521181
124	0x3e06639e	0.13123938
125	0x3cbb5b17	0.022870583
126	0xbe587a7f	-0.21140479
127	0xbb875689	-0.004130189
128	0xbe2a1573	-0.16609745
129	0x3de9eabf	0.114217274
130	0xbd97a69d	-0.07404826
131	0x3d807b9d	0.06273577
132	0x3c365c29	0.011130371
133	0xbe165b51	-0.14683272
134	0xbdc8982f	-0.09794652
135	0x3daf02a6	0.08545427
136	0x3d7a8e2f	0.061170753
137	0xbe04e06d	-0.12976237
138	0x3dac0556	0.08399455
139	0xbd4c1897	-0.04982814
140	0x3d21c385	0.039493103
141	0xbda9932f	-0.08280026
142	0xbd29462b	-0.041326683
143	0xbd903ed2	-0.07043232
144	0x3e122e2b	0.14275424
145	0x3e1164bc	0.14198583
146	0x3dfdeb70	0.12398422
147	0x3dbc6bfc	0.09200284
148	0xbe229fa4	-0.1588121
149	0x3d438acf	0.0477398
150	0x3dd3f7a2	0.103499666
151	0xbdb86293	-0.090031765
152	0xbbdfb1a9	-0.0068265987
153	0x3e07184d	0.13192864
154	0x3d92227f	0.07135486
155	0x3cb80480	0.022463083
156	0xbde9beec	-0.114133686
157	0xbd150574	-0.036382154
158	0xbe75d7b9	-0.24008073
159	0x3e297f63	0.165525
160	0xbddcd625	-0.10783032
161	0x3da812d8	0.08206719
162	0xbce94790	-0.028476506
163	0xbdb93b84	-0.09044555
164	0x3e022503	0.12709431
165	0xbe138f27	-0.14410077
166	0x3ce96106	0.028488647
167	0x3d8868c2	0.06660606
168	0xbd231cef	-0.039822515
169	0xbd249225	-0.040178437
170	0x3e768cd6	0.24077162
171	0xbd945c3f	-0.07244157
172	0x3e91fe61	0.28514388
173	0xbce4840f	-0.027895002
174	0xbc272437	-0.010201505
175	0xbb2f3233	-0.0026732802
176	0x3e2ba84c	0.16763419
177	0xbdcadfe6	-0.099059865
178	0x3c862d8b	0.016379138
179	0x3e1eb932	0.15500334
180	0xbe20b761	-0.15694954
181	0x3a5ad5c1	0.0008347892
182	0xbe4249b7	-0.18973432
183	0x3d0f62da	0.03500638
184	0x3e494c38	0.19657981
185	0x3dca2144	0.09869626
186	0xbd873cd7	-0.06603401
187	0x3dd08ae5	0.10182742
188	0x3ce057b5	0.027385572
189	0xbdcf6025	-0.1012576
190	0xbde5cd67	-0.11220818
191	0xbd8ccd7b	-0.0687513
192	0xbdd63319	-0.10458965
193	0xbd71361c	-0.058889493
194	0xbe478167	-0.19482957
195	0xbe15fc4f	-0.1464703
196	0xbe354a86	-0.1770421
197	0x3dafd5d2	0.08585705
198	0xbd2c07b5	-0.041999537
199	0x3da486a7	0.080334954
200	0xbd1e640f	-0.038669642
201	0xbda4ed9c	-0.08053133
202	0xbcdcb513	-0.026941812
203	0xbd8f19d1	-0.06987346
204	0x3e3ba8c4	0.18326098
205	0x3a46045e	0.00075537513
206	0xbd1dce44	-0.03852679
207	0x3e4078c4	0.18796068
208	0xbd8c9747	-0.06864791
209	0xbc8bec24	-0.017080374
210	0x3d0cd528	0.03438297
211	0x3e2ab40c	0.16670245
212	0x3e9a3a1b	0.30122456
213	0xbdd56a3e	-0.10420655
214	0xbd3dd6a7	-0.046347287
215	0x3cddf5d9	0.027094768
216	0xbd3f3f94	-0.046691492
217	0x3d828727	0.063734345
218	0xbcc76bb9	-0.024343358
219	0xbdb4dad6	-0.08830802
220	0x3d6ca638	0.057775706
221	0xbe058ba2	-0.13041547
222	0x3e2f7452	0.17134216
223	0xbe3a2776	-0.18179116
224	0x3da4e6ee	0.08051859
225	0xbe2f3cc6	-0.17113027
226	0x3c90bb9b	0.017667582
227	0xbdbbc9d3	-0.09169354
228	0x3d6842b6	0.056704246
229	0xbcdaf991	-0.02673033
230	0xbe4c2647	-0.19936477
231	0x3d476507	0.04868033
232	0x3a417281	0.0007379428
233	0x3e5470a3	0.20746092
234	0x3d8f85de	0.07007955
235	0xbe263c16	-0.16233858
236	0x3cc486d2	0.023990069
237	0xbddfe4f9	-0.10932345
238	0xbd8987ec	-0.06715378
239	0xbda53630	-0.08066976
240	0x3dbbf6e1	0.09177948
241	0xbd9e1124	-0.07718113
242	0x3e43ea9a	0.19132462
243	0x3bf6486c	0.0075159576
244	0x3cd22379	0.02565168
245	0x3d0273a1	0.031848554
246	0x3dd7aeee	0.10531412
247	0x3d1204a2	0.03564895
248	0xbe694344	-0.22779566
249	0x3e014fac	0.12628049
250	0x3d8a53e1	0.0675428
251	0x3d1bf78c	0.038077876
252	0x3dd320b0	0.10308969
253	0x3d9a0f18	0.0752241
254	0xbdcfb397	-0.10141676
255	0xbe4e5856	-0.20150885

network_body._body_endoder.seq_layers.2.bias f4 [128]
0	0x3cdf2e1b	0.027243664
1	0x3d2be10e	0.041962676
2	0xbad10cdd	-0.0015949268
3	0x3b67347d	0.0035279088
4	0x3917ba6b	0.00014469928
5	0x3d1768c2	0.03696514
6	0x3c884135	0.016632656
7	0x3c8b43c6	0.01700009
8	0x3b78146c	0.003785397
9	0x3c7a2c7a	0.015269393
10	0x3c289ed9	0.0102917785
11	0x3c8c1d1e	0.017103728
12	0x3cb9ffed	0.022705043
13	0x3c325ee4	0.0108868815
14	0x3d2991aa	0.04139868
15	0x3c2e52c0	0.010639846
16	0x3cba994a	0.022778172
17	0x3b91b0e0	0.004446134
18	0x3c8c16cd	0.017100716
19	0x3c3577d6	0.011075934
20	0x3c284c20	0.010272056
21	0x3cf24fd3	0.029579079
22	0x3cc85ccb	0.02445831
23	0x3c19e287	0.009392387
24	0xbbb5e516	-0.005550991
25	0x3d001895	0.031273443
26	0x3cb45606	0.022013675
27	0x3c4a0980	0.012331367
28	0x3c84381d	0.016140038
29	0x3d1e4750	0.038642228
30	0x3c3d4910	0.011553064
31	0x3ca69364	0.020333953
32	0x3cea8ba4	0.028631039
33	0x3bc5aca3	0.006032543
34	0x3cb6c9be	0.022312995
35	0x3cb66256	0.022263687
36	0xb920e89c	-0.00015345443
37	0x3d1e96bb	0.038717967
38	0x3d2db79f	0.042411443
39	0x3c3d233e	0.011544047
40	0x3c989bfb	0.018629065
41	0x3d2e4b91	0.042552534
42	0x3cce2f01	0.025168898
43	0x3c9e144a	0.019296784
44	0x3cbdb291	0.023156436
45	0x3c9c3bbd	0.019071454
46	0x3d011020	0.03150952
47	0x3c7ff19a	0.015621567
48	0x3ce47e24	0.02789218
49	0x3c62f9e0	0.01385352
50	0x3ce706f4	0.028201558
51	0x3cabd7af	0.02097687
52	0x3ca2b622	0.019862238
53	0x3c1e2fff	0.009654998
54	0x3cdef7eb	0.027217826
55	0x3ca90f2f	0.020637123
56	0x3c552d71	0.013011322
57	0x3ccbe3cf	0.024888901
58	0x3b6586d1	0.0035022984
59	0x3c666ccf	0.014064028
60	0x3cdb0379	0.026735054
61	0x3cce7b29	0.025205212
62	0x3cf59cc4	0.029981978
63	0xbc1ac5f3	-0.009446609
64	0x3d0fdd39	0.035123084
65	0x3be670e1	0.007032499
66	0x3ce13ee3	0.027495807
67	0x3bf89b8e	0.007586903
68	0x3c91896d	0.017765725
69	0x3d16cc41	0.036815885
70	0x3ca4bd1c	0.020109706
71	0x3c19cc7d	0.009387133
72	0xbba011da	-0.0048849406
73	0x3cca201e	0.024673518
74	0x3c5750d9	0.013141834
75	0x3cefe57c	0.029284231
76	0x3cad6aab	0.021169027
77	0x3ca36d2f	0.019949524
78	0x3c652aa7	0.01398722
79	0x3c92f49a	0.0179389
80	0x3d14f8d3	0.03637011
81	0x3cbd0c57	0.023077173
82	0x3cb5fd41	0.022215487
83	0x3d213eec	0.039366648
84	0x3c0c3449	0.008557388
85	0x3d418a24	0.04725088
86	0x3b2ae34f	0.0026075428
87	0x3ce1b3c4	0.02755154
88	0x3bde8c71	0.0067916443
89	0x3ce6287e	0.02809548
90	0xb8fb2b04	-0.00011976625
91	0x3cf92e5a	0.03041761
92	0x3ba49f11	0.005023845
93	0x3cdcdc92	0.026960645
94	0x3c05847e	0.008149264
95	0x3b15d948	0.0022865105
96	0x3c739b6d	0.014868599
97	0x3cb337fe	0.021877285
98	0x3cb9e8bf	0.02269399
99	0x3c74779b	0.014921094
100	0x3c42c87d	0.01188862
101	0x3c35a8de	0.011087624
102	0x3cfb05ee	0.030642476
103	0x3caa6294	0.020798959
104	0xbb54f9dd	-0.0032497563
105	0x3c9a10dc	0.018806867
106	0x3cbd3b91	0.023099693
107	0x3b9b32c4	0.0047362763
108	0x3d091d1a	0.03347502
109	0x3c7ba493	0.015359062
110	0x3c195282	0.00935805
111	0x3c3c6078	0.011497609
112	0x3cb492f4	0.022042729
113	0x3c83597b	0.016033879
114	0x3c30452f	0.010758682
115	0x3cb7b605	0.02242566
116	0x3c87ed45	0.016592631
117	0xbb0a6cc8	-0.0021121968
118	0xbb57c145	-0.0032921594
119	0x3d045349	0.03230599
120	0x3c1d88f7	0.0096151745
121	0x3d1975a2	0.0374657
122	0x3b487a55	0.0030590494
123	0x3c94ea7d	0.018178219
124	0x3cf90786	0.030399095
125	0x3c844f5c	0.016151123
126	0x3c812826	0.015766215
127	0x3c1f9c2a	0.009741822

action_model._continuous_distribution.mu.weight f4 [1, 128]
0	0xbdc3700b	-0.09542855
1	0xbe07b17e	-0.13251302
2	0xbd6d8659	-0.057989452
3	0xbd28a847	-0.041176107
4	0x3cac1a0f	0.02100852
5	0xbda13823	-0.07872035
6	0xbd8c3c6f	-0.06847464
7	0x3d85dbb9	0.065360494
8	0xbccf825b	-0.025330713
9	0x3d307034	0.043075755
10	0x3d3d94d8	0.046284527
11	0x3e012e11	0.12615229
12	0xbd273822	-0.040825017
13	0x3dfb498a	0.12269886
14	0x3db353ba	0.08756204
15	0xbd6107af	-0.05493897
16	0x3d968eba	0.07351442
17	0xbcf8d6de	-0.030375894
18	0x3dab4c08	0.08364111
19	0xbd7382aa	-0.059450783
20	0xbd966d87	-0.073451094
21	0xbdceb3b3	-0.10092869
22	0x3da5bef1	0.0809306
23	0x3d87193c	0.0659661
24	0xbce29bf8	-0.027662262
25	0x3e030671	0.12795426
26	0xbd94d4e7	-0.072671704
27	0xbd2a24a3	-0.041538846
28	0xbdcd59bd	-0.10026882
29	0xbddc6211	-0.10760892
30	0xbcd20887	-0.025638832
31	0x3d79e2b4	0.061007217
32	0x3d11b124	0.035569325
33	0xbd15869d	-0.03650533
34	0x3db21e94	0.086972386
35	0x3e0740ee	0.13208362
36	0x3d44719f	0.04795992
37	0x3dcd0b1e	0.10011886
38	0x3d95c561	0.07313038
39	0xbd6808a4	-0.056648865
40	0x3def06b0	0.116711974
41	0xbe022f1e	-0.12713286
42	0x3de83f97	0.11340254
43	0xbd44b739	-0.048026297
44	0xbdc6802b	-0.09692415
45	0xbda6e720	-0.08149552
46	0xbd75bba1	-0.05999339
47	0x3d99323f	0.07480287
48	0x3da3383e	0.07969712
49	0x3b960a54	0.004578868
50	0x3da9ed52	0.082972184
51	0xbd93190f	-0.07182514
52	0x3d38510f	0.04499918
53	0xbd062d89	-0.03275827
54	0x3e133ebb	0.14379399
55	0x3dd475c8	0.103740275
56	0x3e0135d6	0.12618193
57	0x3d92ec9c	0.07174036
58	0x3c580f76	0.01318728
59	0xbd20840c	-0.03918843
60	0xbdb0698c	-0.086138815
61	0xbd96a641	-0.07355929
62	0x3e023c23	0.12718253
63	0xbc00deee	-0.007865651
64	0x3df30099	0.11865348
65	0x3d2a3de6	0.041562937
66	0x3d627701	0.055289272
67	0xbd08527e	-0.033281796
68	0xbdc1a78e	-0.09455787
69	0xbd9d3836	-0.07676737
70	0x3dc68e0a	0.096950606
71	0x3d165b16	0.03670796
72	0xbc73c042	-0.014877381
73	0xbcf5d23d	-0.030007476
74	0xbd3c064d	-0.045904446
75	0xbd75dd75	-0.06002565
76	0x3dabd9bc	0.08391139
77	0x3dac097f	0.08400249
78	0xbdbf22c2	-0.093328014
79	0x3d9995ed	0.07499299
80	0x3daf581d	0.08561728
81	0xbdd88850	-0.105728745
82	0x3db3c7ea	0.08778365
83	0x3d70fdf3	0.058835935
84	0x3d715d8c	0.058927104
85	0x3dd3e99a	0.1034729
86	0x3cf6a8c5	0.030109772
87	0x3dba006f	0.09082114
88	0x3d1321fd	0.035921086
89	0x3dfffc06	0.124992415
90	0x3d0daf79	0.034591172
91	0xbd887571	-0.06663025
92	0x3d0adf6f	0.03390449
93	0xbde15a6e	-0.11003576
94	0xbd11c4d2	-0.035588093
95	0x3db1bec6	0.08678965
96	0x3d545a62	0.05184401
97	0x3de06126	0.109560296
98	0xbd99f6aa	-0.075177506
99	0xbd4fbfec	-0.05072014
100	0x3d2a754f	0.04161578
101	0xbd7f3526	-0.062306546
102	0xbd9f24d6	-0.07770698
103	0x3d1906c0	0.037359953
104	0x3d421f94	0.047393396
105	0x3d4dcd66	0.05024471
106	0xbc621ca3	-0.013800773
107	0x3d4c2355	0.049838383
108	0x3dcbe8a1	0.0995648
109	0xbd6700af	-0.056397136
110	0xbd555370	-0.052081525
111	0x3cae84af	0.021303503
112	0x3da6d315	0.081457295
113	0x3b9b3306	0.004736307
114	0xbd075099	-0.03303585
115	0x3dab287c	0.08357331
116	0xbda829cd	-0.08211098
117	0xbc7132fa	-0.014721626
118	0xb982295e	-0.00024826353
119	0xbd921407	-0.07132726
120	0xbd7a0a61	-0.061045054
121	0xbe02ab5f	-0.12760685
122	0xbccaa984	-0.024739034
123	0x3de18650	0.11011946
124	0xbdb54046	-0.0885015
125	0x3dd1054e	0.1020609
126	0xbd860339	-0.065435834
127	0xbd77e72b	-0.060523193

exp_avg f4 [128, 98]
0	0xb867e4c7	-5.5287757e-05
1	0x380320a3	3.126323e-05
2	0x3801c5b3	3.094012e-05
3	0x00000004	6e-45
4	0x387d03a7	6.0323302e-05
5	0x399f6ae8	0.00030406495
6	0x3a075a47	0.00051632937
7	0x39cbeb5c	0.00038894534
8	0x37dd40cd	2.6375428e-05
9	0xb6c1d3a6	-5.7764873e-06
10	0x13bb9439	4.7351595e-27
11	0x39d89199	0.0004130721
12	0xb98d317d	-0.00026930487
13	0x395bc278	0.00020957913
14	0xb8623430	-5.3931202e-05
15	0x3920b8ae	0.00015327588
16	0x3798435e	1.8151182e-05
17	0x00000000	0.0
18	0x39fa7e06	0.0004777761
19	0xb9370bc5	-0.00017456624
20	0x3781c393	1.546907e-05
21	0xb93aa78d	-0.0001780076
22	0x38772f41	5.8933398e-05
23	0x388a769d	6.602446e-05
24	0x00000004	6e-45
25	0x385aac52	5.2135736e-05
26	0x39e160b7	0.00042987402
27	0x39589242	0.0002065385
28	0xb91761c8	-0.00014436909
29	0x39c37907	0.0003728347
30	0xb38b34e9	-6.482316e-08
31	0x00000000	0.0
32	0x3936bccc	0.00017427205
33	0x378e06c5	1.6930871e-05
34	0x36c6efdf	5.9287845e-06
35	0xb8eedf1d	-0.000113902825
36	0x38952fa4	7.1137474e-05
37	0xb622bbd1	-2.4249205e-06
38	0x00000000	0.0
39	0x39893b75	0.00026174975
40	0x39846545	0.00025252454
41	0x39b35d0b	0.00034210863
42	0xb8f3f549	-0.00011632831
43	0x3868fcd2	5.5548568e-05
44	0x35db7c8d	1.635302e-06
45	0x00000000	0.0
46	0x3a14e4fa	0.0005679872
47	0x39249304	0.00015695026
48	0x3990a2b3	0.0002758704
49	0xb8b2c26d	-8.523916e-05
50	0x389edaf1	7.574808e-05
51	0x39793939	0.00023767808
52	0x00000000	0.0
53	0xb6741d6c	-3.637596e-06
54	0x3935fe3c	0.00017356215
55	0x39ae437d	0.0003323815
56	0xb7c1555c	-2.3047141e-05
57	0xb7199ff9	-9.156757e-06
58	0x3528db26	6.290378e-07
59	0x00000000	0.0
60	0x394ecbc6	0.00019721602
61	0x39d4865b	0.00040535894
62	0x39c9703f	0.00038421337
63	0x393ec83f	0.0001819441
64	0x35ccf376	1.5270041e-06
65	0x36eb850a	7.0190335e-06
66	0x00000004	6e-45
67	0xb8dd5674	-0.00010554204
68	0x39c8c85b	0.0003829625
69	0x3a045a2a	0.0005048836
70	0x394e7c18	0.0001969192
71	0xb9b4b244	-0.00034465094
72	0x35c3ed55	1.4597705e-06
73	0x00000004	6e-45
74	0x39323e7b	0.00016998679
75	0x39f83dee	0.00047348387
76	0x3a23c5c6	0.0006247427
77	0x3971bcd4	0.00023053895
78	0xb82f2271	-4.1755327e-05
79	0x3991350c	0.00027696078
80	0x00000004	6e-45
81	0x3852e1f2	5.027833e-05
82	0xb887dcbf	-6.478419e-05
83	0x398792a8	0.00025858474
84	0xb9545569	-0.00020249713
85	0xb7cf5a30	-2.471832e-05
86	0x33922c49	6.80671e-08
87	0x80000004	-6e-45
88	0x3964b833	0.00021812394
89	0x3a0f62f9	0.0005469765
90	0x3a1bca37	0.0005942913
91	0x391c17e9	0.00014886227
92	0x3761ce27	1.3459044e-05
93	0xb7806b78	-1.5308833e-05
94	0x3999d402	0.00029340392
95	0x35e55dfe	1.7089185e-06
96	0x3afea553	0.0019427933
97	0xb8a1a21a	-7.707272e-05
98	0x37f748c9	2.9478588e-05
99	0x368ff48c	4.290201e-06
100	0xb821a966	-3.8543156e-05
101	0x80000004	-6e-45
102	0xb8436107	-4.6581987e-05
103	0xb8dffaf9	-0.00010680216
104	0xb982cd1b	-0.00024948348
105	0xb8b06a34	-8.412116e-05
106	0xb56497f0	-8.5157717e-07
107	0xb48aa767	-2.5826304e-07
108	0x93528c1f	-2.6574811e-27
109	0xb8ff572a	-0.00012175583
110	0xb88bae52	-6.660506e-05
111	0xb9412895	-0.00018421032
112	0xb70bbba7	-8.328737e-06
113	0xb893ea84	-7.053188e-05
114	0x367191fc	3.5996773e-06
115	0x00000000	0.0
116	0x38258383	3.9461545e-05
117	0xb9382adf	-0.00017563578
118	0xb90f2b45	-0.00013653662
119	0x387a9f3f	5.9752954e-05
120	0xb7462682	-1.18106855e-05
121	0xb7fd235f	-3.0176421e-05
122	0x00000004	6e-45
123	0x34322e26	1.659433e-07
124	0xb9824aa2	-0.00024851138
125	0xb92b0ef9	-0.00016313409
126	0x381d83c7	3.7554444e-05
127	0xb92f81d5	-0.00016737667
128	0xb4a9355b	-3.1517524e-07
129	0x00000000	0.0
130	0xb6c314d9	-5.81388e-06
131	0xb8b9ffe3	-8.86915e-05
132	0xb8ab90b8	-8.1808714e-05
133	0xb8003d86	-3.0574876e-05
134	0x3762d07e	1.3519193e-05
135	0x3772f00b	1.4480213e-05
136	0x00000000	0.0
137	0xb8ec69a9	-0.00011273038
138	0xb9004a95	-0.00012234815
139	0xb964df47	-0.00021826952
140	0x38c95d84	9.6018455e-05
141	0xb8bebc82	-9.095018e-05
142	0xb62e7bcd	-2.6000082e-06
143	0x00000000	0.0
144	0xb9244ac0	-0.00015668105
145	0xb9003bf4	-0.00012229366
146	0xb92885d8	-0.00016071589
147	0xb87d4eaf	-6.039318e-05
148	0x37fc507c	3.007822e-05
149	0xb7e2e272	-2.7046746e-05
150	0x00000000	0.0
151	0xb800c033	-3.0696578e-05
152	0xb9165c93	-0.00014339601
153	0xb9653451	-0.00021858631
154	0x37ad0f0c	2.0630214e-05
155	0x37f6281d	2.9344164e-05
156	0xb5c89a63	-1.4946094e-06
157	0x00000000	0.0
158	0xb8a93aa7	-8.069473e-05
159	0xb970b57f	-0.00022955796
160	0xb98bafd7	-0.00026643157
161	0xb851212b	-4.9860373e-05
162	0xb7cf04e4	-2.46786e-05
163	0xb7718622	-1.439595e-05
164	0x80000004	-6e-45
165	0x382e9a02	4.1628264e-05
166	0xb9484638	-0.00019099645
167	0xb96496fb	-0.00021800019
168	0xb93fabda	-0.00018279199
169	0x3922e301	0.0001553409
170	0xb5376dad	-6.833241e-07
171	0x80000004	-6e-45
172	0x380c6a91	3.347785e-05
173	0xb9896819	-0.00026208235
174	0xb99bd6a8	-0.00029723835
175	0xb877caa8	-5.9078127e-05
176	0xb5c46edd	-1.4635403e-06
177	0xb849b9de	-4.8095237e-05
178	0x80000004	-6e-45
179	0x35d675ca	1.5978524e-06
180	0xb8f909d2	-0.000118750744
181	0xb9651182	-0.00021845664
182	0x38f63e8e	0.00011741846
183	0xb8bad274	-8.908371e-05
184	0xb5aba126	-1.2787393e-06
185	0x00000004	6e-45
186	0xb83cda20	-4.5025838e-05
187	0xb97bda8f	-0.00024018645
188	0xb9822b4b	-0.00024827788
189	0xb81e2935	-3.7708513e-05
190	0x36af82d1	5.2306355e-06
191	0x379382a2	1.7584596e-05
192	0xb9ad92e5	-0.00033106576
193	0x36cd9d5e	6.127796e-06
194	0xba18c21f	-0.0005827266
195	0x380ba8ef	3.3297514e-05
196	0xb9e7acf8	-0.00044188625
197	0xb888d6f8	-6.5250264e-05
198	0xb9382f79	-0.00017565292
199	0x80000004	-6e-45
200	0xb93f228a	-0.00018228046
201	0xba21e9a9	-0.00061764807
202	0xba9f8776	-0.0012171108
203	0x382fde71	4.1930416e-05
204	0x37e456b0	2.7220085e-05
205	0xb92d77dc	-0.00016543217
206	0x14aa7e1f	1.721536e-26
207	0xb958e34d	-0.00020684041
208	0xba9e57bc	-0.001208059
209	0xbaa8e083	-0.0012884293
210	0xb78ad4d8	-1.6549995e-05
211	0xb94915e3	-0.00019177007
212	0xb58cc699	-1.0488612e-06
213	0x00000000	0.0
214	0xba60e792	-0.00085794285
215	0xb9da92fc	-0.00041689712
216	0xba43573d	-0.0007451659
217	0xb933fe08	-0.00017165404
218	0xb43a6934	-1.7360873e-07
219	0xb9916c07	-0.00027737042
220	0x00000004	6e-45
221	0x390c5ede	0.00013386781
222	0xba986b9d	-0.0011628751
223	0xbaa7cd0e	-0.00128022
224	0xb9a74842	-0.00031906558
225	0xb8ba1a8d	-8.8741166e-05
226	0x37a2675d	1.9360037e-05
227	0x00000000	0.0
228	0xba2829f8	-0.0006414945
229	0xb9f4579f	-0.0004660459
230	0xba57fa7c	-0.0008238924
231	0xb9993c60	-0.00029227417
232	0x3919ba89	0.00014660707
233	0xb83f37e4	-4.559e-05
234	0x00000000	0.0
235	0xb8bb24ce	-8.92371e-05
236	0xbaa1e3ee	-0.0012351254
237	0xbabe8f18	-0.0014538495
238	0xb92dfa97	-0.00016591918
239	0xb9a27377	-0.00030985076
240	0xb6e197e4	-6.723205e-06
241	0x00000000	0.0
242	0xba049137	-0.0005057039
243	0xba16d386	-0.00057535653
244	0xba5ed869	-0.00085008756
245	0xb98a1635	-0.00026337957
246	0x38c24294	9.263042e-05
247	0xb9d6ed35	-0.00040993994
248	0x00000000	0.0
249	0xb8526579	-5.0162405e-05
250	0xba520942	-0.0008012244
251	0xba9e0de4	-0.0012058583
252	0xb9409f88	-0.00018369977
253	0xb791bb59	-1.7372588e-05
254	0xb7687920	-1.3856479e-05
255	0x00000000	0.0

exp_avg_sq f4 [128, 98]
0	0x371b6292	9.26167e-06
1	0x34f798f4	4.6118623e-07
2	0x320bcc70	8.137349e-09
3	0x234436b3	1.0636764e-17
4	0x3607c639	2.0231948e-06
5	0x35185140	5.6742647e-07
6	0x36c0f56b	5.7506163e-06
7	0x363b0ee0	2.787383e-06
8	0x3503b142	4.9059247e-07
9	0x32d673b5	2.4965496e-08
10	0x28788017	1.37945406e-14
11	0x364ef79b	3.0840517e-06
12	0x36aa8556	5.081917e-06
13	0x370ff7ce	8.581161e-06
14	0x367ce187	3.76822e-06
15	0x34cb88da	3.791127e-07
16	0x3200cfb6	7.497809e-09
17	0x00000000	0.0
18	0x36e8ce0e	6.9381267e-06
19	0x357d7f88	9.4435427e-07
20	0x369232e2	4.3570626e-06
21	0x34a64feb	3.0978057e-07
22	0x34b38964	3.3441313e-07
23	0x342ab8f5	1.5899771e-07
24	0x24863525	5.820327e-17
25	0x36d3e0df	6.3144685e-06
26	0x36a87a5d	5.021035e-06
27	0x36d748ca	6.415973e-06
28	0x36054aae	1.9862014e-06
29	0x3507fe3e	5.066139e-07
30	0x306196aa	8.206863e-10
31	0x00000000	0.0
32	0x37289876	1.0049078e-05
33	0x341cc65c	1.4600795e-07
34	0x361e37f4	2.3576404e-06
35	0x33c05dc8	8.9577554e-08
36	0x34ccb7e1	3.813175e-07
37	0x3401c7ce	1.208675e-07
38	0x00000000	0.0
39	0x36df302c	6.651526e-06
40	0x36a4dd99	4.9133782e-06
41	0x36c73e6b	5.9379286e-06
42	0x361731b7	2.2529691e-06
43	0x34e748ff	4.3080215e-07
44	0x309ca1cf	1.1396483e-09
45	0x00000000	0.0
46	0x371587d6	8.912719e-06
47	0x350ce3fd	5.248583e-07
48	0x361520c3	2.22218e-06
49	0x33d484d2	9.896179e-08
50	0x34af41fe	3.2644306e-07
51	0x3551cf74	7.816045e-07
52	0x00000000	0.0
53	0x37231129	9.7195525e-06
54	0x35b54f05	1.3508549e-06
55	0x368180fa	3.8595144e-06
56	0x361c56f9	2.3296436e-06
57	0x34a281db	3.0269334e-07
58	0x30ad2256	1.2597166e-09
59	0x00000000	0.0
60	0x36fad8d6	7.4758236e-06
61	0x35ccbac0	1.5253536e-06
62	0x364ca400	3.049383e-06
63	0x34712af9	2.2460507e-07
64	0x34571592	2.0031283e-07
65	0x35ce38c7	1.536472e-06
66	0x2422a0b6	3.5264278e-17
67	0x37192687	9.128481e-06
68	0x359898e4	1.136938e-06
69	0x3646f14e	2.9644757e-06
70	0x35fbc085	1.8756988e-06
71	0x348e77a6	2.6536617e-07
72	0x3083e7cf	9.597388e-10
73	0x1da73386	4.4257806e-21
74	0x36c0cbd0	5.745773e-06
75	0x367103c2	3.5913986e-06
76	0x36a0c602	4.7914227e-06
77	0x34f509d4	4.5641957e-07
78	0x342d5afa	1.6144978e-07
79	0x356605ce	8.5690124e-07
80	0x240ce28f	3.0549563e-17
81	0x3708d56b	8.155922e-06
82	0x35c0b901	1.4358958e-06
83	0x366a9939	3.4957905e-06
84	0x35eb5b0f	1.7535366e-06
85	0x3485f07b	2.4948153e-07
86	0x31365a80	2.653593e-09
87	0x1da33a11	4.320578e-21
88	0x36ab7f49	5.111015e-06
89	0x36941751	4.413458e-06
90	0x36b74a83	5.4624993e-06
91	0x35f9ee5d	1.8621319e-06
92	0x34364e79	1.6978619e-07
93	0x364f130a	3.0856486e-06
94	0x36f31893	7.244825e-06
95	0x34117744	1.3547566e-07
96	0x3a876ff6	0.001033305
97	0x34b5d671	3.3869904e-07
98	0x35832f86	9.774092e-07
99	0x3339d167	4.326412e-08
100	0x3254166a	1.23451205e-08
101	0x242a2e36	3.6902016e-17
102	0x3454b2ab	1.9809038e-07
103	0x346fd2ca	2.2335294e-07
104	0x3576e373	9.1973124e-07
105	0x35157f4f	5.5692084e-07
106	0x332c5e1a	4.0132456e-08
107	0x333573f2	4.2247798e-08
108	0x279e0d31	4.386811e-15
109	0x3490ac1f	2.6947325e-07
110	0x35024c72	4.8540016e-07
111	0x35a359de	1.2170601e-06
112	0x351eddb4	5.918221e-07
113	0x3394378d	6.901892e-08
114	0x30801274	9.31847e-10
115	0x00000000	0.0
116	0x35003e3b	4.7774273e-07
117	0x348aec57	2.5876463e-07
118	0x354360b4	7.278388e-07
119	0x341e26b5	1.4728978e-07
120	0x3389b547	6.412534e-08
121	0x339039b7	6.716021e-08
122	0x28a36b6d	1.8143224e-14
123	0x355faebe	8.3328257e-07
124	0x34bedaf7	3.5549576e-07
125	0x351756fb	5.6378457e-07
126	0x3507ea95	5.063278e-07
127	0x33ee50ae	1.1097414e-07
128	0x2f31fdf8	1.6188284e-10
129	0x00000000	0.0
130	0x3503cf21	4.9102715e-07
131	0x349a79bf	2.8773317e-07
132	0x352001c8	5.9607237e-07
133	0x3419ca4e	1.4322833e-07
134	0x339592cb	6.965055e-08
135	0x339b119a	7.220952e-08
136	0x00000000	0.0
137	0x35759541	9.1486805e-07
138	0x34975a75	2.8191758e-07
139	0x34dea527	4.1470886e-07
140	0x34c9c47a	3.7582123e-07
141	0x340f016a	1.3318427e-07
142	0x300051b4	4.6682236e-10
143	0x00000000	0.0
144	0x350f98a8	5.3493795e-07
145	0x34de3e87	4.1396217e-07
146	0x35244d67	6.1207396e-07
147	0x3405b975	1.2454059e-07
148	0x332a9fcb	3.972654e-08
149	0x339a3f0c	7.182652e-08
150	0x00000000	0.0
151	0x3591bae7	1.0857738e-06
152	0x3443ba78	1.8228627e-07
153	0x34c65feb	3.6950163e-07
154	0x34de2664	4.1378655e-07
155	0x340b1620	1.2953433e-07
156	0x2f695345	2.122081e-10
157	0x00000000	0.0
158	0x34fc55e9	4.7001166e-07
159	0x34f87e6f	4.6285592e-07
160	0x3523cd2b	6.102079e-07
161	0x337cc387	5.8851153e-08
162	0x3256b105	1.2496689e-08
163	0x326fdc24	1.3961685e-08
164	0x2751a2d3	2.9092844e-15
165	0x3591d1df	1.0864422e-06
166	0x34d165e6	3.9003424e-07
167	0x35154236	5.5603175e-07
168	0x34b8b551	3.4404596e-07
169	0x33ccd36d	9.5379484e-08
170	0x2f227471	1.4775182e-10
171	0x1f87e796	5.755785e-20
172	0x35137823	5.493659e-07
173	0x35147821	5.5309107e-07
174	0x3536d091	6.810379e-07
175	0x3322f08a	3.7937333e-08
176	0x325dd174	1.2911517e-08
177	0x32968db6	1.7526741e-08
178	0x274a52a1	2.8077925e-15
179	0x3587e23b	1.0124126e-06
180	0x35050c1b	4.9563977e-07
181	0x3529beb0	6.3234893e-07
182	0x348abe88	2.5843133e-07
183	0x33e03a4c	1.0441417e-07
184	0x3046499d	7.213659e-10
185	0x1fd43db3	8.9887565e-20
186	0x352b1a7d	6.374101e-07
187	0x350d03bd	5.2532033e-07
188	0x352d25c2	6.4502467e-07
189	0x351c351b	5.819181e-07
190	0x331bd600	3.628338e-08
191	0x354042ab	7.162259e-07
192	0x35ee6db4	1.776431e-06
193	0x32aea1c5	2.032983e-08
194	0x38f6223f	0.00011736573
195	0x331fe19c	3.7225263e-08
196	0x3771f2a9	1.4421218e-05
197	0x3588d6ac	1.0195267e-06
198	0x34ea15a8	4.3601653e-07
199	0x28d1c863	2.3290565e-14
200	0x36088721	2.0344235e-06
201	0x376b7160	1.4033489e-05
202	0x37ff09a4	3.0402858e-05
203	0x3605746b	1.9886309e-06
204	0x3593aca0	1.1002594e-06
205	0x36142457	2.2074871e-06
206	0x2a6e3e8c	2.1160347e-13
207	0x35202126	5.965288e-07
208	0x37f426ba	2.91051e-05
209	0x381d4877	3.7499205e-05
210	0x35c2ca10	1.4512934e-06
211	0x352f2390	6.524433e-07
212	0x33c31656	9.084458e-08
213	0x00000000	0.0
214	0x376b263c	1.4015994e-05
215	0x378bbc0e	1.6657661e-05
216	0x37f4cdc1	2.9182878e-05
217	0x360f28f4	2.1332498e-06
218	0x35906b5b	1.0760081e-06
219	0x36329ef3	2.6616588e-06
220	0x2b67da7f	8.237091e-13
221	0x3527242f	6.2265e-07
222	0x37f2248f	2.8865672e-05
223	0x38114bc9	3.4641274e-05
224	0x3676c87a	3.677355e-06
225	0x35397da4	6.91007e-07
226	0x327405d1	1.4203992e-08
227	0x00000000	0.0
228	0x37884750	1.624567e-05
229	0x374254e1	1.15830635e-05
230	0x37c24346	2.3157929e-05
231	0x360c0f82	2.0870652e-06
232	0x35578cd4	8.0298673e-07
233	0x362ff801	2.622139e-06
234	0x00000000	0.0
235	0x3570a42c	8.964587e-07
236	0x37f7e0d4	2.9549388e-05
237	0x380e7de0	3.397267e-05
238	0x368213a7	3.8765897e-06
239	0x35607a9e	8.3624934e-07
240	0x3233cb32	1.0465373e-08
241	0x00000000	0.0
242	0x373a29f4	1.1096232e-05
243	0x37926adb	1.7454315e-05
244	0x37d27567	2.508862e-05
245	0x360dc0ef	2.112294e-06
246	0x35461923	7.3797327e-07
247	0x3697baa5	4.521879e-06
248	0x00000000	0.0
249	0x36da4e22	6.506002e-06
250	0x379567e5	1.7810564e-05
251	0x37ed7942	2.8309067e-05
252	0x3623d9f7	2.4415765e-06
253	0x3542add4	7.2523585e-07
254	0x31bd8d64	5.516698e-09
255	0x00000000	0.0

exp_avg f4 [128]
0	0x39ebd7b5	0.00044983407
1	0xb9747387	-0.0002331269
2	0xbac3e4bb	-0.0014945486
3	0xbb26fa34	-0.0025478723
4	0xbb880af8	-0.004151698
5	0x3bc697f6	0.0060605956
6	0x3a9ad6f1	0.0011813325
7	0xb9a6c73e	-0.00031810434
8	0x3b1973b0	0.0023414902
9	0x3bda3baf	0.006659947
10	0xba251135	-0.00062968145
11	0xba986816	-0.00116277
12	0xbac58071	-0.0015068186
13	0x3a14d56b	0.00056775537
14	0x3a6daaed	0.00090663024
15	0x3a2a6408	0.0006499891
16	0xbbe9f582	-0.0071398625
17	0xbaae2773	-0.0013286903
18	0x3b118488	0.002220424
19	0xbb5a0a41	-0.0033270272
20	0x3a93c272	0.0011273159
21	0x3b124a11	0.002232198
22	0x3aa4fbcc	0.0012587248
23	0x3b2d6f56	0.0026464066
24	0xbbf6315e	-0.0075132092
25	0x3b3acdef	0.0028504094
26	0xbb0cfa83	-0.0021511621
27	0x3bdfdf5c	0.0068320464
28	0x3c0830c5	0.008312409
29	0x3b118e8a	0.0022210204
30	0x3b3b435c	0.0028574085
31	0x3a2c57f2	0.0006574384
32	0x3b4fb8b2	0.003169578
33	0xbacc79fd	-0.001560032
34	0x3b0b4f47	0.002125697
35	0x3b7c506e	0.0038500088
36	0xbb5794a8	-0.0032895003
37	0x393327c7	0.00017085588
38	0xbb0f8b68	-0.002190316
39	0xbb6cce55	-0.0036133726
40	0xbb986713	-0.0046509593
41	0xb9e85811	-0.00044316103
42	0xbc135426	-0.0089922305
43	0xba6d4457	-0.0009051016
44	0xbc0781e5	-0.008270715
45	0xbaec2b37	-0.001801825
46	0x3ad7059d	0.0016404871
47	0xbb0e2432	-0.0021689055
48	0xbc1dcb8d	-0.00963105
49	0xbb18d786	-0.0023321821
50	0x3b565f25	0.003271052
51	0xbb87a0e3	-0.0041390522
52	0x3b547dec	0.0032423688
53	0x3b54e29e	0.0032483707
54	0x382fb04b	4.1887437e-05
55	0xbbbbff15	-0.0057371953
56	0xbad5f99f	-0.0016325003
57	0xbb8236f7	-0.0039738375
58	0x3afc3af7	0.0019243647
59	0xbb99f26d	-0.004698089
60	0xb9ff96bc	-0.00048749696
61	0x3a86bccd	0.0010279656
62	0x3bb08ecb	0.005388116
63	0x3b2cb3bd	0.002635225
64	0x3ac907a1	0.0015337357
65	0x3b33877a	0.0027393983
66	0x3bc7c2c6	0.006096217
67	0x3a959f17	0.001141521
68	0x3a9d821e	0.0012016927
69	0xbba313b1	-0.0049767126
70	0x3bed7ed0	0.0072477832
71	0x3aa3273f	0.0012447609
72	0xb8d3b0ec	-0.00010094218
73	0x3b91ef28	0.0044535585
74	0xbb53b3f1	-0.0032303298
75	0x3bcba4db	0.0062147207
76	0xbad0628d	-0.0015898511
77	0x39ec02d3	0.00045015532
78	0x3bb616ba	0.0055569084
79	0xbba2c79e	-0.004967644
80	0x3b13cb79	0.00225517
81	0xbb256e24	-0.002524265
82	0xb8d85fd6	-0.000103175335
83	0xbb259405	-0.0025265228
84	0xbb9696f4	-0.0045956317
85	0xbb8bf894	-0.004271576
86	0xbb1354aa	-0.0022480884
87	0x3b4d3a67	0.0031315328
88	0x3a71af9d	0.0009219589
89	0xba9ee835	-0.0012123646
90	0x3bdad578	0.0066782795
91	0x3b065469	0.002049709
92	0xb8e97294	-0.000111316476
93	0x39df7574	0.00042621384
94	0xbaa06a53	-0.0012238718
95	0x3b8aab9c	0.004231883
96	0xbbdaa962	-0.006673024
97	0x3ab67378	0.001391991
98	0xb9896ea4	-0.0002621311
99	0x3ab5b6c5	0.0013863674
100	0x3a2b63fd	0.0006538032
101	0xbaacdc7f	-0.0013188272
102	0x39ef1eb7	0.00045608517
103	0x3b61f36a	0.0034477361
104	0xb9803ea5	-0.00024460736
105	0xbb516041	-0.003194824
106	0xbb89bc66	-0.004203367
107	0x3bb6fcc3	0.0055843308
108	0xbad92b56	-0.0016568701
109	0x39d0a318	0.00039794366
110	0x3b197ec9	0.0023421517
111	0xbb5497c1	-0.0032439085
112	0xb9dac363	-0.00041725775
113	0xbb57fb6d	-0.0032956258
114	0xbbd0fab3	-0.006377542
115	0xba6498c8	-0.0008720276
116	0xbbc905cc	-0.0061347242
117	0xbb742c58	-0.0037257876
118	0xba92bf6b	-0.0011195963
119	0xbbaeb291	-0.0053313454
120	0x3b82a202	0.003986598
121	0x39826c1f	0.0002487609
122	0xbad3596f	-0.0016124676
123	0xbb9408a1	-0.00451763
124	0xbb0bf31a	-0.0021354617
125	0xba18c9b1	-0.0005828394
126	0x3b105123	0.0022021018
127	0x3bc1f600	0.005919218

exp_avg_sq f4 [128]
0	0x377d9b26	1.5116098e-05
1	0x3604b0d0	1.9772451e-06
2	0x384d5650	4.8956193e-05
3	0x38befdeb	9.107202e-05
4	0x39719189	0.00023037767
5	0x3a0986ba	0.0005246211
6	0x378bda8b	1.6671858e-05
7	0x361ffa72	2.3838625e-06
8	0x38885bca	6.5020824e-05
9	0x3a200624	0.00061044306
10	0x36dc9ed7	6.5750023e-06
11	0x380a525b	3.2978463e-05
12	0x38347703	4.3026183e-05
13	0x365b3fde	3.2670719e-06
14	0x37994d2e	1.827496e-05
15	0x36290ee5	2.5191632e-06
16	0x3a3a0eac	0.0007097523
17	0x37b8168f	2.1945014e-05
18	0x38a27857	7.747177e-05
19	0x38f8ded7	0.00011867069
20	0x373662aa	1.0871017e-05
21	0x38478335	4.7567493e-05
22	0x37aa803d	2.0325295e-05
23	0x39019c62	0.00012360656
24	0x3a2dc096	0.0006628124
25	0x39105a59	0.00013766567
26	0x38a74d7a	7.977612e-05
27	0x3a11f89c	0.0005568357
28	0x3a48e0f3	0.00076629146
29	0x38b0702c	8.4132276e-05
30	0x38cf0f7c	9.8734134e-05
31	0x37166e72	8.966412e-06
32	0x38abd669	8.1938524e-05
33	0x380c4ad1	3.344828e-05
34	0x38f70faa	0.000117807955
35	0x3952cab7	0.00020102678
36	0x39208f24	0.00015312113
37	0x35005920	4.781341e-07
38	0x38418f0d	4.6148012e-05
39	0x39168332	0.00014353989
40	0x3981147f	0.00024620068
41	0x362e8048	2.600269e-06
42	0x3a88d3dd	0.0010439117
43	0x37b84595	2.1966911e-05
44	0x3a8b48e4	0.0010626581
45	0x3847dc46	4.7650443e-05
46	0x380d5b88	3.3702265e-05
47	0x3884040b	6.2950035e-05
48	0x3aa50196	0.0012588974
49	0x3892636c	6.980341e-05
50	0x3911d54e	0.0001390774
51	0x395dc05f	0.00021147866
52	0x392aa563	0.00016274075
53	0x390992ce	0.00013120027
54	0x35166651	5.6028244e-07
55	0x39c7dd4f	0.00038121126
56	0x383bc844	4.4770786e-05
57	0x39568923	0.00020459718
58	0x3856e7ef	5.123758e-05
59	0x397e849c	0.00024272728
60	0x36d91eba	6.470681e-06
61	0x37aa6b4c	2.0315543e-05
62	0x39c03f20	0.00036668126
63	0x38a30a23	7.774334e-05
64	0x383478a7	4.302771e-05
65	0x38f77c3e	0.0001180102
66	0x39fcf495	0.00048247413
67	0x3712019b	8.702652e-06
68	0x37ff1257	3.0406909e-05
69	0x399dc501	0.00030092153
70	0x3a472d74	0.00075980206
71	0x37cf4d16	2.4712219e-05
72	0x351b27ec	5.7800094e-07
73	0x396bdcfa	0.00022493667
74	0x38f537da	0.000116929135
75	0x3a21eb56	0.00061767304
76	0x380d7782	3.372832e-05
77	0x36776a21	3.6867643e-06
78	0x39f86f91	0.0004738537
79	0x3988544f	0.00026002756
80	0x38335a28	4.276089e-05
81	0x389949b9	7.3093404e-05
82	0x362df20b	2.5919896e-06
83	0x38afb981	8.379203e-05
84	0x39c48580	0.00037483498
85	0x397eae4f	0.00024288263
86	0x38adfcca	8.2963685e-05
87	0x391b4f35	0.00014811459
88	0x379e1e84	1.8849278e-05
89	0x37c0b871	2.297407e-05
90	0x3a2dc83b	0.0006629263
91	0x383cee36	4.5044544e-05
92	0x35778e1b	9.222146e-07
93	0x379bceb0	1.8573686e-05
94	0x37bd6837	2.2579085e-05
95	0x39983e5e	0.00029038166
96	0x3a134443	0.0005617777
97	0x381c13f8	3.7211896e-05
98	0x362e2e52	2.5954982e-06
99	0x37d3978a	2.5223726e-05
100	0x3683fa3d	3.933236e-06
101	0x37b83d31	2.1963004e-05
102	0x3785871b	1.5917749e-05
103	0x395a551b	0.00020821804
104	0x3648bc0e	2.9911785e-06
105	0x390b628b	0.00013292783
106	0x397533da	0.00023384337
107	0x39ad36b5	0.0003303789
108	0x382101c6	3.8387043e-05
109	0x3598b36e	1.1377103e-06
110	0x385d1773	5.2712345e-05
111	0x3900b2fe	0.00012273711
112	0x3615b71b	2.2309312e-06
113	0x38ee495b	0.00011362388
114	0x3a161941	0.0005725809
115	0x37762ed1	1.4673643e-05
116	0x39f6d84e	0.00047081936
117	0x394808fa	0.0001907683
118	0x37991c48	1.825219e-05
119	0x39aecd32	0.0003334075
120	0x3965f848	0.00021931634
121	0x34ec430a	4.4007203e-07
122	0x380d1ca0	3.364368e-05
123	0x394cdd32	0.00019537358
124	0x388348d7	6.260134e-05
125	0x367ee813	3.7984034e-06
126	0x38a2c19f	7.760827e-05
127	0x39bdd14d	0.0003620483
