results/ppo/OpponentAI/OpponentAI-1999979.onnx (onnx, 119084 bytes, 5 tensors)

action_model._continuous_distribution.mu.weight f4 [1, 128]
0	0xbdbb6ae8	-0.0915125
1	0xbdf9639b	-0.12177201
2	0xbd572189	-0.052522216
3	0xbd120385	-0.035647888
4	0x3cba5a7b	0.022748223
5	0xbd98bc52	-0.07457794
6	0xbd8b390e	-0.06797992
7	0x3d7ec560	0.06219995
8	0xbcc30f05	-0.023810873
9	0x3d104167	0.035218623
10	0x3d2e372a	0.042533077
11	0x3e024386	0.1272107
12	0xbd16c89d	-0.036812413
13	0x3df34e62	0.11880185
14	0x3db2b4f6	0.08725922
15	0xbd364a75	-0.0445046
16	0x3d8fd334	0.07022706
17	0xbcc93ad2	-0.02456418
18	0x3da27d78	0.079340875
19	0xbd6280dd	-0.055298675
20	0xbd8e0370	-0.069342494
21	0xbdbe2daa	-0.092860535
22	0x3dac32aa	0.08408101
23	0x3d7fd7cc	0.06246166
24	0xbc9ede9e	-0.019393262
25	0x3dfdf9e0	0.124011755
26	0xbd81e280	-0.063420296
27	0xbd31511f	-0.043290254
28	0xbdcab817	-0.098983936
29	0xbdb64d5c	-0.08901474
30	0xbc314650	-0.010819986
31	0x3d7b8acb	0.06141166
32	0x3cdbc8c2	0.026829127
33	0xbd179f50	-0.037017167
34	0x3da76323	0.08173206
35	0x3e0349e1	0.12821151
36	0x3d4f8cd9	0.050671432
37	0x3da3765c	0.0798156
38	0x3d9b26f1	0.07575787
39	0xbd6177ea	-0.055046
40	0x3deefa3d	0.11668823
41	0xbdf6d3dd	-0.120521285
42	0x3de723ca	0.11286123
43	0xbd17a1ad	-0.03701942
44	0xbdb84a0a	-0.08998497
45	0xbd9dfec9	-0.07714612
46	0xbd500f26	-0.050795697
47	0x3daacd22	0.08339907
48	0x3d9032c8	0.07040936
49	0x3aaba927	0.0013096676
50	0x3da3521b	0.07974645
51	0xbd869f47	-0.065733485
52	0x3d3a96c6	0.045553945
53	0xbcf3494a	-0.029698033
54	0x3e112ad4	0.14176494
55	0x3dcfb100	0.10141182
56	0x3df20445	0.118172206
57	0x3d9ca1a6	0.076480195
58	0x3c7d35f5	0.015454759
59	0xbd1c70d0	-0.038193524
60	0xbda76063	-0.08172681
61	0xbd88ab84	-0.06673339
62	0x3dfa5fce	0.122253045
63	0xbc2c6ef1	-0.010524497
64	0x3dea1608	0.114299834
65	0x3d26d7f1	0.04073328
66	0x3d669eb1	0.056303684
67	0xbcf77216	-0.030205768
68	0xbdb50639	-0.088390775
69	0xbd8f85e4	-0.070079595
70	0x3dc3af5d	0.09554932
71	0x3cf39be0	0.029737413
72	0xbb670f2e	-0.003525685
73	0xbcc186bb	-0.023623815
74	0xbd26b56a	-0.040700354
75	0xbd6680f9	-0.05627534
76	0x3daa059f	0.083018534
77	0x3da21c51	0.07915557
78	0xbdb0b723	-0.086286806
79	0x3d97d583	0.07413771
80	0x3da2c1a3	0.079470895
81	0xbdcb673f	-0.09931802
82	0x3da6d5a8	0.081462204
83	0x3d5429b0	0.05179757
84	0x3d70abf1	0.058757726
85	0x3dc88e0c	0.09792718
86	0x3ced38fb	0.028957834
87	0x3db1e3c7	0.08686023
88	0x3cad9a34	0.021191694
89	0x3df43f37	0.1192612
90	0x3d1974f1	0.03746504
91	0xbd7bf2a3	-0.061510693
92	0x3d02955f	0.031880733
93	0xbdcbe7a0	-0.09956288
94	0xbce84817	-0.028354688
95	0x3d9cf50c	0.076639265
96	0x3d2df52b	0.04247014
97	0x3de2fdb4	0.11083546
98	0xbd87d9f2	-0.06633367
99	0xbd149155	-0.036271412
100	0x3d1d5bde	0.03841769
101	0xbd3461c0	-0.044038534
102	0xbd916de1	-0.07101036
103	0x3cfa4ae4	0.030553289
104	0x3d2e1e0e	0.04250913
105	0x3d4bf1d2	0.049791165
106	0xbc38c6b0	-0.01127784
107	0x3d2c117a	0.042008854
108	0x3dc72198	0.097232044
109	0xbd4b2b3a	-0.04960177
110	0xbd25e1ef	-0.04049867
111	0x3d070269	0.032961283
112	0x3dabf1c8	0.083957255
113	0x3b839ffb	0.004016874
114	0xbcd80edb	-0.026374271
115	0x3d94e18d	0.07269583
116	0xbd91a80e	-0.07112132
117	0xbc57bd4a	-0.013167689
118	0x39570b32	0.00020508168
119	0xbd8954f7	-0.06705659
120	0xbd43c5f1	-0.047796194
121	0xbdf79857	-0.120896034
122	0xbc647418	-0.0139436945
123	0x3db53c35	0.08849374
124	0xbda5585b	-0.08073493
125	0x3dd308fc	0.10304448
126	0xbd609d24	-0.05483736
127	0xbd3bf208	-0.045885116

network_body._body_endoder.seq_layers.0.bias f4 [128]
0	0x39f2a34f	0.0004627951
1	0xbcaac430	-0.020845503
2	0x3c3147ad	0.0108203115
3	0xbb65e17c	-0.0035077026
4	0x3cb6de22	0.022322718
5	0x3cb9aa22	0.022664133
6	0xbd11c3c1	-0.035587076
7	0x3c009b44	0.007849518
8	0x3c26e141	0.010185541
9	0x3cfe66ca	0.031054873
10	0xbc960284	-0.018311746
11	0xbb6a8797	-0.0035786384
12	0x3d118456	0.035526596
13	0xbd35aa47	-0.044351842
14	0xbc252949	-0.010080644
15	0xbb9542de	-0.0045550903
16	0x3cca669f	0.024707137
17	0x3b20e59d	0.0024550923
18	0x3c9628ec	0.01833006
19	0x3b3aa27a	0.0028478191
20	0xbcb51ac6	-0.022107493
21	0x3b22c135	0.0024834399
22	0x3c372384	0.011177901
23	0xbc17b3fb	-0.009259219
24	0x3cd2738f	0.025689868
25	0x3c966640	0.018359303
26	0x3c02a3ae	0.007973595
27	0x3d06a44c	0.03287153
28	0x3cb4a54c	0.022051476
29	0x3c83656a	0.016039569
30	0x3be506bf	0.0069893296
31	0x3d84d271	0.06485451
32	0x3ced1fdb	0.028945854
33	0x3be9de5d	0.0071371035
34	0x3d2fac91	0.04288918
35	0x3cf6b7e1	0.030116977
36	0xbb77e4a5	-0.0037825492
37	0xbc509040	-0.012729704
38	0xbb1090ee	-0.002205904
39	0xbc0c1ad8	-0.008551322
40	0x3c091737	0.008367351
41	0x3c23e1a7	0.01000253
42	0x3cc61d42	0.024183873
43	0x3af38794	0.0018579834
44	0x3d088a3d	0.03333496
45	0xbc8ec248	-0.017426625
46	0xbb11d86b	-0.002225424
47	0x3c17d75c	0.009267654
48	0x3cdab3aa	0.026696999
49	0xbb917d0c	-0.0044399556
50	0x3b563d1a	0.0032690228
51	0x3c80988a	0.015697736
52	0x3c71fe2b	0.014770071
53	0x3bd0ea17	0.006375562
54	0xbce84357	-0.028352423
55	0x3cb08037	0.021545513
56	0x3d27531b	0.04085074
57	0xbc1d5b40	-0.009604275
58	0x3cabdff1	0.020980807
59	0xbb96fdd3	-0.004607895
60	0xbcaa0426	-0.020753931
61	0xbc8c4b53	-0.017125761
62	0x3d0901a9	0.03344885
63	0xbbd0c1ad	-0.006370744
64	0x3d62c904	0.055367485
65	0x3cd4d48c	0.025980256
66	0x3d16307f	0.036667343
67	0xbca94843	-0.02066434
68	0x3c1866d6	0.009301862
69	0x3c451565	0.012029027
70	0x3caed8da	0.021343637
71	0x3caeacea	0.021322686
72	0xbc551331	-0.013005064
73	0x3bc8561a	0.0061137797
74	0x3bc8927f	0.0061209793
75	0x3cdcc311	0.026948484
76	0x3c2c68c9	0.01052303
77	0xbb4e401b	-0.0031471315
78	0x3cf3997c	0.029736273
79	0x3cbc52d2	0.02298871
80	0x3ac65ffb	0.0015134806
81	0xba93fe9a	-0.0011291087
82	0xbc72f5ff	-0.014829158
83	0x3c98e4fb	0.018663874
84	0x3d29e241	0.04147554
85	0x3cce4b12	0.02518228
86	0x3cb9f0be	0.022697803
87	0x3d041ddf	0.03225505
88	0xbca08a1b	-0.019597104
89	0xbc832602	-0.016009334
90	0x3cbd78c8	0.023128882
91	0x3c5386eb	0.012910585
92	0xbc77a7bf	-0.015115677
93	0x3b451849	0.003007429
94	0x3cdbcd4b	0.02683129
95	0x3cd3dbe7	0.025861694
96	0x3d193c1f	0.03741085
97	0x3cfb00c2	0.03064001
98	0xbd239a04	-0.039941803
99	0x3bac817f	0.0052644606
100	0xbbeee576	-0.0072905375
101	0x3c2d9b6b	0.010596137
102	0x3c929c46	0.017896783
103	0x3d39c191	0.045350615
104	0x3b40891b	0.0029378596
105	0x3d0dad6f	0.034589227
106	0x3c0eff45	0.008727853
107	0x3cc0007a	0.023437727
108	0x3d53d0f8	0.05171296
109	0x3d0a56f6	0.03377434
110	0x3c68225e	0.01416835
111	0xbcd721d8	-0.026261255
112	0xbca5fc64	-0.02026195
113	0xbcb76461	-0.022386732
114	0x3c964d16	0.018347304
115	0x3b11bdef	0.0022238453
116	0x3ca42d8d	0.020041252
117	0x3c54f0ae	0.012996836
118	0x3d48621b	0.048921686
119	0x3bfcbba5	0.0077127987
120	0x3dbfe181	0.09369183
121	0x3cb946d2	0.022616778
122	0x3caac34e	0.020845082
123	0x3c83cbc7	0.01608838
124	0x3c400d60	0.011721939
125	0x3cd802da	0.026368547
126	0x3beac8c2	0.0071650455
127	0x3c42bce6	0.011885857

network_body._body_endoder.seq_layers.0.weight f4 [128, 98]
0	0x3ca18097	0.019714637
1	0x3dc89203	0.097934745
2	0x3e220716	0.15823016
3	0x3db848eb	0.08998283
4	0x3e0c415b	0.13696806
5	0xbe0ce12d	-0.13757773
6	0x3ae16964	0.0017197547
7	0x3d2c24fe	0.042027466
8	0x3e74d484	0.23909193
9	0x3c986876	0.018604498
10	0x3d21e397	0.039523687
11	0xbcf786cc	-0.030215643
12	0x3ded6710	0.11591923
13	0xbe25ede4	-0.1620403
14	0x3d292941	0.04129911
15	0xbcc3dd61	-0.023909273
16	0xbd688ab7	-0.056772914
17	0x3c0d00a7	0.008606113
18	0x3d2ca54d	0.04214983
19	0xbe944d09	-0.28965023
20	0xbbd4e087	-0.0064964923
21	0x3db9ef79	0.09078879
22	0xbc621a7a	-0.013800258
23	0xbc9ecd6c	-0.019385062
24	0x3dfb141c	0.12259695
25	0x3cb6892d	0.022282207
26	0xbb7df871	-0.003875282
27	0x3d28f288	0.04124692
28	0xbdf70a42	-0.120625034
29	0x3dbb24ec	0.09137902
30	0xbdf6a55e	-0.1204326
31	0xbd387baa	-0.04503981
32	0xbcb1e0af	-0.021713583
33	0xbd076dbc	-0.033063635
34	0xbea30aee	-0.31844276
35	0xbe5d047b	-0.2158374
36	0x3ce19ce5	0.027540633
37	0x3a0a765d	0.000528192
38	0xbd960c63	-0.07326581
39	0x3d48346b	0.048878115
40	0x3dd87fa8	0.105712235
41	0xbc01b2a5	-0.007916127
42	0xbda1fecc	-0.07909927
43	0x3c3301b3	0.010925698
44	0x3e287741	0.16451742
45	0xbd4a6633	-0.04941387
46	0x3d43f1f1	0.047838155
47	0x3d81c799	0.06336898
48	0x3c8d71b9	0.017266141
49	0x3cf9c22f	0.030488102
50	0xbcf187c4	-0.029483683
51	0x3e02c481	0.12770273
52	0x3d4bfd14	0.0498019
53	0xbd376130	-0.04477042
54	0xbe4a32e0	-0.1974597
55	0x3db017b8	0.08598274
56	0x3db2b182	0.08725263
57	0xbe2b0f2c	-0.16705006
58	0x3d59f308	0.05321029
59	0x3dd49cdd	0.10381482
60	0xbd214db9	-0.039380763
61	0xbe0c0718	-0.13674581
62	0x3b4ff205	0.0031729948
63	0xbe92a9bf	-0.2864513
64	0xbe233a2b	-0.15940158
65	0x3d758c2f	0.059948143
66	0x3dd4ce83	0.103909515
67	0x3e6c05fc	0.23049158
68	0xbe50a2b2	-0.20374563
69	0xbe08f404	-0.13374335
70	0xbb9e7c32	-0.0048365826
71	0xbdc8aef0	-0.09798992
72	0x3c41a783	0.011819723
73	0xbd12827d	-0.035768975
74	0x3d094464	0.033512488
75	0xbd6e37a2	-0.058158524
76	0xbc1a91ce	-0.009434177
77	0xbe4590b3	-0.1929348
78	0x3dd475a8	0.10374004
79	0xbda73d01	-0.081659324
80	0x3ddbe0b3	0.10736217
81	0xbddb2eeb	-0.10702308
82	0xbe23815d	-0.15967317
83	0xbe397b4a	-0.18113437
84	0x3e7f9c7c	0.24962038
85	0x3ddff958	0.109362304
86	0x3de8b737	0.113630705
87	0x3d1d2073	0.038361024
88	0xbddccbd2	-0.10781063
89	0xbe1b6376	-0.1517466
90	0x3cf5d0a3	0.030006712
91	0xbd45cd6f	-0.04829162
92	0xbd5e7026	-0.05430617
93	0x3c9be406	0.019029628
94	0xbeb80e30	-0.35948324
95	0xbd8e83ed	-0.069587566
96	0x3dbe2d3f	0.09285974
97	0xba8336f1	-0.0010010881
98	0x3df6ed6d	0.12057004
99	0xbdff141f	-0.1245501
100	0x3e44dcf5	0.19224913
101	0xbe102751	-0.14077498
102	0xbdd2b9fa	-0.102893785
103	0xbdd09ebd	-0.10186527
104	0xbe0895df	-0.13338421
105	0x3d0bf6f1	0.03417105
106	0xbe24d704	-0.16097647
107	0x3e0a5d64	0.13512188
108	0x3d3e3367	0.04643574
109	0x3e2220e2	0.15832856
110	0x3db064e4	0.08612993
111	0xbd3e3016	-0.046432577
112	0x3aa2c884	0.0012419377
113	0x3d13345f	0.035938617
114	0xbdcf4273	-0.10120096
115	0xbd8bcbbb	-0.06825968
116	0x3d88fa82	0.066884056
117	0x3da30f84	0.07961944
118	0x3da4e679	0.08051772
119	0xbe000f3d	-0.12505813
120	0xbe8e095e	-0.27741522
121	0xbd980139	-0.07422108
122	0x3d9639fb	0.07335278
123	0xbd8e23b6	-0.06940405
124	0xbcba759e	-0.022761162
125	0xbe2a00b2	-0.16601828
126	0x3e0e6cd0	0.13908696
127	0x3d408b1d	0.04700767
128	0xbd84fbc0	-0.0649333
129	0x3d9e05f6	0.07715981
130	0x3d762174	0.060090497
131	0x3e0324f1	0.12807061
132	0xbd06d046	-0.03291347
133	0xbd15f518	-0.036610693
134	0xbcc4c4e5	-0.024019668
135	0xbd3876e4	-0.045035258
136	0xbd131633	-0.035909843
137	0x3d84aa10	0.06477749
138	0xbce67450	-0.028131634
139	0xbe0f9ea5	-0.14025362
140	0xbe3863a8	-0.18006766
141	0xbacebb48	-0.0015772367
142	0xbc450ca3	-0.012026939
143	0xbdbc8075	-0.09204189
144	0xbd7efef0	-0.062254846
145	0x3d15c0b4	0.03656073
146	0xbe051adc	-0.12998527
147	0xbd9d6285	-0.07684807
148	0x3d9f385a	0.0777442
149	0x3d57323e	0.05253815
150	0xbe012b7c	-0.12614244
151	0xbc900600	-0.017580986
152	0xbe16170d	-0.1465723
153	0xbe52a549	-0.20570864
154	0x3c2982f6	0.010346165
155	0xbd7d1b46	-0.061793588
156	0x3ddad11f	0.10684418
157	0x3b141542	0.0022595678
158	0xbe0e67c8	-0.13906777
159	0xbe040b77	-0.12894998
160	0xbbb4ddb3	-0.0055195927
161	0xbd9fd1d4	-0.078036934
162	0xbe10c220	-0.14136553
163	0xbe85bade	-0.2611913
164	0x3ccb5690	0.02482155
165	0x3db2cfa2	0.08731009
166	0x3e0833ed	0.13301058
167	0x3da36483	0.079781555
168	0x3d44d01e	0.04805004
169	0x3d598b8c	0.053111598
170	0x3c0cd78f	0.008596315
171	0xba7298ae	-0.00092543184
172	0x3d11e6ed	0.03562062
173	0x3da47fac	0.08032164
174	0xbce2bfe7	-0.027679397
175	0x3dac1213	0.08401885
176	0x3d6e494e	0.058175378
177	0xbb40eb35	-0.002943707
178	0xbd8abca4	-0.067742616
179	0xbdab511a	-0.08365078
180	0x3de53f77	0.111937456
181	0xba939784	-0.0011260365
182	0xbbf44feb	-0.007455816
183	0x3dafbda9	0.08581097
184	0x3e6edb47	0.23325835
185	0x3e23a5b8	0.15981185
186	0x3d46c529	0.04852787
187	0xbe0c29bf	-0.136878
188	0xbddfa135	-0.1091942
189	0x3d71c173	0.05902238
190	0x3e3a2ee9	0.18181957
191	0x3d58c09a	0.052918054
192	0xbcb516c5	-0.022105584
193	0x3e118150	0.14209485
194	0x3c30c507	0.0107891625
195	0x3dd23ee0	0.10265899
196	0x3e2efb23	0.17087989
197	0x3e0a2997	0.13492428
198	0x3dc4dbfa	0.0961227
199	0x3e0a9542	0.135335
200	0xbe2334d2	-0.15938118
201	0x3d77c996	0.06049498
202	0xbdf4252d	-0.11921153
203	0xbe48fab1	-0.19626881
204	0x3dbf2a59	0.09334249
205	0x3e625f7a	0.22106734
206	0xbd783b70	-0.06060356
207	0xbdaac8ee	-0.083391055
208	0x3e21ee78	0.15813625
209	0x3c7e404f	0.015518262
210	0xbe397edb	-0.18114798
211	0xbda8bfd3	-0.082397126
212	0xbdf58651	-0.119885094
213	0x3e2dc718	0.1697048
214	0x3d6b6a99	0.057474706
215	0x3e9d2daa	0.306989
216	0x3de1c71f	0.110243075
217	0xbdbd20f9	-0.09234805
218	0xbc312a0c	-0.010813247
219	0x3c86df1d	0.01646381
220	0x3d81a9f0	0.06331241
221	0xbdb8474f	-0.08997976
222	0x3d650c1c	0.05591975
223	0x3cac5fe0	0.02104181
224	0x3dfcef94	0.123503834
225	0xbe2d220a	-0.16907516
226	0x3b933a5c	0.004493041
227	0xbcb45718	-0.022014186
228	0x3ea0153e	0.31266207
229	0xbc8fcc7e	-0.017553564
230	0x3dd5a118	0.10431117
231	0xbe24451a	-0.16041985
232	0xbdd6402a	-0.10461457
233	0xbcfab8bc	-0.030605666
234	0x3e327986	0.1742917
235	0xbdafc544	-0.08582547
236	0x3e1c14dc	0.15242332
237	0xbd6954fa	-0.056965806
238	0x3de53be3	0.11193063
239	0xbc66f055	-0.014095386
240	0xbd83a24a	-0.064274386
241	0xbdcfc255	-0.10144488
242	0x3dd85d85	0.105647124
243	0xbde57bbe	-0.112052426
244	0xbd8a84fa	-0.067636445
245	0xbd419640	-0.04726243
246	0xbc01459a	-0.007890129
247	0x3e126a8b	0.14298455
248	0x3db0843d	0.086189725
249	0x3a824492	0.0009938648
250	0xbe610ef1	-0.21978356
251	0xbc983b46	-0.018582951
252	0xbd7e7038	-0.06211874
253	0x3d2140a8	0.0393683
254	0x3b190d9d	0.0023354061
255	0xbc24da00	-0.010061741

network_body._body_endoder.seq_layers.2.bias f4 [128]
0	0x3cda493b	0.026646247
1	0x3d20f409	0.03929523
2	0xbb4b79db	-0.0031047973
3	0x3a41fe23	0.0007400235
4	0x3b31988f	0.0027098989
5	0x3d0cb58c	0.034352824
6	0x3c83349c	0.016016297
7	0x3c695a15	0.014242669
8	0x3b38d3f7	0.0028202513
9	0x3c826a36	0.015919786
10	0x3c260ee4	0.010135386
11	0x3c8b0d8e	0.016974237
12	0x3c934b46	0.01798023
13	0x3c48a537	0.012246422
14	0x3d2ee084	0.042694584
15	0x3c0ce90f	0.008600487
16	0x3cbdf6e8	0.023189023
17	0x3b527e9f	0.003211893
18	0x3c8ec80d	0.017429376
19	0x3c257f78	0.010101192
20	0x3c153162	0.009106012
21	0x3ced2c72	0.028951857
22	0x3cd8fa00	0.026486397
23	0x3c1b7485	0.00948823
24	0xbba20500	-0.0049444437
25	0x3cfa4ca0	0.030554116
26	0x3ca3e577	0.020006878
27	0x3c4669c7	0.01211018
28	0x3c7a0f16	0.015262386
29	0x3d11d08f	0.035599288
30	0x3c0e1bef	0.008673652
31	0x3cb0107e	0.02149224
32	0x3ccb10fa	0.024788368
33	0x3be3d515	0.0069528916
34	0x3caf82e0	0.02142471
35	0x3cbb185d	0.022838766
36	0x3b839ae7	0.0040162685
37	0x3d111d1b	0.035428148
38	0x3d2a5128	0.041581303
39	0x3c39533f	0.011311351
40	0x3ca779a6	0.020443749
41	0x3d26c0e6	0.040711306
42	0x3cd591c6	0.026070487
43	0x3c8c8f90	0.0171583
44	0x3cb72d5a	0.022360492
45	0x3c92c95d	0.017918283
46	0x3cf0a89f	0.02937728
47	0x3ca9a67b	0.020709267
48	0x3cd5123f	0.026009677
49	0xbad0480b	-0.0015890611
50	0x3cd807e2	0.026370946
51	0x3ca8a9df	0.020588813
52	0x3cb1452c	0.021639429
53	0x3c1606fa	0.009156937
54	0x3cd68d35	0.02619038
55	0x3ca44416	0.020051997
56	0x3c840f6b	0.016120633
57	0x3ccc1fbc	0.024917476
58	0x3baa3dbe	0.0051953485
59	0x3c6ab7c0	0.014326036
60	0x3cd740cd	0.026276017
61	0x3cc321c5	0.023819814
62	0x3cfa2c97	0.03053884
63	0xbb9288e2	-0.004471884
64	0x3d09db0e	0.033656172
65	0x3c13920c	0.009006988
66	0x3ce89cd5	0.028395096
67	0x3c109466	0.008824443
68	0x3c8fc86a	0.01755162
69	0x3d0603ad	0.03271835
70	0x3caff0a1	0.021477045
71	0x3c29ab0b	0.010355721
72	0xbba47b71	-0.005019598
73	0x3ca64f57	0.020301504
74	0x3c3f5a94	0.01167931
75	0x3cec28df	0.028828083
76	0x3cac4d79	0.021033036
77	0x3c9b5283	0.018960243
78	0x3c6af96c	0.014341693
79	0x3c92b0bf	0.017906545
80	0x3d0f0023	0.03491224
81	0x3cade4fc	0.021227352
82	0x3caa61a4	0.020798512
83	0x3d1d5bda	0.038417675
84	0x3c147a7c	0.009062406
85	0x3d440c62	0.04786337
86	0x3b9e138a	0.0048241066
87	0x3cd1c9a4	0.025608845
88	0x3befe8d0	0.0073214546
89	0x3cda2259	0.026627706
90	0x3b432147	0.0029774474
91	0x3ced3454	0.028955616
92	0x3be6663e	0.007031231
93	0x3cc5b354	0.024133362
94	0x3bbd01b9	0.0057680276
95	0x3b94f38e	0.0045456355
96	0x3c5cecc3	0.013484183
97	0x3cb6f9cf	0.022335915
98	0x3ca78e18	0.020453498
99	0x3c274b5d	0.010210839
100	0x3c2fd598	0.010732077
101	0x3c04c1a3	0.008102807
102	0x3cef6182	0.0292213
103	0x3c87875e	0.01654404
104	0xbb16dab8	-0.002301855
105	0x3ca4f38f	0.020135669
106	0x3b1891cd	0.0023280263
107	0x3b91d19a	0.0044500353
108	0x3d0f48de	0.0349816
109	0x3c5f2a9f	0.0136210015
110	0x3c0851ec	0.008320313
111	0x3c748dd1	0.01492639
112	0x3cbd7979	0.023129212
113	0x3c84e734	0.016223527
114	0x3c4c9ea0	0.012488991
115	0x3cc000b4	0.023437835
116	0x3c54ef05	0.01299644
117	0x3a93fffc	0.0011291499
118	0xbad802c9	-0.0016480322
119	0x3cfed938	0.031109437
120	0x3be5d65d	0.0070140795
121	0x3d0f2213	0.034944605
122	0x3a81b68d	0.0009896323
123	0x3c87301b	0.01650243
124	0x3ceee2fd	0.02916097
125	0x3c8cba81	0.017178776
126	0x3c55a07a	0.013038749
127	0x3ba3687f	0.004986822

network_body._body_endoder.seq_layers.2.weight f4 [128, 128]
0	0xbe8920a5	-0.26782718
1	0x3d5a1378	0.053241223
2	0xbc5bf23e	-0.013424454
3	0xbd344dff	-0.044019695
4	0x3e3701cb	0.17871778
5	0xbe7d55bc	-0.24739736
6	0xbe902c5b	-0.2815884
7	0xbb2c66d5	-0.002630641
8	0xbe011d9c	-0.12608951
9	0xbe458e39	-0.19292535
10	0xbdba6d5e	-0.091028914
11	0xbc2a1697	-0.010381362
12	0x3e0b025a	0.13575116
13	0x3ba289ed	0.0049602897
14	0x3da31fa1	0.07965017
15	0xbe5f9e16	-0.21837649
16	0x3dc08670	0.09400642
17	0x3ca1f9b3	0.019772386
18	0x3d2a2a5e	0.04154431
19	0xba95ae81	-0.0011419804
20	0xbdd839d0	-0.10557902
21	0xbd59180a	-0.05300144
22	0xbbfaaeb5	-0.007650221
23	0xbcf07d46	-0.02935661
24	0x3cf26552	0.029589329
25	0x3d9f0662	0.07764889
26	0x3cea7454	0.028619923
27	0xbdc0265c	-0.093823165
28	0xbc91f733	-0.01781807
29	0x3d0637aa	0.03276793
30	0xbdb3cdd0	-0.0877949
31	0xbc3a7540	-0.011380494
32	0xbdd0299a	-0.10164185
33	0x3e3fb6d1	0.18722083
34	0xbd95e849	-0.073196955
35	0xbde56c48	-0.11202294
36	0xbd9ab647	-0.07554298
37	0xbd5cb20a	-0.05388073
38	0x3dde069e	0.10841106
39	0xbbd63e70	-0.006538205
40	0x3ddd7e4c	0.10815105
41	0x3da0aed5	0.078458466
42	0x3e2e1606	0.17000589
43	0xbd0a7e88	-0.033812076
44	0x3e3b12d4	0.18268901
45	0x3c888460	0.016664684
46	0x3d74f0dc	0.059800014
47	0xbe15de38	-0.14635551
48	0x3e23107a	0.15924254
49	0x3e4b6ccd	0.19865723
50	0xbdc8ec44	-0.09810689
51	0x3c514709	0.012773284
52	0xbd70b9c4	-0.05877091
53	0xbd11c283	-0.03558589
54	0xbcb85cff	-0.022505281
55	0xbd0ebabd	-0.034846056
56	0x3e06dda4	0.13170487
57	0x3d865a59	0.06560201
58	0xbe6dfc87	-0.23240863
59	0xbd458176	-0.048219167
60	0xbc2595b6	-0.010106495
61	0x3d900cbe	0.070336804
62	0x3cdfb806	0.027309429
63	0x3b52992f	0.0032134762
64	0xbcb11521	-0.02161652
65	0x3a97d1e5	0.0011582939
66	0xbd8dddc3	-0.06927063
67	0xbc87e008	-0.016586319
68	0x3d4fc6fc	0.050726876
69	0x3d535229	0.051592026
70	0xbd1040e8	-0.03521815
71	0x3c7bb6b2	0.015363382
72	0x3d5065ac	0.05087821
73	0xbe1f4b7a	-0.15556136
74	0x3d2feb4c	0.042949006
75	0x3be4da0b	0.0069840006
76	0x3da5e521	0.081003435
77	0xbd748e30	-0.059705913
78	0xbdcc6222	-0.09979655
79	0x3d8a0cee	0.067407474
80	0x3bbffeb7	0.005859222
81	0xbe0310e1	-0.12799408
82	0x3d915d78	0.07097906
83	0x3dc149b9	0.094378896
84	0x3e3e9a83	0.18613629
85	0x3da5d23d	0.080967404
86	0x3e11a43b	0.14222805
87	0xbcae3cb2	-0.021269176
88	0x3c8a27c0	0.016864657
89	0xbd246e9a	-0.04014454
90	0x3da29259	0.0793807
91	0xbe6fa6de	-0.23403499
92	0x3b634b17	0.0034682208
93	0xbbe3c83f	-0.0069513614
94	0x3bf8414c	0.0075761434
95	0xbd223b2b	-0.03960721
96	0x3d730a61	0.05933607
97	0xbe3753f4	-0.1790312
98	0xbd57b6af	-0.052664455
99	0x3d80fb77	0.06297963
100	0xbe065310	-0.13117623
101	0xbda19aeb	-0.078908764
102	0x3d46758f	0.048451956
103	0x3e06f994	0.13181144
104	0x3d8a8a86	0.067647025
105	0x3cb8492c	0.022495829
106	0xbbfc9807	-0.0077085528
107	0xbe34ad92	-0.17644337
108	0x3dd1c3fb	0.102424584
109	0xbddad777	-0.10685628
110	0xbdfa3f3f	-0.122190945
111	0x3e535ca4	0.20640808
112	0xbcafd857	-0.021465464
113	0x3e642006	0.22277841
114	0x3e1e8ceb	0.15483443
115	0xbcfe405d	-0.03103655
116	0x3d65a279	0.05606315
117	0xbd6c19a8	-0.057641655
118	0xbcb2e0dc	-0.021835737
119	0x3e0a6360	0.13514471
120	0x3c4ac1fe	0.012375353
121	0xbdace030	-0.08441198
122	0x3e205961	0.15659095
123	0x3e10cc45	0.14140423
124	0x3e0c3f95	0.1369613
125	0x3ccd5ce3	0.025068706
126	0xbe4d953d	-0.20076461
127	0x3b29ac71	0.0025890137
128	0xbe325cb9	-0.17418183
129	0x3de84df7	0.113429956
130	0xbd81df68	-0.063414395
131	0x3d76eb16	0.06028279
132	0x3c324786	0.01088131
133	0xbe1cbb9c	-0.15305942
134	0xbdc21a15	-0.09477631
135	0x3dac3326	0.08408193
136	0x3d824243	0.06360295
137	0xbe024893	-0.12722997
138	0x3daa531d	0.08316634
139	0xbd50d5a8	-0.05098501
140	0x3d294fcf	0.041335877
141	0xbdab11f0	-0.08353031
142	0xbd120171	-0.035645906
143	0xbd8532a6	-0.06503801
144	0x3e0a0860	0.13479757
145	0x3e0e8d7c	0.1392116
146	0x3df42be5	0.11922435
147	0x3db7726e	0.089573726
148	0xbe19842c	-0.14991826
149	0x3d74dfd4	0.05978377
150	0x3de27add	0.110585906
151	0xbdb8ada3	-0.090174936
152	0xbc919688	-0.017771974
153	0x3e0203b9	0.12696733
154	0x3d996c17	0.074913196
155	0x3d0acbc6	0.03388574
156	0xbddd843b	-0.108162366
157	0xbd13b4bf	-0.036061045
158	0xbe68bfe3	-0.22729449
159	0x3e27a7ab	0.16372554
160	0xbd969c81	-0.073540695
161	0x3da58470	0.08081901
162	0xbd02d301	-0.03193951
163	0xbdbd3bc3	-0.09239914
164	0x3df423c7	0.119208865
165	0xbe141f3c	-0.1446504
166	0x3c74fd14	0.014952917
167	0x3d154438	0.03644201
168	0xbd87376b	-0.06602367
169	0xbd203f12	-0.03912265
170	0x3e6b5d70	0.22984862
171	0xbda621d0	-0.08111918
172	0x3e903d5d	0.28171816
173	0xbd14a34f	-0.036288556
174	0xbc355700	-0.011068106
175	0xbba7f87f	-0.0051260586
176	0x3e1cb3f3	0.1530302
177	0xbdd79922	-0.10527255
178	0x3c90b299	0.017663287
179	0x3e0a2ded	0.13494082
180	0xbe1ee521	-0.15517093
181	0x3acedfa2	0.00157832
182	0xbe451a98	-0.19248426
183	0x3cc74c94	0.024328507
184	0x3e461d2e	0.19347069
185	0x3dda8a0b	0.10670861
186	0xbd4863f9	-0.048923466
187	0x3db00724	0.08595112
188	0x3cd76269	0.026292043
189	0xbde0d7dc	-0.10978672
190	0xbdd400c0	-0.103517056
191	0xbd98d59b	-0.07462617
192	0xbddbaabf	-0.107259266
193	0xbd817a9f	-0.06322216
194	0xbe3cfa31	-0.18454815
195	0xbe0bc03d	-0.13647552
196	0xbe37b034	-0.1793831
197	0x3da0838d	0.07837591
198	0xbd092f65	-0.033492465
199	0x3d9b99c7	0.0759769
200	0xbd3447ba	-0.044013716
201	0xbd866a8c	-0.06563291
202	0xbd04ae0f	-0.032392558
203	0xbd87367d	-0.0660219
204	0x3e3c793d	0.18405624
205	0x3c49d19a	0.012318039
206	0xbd2ebcf0	-0.042660654
207	0x3e34b2e1	0.17646362
208	0xbd40b4df	-0.047047492
209	0xbcadd86e	-0.021221366
210	0x3d1f6511	0.038914744
211	0x3e16693c	0.14688581
212	0x3e913d61	0.2836714
213	0xbde0ad21	-0.10970522
214	0xbd3b72a0	-0.04576361
215	0x3cc3f51f	0.023920594
216	0xbd5bb793	-0.053641867
217	0x3d681c6f	0.05666774
218	0xbca89357	-0.02057807
219	0xbda304f6	-0.079599306
220	0x3d5f9e33	0.05459423
221	0xbdeb5cc6	-0.114923045
222	0x3e1edfb6	0.15515026
223	0xbe305ad2	-0.17222145
224	0x3da69b39	0.08135075
225	0xbe2e2e18	-0.17009771
226	0x3c52154c	0.01282246
227	0xbdb19d36	-0.08672564
228	0x3d73b53a	0.059499003
229	0xbd014251	-0.031557385
230	0xbe45c086	-0.19311723
231	0x3d332886	0.043739818
232	0x3a5bcd75	0.00083848025
233	0x3e3e9b27	0.18613873
234	0x3d5eacca	0.054364003
235	0xbe12e296	-0.14344248
236	0x3c9c329c	0.019067101
237	0xbdd0524c	-0.10171947
238	0xbd8831b4	-0.06650105
239	0xbdbe4a2d	-0.09291492
240	0x3db14e26	0.08657484
241	0xbdbd2c6c	-0.092369884
242	0x3e368af7	0.17826448
243	0x3c2ca977	0.01053845
244	0x3c2aad72	0.010417329
245	0x3c98abd7	0.018636627
246	0x3dd73f16	0.105100796
247	0x3d0e4363	0.034732234
248	0xbe687d19	-0.22703971
249	0x3e155fac	0.14587277
250	0x3d88e0f0	0.066835284
251	0x3ce4a4e4	0.027910657
252	0x3dd34854	0.1031653
253	0x3d947e02	0.072505966
254	0xbdae55f1	-0.08512486
255	0xbe46af76	-0.1940287
