results/ppo/OpponentAI/OpponentAI-1555035.onnx (onnx, 119084 bytes, 5 tensors)

action_model._continuous_distribution.mu.weight f4 [1, 128]
-0.08963106 -0.1149897 -0.042231187 -0.028957905 0.024523063 -0.07032467 -0.065763585 0.056864988
-0.024199117 0.03395131 0.038052678 0.12417217 -0.03475372 0.11263285 0.07918734 -0.033034187
0.06643385 -0.023775578 0.077646784 -0.05477709 -0.06695506 -0.087448865 0.07976705 0.055538144
-0.013225975 0.11808677 -0.055177905 -0.041474003 -0.09717418 -0.07697701 -0.011621022 0.0589718
0.020372797 -0.038939092 0.07788765 0.12380758 0.04971935 0.061172515 0.07165528 -0.05589331
0.11036472 -0.11559158 0.111585714 -0.03440188 -0.086404786 -0.07735515 -0.049529847 0.07722256
0.063192695 0.0013521741 0.078870334 -0.062548384 0.04341761 -0.028436111 0.13742599 0.09955653
0.10855055 0.07245773 0.008996907 -0.038674295 -0.07927041 -0.061741583 0.120031536 -0.011098706
0.1093194 0.037377845 0.051683985 -0.027519617 -0.087179646 -0.06564077 0.09107286 0.024722809
-0.0079043815 -0.022971816 -0.041471217 -0.052998178 0.07841649 0.07601926 -0.0858518 0.06211354
0.07288375 -0.09581878 0.07364844 0.03992816 0.050020803 0.0899295 0.027688347 0.08008737
0.0111937625 0.112279564 0.025777567 -0.061402146 0.03321984 -0.09429508 -0.02813595 0.061688166
0.031249795 0.10779669 -0.05979277 -0.021471871 0.03245339 -0.03733244 -0.07050292 0.020943834
0.03532642 0.04371022 -0.008248421 0.041000135 0.09513418 -0.048218004 -0.037679385 0.015677655
0.081914894 0.0015873929 -0.02102248 0.06675737 -0.0649203 -0.017433727 -0.00052020967 -0.06186644
-0.04389634 -0.11399452 -0.012559584 0.079569116 -0.075370416 0.09894566 -0.046703957 -0.043732997
00000000: 7d90 b7bd b87f ebbd 9cfa 2cbd 2139 edbc
00000010: 97e4 c83c 6106 90bd 0faf 86bd 43eb 683d
00000020: 3a3d c6bc 8710 0b3d 20dd 1b3d fb4d fe3d
00000030: eb59 0ebd 0dac e63d f92c a23d db4e 07bd
00000040: 780e 883d 00c5 c2bc 4705 9f3d f15d 60bd
00000050: bc1f 89bd 6418 b3bd e85c a33d f77b 633d
00000060: c3b1 58bc 7ad7 f13d 3a02 62bd a5e0 29bd
00000070: 4203 c7bd 1fa6 9dbd 1966 3ebc 6a8c 713d
00000080: dae4 a63c 997e 1fbd 8f83 9f3d d48e fd3d
00000090: 84a6 4b3d 0890 7a3d 01c0 923d 62f0 64bd
000000a0: e606 e23d 47bb ecbd 0d87 e43d fce8 0cbd
000000b0: fef4 b0bd 606c 9ebd cfdf 4abd dd26 9e3d
000000c0: 2c6b 813d 6f3b b13a c586 a13d 5e19 80bd
000000d0: aad6 313d d9f2 e8bc 66b9 0c3e 4be4 cb3d
000000e0: c04f de3d b864 943d c367 133c f068 1ebd
000000f0: 8658 a2bd bee4 7cbd 18d3 f53d 59d7 35bc
00000100: d9e2 df3d 8319 193d 96b2 533d d270 e1bc
00000110: 3e8b b2bd ab6e 86bd 6884 ba3d 7d87 ca3c
00000120: 6181 01bc 642f bcbc b9dd 29bd 9e14 59bd
00000130: d398 a03d fcaf 9b3d 12d3 afbd c46a 7e3d
00000140: 1344 953d a33c c4bd fed4 963d b68b 233d
00000150: 9de2 4c3d f52c b83d acd2 e23c d904 a43d
00000160: 0b66 373c d4f2 e53d 7a2b d33c d180 7bbd
00000170: 8711 083d c71d c1bd 5d7d e6bc bbac 7c3d
00000180: 92ff ff3c 83c4 dc3d 43e9 74bd c7e5 afbc
00000190: d9ed 043d e7e9 18bd d663 90bd 6792 ab3c
000001a0: 70b2 103d 7d09 333d 6324 07bc c2ef 273d
000001b0: b5d5 c23d 3e80 45bd b355 1abd 6d6e 803c
000001c0: ffc2 a73d 1110 d03a 5637 acbc 17b8 883d
000001d0: eff4 84bd 2dd1 8ebc ae5e 08ba aa67 7dbd
000001e0: a6cc 33bd f575 e9bd b7c6 4dbc 22f5 a23d
000001f0: ce5b 9abd 06a4 ca3d a64c 3fbd 5f21 33bd

network_body._body_endoder.seq_layers.0.bias f4 [128]
-0.014434863 -0.027145432 0.011769145 0.00061037164 0.02311431 0.02191008 -0.041953184 0.008913224
0.008102434 0.031677403 -0.03013479 -0.0010181374 0.036965486 -0.03471277 -0.011732988 -0.006777009
0.025416255 0.0045588636 0.019090233 0.005229998 -0.03231596 0.0032959965 0.011417175 -0.009370523
0.024237264 0.018051006 0.00885494 0.032185815 0.02141229 0.015932309 0.0053711105 0.06633771
0.01897453 0.009368647 0.04206057 0.029542187 -0.0037083675 -0.010266135 0.000115142735 -0.005229267
0.008810929 0.010638223 0.024183372 -0.0024434042 0.03322515 -0.014919373 -0.00094139995 0.009205659
0.027926711 -0.0037333746 0.0038862894 0.01708914 0.015680036 0.0044109453 -0.02753651 0.023084888
0.041856512 -0.00820855 0.020150218 -0.002041618 -0.015957238 -0.017063424 0.03158229 -0.006985311
0.0551193 0.027486322 0.037003316 -0.020974765 0.009629513 0.009673368 0.021301081 0.022428848
-0.009450359 0.0050954316 0.0069819055 0.024351487 0.01136225 -0.014926024 0.030939903 0.02324584
0.00084418297 -0.001679739 -0.015392208 0.019978663 0.044895075 0.026921976 0.024103636 0.03093879
-0.025575463 -0.016311925 0.022468334 0.012110618 -0.008791616 -0.0071650865 0.029134292 0.022182994
0.038855366 0.025731117 -0.03186071 0.006933057 -0.0048593497 0.011637704 0.0056343027 0.046134107
0.0032575077 0.036046747 0.008658816 0.022510428 0.055326577 0.029414106 0.0130956 -0.025593137
-0.021671599 -0.022645472 0.02007852 0.0024313633 0.018516844 0.014680915 0.049661893 0.00809496
0.091831334 0.022185424 0.021813132 0.015864745 0.015164331 0.02504057 0.0066909115 0.012626699
00000000: 3480 6cbc 1960 debc 5fd3 403c 5901 203a
00000010: 395a bd3c c57c b33c 1ad7 2bbd c508 123c
00000020: 12c0 043c 2ac0 013d 3cdd f6bc 0673 85ba
00000030: 1f69 173d fa2e 0ebd b83b 40bc ac11 debb
00000040: c035 d03c 8562 953b 1f63 9c3c 6760 ab3b
00000050: bd5d 04bd a501 583b 1a0f 3b3c d286 19bc
00000060: 3a8d c63c b4df 933c 4f14 113c 46d5 033d
00000070: d468 af3c 7984 823c 2400 b03b 11dc 873d
00000080: 7970 9b3c f47e 193c b447 2c3d 7502 f23c
00000090: 1508 73bb 4b33 28bc c978 f138 455a abbb
000000a0: b75b 103c f14b 2e3c 351c c63c 8521 20bb
000000b0: 1817 083d 6370 74bc 48c8 76ba 55d3 163c
000000c0: 8fc6 e43c a2ab 74bb 1eb1 7e3b 86fe 8b3c
000000d0: 6b73 803c b189 903b 3f94 e1bc 851c bd3c
000000e0: bc71 2b3d 277d 06bc 1212 a53c abcc 05bb
000000f0: c1b8 82bc 98c8 8bbc 6e5c 013d 09e5 e4bb
00000100: c6c4 613d ff2a e13c ca90 173d 45d3 abbc
00000110: 1bc5 1d3c 0c7d 1e3c 9b7f ae3c b4bc b73c
00000120: aed5 1abc 94f7 a63b 78c8 e43b c57c c73c
00000130: bb28 3a3c 488c 74bc ae75 fd3c 0f6e be3c
00000140: 294c 5d3a b02a dcba 992f 7cbc 4baa a33c
00000150: e6e3 373d 7a8b dc3c fd74 c53c 5873 fd3c
00000160: a283 d1bc 96a0 85bc 830f b83c 9d6b 463c
00000170: b60a 10bc 1ac9 eabb 0aab ee3c 1cb9 b53c
00000180: ce26 1f3d 10ca d23c 6080 02bd b32e e33b
00000190: 2e3b 9fbb 12ac 3e3c f59f b83b 1ef7 3c3d
000001a0: e97b 553b c1a5 133d b5dd 0d3c ca67 b83c
000001b0: 1f9e 623d daf5 f03c ed8e 563c b3a8 d1bc
000001c0: a388 b1bc ff82 b9bc b57b a43c 8257 1f3b
000001d0: a3b0 973c 3888 703c 456a 4b3d b9a0 043c
000001e0: 1112 bc3d 35be b53c 74b1 b23c c8f6 813c
000001f0: d073 783c e221 cd3c 6f3f db3b 37e0 4e3c

network_body._body_endoder.seq_layers.0.weight f4 [128, 98]
0.015147971 0.04720089 0.164132 0.08998283 0.16559401 -0.19881397 -0.013934678 0.0011017561
0.1950839 0.037920825 0.039523687 0.017891323 0.110145256 -0.1792039 0.012946023 -0.040723085
-0.06464238 0.008606113 0.03193034 -0.23848146 0.0043041194 0.036456674 -0.0060508423 -0.03385509
0.12259695 0.039608475 -0.020849833 0.020046245 -0.09063728 0.08255691 -0.12208901 -0.04503981
-0.047099408 -0.053108346 -0.32684547 -0.23112303 0.0684969 -0.020560829 -0.07326581 0.040542126
0.08806906 -0.021196175 -0.09777191 0.010995931 0.16907503 -0.04941387 0.041085873 0.042064827
0.018700285 -0.02460001 -0.007407262 0.14450324 0.0498019 -0.060185052 -0.20128648 0.0782455
0.03719812 -0.1469056 0.03878833 0.10381482 -0.037741333 -0.14028963 0.010493052 -0.29553947
-0.1619381 0.063815795 0.103909515 0.22037922 -0.22189663 -0.12561592 -0.042972155 -0.03187395
0.0008739974 -0.035768975 0.017583838 -0.058551613 -0.0029639245 -0.20535769 0.07367452 -0.08007039
0.10736217 -0.112188 -0.15263112 -0.16415676 0.20150033 0.15416618 0.090942435 0.038361024
-0.11592217 -0.1468989 0.035545472 -0.044824626 -0.044364117 0.018557513 -0.3508242 -0.06480875
0.06966137 -0.0020711117 0.10975439 -0.12608649 0.1611646 -0.14077498 -0.1114731 -0.09121752
-0.13878933 0.042869512 -0.14326687 0.15122022 0.04643574 0.14022015 0.068612255 -0.05395165
0.00011102198 0.02452824 -0.097831406 -0.06825968 0.060932484 0.07572539 0.06765305 -0.10442841
-0.2659005 -0.06713101 0.07335278 -0.09035805 -0.03453077 -0.17454778 0.10139255 0.047589224
-0.07007166 0.07715981 0.07921813 0.12763788 -0.037134197 -0.028570032 -0.03619975 -0.052988235
-0.035909843 0.060875718 -0.03544425 -0.14438657 -0.18675707 -0.013176073 -0.0019101073 -0.09204189
-0.063918985 0.037359808 -0.1352434 -0.07465798 0.07234833 0.034426957 -0.12614244 -0.023387803
-0.14577718 -0.20946258 0.029587626 -0.08398538 0.1213595 0.0022595678 -0.13780159 -0.1411291
-0.020619083 -0.07170588 -0.14090021 -0.2759462 0.02482155 0.07797197 0.12910505 0.06702333
0.04998415 0.029862689 0.014101885 -0.00092543184 0.055083696 0.06490709 -0.043735683 0.09169664
0.069621526 0.0019653346 -0.067742616 -0.094285235 0.10370132 -0.016345168 -0.002952125 0.05017547
0.24729168 0.15981185 0.058883782 -0.1429816 -0.11789632 0.05441116 0.17789663 0.04980657
-0.018411301 0.14320174 0.0056244787 0.07228987 0.17786647 0.13960609 0.0820383 0.135335
-0.17066552 0.061119933 -0.12044138 -0.18974626 0.09380257 0.22639415 -0.06060356 -0.095151
0.15692781 0.017626904 -0.17937769 -0.08182999 -0.11395284 0.1697048 0.058026794 0.3060434
0.10430693 -0.07822218 -0.019902557 0.028840192 0.06331241 -0.10644682 0.053484976 0.021456564
0.1164664 -0.16921398 0.011651098 -0.022014186 0.31938192 -0.018065473 0.10358183 -0.15480442
-0.103909686 -0.023296125 0.1742917 -0.084988564 0.14957058 -0.056973487 0.11419112 -0.024862234
-0.058997992 -0.10144488 0.11007116 -0.11155844 -0.06769372 -0.05412575 -0.007652348 0.13259518
0.086189725 6.896849e-05 -0.21308152 -0.012843273 -0.059475504 0.022005098 0.0126949055 -0.010061741
00000000: 322f 783c b855 413d 3812 283e eb48 b83d
00000010: 7a91 293e e495 4bbe 474e 64bc cd68 903a
00000020: 13c4 473e de52 1b3d 97e3 213d d390 923c
00000030: d693 e13d 3a81 37be 8e1b 543c 40cd 26bd
00000040: 3963 84bd a700 0d3c 63c9 023d 7c34 74be
00000050: 9209 8d3b 9853 153d 2546 c6bb a3ab 0abd
00000060: 1c14 fb3d 7f3c 223d 45cd aabc 0638 a43c
00000070: 0aa0 b9bd 9913 a93d ce09 fabd aa7b 38bd
00000080: 4feb 40bd 2388 59bd 4a58 a7be 84ab 6cbe
00000090: 1a48 8c3d 2f6f a8bc 630c 96bd 800f 263d
000000a0: 8d5d b43d 9aa3 adbc a43c c8bd 4728 343c
000000b0: 0122 2d3e 3366 4abd a949 283d 2b4c 2c3d
000000c0: 5731 993c f685 c9bc 9eb8 f2bb a8f8 133e
000000d0: 14fd 4b3d 9a84 76bd 0b1e 4ebe 2d3f a03d
000000e0: 0e5d 183d 6c6e 16be 83e0 1e3d dd9c d43d
000000f0: a896 1abd 16a8 0fbe 0deb 2b3c f350 97be
00000100: 1ad3 25be dbb1 823d 83ce d43d 17ab 613e
00000110: df38 63be 76a1 00be 9203 30bd 428e 02bd
00000120: f91c 653a 7d82 12bd fb0b 903c d1d3 6fbd
00000130: 673e 42bb 4949 52be abe2 963d f2fb a3bd
00000140: b3e0 db3d d2c2 e5bd 554b 1cbe b618 28be
00000150: 1a56 4e3e bddd 1d3e 0740 ba3d 7320 1d3d
00000160: 9a68 edbd aa6c 16be 2198 113d 079a 37bd
00000170: 26b7 35bd ed05 983c 3b9f b3be 73ba 84bd
00000180: 9faa 8e3d 7dbb 07bb e9c6 e03d d11c 01be
00000190: 5508 253e 5127 10be 024c e4bd 40d0 babd
000001a0: ca1e 0ebe f197 2f3d 8db4 12be 79d9 1a3e
000001b0: 6733 3e3d df95 0f3e 9584 8c3d 68fc 5cbd
000001c0: 79d4 e838 73ef c83c d55b c8bd bbcb 8bbd
000001d0: 5794 793d ea15 9b3d af8d 8a3d 90de d5bd
000001e0: 1c24 88be fc7b 89bd fb39 963d a40d b9bd
000001f0: 2370 0dbd a7bc 32be e6a6 cf3d ebec 423d
00000200: bb81 8fbd f605 9e3d 1d3d a23d 81b3 023e
00000210: 071a 18bd b30b eabc 3046 14bd 310a 59bd
00000220: 3316 13bd d158 793d fd2d 11bd 13da 13be
00000230: 3f3d 3fbe 75e0 57bc 915c faba 7580 bcbd
00000240: f5e7 82bd 9906 193d 3f7d 0abe 48e6 98bd
00000250: 5c2b 943d 4803 0d3d 7c2b 01be c797 bfbc
00000260: 9d46 15be 5c7d 56be c061 f23c 8700 acbd
00000270: 548b f83d 4215 143b dc1b 0dbe 2684 10be
00000280: 5ae9 a8bc 88da 92bd 2548 10be d248 8dbe
00000290: 9056 cb3c c5af 9f3d 1d34 043e 8743 893d
000002a0: 2ebc 4c3d 99a2 f43c 980b 673c ae98 72ba
000002b0: 719f 613d 02ee 843d 3024 33bd 73cb bb3d
000002c0: bb95 8e3d d8cc 003b a4bc 8abd 9e18 c1bd
000002d0: 5c61 d43d 4de6 85bc 7078 41bb cb84 4d3d
000002e0: 083a 7d3e b8a5 233e 1f30 713d c569 12be
000002f0: a073 f1bd 3dde 5e3d 892a 363e f901 4c3d
00000300: 4cd3 96bc 7aa3 123e 8c4d b83b b60c 943d
00000310: a122 363e e6f4 0e3e b203 a83d 4295 0a3e
00000320: f1c2 2ebe e558 7a3d f8a9 f6bd d84c 42be
00000330: 901b c03d ded3 673e 703b 78bd 87de c2bd
00000340: afb1 203e 4c66 903c c9ae 37be 7b96 a7bd
00000350: 1b60 e9bd 18c7 2d3e 81ad 6d3d b8b1 9c3e
00000360: df9e d53d f332 a0bd b00a a3bc 4442 ec3c
00000370: f0a9 813d ca00 dabd 1013 5b3d adc5 af3c
00000380: f085 ee3d 6e46 2dbe 3fe4 3e3c 1857 b4bc
00000390: 0786 a33e 0bfe 93bc b622 d43d 0d85 1ebe
000003a0: 9ace d4bd 84d7 bebc 8679 323e 7c0e aebd
000003b0: 0829 193e 085d 69bd 09dd e93d e2ab cbbc
000003c0: e1a7 71bd 55c2 cfbd fd6c e13d c078 e4bd
000003d0: 01a3 8abd f6b2 5dbd 8cc0 fabb 08c7 073e
000003e0: 3d84 b03d 2da3 9038 0b32 5abe 976c 52bc
000003f0: 969c 73bd 0944 b43c 4bfe 4f3c 00da 24bc

network_body._body_endoder.seq_layers.2.bias f4 [128]
0.026559032 0.038229324 -0.0032056053 0.00016493363 0.0027218459 0.03378547 0.017056584 0.012101212
0.0041799615 0.01535914 0.0078877425 0.015837565 0.018253032 0.010772618 0.038610466 0.008215008
0.022894278 0.004748154 0.016276455 0.010139205 0.010351998 0.029481538 0.024930295 0.0075594285
-0.0028985727 0.02744688 0.019239556 0.013048323 0.015646474 0.035299543 0.009650021 0.019583497
0.019137254 0.010151192 0.01878272 0.021028895 0.0050397688 0.030945828 0.039402265 0.012616784
0.019378886 0.040046062 0.026287172 0.018672965 0.02330861 0.018766109 0.03062294 0.018146118
0.022698583 -0.006525305 0.025349904 0.021260278 0.020453762 0.009513361 0.024551403 0.019795071
0.014192645 0.023302814 0.0036736648 0.015761921 0.026329607 0.022968315 0.029602053 -0.0015702228
0.031265806 0.007905554 0.026740631 0.010293142 0.018462341 0.031890534 0.019409798 0.005384643
-0.001373652 0.022014515 0.013191064 0.02935227 0.019217767 0.017383887 0.016811946 0.014200533
0.032231696 0.021389673 0.017682746 0.0369955 0.0062833987 0.044306614 0.004045706 0.022869935
0.0018936603 0.024836948 0.00047758195 0.02919552 0.0072470703 0.025051365 0.0075096176 0.0043981597
0.010043383 0.021597797 0.02110563 0.007603659 0.008717636 0.009190588 0.030501 0.010967679
-0.0047420682 0.017494747 0.004464927 0.0053482717 0.03447017 0.014538856 0.009582512 0.010255145
0.021789651 0.01300348 0.015478544 0.021144541 0.012510687 0.004155746 -0.0016604139 0.029608607
0.0066222223 0.034487545 0.0020625792 0.013812369 0.029000178 0.014966496 0.011851203 0.0056772167
00000000: 5492 d93c 5a96 1c3d 2215 52bb 09f2 2c39
00000010: ff60 323b a262 0a3d 40ba 8b3c 2944 463c
00000020: 0ff8 883b e7a4 7b3c 973b 013c c8bd 813c
00000030: 6287 953c a37f 303c 0226 1e3d 3e98 063c
00000040: c88c bb3c 6796 9b3b 3356 853c e81e 263c
00000050: 6d9b 293c 4483 f13c 9e3a cc3c 15b5 f73b
00000060: fbf5 3dbb 47d8 e03c 469c 9d3c a2c8 553c
00000070: 092d 803c 4196 103d 1f1b 1e3c 926d a03c
00000080: bbc5 9c3c 2f51 263c 38de 993c ca44 ac3c
00000090: a524 a53b 1b82 fd3c 4564 213d a1b6 4e3c
000000a0: 78c0 9e3c 5707 243d 3258 d73c 0cf8 983c
000000b0: b3f1 be3c 62bb 993c f6dc fa3c 2ba7 943c
000000c0: 61f2 b93c 3ad2 d5bb 9aaa cf3c 092a ae3c
000000d0: a68e a73c eedd 1b3c 0620 c93c 4629 a23c
000000e0: 4588 683c 8be5 be3c dec1 703b 251f 813c
000000f0: 30b1 d73c 0c28 bc3c 0180 f23c efcf cdba
00000100: 9310 003d 4c86 013c 2b0f db3c 91a4 283c
00000110: 563e 973c a69f 023d 4c01 9f3c a971 b03b
00000120: 1d0c b4ba c957 b43c 551f 583c 2c74 f03c
00000130: 946e 9d3c a768 8e3c 35b9 893c 5aa9 683c
00000140: 6205 043d 6539 af3c 68db 903c 9888 173d
00000150: f8e4 cd3b da7a 353d d791 843b bb59 bb3c
00000160: b234 f83a db76 cb3c f763 fa39 712b ef3c
00000170: d578 ed3b 8538 cd3c 3d13 f63b 701e 903b
00000180: 008d 243c dded b03c b7e5 ac3c 1d28 f93b
00000190: 6ad4 0e3c 1f94 163c 3cdd f93c c8b1 333c
000001a0: 5a63 9bbb 2551 8f3c 864e 923b 8e40 af3b
000001b0: 9830 0d3d 6234 6e3c f8ff 1c3c 3205 283c
000001c0: 3680 b23c 8c0c 553c b899 7d3c 5137 ad3c
000001d0: a0f9 4c3c ed2c 883b 3fa2 d9ba c08d f23c
000001e0: 3aff d83b d042 0d3d 562c 073b 464d 623c
000001f0: c891 ed3c 0936 753c 8c2b 423c f207 ba3b

network_body._body_endoder.seq_layers.2.weight f4 [128, 128]
-0.2481687 0.051411554 -0.010840819 -0.03432476 0.18293181 -0.24568103 -0.2745757 -0.0041332645
-0.1215033 -0.19544418 -0.097604394 -0.01204037 0.13334402 0.006166431 0.07897172 -0.21757601
0.092183545 0.025501223 0.042363964 -0.0007800735 -0.1015874 -0.05458719 -0.00778051 -0.028256562
0.020644102 0.07368383 0.026684439 -0.100048125 -0.017049221 0.038393274 -0.079040416 -0.016937507
-0.080939926 0.18661535 -0.066514514 -0.11175161 -0.087403476 -0.05093447 0.11107171 -0.0060261157
0.1023924 0.07503035 0.16704822 -0.04308114 0.17636894 0.020563396 0.055648427 -0.15741108
0.15564993 0.20402806 -0.09736652 0.0041612796 -0.063919924 -0.031350162 -0.012478814 -0.038537014
0.13214037 0.06451873 -0.23294237 -0.05844652 -0.008477832 0.06299674 0.03245472 0.011034239
-0.021557609 -0.0025316118 -0.0704521 -0.000111074194 0.04798154 0.039259795 -0.034430314 0.0106317755
0.051839255 -0.15694314 0.037737887 0.012903121 0.08127298 -0.053520977 -0.106442854 0.06622294
0.006827225 -0.13930485 0.0645767 0.08400536 0.18402015 0.088357516 0.1438826 -0.022858253
0.024198009 -0.03559917 0.083276086 -0.23563302 0.005303926 0.00010043815 0.009922193 -0.030502804
0.06365968 -0.17459024 -0.055716474 0.057334036 -0.13477539 -0.078468196 0.05429845 0.12348208
0.06843568 0.016342055 -0.010436829 -0.17797461 0.10688902 -0.106990024 -0.11307613 0.19929364
-0.022592723 0.21600404 0.15104052 -0.032990064 0.03808425 -0.05754686 -0.025108708 0.13148747
0.011509631 -0.0916954 0.15963487 0.13027233 0.15436536 0.026919989 -0.20317547 0.0013421555
-0.16057625 0.1144789 -0.057531476 0.06639519 0.011572716 -0.15309538 -0.089114025 0.08177651
0.07232074 -0.13350113 0.07941437 -0.050119698 0.040618464 -0.08536851 -0.032102004 -0.0624915
0.1316151 0.14343579 0.115830414 0.08779238 -0.14575008 0.06283514 0.111631386 -0.09143372
-0.022372961 0.12234757 0.073473975 0.036153726 -0.10922659 -0.03335425 -0.21074791 0.15971164
-0.056199115 0.078997165 -0.022107612 -0.09197472 0.110572346 -0.1428856 0.017183214 0.03774553
-0.06805151 -0.043774407 0.2257082 -0.08962952 0.27399993 -0.036881033 -0.014652225 -0.013529821
0.14748773 -0.10555147 0.016008671 0.12890826 -0.15719654 0.007218049 -0.18750395 0.020117387
0.19583099 0.10308405 -0.04469277 0.075832695 0.031135691 -0.10805297 -0.099196985 -0.07174268
-0.10760013 -0.06383518 -0.18261501 -0.12850016 -0.1817069 0.069217026 -0.034631744 0.070707686
-0.04512595 -0.06234014 -0.03922341 -0.059027445 0.18232657 0.02062999 -0.04727585 0.17296185
-0.042179536 -0.032246683 0.036141034 0.14246254 0.27831084 -0.105073705 -0.04685334 0.021639703
-0.050174605 0.055547025 -0.018633924 -0.07799334 0.053275023 -0.1057476 0.1632294 -0.15731114
0.084969714 -0.1621515 0.012556599 -0.087642714 0.05492301 -0.02754807 -0.18406424 0.035730865
0.00015174756 0.17825057 0.050841298 -0.14559622 0.023300286 -0.10006144 -0.055522464 -0.10597746
0.086468816 -0.106728256 0.17422001 0.005124375 -0.004173643 0.015778568 0.102034956 0.028252719
-0.22784054 0.13487425 0.0671366 0.015818227 0.113704056 0.0704965 -0.08142522 -0.19527714
00000000: f01f 7ebe ec94 523d b19d 31bc 1f98 0cbd
00000010: 7a52 3b3e cf93 7bbe 3095 8cbe 5670 87bb
00000020: b9d6 f8bd 8522 48be d0e4 c7bd f944 45bc
00000030: 568b 083e c60f ca3b edbb a13d 3fcc 5ebe
00000040: baca bc3d f1e7 d03c d685 2d3d d97d 4cba
00000050: 0e0d d0bd d196 5fbd a6f3 febb 4e7a e7bc
00000060: d21d a93c 8ce7 963d 5399 da3c 08e6 ccbd
00000070: cfaa 8bbc 4442 1d3d f1df a1bd 87c0 8abc
00000080: d5c3 a5bd 1818 3f3e c338 88bd 07de e4bd
00000090: 9800 b3bd aaa0 50bd 9179 e33d b976 c5bb
000000a0: 1bb3 d13d 83a9 993d b00e 2b3e d975 30bd
000000b0: 0f9a 343e 9174 a83c 9bef 633d 5f30 21be
000000c0: b262 1f3e bbec 503e 1968 c7bd 585b 883b
000000d0: 73e8 82bd 0769 00bd f173 4cbc fdd8 1dbd
000000e0: ce4f 073e 6522 843d 7288 6ebe 9e65 6fbd
000000f0: 9be6 0abc 6f04 813d 3eef 043d f4c8 343c
00000100: 9599 b0bc 66e9 25bb 3149 90bd 81f0 e8b8
00000110: 4b88 443d e1ce 203d cd06 0dbd e630 2e3c
00000120: 6655 543d b4b5 20be 0b93 1a3d 9d67 533c
00000130: 7372 a63d d038 5bbd b6fe d9bd e59f 873d
00000140: eab6 df3b eea5 0ebe ca40 843d 010b ac3d
00000150: c76f 3c3e c9f4 b43d f655 133e 3b41 bbbc
00000160: e73a c63c 6fd0 11bd a78c aa3d c849 71be
00000170: 8ecc ad3b 52a2 d238 b290 223c 04e1 f9bc
00000180: 0260 823d c9c7 32be f536 64bd 18d7 6a3d
00000190: 8f02 0abe efb3 a0bd 0d68 5e3d 2ce4 fc3d
000001a0: 0128 8c3d c6df 853c 3cff 2abc fa3e 36be
000001b0: a1e8 da3d 961d dbbd 7594 e7bd a213 4c3e
000001c0: 6014 b9bc 2a30 5d3e 5eaa 1a3e 9720 07bd
000001d0: 3bfe 1b3d 42b6 6bbd c7b0 cdbc a7a4 063e
000001e0: e492 3c3c ccca bbbd 5377 233e 1c66 053e
000001f0: f411 1e3e 4f87 dc3c 3b0d 50be 44eb af3a
00000200: 1a6e 24be ea73 ea3d 20a6 6bbd 34fa 873d
00000210: 7d9b 3d3c 09c5 1cbe 6a81 b6bd 717a a73d
00000220: e51c 943d 85b4 08be 00a4 a23d 504a 4dbd
00000230: 8c5f 263d afd5 aebd 647d 03bd 16f7 7fbd
00000240: 1cc6 063e d5e0 123e 7f38 ed3d 7ecc b33d
00000250: 823f 15be b6af 803d ff9e e43d 9a41 bbbd
00000260: 8047 b7bc 5d91 fa3d 8679 963d ee15 143d
00000270: 31b2 dfbd 779e 08bd 4dce 57be 738b 233e
00000280: 0b31 66bd 44c9 a13d 061b b5bc 3e5d bcbd
00000290: c173 e23d 9a50 12be d0c3 8c3c 0f9b 1a3d
000002a0: 975e 8bbd cb4c 33bd 0d20 673e af8f b7bd
000002b0: b849 8c3e 9110 17bd e30f 70bc 2fac 5dbc
000002c0: 0607 173e 5e2b d8bd 9e24 833c 8700 043e
000002d0: 21f8 20be 6285 ec3b 0901 40be 38cd a43c
000002e0: eb87 483e bb1d d33d c40f 37bd 2c4e 9b3d
000002f0: 4710 ff3c e04a ddbd ca27 cbbd d4ed 92bd
00000300: 755d dcbd 05bc 82bd 6eff 3abe 8c95 03be
00000310: 6011 3abe a8c1 8d3d 04da 0dbd 31cf 903d
00000320: fdd5 38bd 6058 7fbd baa8 20bd c3c6 71bd
00000330: d1b3 3a3e 3a00 a93c 52a4 41bd e91c 313e
00000340: 73c4 2cbd 1915 04bd 9f08 143d b3e1 113e
00000350: c27e 8e3e e230 d7bd 4ae9 3fbd bf45 b13c
00000360: e383 4dbd 4785 633d 2ca6 98bc f9ba 9fbd
00000370: e936 5a3d 3392 d8bd 9c25 273e 2c16 21be
00000380: 9a04 ae3d 0b0b 26be 32ba 4d3c 067e b3bd
00000390: f3f6 603d 7dac e1bc 567b 3cbe 875a 123d
000003a0: 6d1e 1f39 5187 363e f73e 503d 2d17 15be
000003b0: 3ee0 be3c 03ed ccbd 866b 63bd b60a d9bd
000003c0: 9016 b13d 5894 dabd bb66 323e 60ea a73b
000003d0: 0ec3 88bb 0e42 813c b4f7 d03d 3f72 e73c
000003e0: 084f 69be 7a1c 0a3e ea7e 893d 3a95 813c
000003f0: acdd e83d 7860 903d 44c2 a6bd bbf6 47be
