results/ppo/OpponentAI/OpponentAI-2999977.onnx (onnx, 119084 bytes, 5 tensors)

action_model._continuous_distribution.mu.weight f4 [1, 128]
-0.094806686 -0.13290976 -0.059259858 -0.04321264 0.025335584 -0.08014193 -0.06997575 0.062883236
-0.026727466 0.045909334 0.04753277 0.12581208 -0.046960462 0.123374306 0.090030074 -0.05613485
0.07323613 -0.03129216 0.08524377 -0.060855668 -0.074175134 -0.10119566 0.08269636 0.06729008
-0.027207477 0.12802915 -0.072573416 -0.043661606 -0.10110337 -0.1051495 -0.02830936 0.06051194
0.037258 -0.037421137 0.08666361 0.13314243 0.04866858 0.09861928 0.07585906 -0.056983434
0.1184831 -0.12640887 0.11425869 -0.0496389 -0.09713959 -0.08283908 -0.06167395 0.07651504
0.0786576 0.0040897145 0.08378416 -0.072215244 0.04589433 -0.034394402 0.145242 0.10416949
0.12578988 0.07105499 0.015011855 -0.04082604 -0.0873921 -0.07486313 0.1284119 -0.009971346
0.118792556 0.041578785 0.055686172 -0.034883995 -0.09443101 -0.07833506 0.097777605 0.03667983
-0.01847438 -0.033941094 -0.047409832 -0.061067604 0.0850067 0.08303628 -0.09378249 0.07179015
0.08394314 -0.10587362 0.08744265 0.058048826 0.0598105 0.10287784 0.030988188 0.09140257
0.03719594 0.12442324 0.037646558 -0.0676776 0.033962805 -0.11067321 -0.03716648 0.08492748
0.050898355 0.11004086 -0.07526423 -0.048911158 0.042792752 -0.06405013 -0.07819086 0.03825774
0.048075683 0.051048674 -0.013595432 0.05007374 0.10056594 -0.05765166 -0.04961059 0.023563702
0.082594045 0.008960403 -0.03500083 0.084369406 -0.08174297 -0.014864082 0.0017592063 -0.07174857
-0.058868703 -0.12725931 -0.022421204 0.10682695 -0.08881491 0.10062891 -0.06551332 -0.06118248
00000000: 022a c2bd 7f19 08be 77ba 72bd bdff 30bd
00000010: 928c cf3c 7421 a4bd 724f 8fbd edc8 803d
00000020: 8ff3 dabc 6d0b 3c3d b9b1 423d e2d4 003e
00000030: 9d59 40bd abab fc3d b061 b83d a8ed 65bd
00000040: d3fc 953d 352c 00bd 4994 ae3d cb43 79bd
00000050: 22e9 97bd ac3f cfbd b65c a93d 62cf 893d
00000060: 37e2 debc 131a 033e 5fa1 94bd 83d6 32bd
00000070: 490f cfbd 9f58 d7bd 08e9 e7bc 5edb 773d
00000080: d89b 183d e846 19bd b17c b13d 7d56 083e
00000090: b458 473d e8f8 c93d ff5b 9b3d 7667 69bd
000000a0: 44a7 f23d 5471 01be 7600 ea3d 2952 4bbd
000000b0: 1ff1 c6bd 89a7 a9bd d39d 7cbd ebb3 9c3d
000000c0: 3c17 a13d 0303 863b 0897 ab3d 96e5 93bd
000000d0: b1fb 3b3d 25e1 0cbd 52ba 143e d056 d53d
000000e0: 10cf 003e 4785 913d 49f4 753c 3539 27bd
000000f0: a1fa b2bd d751 99bd 697e 033e db5e 23bc
00000100: 8349 f33d 844e 2a3d 2f17 643d 85e2 0ebd
00000110: 0c65 c1bd 226e a0bd a03f c83d 973d 163d
00000120: 9557 97bc d105 0bbd d030 42bd 0622 7abd
00000130: fe17 ae3d ed0e aa3d 0911 c0bd b706 933d
00000140: 62ea ab3d 45d4 d8bd 2215 b33d 9bc4 6d3d
00000150: dbfb 743d 9eb1 d23d f1da fd3c 4531 bb3d
00000160: c55a 183d 9dd1 fe3d 4733 1a3d 8e9a 8abd
00000170: 951c 0b3d a3a8 e2bd e13b 18bd 75ee ad3d
00000180: cb7a 503d 1a5d e13d 2224 9abd 1157 48bd
00000190: 7447 2f3d b72c 83bd 8822 a0bd 26b4 1c3d
000001a0: 02eb 443d 6a18 513d 60bf 5ebc 1f1a 4d3d
000001b0: 84f5 cd3d 2624 6cbd 7934 4bbd aa08 c13c
000001c0: 1127 a93d a7ce 123c 085d 0fbd dec9 ac3d
000001d0: dc68 a7bd 7b88 73bc 2b95 e63a eaf0 92bd
000001e0: 4f20 71bd 4450 02be acac b7bc 17c8 da3d
000001f0: 97e4 b5bd 8816 ce3d d92b 86bd 7b9a 7abd

network_body._body_endoder.seq_layers.0.bias f4 [128]
-0.0050602243 -0.023410631 0.00872833 -0.005810098 0.021965481 0.019690527 -0.03825005 0.0037509415
0.010081315 0.029719383 -0.013531773 -0.0034929786 0.038307156 -0.049648445 -0.012500779 -0.0011431654
0.024414167 0.00081568136 0.015823504 0.001713543 -0.018747142 0.0018935428 0.010723524 -0.010140333
0.028367596 0.01665069 0.006562928 0.0337493 0.022064175 0.0144463675 0.009289716 0.06342223
0.037917968 0.005024209 0.038594093 0.02856808 -0.0033945248 -0.022638444 -0.001196033 -0.003098044
0.01351476 0.006550536 0.027184857 0.0026712995 0.03404657 -0.018878292 -0.0047787996 0.0071584345
0.02764473 -0.0034243804 0.0011409426 0.01732729 0.012229441 0.0033349702 -0.017400684 0.021353627
0.040302504 -0.013164141 0.023786083 -0.0056559546 -0.017152615 -0.021419562 0.03563834 -0.008887284
0.05364958 0.02418631 0.038127806 -0.019245528 0.0069634886 0.01243937 0.021011615 0.021854434
-0.014260845 0.006010557 0.0063107773 0.027554572 0.012760249 0.012280132 0.027155474 0.022705037
0.007906604 -0.0022805717 -0.01472576 0.019423211 0.04090434 0.02469672 0.021380667 0.0320109
-0.02160604 -0.01800879 0.023230804 0.012873704 -0.032023903 0.0016633475 0.028427104 0.027295541
0.036678206 0.028971098 -0.042150743 0.003290321 -0.0061794887 0.010647713 0.016446099 0.042759147
0.00810752 0.039359115 0.00988294 0.026391558 0.052192036 0.055655863 0.01358578 -0.029619657
-0.017165244 -0.023726625 0.019368948 0.0033467927 0.021593697 0.015123985 0.049689226 0.0073667285
0.09330603 0.03132305 0.019194808 0.015731672 0.01246278 0.021910125 0.009330592 0.011635098
00000000: 3dd0 a5bb a7c7 bfbc 4501 0f3c a262 bebb
00000010: f4f0 b33c 074e a13c 16ac 1cbd 5bd2 753b
00000020: 1a2c 253c 1076 f33c 5fb4 5dbc 75ea 64bb
00000030: f7e7 1c3d 2b5c 4bbd 11d0 4cbc 44d6 95ba
00000040: 3800 c83c 73d3 553a 4ba0 813c f698 e03a
00000050: 9b93 99bc c130 f83a b8b1 2f3c a423 26bc
00000060: 2963 e83c 0767 883c d50d d73b b53c 0a3d
00000070: eebf b43c 75b0 6c3c e533 183c 84e3 813d
00000080: df4f 1b3d 1fa2 a43b d714 1e3d 9b07 ea3c
00000090: ad76 5ebb 4274 b9bc 35c4 9cba 8e08 4bbb
000000a0: 036d 5d3c e1a5 d63b c7b2 de3c f810 2f3b
000000b0: 6b74 0b3d a6a6 9abc 7a97 9cbb 4d91 ea3b
000000c0: 3377 e23c 926b 60bb ae8b 953a f6f1 8d3c
000000d0: fe5d 483c 848f 5a3b e18b 8ebc cded ae3c
000000e0: 3d14 253d 69ae 57bc 08db c23c 9655 b9bb
000000f0: a483 8cbc 1478 afbc 82f9 113d f99b 11bc
00000100: a9bf 5b3d 5e22 c63c e72b 1c3d cca8 9dbc
00000110: fa2d e43b 80ce 4b3c 8d20 ac3c 1208 b33c
00000120: 52a6 69bc 35f4 c43b a3ca ce3b 20ba e13c
00000130: 5d10 513c 9b32 493c 2875 de3c eaff b93c
00000140: b38a 013c a575 15bb 5044 71bc 6d1d 9f3c
00000150: 4f8b 273d c750 ca3c 8226 af3c dd1d 033d
00000160: 26ff b0bc 2c87 93bc 874e be3c 3aec 523c
00000170: 7f2b 03bd ae04 da3a f5df e83c e69a df3c
00000180: e33b 163d cc54 ed3c 42a6 2cbd 6da2 573b
00000190: 4f7d cabb bf73 2e3c f8b9 863c 3724 2f3d
000001a0: 67d5 043c 0637 213d 0eec 213c 1c33 d83c
000001b0: 51c7 553d 67f7 633d e496 5e3c eca4 f2bc
000001c0: 209e 8cbc 575e c2bc a1ab 9e3c dd55 5b3b
000001d0: 44e5 b03c 97ca 773c ee86 4b3d 9964 f13b
000001e0: 3b17 bf3d 994c 003d 6e3e 9d3c b5df 803c
000001f0: b030 4c3c dd7c b33c 57df 183c 23a1 3e3c

network_body._body_endoder.seq_layers.0.weight f4 [128, 98]
0.014854531 0.059199627 0.15737583 0.08998283 0.1205863 -0.07843427 0.0032511689 0.062011898
0.25223863 -0.005304526 0.039523687 -0.06648607 0.10558886 -0.14000998 0.042966034 -0.01626424
-0.05504602 0.008606113 0.037826523 -0.30447993 -0.025113419 0.10506196 -0.017949458 -0.033990182
0.12259695 0.008057011 0.004570993 0.047508467 -0.13151856 0.093119726 -0.101123914 -0.04503981
-0.025658624 -0.03891916 -0.3350883 -0.19613835 0.0069766557 -0.023144282 -0.07326581 0.041766163
0.11230563 -0.006360237 -0.08863835 0.028492568 0.16094562 -0.04941387 0.03416467 0.08679772
0.009893108 0.059370432 -0.044417765 0.118790165 0.0498019 -0.05368593 -0.18321232 0.089139745
0.07343736 -0.14017512 0.03680962 0.10381482 -0.039907515 -0.13952233 -0.008202585 -0.2404938
-0.15764688 0.038289845 0.103909515 0.21847163 -0.17749016 -0.11960536 -0.0031961906 -0.10185297
0.0305603 -0.035768975 0.036258277 -0.06619394 -0.02190634 -0.1837965 0.1271192 -0.09371077
0.10736217 -0.11053216 -0.16437046 -0.18221186 0.23475896 0.11830969 0.14186774 0.038361024
-0.10356731 -0.16114156 0.016450068 -0.04977069 -0.05623534 0.02641197 -0.36193216 -0.07208392
0.09290363 0.002513411 0.10688389 -0.09225581 0.19163293 -0.14077498 -0.07121759 -0.1268236
-0.13419563 0.03397906 -0.15077849 0.10288223 0.04643574 0.17014179 0.09554789 -0.06920512
0.018625282 0.02863332 -0.078818046 -0.06825968 0.04373752 0.0728244 0.08290695 -0.13835151
-0.29037336 -0.05944302 0.07335278 -0.065969676 -0.026821755 -0.1738332 0.16055825 0.04653718
-0.07564743 0.07715981 0.04162388 0.122601084 -0.03244339 -0.0400069 -0.04343 -0.054566547
-0.035909843 0.06499696 -0.021316763 -0.1404273 -0.19185081 -0.007304692 0.013464056 -0.09204189
-0.056266736 0.043089274 -0.12312106 -0.07514702 0.05294358 0.04784823 -0.12614244 -0.015378279
-0.14745308 -0.2132775 0.020593207 -0.06451635 0.12138195 0.0022595678 -0.15720576 -0.12802435
-0.0037742262 -0.0653001 -0.16224365 -0.24249302 0.02482155 0.08859176 0.120476656 0.064535104
0.049207862 0.07365525 -0.00046821305 -0.00092543184 0.012879815 0.083567366 -0.02399198 0.09388852
0.038814243 -0.0029311772 -0.067742616 -0.085363574 0.10787638 -0.0072658956 0.0111357765 0.0963205
0.25163293 0.15981185 0.025939183 -0.13544263 -0.10638072 0.048926327 0.18259259 0.06887634
-0.034927 0.15446022 0.009480806 0.12811811 0.17098302 0.123124935 0.089660354 0.135335
-0.16324739 0.06295602 -0.11576995 -0.21026984 0.110907 0.21660103 -0.06060356 -0.07437205
0.15721868 0.0067693787 -0.1959676 -0.07128252 -0.11113187 0.1697048 0.060393922 0.3023643
0.11578002 -0.13373967 -0.01732387 0.018457564 0.06331241 -0.087947674 0.06488236 0.02437587
0.12373006 -0.17499204 -0.0024396717 -0.022014186 0.31420204 -0.019903498 0.10707254 -0.17442802
-0.10671853 -0.031111632 0.1742917 -0.08427221 0.15306674 -0.05635055 0.10593307 -0.030544823
-0.053633537 -0.10144488 0.10495466 -0.10785727 -0.06866352 -0.045385584 -0.00029306865 0.13723686
0.086189725 0.0009920893 -0.22256027 -0.022467786 -0.06335747 0.05317741 0.0076893996 -0.010061741
00000000: 6b60 733c 4f7b 723d 2127 213e eb48 b83d
00000010: f3f5 f63d 26a2 a0bd 9011 553b 3000 7e3d
00000020: 6c25 813e 97d1 adbb 97e3 213d d929 88bd
00000030: f93e d83d c75e 0fbe 27fd 2f3d 953c 85bc
00000040: ef77 61bd a700 0d3c fcef 1a3d cbe4 9bbe
00000050: a8ba cdbc ba2a d73d be0a 93bc 4a39 0bbd
00000060: 1c14 fb3d 8e01 043c 45c8 953b 3d98 423d
00000070: cdac 06be 8eb5 be3d 0e1a cfbd aa7b 38bd
00000080: 0932 d2bc b269 1fbd b290 abbe 7ed8 48be
00000090: 6e9c e43b 1499 bdbc 630c 96bd ff12 2b3d
000000a0: 7f00 e63d 8969 d0bb 0688 b5bd 3f69 e93c
000000b0: eece 243e 3366 4abd 41f0 0b3d 01c3 b13d
000000c0: b416 223c 692e 733d 67ef 35bd 4248 f33d
000000d0: 14fd 4b3d c7e5 5bbd 039c 3bbe e68e b63d
000000e0: 5466 963d 118a 0fbe afc5 163d dd9c d43d
000000f0: 1076 23bd f1de 0ebe 2364 06bc 0244 76be
00000100: 2f6e 21be d0d5 1c3d 83ce d43d 07b7 5f3e
00000110: fbbf 35be a8f3 f4bd 2e77 51bb 4a98 d0bd
00000120: 9859 fa3c 7d82 12bd 8f83 143d b090 87bd
00000130: ed74 b3bc 2635 3cbe 892b 023e 6feb bfbd
00000140: b3e0 db3d af5e e2bd bb50 28be bf95 3abe
00000150: a764 703e 5a4c f23d c745 113e 7320 1d3d
00000160: 191b d4bd 4b02 25be 4bc2 863c 5adc 4bbd
00000170: 0757 66bd ea5d d83c 2c4f b9be bca0 93bd
00000180: 4244 be3d 0ab8 243b f1e5 da3d 9df0 bcbd
00000190: 6c3b 443e 5127 10be 87da 91bd 0cde 01be
000001a0: 946a 09be a02d 0b3d ad65 1abe ebb3 d23d
000001b0: 6733 3e3d a639 2e3e 9dae c33d 6abb 8dbd
000001c0: 0c94 983c 6d90 ea3c 5b6b a1bd bbcb 8bbd
000001d0: 1d26 333d f624 953d 1ecb a93d 05ac 0dbe
000001e0: d1ab 94be 867a 73bd fb39 963d 1c1b 87bd
000001f0: 4cb9 dbbc 5501 32be 6269 243e c59d 3e3d
00000200: 0aed 9abd f605 9e3d cd7d 2a3d 4716 fb3d
00000210: 5ce3 04bd 46de 23bd a8e3 31bd 2c81 5fbd
00000220: 3316 13bd 201d 853d 7ea0 aebc 2dcc 0fbe
00000230: 8a74 44be 335c efbb 5898 5c3c 7580 bcbd
00000240: f377 66bd 617e 303d e526 fcbd aee6 99bd
00000250: 5edb 583d 81fc 433d 7c2b 01be 2df5 7bbc
00000260: f1fd 16be 6b65 5abe 16b3 a83c 2621 84bd
00000270: 1a97 f83d 4215 143b 8cfa 20be d118 03be
00000280: 0259 77bb 0fbc 85bd 3323 26be 1750 78be
00000290: 9056 cb3c 996f b53d 77bc f63d fb2a 843d
000002a0: 2f8e 493d 90d8 963d 7e7a f5b9 ae98 72ba
000002b0: dc05 533c 5e25 ab3d d48a c4bc a048 c03d
000002c0: affb 1e3d fe18 40bb a4bc 8abd 19d3 aebd
000002d0: 4bee dc3d c016 eebb d572 363c af43 c53d
000002e0: 08d6 803e b8a5 233e 697e d43c 79b1 0abe
000002f0: 23de d9bd f966 483d 8df9 3a3e 0a0f 8d3d
00000300: 9d0f 0fbd d22a 1e3e 6255 1b3c 6531 033e
00000310: 2c16 2f3e ed28 fc3d d99f b73d 4295 0a3e
00000320: 532a 27be 16ef 803d cc18 edbd fa50 57be
00000330: 3623 e33d a9cc 5d3e 703b 78bd 6050 98bd
00000340: effd 203e aad1 dd3b bbab 48be 92fc 91bd
00000350: 1b99 e3bd 18c7 2d3e 9e5f 773d 7ecf 9a3e
00000360: 131e ed3d 0df3 08be caea 8dbc 5134 973c
00000370: f0a9 813d e91d b4bd 0be1 843d e8af c73c
00000380: 3066 fd3d 1d31 33be e6e2 1fbb 1857 b4bc
00000390: 17df a03e a90c a3bc d948 db3d 429d 32be
000003a0: 3f8f dabd d2dd febc 8679 323e e996 acbd
000003b0: 87bd 1c3e d6cf 66bd 70f3 d83d 2339 fabc
000003c0: d7ae 5bbd 55c2 cfbd 78f2 d63d 46e4 dcbd
000003d0: 769f 8cbd 3ce6 39bd 02a7 99b9 d287 0c3e
000003e0: 3d84 b03d fe08 823a d7e6 63be 5d0e b8bc
000003f0: 90c1 81bd 8ed0 593d 5cf7 fb3b 00da 24bc

network_body._body_endoder.seq_layers.2.bias f4 [128]
0.027035596 0.04214586 -0.0012899281 0.004367145 0.0006978116 0.03726623 0.017389083 0.016381567
0.004692581 0.016344205 0.010499587 0.016671292 0.023162585 0.010733714 0.042164028 0.011170484
0.023266358 0.0049127033 0.017557682 0.011861852 0.010551197 0.029410785 0.025117615 0.009738914
-0.0050999364 0.031512335 0.021841712 0.012576371 0.01637805 0.038903628 0.012030924 0.020252533
0.029111762 0.006716088 0.022074109 0.022677073 0.00024382741 0.038508214 0.043000862 0.011739313
0.019066684 0.04281558 0.025817303 0.019745346 0.023021761 0.019673938 0.031795613 0.016337672
0.02805086 0.012210683 0.028210646 0.02092667 0.02007724 0.010101106 0.027916078 0.020562911
0.01331069 0.024690913 0.004343845 0.014449868 0.027043853 0.025854886 0.030660613 -0.00798727
0.035540543 0.0073278556 0.027803343 0.008316533 0.018259762 0.03653467 0.020438643 0.009917238
-0.003830248 0.02546314 0.013353403 0.02949457 0.021665262 0.019278789 0.0141139105 0.01731057
0.036208935 0.023151638 0.022211432 0.038813908 0.008847931 0.0472868 0.0029701814 0.027683347
0.008125173 0.02820917 0.00095078774 0.030815385 0.0053946534 0.027226819 0.008360503 0.0033753
0.014774277 0.021699728 0.021929387 0.014454588 0.01248581 0.01191328 0.030838206 0.020832444
-0.002396346 0.019523127 0.021112664 0.004741615 0.034042265 0.015834806 0.009093879 0.011898606
0.022776531 0.016292872 0.01124234 0.022827765 0.016348071 -0.0012768437 -0.0025061374 0.032754008
0.009139718 0.037322354 0.0030226363 0.018450094 0.030591687 0.015884217 0.015882134 0.009999452
00000000: c179 dd3c 23a1 2c3d ce12 a9ba 441a 8f3b
00000010: 58ed 363a 79a4 183d 8d73 8e3c a332 863c
00000020: 39c4 993b 48e4 853c 7606 2c3c 3c92 883c
00000030: 76bf bd3c 76dc 2f3c 30b4 2c3d 6804 373c
00000040: 1799 be3c befa a03b 21d5 8f3c 3758 423c
00000050: eede 2c3c e3ee f03c 75c3 cd3c f78f 1f3c
00000060: 5e1d a7bb 1413 013d 64ed b23c 200d 4e3c
00000070: 432b 863c 6959 1f3d 5a1d 453c a4e8 a53c
00000080: ca7b ee3c a112 dc3b c3d4 b43c 45c5 b93c
00000090: ecab 7f39 caba 1d3d ac21 303d 3f56 403c
000000a0: bc31 9c3c 645f 2f3d cf7e d33c fec0 a13c
000000b0: 2298 bc3c 3d2b a13c 1e3c 023d 95d6 853c
000000c0: ebca e53c 510f 483c 031a e73c 686e ab3c
000000d0: 0679 a43c 1c7f 253c 42b0 e43c 8d73 a83c
000000e0: 1515 5a3c 9944 ca3c d056 8e3b 24bf 6c3c
000000f0: 128b dd3c a0cd d33c f72b fb3c 0add 02bc
00000100: f692 113d 821e f03b d6c3 e33c 1142 083c
00000110: 7f95 953c 61a5 153d f16e a73c e97b 223c
00000120: e604 7bbb 1398 d03c 3bc8 5a3c 999e f13c
00000130: 597b b13c 8dee 9d3c 083e 673c e6ce 8d3c
00000140: d24f 143d 81a8 bd3c c0f4 b53c 55fb 1e3d
00000150: eaf6 103c ceaf 413d 60a7 423b 30c8 e23c
00000160: 721f 053c eb16 e73c 493e 793a 8c70 fc3c
00000170: a2c5 b03b c70a df3c 7efa 083c 2334 5d3b
00000180: cf0f 723c a1c3 b13c 42a5 b33c f0d2 6c3c
00000190: 4891 4c3c eb2f 433c 68a0 fc3c cda8 aa3c
000001a0: 040c 1dbb f7ee 9f3c 77f4 ac3c 8d5f 9b3b
000001b0: e76f 0b3d ffb7 813c 7efe 143c 5ff2 423c
000001c0: d995 ba3c a178 853c cb31 383c 4b01 bb3c
000001d0: 64ec 853c c45b a7ba 023e 24bb 1129 063d
000001e0: c1be 153c 53df 183d 6c17 463b a724 973c
000001f0: 6b9b fa3c 9e1f 823c 401b 823c bed4 233c

network_body._body_endoder.seq_layers.2.weight f4 [128, 128]
-0.26235753 0.054230195 -0.014838868 -0.04704378 0.1742424 -0.24240258 -0.28683496 -0.0032658689
-0.12506725 -0.19603859 -0.090312816 -0.00875661 0.13810208 0.000103337276 0.08010525 -0.21848302
0.100486785 0.016721219 0.041717827 -0.00073584344 -0.11317451 -0.057423975 -0.017033579 -0.032299213
0.039972182 0.07917381 0.026290447 -0.10308103 -0.024676042 0.028168306 -0.09488776 -0.009437701
-0.13010882 0.18772735 -0.06144607 -0.113232374 -0.068075635 -0.053566948 0.116158634 0.015304462
0.1473176 0.07528754 0.17938055 -0.026975954 0.18390833 0.016383152 0.059844345 -0.1431723
0.17364468 0.19712077 -0.100039 0.031895675 -0.0586144 -0.03435104 -0.022234824 -0.026920564
0.13096757 0.059506435 -0.23877169 -0.033451784 -0.008145672 0.08399977 0.015433553 0.002107097
-0.02196873 0.004430641 -0.08043516 -0.025783839 0.050750613 0.057295837 -0.04136165 0.013397947
0.04989302 -0.16729833 0.0453834 -0.0023784027 0.07811486 -0.06402462 -0.09623428 0.0713127
-0.008586338 -0.12500077 0.06920047 0.10625483 0.19754729 0.07483303 0.14030331 -0.019982534
0.01677516 -0.04019624 0.071899496 -0.24046136 0.003630023 -0.015309269 0.01245666 -0.04696408
0.056798436 -0.17111579 -0.048977043 0.06264193 -0.13637742 -0.072275124 0.044774503 0.13360177
0.06384661 0.04260242 0.00020194873 -0.18992637 0.10545333 -0.1119241 -0.118829 0.20829958
-0.018408429 0.23000391 0.16452886 -0.0344665 0.067561 -0.04956687 -0.02277336 0.13421303
0.011245915 -0.09224051 0.1543099 0.14624193 0.13118787 0.022671953 -0.210595 -0.0026312477
-0.16819157 0.114774235 -0.06586492 0.062034324 0.010366147 -0.14787035 -0.09705423 0.085513376
0.0605263 -0.12950018 0.08298646 -0.05052346 0.039171163 -0.08431678 -0.038058326 -0.069754094
0.14522885 0.14181116 0.124894395 0.0910209 -0.15729177 0.050869644 0.10229941 -0.08858151
-0.00392745 0.1311254 0.07224073 0.026930684 -0.11325691 -0.037514616 -0.24072619 0.16588722
-0.107322544 0.08145139 -0.028752215 -0.089522965 0.12689763 -0.14256261 0.029138198 0.06327921
-0.033956427 -0.04068419 0.24077156 -0.073112726 0.28321004 -0.029807504 -0.009868626 -0.0007140122
0.16840091 -0.0995963 0.017718188 0.15749133 -0.15708552 0.00090148865 -0.19384484 0.035555925
0.19183286 0.1019746 -0.06106757 0.1026894 0.023458887 -0.09963734 -0.11277753 -0.068367094
-0.104998745 -0.06089089 -0.19668397 -0.14408933 -0.17694455 0.086626284 -0.0391686 0.083003946
-0.03960562 -0.08125016 -0.026981449 -0.07118983 0.18366583 0.00068761513 -0.040545996 0.18687026
-0.0690335 -0.016981712 0.037466593 0.16170214 0.30016157 -0.10951652 -0.04384668 0.025454765
-0.049291614 0.06480188 -0.02488775 -0.08462703 0.0577824 -0.12721692 0.16986883 -0.17977516
0.07837407 -0.17048119 0.016153699 -0.08555195 0.059072774 -0.027367586 -0.20181014 0.04893576
0.0011098622 0.21074228 0.067656174 -0.15977082 0.021471955 -0.10860285 -0.06533005 -0.08254058
0.08832478 -0.079401515 0.19202575 0.010767971 0.022496842 0.028723039 0.10596689 0.035051256
-0.22662663 0.130739 0.068228446 0.030819306 0.10308669 0.075448915 -0.099912114 -0.19984017
00000000: ba53 86be 7b20 5e3d b91e 73bc fbb0 40bd
00000010: 9a6c 323e 6238 78be 08dc 92be 3008 56bb
00000020: a111 00be 57be 48be edf5 b8bd e277 0fbc
00000030: a26a 0d3e c7b6 d838 390e a43d 03ba 5fbe
00000040: 04cc cd3d f0fa 883c 50e0 2a3d 9ee5 40ba
00000050: 0ac8 e7bd 6735 6bbd 018a 8bbc 2e4c 04bd
00000060: dfb9 233d e125 a23d 105f d73c 261c d3bd
00000070: 6925 cabc 38c1 e63c 8454 c2bd 96a0 1abc
00000080: 3f3b 05be 993b 403e e0ae 7bbd 60e6 e7bd
00000090: 3d6b 8bbd 0469 5bbd 94e4 ed3d 91bf 7a3c
000000a0: 6dda 163e 5b30 9a3d 89af 373e adfc dcbc
000000b0: 7752 3c3e f635 863c 581f 753d c29b 12be
000000c0: e9cf 313e 07da 493e 3fe1 ccbd 0aa5 023d
000000d0: a715 70bd adb3 0cbd ce25 b6bc 8488 dcbc
000000e0: 5d1c 063e 05bd 733d 9180 74be bd04 09bd
000000f0: 6d75 05bc 1208 ac3d 03dd 7c3c 3917 0a3b
00000100: c4f7 b3bc e92e 913b 30bb a4bd a138 d3bc
00000110: e0df 4f3d 0aaf 6a3d d56a 29bd 1083 5b3c
00000120: a05c 4c3d 4150 2bbe f2e3 393d fade 1bbb
00000130: affa 9f3d 571f 83bd 7a16 c5bd 650c 923d
00000140: b6ad 0cbc 3400 00be fab8 8d3d 229c d93d
00000150: d649 4a3e 0f42 993d acab 0f3e 69b2 a3bc
00000160: 0f6c 893c d0a4 24bd 0b40 933d 813b 76be
00000170: aee5 6d3b bad3 7abc 0517 4c3c 685d 40bd
00000180: 7aa5 683d fa38 2fbe 279c 48bd 6a4a 803d
00000190: 86a6 0bbe fb04 94bd 7865 373d e7ce 083e
000001a0: 03c2 823d e07f 2e3d 33c2 5339 0f7c 42be
000001b0: eaf7 d73d 7638 e5bd 9e5c f3bd 7c4c 553e
000001c0: 46cd 96bc 2586 6b3e 417a 283e bf2c 0dbd
000001d0: 6c5d 8a3d a106 4bbd 338f babc 246f 093e
000001e0: c940 383c 98e8 bcbd 6a03 1e3e 72c0 153e
000001f0: 1d56 063e 88ba b93c 37a6 57be 0371 2cbb
00000200: 693a 2cbe c10e eb3d 30e4 86bd b417 7e3d
00000210: c6d6 293c 536b 17be 5ec4 c6bd a321 af3d
00000220: 6dea 773d b29b 04be cef4 a93d b0f1 4ebd
00000230: f171 203d 47ae acbd 0ce3 1bbd 3cdb 8ebd
00000240: dfb6 143e f236 113e a2c8 ff3d 2a69 ba3d
00000250: 1811 21be b05c 503d 5a82 d13d 396a b5bd
00000260: d7b1 80bb bd45 063e f3f2 933d bd9d dc3c
00000270: 3df3 e7bd eda8 19bd ed80 76be 57de 293e
00000280: eccb dbbd fdcf a63d c489 ebbc d157 b7bd
00000290: 74f1 013e effb 11be 3bb3 ee3c 8898 813d
000002a0: e515 0bbd 77a4 26bd d28c 763e 20bc 95bd
000002b0: e800 913e de2e f4bc 04b0 21bc 8c2c 3bba
000002c0: 4a71 2c3e 25f9 cbbd bc25 913c 6845 213e
000002d0: 07db 20be e151 6c3a 437f 46be 17a3 113d
000002e0: d56f 443e 0fd8 d03d fd21 7abd d24e d23d
000002f0: da2c c03c a90e ccbd e8f7 e6bd 0c04 8cbd
00000300: 9509 d7bd ba68 79bd 8667 49be 278c 13be
00000310: f430 35be 1f69 b13d 416f 20bd f9fd a93d
00000320: 8139 22bd 7c66 a6bd 3308 ddbc f9cb 91bd
00000330: e512 3c3e 1241 343a 8f13 26bd eb5a 3f3e
00000340: 7061 8dbd 3b1d 8bbc 9276 193d 3f95 253e
00000350: c7ae 993e 324a e0bd 9498 33bd 8386 d03c
00000360: 01e6 49bd d9b6 843d 65e1 cbbc f050 adbd
00000370: 3dad 6c3d 2745 02be 18f2 2d3e fb16 38be
00000380: 9682 a03d 9f92 2ebe c354 843c dc35 afbd
00000390: 4bf6 713d fd31 e0bc 51a7 4ebe dd70 483d
000003a0: cc78 913a d3cc 573e 528f 8a3d f69a 23be
000003b0: f4e5 af3c 2c6b debd c3cb 85bd 090b a9bd
000003c0: 9fe3 b43d 439d a2bd 66a2 443e 256c 303c
000003d0: 4c4b b83c 944c eb3c 2b05 d93d e891 0f3d
000003e0: d010 68be 72e0 053e 5bbb 8b3d c578 fc3c
000003f0: 1d1f d33d f684 9a3d b99e ccbd e7a2 4cbe
