results/ppo/OpponentAI/OpponentAI-2499942.pt (torch, 720479 bytes, 30 tensors)

network_body._body_endoder.seq_layers.0.weight f4 [128, 98]
0	0x3cb101d0	0.02160731
1	0x3d5ce858	0.053932518
2	0x3e15a138	0.14612281
3	0x3db848eb	0.08998283
4	0x3e0590f5	0.13043578
5	0xbdeabe1c	-0.11462042
6	0x3a735122	0.0009281804
7	0x3d6b6b1b	0.05747519
8	0x3e7a4ee6	0.2444416
9	0xbac02f58	-0.0014662547
10	0x3d21e397	0.039523687
11	0xbd63f2fe	-0.055651657
12	0x3dd67f26	0.104734704
13	0xbe1d1702	-0.15340808
14	0x3d2e48e9	0.04255
15	0xbcbaef2b	-0.022819122
16	0xbd703664	-0.05864562
17	0x3c0d00a7	0.008606113
18	0x3d1169a0	0.035501122
19	0xbe979876	-0.29608506
20	0xbc8711f5	-0.016488055
21	0x3dc10a39	0.09425778
22	0xbca91141	-0.02063811
23	0xbcec71c9	-0.02886285
24	0x3dfb141c	0.12259695
25	0x3c8bd2a2	0.017068211
26	0xbb8bc465	-0.0042653554
27	0x3d228218	0.03967485
28	0xbe0251bd	-0.12726493
29	0x3dd57868	0.10423356
30	0xbde2569b	-0.11051675
31	0xbd387baa	-0.04503981
32	0xbcebc405	-0.028779993
33	0xbd19033e	-0.037356608
34	0xbea8ca55	-0.32966867
35	0xbe59a433	-0.21254043
36	0x3ca0d693	0.019633567
37	0xbc8469db	-0.016163757
38	0xbd960c63	-0.07326581
39	0x3d49ed7b	0.049298745
40	0x3dcb1dd7	0.09917801
41	0xbc70f362	-0.0147064645
42	0xbdb9ada8	-0.090663254
43	0x3b89031e	0.00418128
44	0x3e2c743f	0.1684122
45	0xbd4a6633	-0.04941387
46	0x3d3f60f5	0.046723325
47	0x3d82025d	0.06348107
48	0x3c18cfa0	0.009326845
49	0x3cedcb06	0.029027473
50	0xbd212cc5	-0.039349336
51	0x3ded828f	0.11597168
52	0x3d4bfd14	0.0498019
53	0xbd4f654b	-0.05063371
54	0xbe3e6e2a	-0.18596712
55	0x3da54756	0.08070247
56	0x3da6acf8	0.0813846
57	0xbe157541	-0.1459551
58	0x3cddae51	0.02706066
59	0x3dd49cdd	0.10381482
60	0xbd372d75	-0.044721086
61	0xbe0fc860	-0.14041281
62	0xbbb13082	-0.005407394
63	0xbe886acb	-0.26643977
64	0xbe1395c9	-0.14412607
65	0x3d4896f7	0.048972096
66	0x3dd4ce83	0.103909515
67	0x3e6524ce	0.22377321
68	0xbe4f0312	-0.20216015
69	0xbe0b4ea4	-0.13604218
70	0x3bbbf272	0.005735689
71	0xbdde0c4a	-0.10842188
72	0x3ca72a09	0.020405786
73	0xbd12827d	-0.035768975
74	0x3d03ac36	0.032146655
75	0xbd8cdfb5	-0.06878606
76	0xbca569de	-0.020192083
77	0xbe45960b	-0.19295518
78	0x3e0472e5	0.12934454
79	0xbdb6be77	-0.08923047
80	0x3ddbe0b3	0.10736217
81	0xbde3feee	-0.11132608
82	0xbe21085a	-0.15725842
83	0xbe4170fc	-0.18890756
84	0x3e73f7f5	0.23825057
85	0x3dc650c1	0.09683371
86	0x3e0e5e90	0.1390326
87	0x3d1d2073	0.038361024
88	0xbdd50d42	-0.10402919
89	0xbe20fdbf	-0.15721796
90	0x3cb0d942	0.021587972
91	0xbd67b7ee	-0.056571893
92	0xbd7ca844	-0.061683908
93	0x3cf33005	0.029685983
94	0xbebd4328	-0.369653
95	0xbd8a5eda	-0.06756373
96	0x3dba05ff	0.09083175
97	0x3a3746d6	0.00069914514
98	0x3ddc54e0	0.10758376
99	0xbdc0f932	-0.0942253
100	0x3e431316	0.1905025
101	0xbe102751	-0.14077498
102	0xbda2e535	-0.07953874
103	0xbdf4977e	-0.11942957
104	0xbe0ac6b1	-0.13552357
105	0x3d07f226	0.033189915
106	0xbe13b96f	-0.14426206
107	0x3ddeff11	0.10888494
108	0x3d3e3367	0.04643574
109	0x3e2ceedf	0.16887997
110	0x3db98455	0.090584435
111	0xbd6f8a81	-0.058481697
112	0x3c0082b6	0.007843664
113	0x3cf27235	0.029595474
114	0xbdd57494	-0.10422626
115	0xbd8bcbbb	-0.06825968
116	0x3d62f26e	0.05540698
117	0x3da4fffa	0.08056636
118	0x3da6c3b0	0.08142793
119	0xbdf72061	-0.12066723
120	0xbe8d79e4	-0.27632058
121	0xbda6115c	-0.0810878
122	0x3d9639fb	0.07335278
123	0xbd90b192	-0.07065119
124	0xbcda8111	-0.026672872
125	0xbe2bdc2a	-0.16783205
126	0x3e1ac7c3	0.15115266
127	0x3d470b64	0.048594847
128	0xbd9b2c38	-0.075767934
129	0x3d9e05f6	0.07715981
130	0x3d59d4ec	0.053181574
131	0x3df21412	0.11820234
132	0xbd1b07e2	-0.037849315
133	0xbd0545e6	-0.032537363
134	0xbcff0a8b	-0.031132957
135	0xbd70a324	-0.058749333
136	0xbd131633	-0.035909843
137	0x3d71f3ed	0.059070516
138	0xbc98e9a9	-0.018666105
139	0xbe0a05c5	-0.13478763
140	0xbe3ab0c6	-0.18231496
141	0x3cb29f47	0.021804465
142	0xb87804fa	-5.9132442e-05
143	0xbdbc8075	-0.09204189
144	0xbd9142fc	-0.070928544
145	0x3d1280fb	0.035767537
146	0xbe07766f	-0.13228773
147	0xbd96d6d9	-0.07365198
148	0x3da13d69	0.07873041
149	0x3d4015e5	0.04689588
150	0xbe012b7c	-0.12614244
151	0xbc9870b4	-0.018608429
152	0xbe179a65	-0.1480499
153	0xbe525903	-0.20541768
154	0x3c9c9bff	0.019117353
155	0xbd928cce	-0.071557626
156	0x3dd2ca0d	0.102924444
157	0x3b141542	0.0022595678
158	0xbe1285b6	-0.14308819
159	0xbe0956e6	-0.13412055
160	0xbc1c9eac	-0.009559315
161	0xbd9b7d73	-0.07592287
162	0xbe167bc4	-0.1469565
163	0xbe80b024	-0.25134385
164	0x3ccb5690	0.02482155
165	0x3db0fdc6	0.086421534
166	0x3e040dac	0.1289584
167	0x3d9953f3	0.07486715
168	0x3d1d2670	0.038366735
169	0x3d8bd79d	0.06828234
170	0xbc46fd5b	-0.012145366
171	0xba7298ae	-0.00092543184
172	0x3ce99124	0.028511591
173	0x3da7bc31	0.081901915
174	0xbcd78036	-0.026306253
175	0x3da527e0	0.08064246
176	0x3d8010a4	0.06253174
177	0xbc43cbd2	-0.01195045
178	0xbd8abca4	-0.067742616
179	0xbdaee9a0	-0.08540654
180	0x3ddd2f23	0.10800006
181	0xbb0e76af	-0.0021738221
182	0x3c18f245	0.009335105
183	0x3ddcac44	0.107750446
184	0x3e5fe3b1	0.21864201
185	0x3e23a5b8	0.15981185
186	0x3cdc250e	0.026873138
187	0xbe0e1fc2	-0.13879302
188	0xbde12f4a	-0.10995348
189	0x3d575b5e	0.05257737
190	0x3e3a9a0a	0.18222824
191	0x3d75f7a5	0.060050625
192	0xbce52a29	-0.027974205
193	0x3e135ef3	0.14391689
194	0x3c0162b4	0.007897068
195	0x3df9fa57	0.12205952
196	0x3e2d34b7	0.1691464
197	0x3e023172	0.12714174
198	0x3dae73b3	0.085181616
199	0x3e0a9542	0.135335
200	0xbe20c89b	-0.15701525
201	0x3d80028c	0.06250486
202	0xbdf0d052	-0.11758484
203	0xbe56f7be	-0.20992944
204	0x3dd4a9eb	0.10383972
205	0x3e5abf66	0.21362075
206	0xbd783b70	-0.06060356
207	0xbd91be77	-0.071164064
208	0x3e2317a6	0.1592699
209	0x3c34bf94	0.011032004
210	0xbe44365e	-0.19161364
211	0xbda043fd	-0.07825468
212	0xbe0343c5	-0.12818821
213	0x3e2dc718	0.1697048
214	0x3d811cc4	0.06304315
215	0x3e9adf39	0.3024843
216	0x3de2c924	0.11073521
217	0xbdd870bc	-0.105683774
218	0xbbd1e8d1	-0.0064059277
219	0x3b9b3e3d	0.004737644
220	0x3d81a9f0	0.06331241
221	0xbdb9bcae	-0.09069191
222	0x3d75a891	0.05997521
223	0x3cba9b26	0.022779059
224	0x3df58982	0.11989118
225	0xbe245310	-0.16047311
226	0xbca674bf	-0.02031934
227	0xbcb45718	-0.022014186
228	0x3ea23040	0.31677437
229	0xbcbcc9a4	-0.023045368
230	0x3dd273ec	0.102760166
231	0xbe292331	-0.1651733
232	0xbdd209f3	-0.10255804
233	0xbd0670ce	-0.032822423
234	0x3e327986	0.1742917
235	0xbdc17fc9	-0.09448201
236	0x3e1be392	0.1522353
237	0xbd6a5338	-0.05720827
238	0x3dd90b05	0.10597805
239	0xbc590be0	-0.01324746
240	0xbd7f039f	-0.062259313
241	0xbdcfc255	-0.10144488
242	0x3dda9e2d	0.10674701
243	0xbde575ce	-0.1120411
244	0xbd8ec208	-0.06970602
245	0xbd5a4ba5	-0.053294796
246	0x3c204a53	0.009783345
247	0x3e11c4f9	0.14235295
248	0x3db0843d	0.086189725
249	0x3b876f8d	0.004133171
250	0xbe65102b	-0.22369449
251	0xbca801e0	-0.020508707
252	0xbd7729e7	-0.060342696
253	0x3d5665e5	0.052343268
254	0xbb91313c	-0.004430918
255	0xbc24da00	-0.010061741

network_body._body_endoder.seq_layers.0.bias f4 [128]
0	0xbba6d07f	-0.0050907726
1	0xbcba9ebd	-0.02278077
2	0x3c16188b	0.009161125
3	0xbb992b03	-0.004674317
4	0x3cb896dd	0.022532875
5	0x3ca79748	0.020457879
6	0xbd1d039d	-0.038333524
7	0x3ad283d3	0.0016061015
8	0x3c0e9341	0.0087021
9	0x3cf72637	0.03016959
10	0xbc63a65d	-0.013894645
11	0xbb25e831	-0.0025315399
12	0x3d20d1e0	0.039262652
13	0xbd47e302	-0.048800476
14	0xbc6de7e6	-0.014520621
15	0xbbb0b1af	-0.0053922753
16	0x3cc8a4be	0.024492618
17	0x3b033b54	0.0020024376
18	0x3c8a868c	0.01690986
19	0x3b251ddb	0.0025194797
20	0xbcc3a978	-0.02388452
21	0x3aaeb7d2	0.0013329929
22	0x3c2d54f8	0.01057934
23	0xbc2b986c	-0.010473352
24	0x3cde9a68	0.027173236
25	0x3c8f7ac4	0.017514594
26	0x3bdd555c	0.0067545604
27	0x3d07b3a2	0.033130296
28	0x3cb252ad	0.021767939
29	0x3c7a0bfd	0.015261647
30	0x3bfe2fb4	0.0077571515
31	0x3d7a2cfd	0.06107806
32	0x3cfc8057	0.030822916
33	0x3bcbacd6	0.006215672
34	0x3d28bd26	0.04119601
35	0x3cf0545d	0.029337103
36	0xbb818dd8	-0.0039536767
37	0xbc94eb73	-0.018178677
38	0xbb54fe2a	-0.0032500126
39	0xbba5b112	-0.005056509
40	0x3c390332	0.011292266
41	0x3bc520a9	0.0060158563
42	0x3cd2e360	0.025743186
43	0x398ba24b	0.00026633064
44	0x3d0ca2f4	0.03433509
45	0xbc925006	-0.017860424
46	0xbb5e846e	-0.0033953446
47	0x3c1153d8	0.008870088
48	0x3cdf26f4	0.027240254
49	0xbb781b9d	-0.0037858256
50	0x3b0d6503	0.00215751
51	0x3c879e75	0.01655505
52	0x3c5a4536	0.013322165
53	0x3b816b94	0.003949592
54	0xbcda568c	-0.026652597
55	0x3cb5aa5b	0.022175958
56	0x3d218a8c	0.03943877
57	0xbc4013de	-0.011723487
58	0x3ca94f85	0.0206678
59	0xbb798a8f	-0.0038076972
60	0xbca2bede	-0.019866403
61	0xbca1beb5	-0.019744257
62	0x3d076dbd	0.03306364
63	0xbc138c61	-0.009005637
64	0x3d5d6424	0.05405058
65	0x3ccab1c3	0.024742967
66	0x3d1782cc	0.036989972
67	0xbc9aba10	-0.01888755
68	0x3bf5ab09	0.0074971956
69	0x3c3bbd21	0.011458666
70	0x3cab2254	0.020890392
71	0x3ca9584f	0.020671992
72	0xbc26c406	-0.010178572
73	0x3bce54fb	0.0062967516
74	0x3bbe408a	0.0058060335
75	0x3cd8a22e	0.02644452
76	0x3c3d0b7f	0.011538385
77	0x3b43c5e5	0.0029872593
78	0x3ce635a7	0.028101755
79	0x3cb15129	0.021645145
80	0x3b59694a	0.003317433
81	0xbb1b3759	-0.0023684113
82	0xbc6f6c44	-0.014613215
83	0x3c97ba10	0.018521339
84	0x3d2d3800	0.042289734
85	0x3cd6e2a0	0.02623111
86	0x3caeaa93	0.02132157
87	0x3cfc8f8c	0.030830167
88	0xbcb22e3f	-0.021750567
89	0xbc8b9c93	-0.017042434
90	0x3cb1c39d	0.021699721
91	0x3c3cda9d	0.011526731
92	0xbce6e46b	-0.02818509
93	0x3a406734	0.0007339597
94	0x3ce00c73	0.027349686
95	0x3cd7c649	0.026339667
96	0x3d16ca67	0.03681412
97	0x3ce1dcdc	0.027571134
98	0xbd259500	-0.0404253
99	0x3b9b6e60	0.0047433823
100	0xbbd1cefa	-0.0064028474
101	0x3c394558	0.011308037
102	0x3c893ef5	0.016753653
103	0x3d33885a	0.043831207
104	0x3b5d0015	0.0033721973
105	0x3d19db52	0.037562676
106	0x3c24bceb	0.010054807
107	0x3cc79672	0.02436373
108	0x3d5642ce	0.052309804
109	0x3d3b8085	0.045776863
110	0x3c6fa139	0.014625841
111	0xbcdfe0c2	-0.027328853
112	0xbc773739	-0.01508885
113	0xbcc7b6b5	-0.024379114
114	0x3c93c34f	0.018037466
115	0x3b206a9e	0.0024477611
116	0x3cb86c1e	0.022512492
117	0x3c684ce7	0.014178491
118	0x3d43f0b9	0.047836993
119	0x3bec9779	0.0072202054
120	0x3dbce5f8	0.092235506
121	0x3cc716da	0.024302889
122	0x3c9efacb	0.019406697
123	0x3c86f8b7	0.016476018
124	0x3c4be017	0.012443564
125	0x3caf2303	0.021379
126	0x3c0e6de7	0.008693195
127	0x3c32729b	0.010891582

network_body._body_endoder.seq_layers.2.weight f4 [128, 128]
0	0xbe86a08e	-0.26294369
1	0x3d538636	0.051641665
2	0xbc907086	-0.01763178
3	0xbd3f8ad0	-0.04676324
4	0x3e351cfb	0.17686836
5	0xbe789105	-0.2427407
6	0xbe90c500	-0.282753
7	0xbb87e64a	-0.0041473256
8	0xbdf9111d	-0.12161467
9	0xbe43bf6f	-0.19115995
10	0xbdbbb935	-0.09166185
11	0xbc1986b8	-0.009370498
12	0x3e0e643b	0.13905422
13	0x3bc6ad09	0.006063108
14	0x3da6110a	0.08108719
15	0xbe5e353b	-0.21699993
16	0x3dc39c14	0.09551254
17	0x3c920d73	0.017828679
18	0x3d2be156	0.041962944
19	0xb984205a	-0.00025201106
20	0xbddb072d	-0.10694728
21	0xbd58bbbd	-0.052913416
22	0xbc2c7b9f	-0.01052752
23	0xbcf9cdab	-0.030493578
24	0x3d03df7a	0.032195546
25	0x3d9fe788	0.07807833
26	0x3cda20df	0.026627002
27	0xbdd0e940	-0.10200739
28	0xbcabe8b9	-0.020984994
29	0x3d05d2c3	0.0326717
30	0xbdba1ccd	-0.090875246
31	0xbc2c2010	-0.010505691
32	0xbddfe3c7	-0.10932117
33	0x3e407fdf	0.18798779
34	0xbd8a26d3	-0.067456864
35	0xbde88671	-0.11353768
36	0xbd9645c9	-0.07337529
37	0xbd52377f	-0.051322456
38	0x3ddf1cb8	0.108941495
39	0x3b53f41c	0.0032341545
40	0x3e011595	0.12605889
41	0x3d9b441c	0.0758135
42	0x3e31ff40	0.17382526
43	0xbd06e5ed	-0.032934118
44	0x3e3c4095	0.18384011
45	0x3c9af4d5	0.018915573
46	0x3d71c695	0.059027273
47	0xbe1474a1	-0.14497615
48	0x3e2d15fa	0.16902915
49	0x3e4a1ad9	0.19736804
50	0xbdcc76d0	-0.09983599
51	0x3cacff2f	0.021117775
52	0xbd79aad1	-0.06095392
53	0xbd084800	-0.03327179
54	0xbcade88e	-0.021229055
55	0xbd0295e7	-0.03188124
56	0x3e06aed2	0.13152626
57	0x3d7bb0f9	0.06144807
58	0xbe701bfb	-0.23448174
59	0xbd18bef1	-0.03729147
60	0xbc1d0a5d	-0.00958499
61	0x3d9c8b6b	0.07643779
62	0x3cbdb5e7	0.023158027
63	0x3ba60901	0.0050669913
64	0xbcb63f90	-0.022247106
65	0x3b891499	0.0041833636
66	0xbd951254	-0.072788864
67	0xbc9a5641	-0.018839957
68	0x3d4d69dc	0.050149783
69	0x3d5f70ff	0.05455112
70	0xbd233c30	-0.03985232
71	0x3c82ebe8	0.01598163
72	0x3d555b26	0.05208888
73	0xbe265883	-0.16244702
74	0x3d2c9129	0.042130623
75	0x3b687d6f	0.0035475155
76	0x3da39e48	0.07989174
77	0xbd770c5e	-0.06031453
78	0xbdca9926	-0.09892492
79	0x3d8b66b8	0.068067014
80	0x3b1c592c	0.0023856862
81	0xbe057290	-0.13031983
82	0x3d8374ad	0.064187385
83	0x3dc3ded3	0.09563985
84	0x3e47dca5	0.19517763
85	0x3dad78d1	0.084703095
86	0x3e0e96e1	0.13924743
87	0xbca53eab	-0.020171484
88	0x3c92571e	0.017863806
89	0xbd210cc0	-0.0393188
90	0x3da13685	0.07871727
91	0xbe6eff6c	-0.23339623
92	0x3b543498	0.003237998
93	0xbc0b8402	-0.00851536
94	0x3c2f9187	0.010715849
95	0xbd373e7c	-0.044737324
96	0x3d69e1e9	0.05710021
97	0xbe2b9f81	-0.16760065
98	0xbd5351be	-0.051591627
99	0x3d5e9e7a	0.054350354
100	0xbe07f11d	-0.13275571
101	0xbd925f3d	-0.071470715
102	0x3d426873	0.04746289
103	0x3e091326	0.13386211
104	0x3d880b84	0.066428214
105	0x3d0c72c4	0.034289137
106	0xbaa25d9a	-0.0012387515
107	0xbe391b5b	-0.18076842
108	0x3dd8255d	0.105540015
109	0xbdded2fb	-0.10880085
110	0xbdf3a626	-0.11896925
111	0x3e563ca5	0.20921572
112	0xbc7f1049	-0.0155678475
113	0x3e66d7b3	0.2254322
114	0x3e227b34	0.15867311
115	0xbd04c1b8	-0.032411307
116	0x3d8ade20	0.06780648
117	0xbd54b555	-0.051930744
118	0xbccc0407	-0.024904264
119	0x3e08a930	0.1334579
120	0x3c4ea039	0.012611442
121	0xbdb19c60	-0.08672404
122	0x3e1f2246	0.15540418
123	0x3e16fada	0.1474413
124	0x3e09c08a	0.13452354
125	0x3cc4d08a	0.02402522
126	0xbe55c5a1	-0.2087617
127	0x3aea6590	0.0017883051
128	0xbe2f29fb	-0.17105858
129	0x3de5a87a	0.11213775
130	0xbd8ec378	-0.069708765
131	0x3d74c250	0.059755623
132	0x3c2fa858	0.010721289
133	0xbe18ce5e	-0.14922473
134	0xbdc4db32	-0.09612121
135	0x3dab81c1	0.08374358
136	0x3d8a9893	0.067673825
137	0xbe023100	-0.12714005
138	0x3da65f05	0.08123592
139	0xbd4c471f	-0.049872514
140	0x3d3039f2	0.04302401
141	0xbda7f794	-0.08201519
142	0xbd0fa2b4	-0.035067275
143	0xbd86701b	-0.06564351
144	0x3e0d7fe7	0.13818322
145	0x3e0eca8d	0.13944454
146	0x3df948ca	0.121720865
147	0x3db97b62	0.090567365
148	0xbe19f9df	-0.15036725
149	0x3d6f8ced	0.058484007
150	0x3ddbfacc	0.10741195
151	0xbdb79268	-0.08963472
152	0xbc576bbb	-0.013148244
153	0x3e033e29	0.12816681
154	0x3d94e9eb	0.07271179
155	0x3ccff7e8	0.025386766
156	0xbde34807	-0.110977225
157	0xbd158838	-0.03650686
158	0xbe6ebd0a	-0.233143
159	0x3e287a17	0.16452824
160	0xbdae9f56	-0.08526485
161	0x3da621ab	0.081118904
162	0xbcf338fa	-0.029690254
163	0xbdbe5e22	-0.09295298
164	0x3df6747d	0.12033937
165	0xbe10e1e9	-0.14148678
166	0x3c8e320f	0.017357854
167	0x3d499f7e	0.04922437
168	0xbd65213a	-0.05593989
169	0xbd2b2b44	-0.04178931
170	0x3e6feb2c	0.23429555
171	0xbda3d2bd	-0.079991795
172	0x3e90e285	0.2829782
173	0xbcfaa35c	-0.030595474
174	0xbc446eb8	-0.011989288
175	0xbbc61ab3	-0.0060456633
176	0x3e264b29	0.16239609
177	0xbdd5a1b6	-0.104312345
178	0x3c74a82b	0.0149326725
179	0x3e110eec	0.14165848
180	0xbe21c048	-0.15796006
181	0x3b8779a5	0.004134374
182	0xbe44f131	-0.19232632
183	0x3cec0ca4	0.028814621
184	0x3e461b36	0.19346318
185	0x3dd13717	0.10215586
186	0xbd549436	-0.051899157
187	0x3dc562e2	0.09638001
188	0x3cc1bb64	0.023648925
189	0xbdd7c6fe	-0.105360016
190	0xbdda2d59	-0.10653181
191	0xbd8f0463	-0.069832586
192	0xbddb486a	-0.10707171
193	0xbd79525f	-0.06086957
194	0xbe3f5d7c	-0.18688005
195	0xbe0d9695	-0.13826974
196	0xbe37cda7	-0.17949544
197	0x3da6b3dc	0.08139774
198	0xbd1bc9ac	-0.038034126
199	0x3da594dd	0.08085034
200	0xbd2bb7a7	-0.04192319
201	0xbd99e5a7	-0.07514506
202	0xbd05c4af	-0.032658275
203	0xbd8ab096	-0.06771962
204	0x3e3d155f	0.18465184
205	0x3c173581	0.009229065
206	0xbd2a6dc0	-0.041608572
207	0x3e36bf5f	0.1784644
208	0xbd5f730f	-0.054553088
209	0xbcc634f7	-0.024195177
210	0x3cfdfbba	0.031003822
211	0x3e157653	0.14595918
212	0x3e977d95	0.29588
213	0xbdd17486	-0.10227303
214	0xbd41edb1	-0.04734582
215	0x3cc86999	0.024464415
216	0xbd5027f6	-0.05081936
217	0x3d792fa4	0.06083645
218	0xbca2687b	-0.01982521
219	0xbda1a3b4	-0.07892552
220	0x3d6388d3	0.055550408
221	0xbdeff22c	-0.117161125
222	0x3e26ebd3	0.16300897
223	0xbe37e6a4	-0.17959076
224	0x3da12123	0.078676485
225	0xbe26b885	-0.16281326
226	0x3c5efdc0	0.013610303
227	0xbdbddf37	-0.092710905
228	0x3d73d2d1	0.059527222
229	0xbccb0a7d	-0.024785275
230	0xbe481f18	-0.19543111
231	0x3d3a1778	0.045432538
232	0x3aeda32f	0.0018130298
233	0x3e4ce69e	0.20009848
234	0x3d76acc3	0.060223352
235	0xbe1d059a	-0.15334168
236	0x3cbb0f6d	0.022834504
237	0xbdd6735e	-0.10471223
238	0xbd86e928	-0.0658744
239	0xbdb37a40	-0.08763552
240	0x3dbe9c05	0.09307102
241	0xbdb5c160	-0.08874774
242	0x3e3d8e8b	0.18511407
243	0x3c2ce809	0.010553368
244	0x3cae848f	0.021303443
245	0x3cdbe978	0.026844725
246	0x3dd2c4b2	0.10291423
247	0x3d03cffc	0.03218077
248	0xbe67bf7a	-0.22631636
249	0x3e0e08ed	0.13870592
250	0x3d89d7ac	0.06730589
251	0x3cf65b24	0.030072756
252	0x3dddaf11	0.10824407
253	0x3d9757bc	0.07389781
254	0xbdc0b5a8	-0.09409648
255	0xbe482e89	-0.19549002

network_body._body_endoder.seq_layers.2.bias f4 [128]
0	0x3cdb2111	0.026749166
1	0x3d25169b	0.04030476
2	0xbb347fe1	-0.0027542042
3	0x3b14e0e5	0.0022717055
4	0x3ad05bb5	0.0015896471
5	0x3d1035ab	0.03520743
6	0x3c81cc92	0.015844617
7	0x3c70e2db	0.014702524
8	0x3b39b0bf	0.0028334109
9	0x3c6880f7	0.014190904
10	0x3c0db821	0.008649857
11	0x3c85d1a3	0.016335314
12	0x3c9406ce	0.018069651
13	0x3c2bd81f	0.010488539
14	0x3d26e183	0.04074241
15	0x3c0e9a6e	0.008703811
16	0x3cb67963	0.022274679
17	0x3b6a927c	0.0035792878
18	0x3c8e5177	0.01737283
19	0x3c2a92dd	0.0104109915
20	0x3c230e22	0.0099521
21	0x3ceca421	0.028886857
22	0x3cccce6d	0.025000775
23	0x3c02114c	0.007938694
24	0xbbb33b02	-0.0054696808
25	0x3cf96604	0.030444153
26	0x3caed399	0.021341132
27	0x3c415e21	0.011802227
28	0x3c7ec72a	0.015550414
29	0x3d1b4adc	0.03791319
30	0x3c3219ca	0.010870406
31	0x3ca80aae	0.020512905
32	0x3cc7e3b7	0.024400575
33	0x3bea7eb9	0.00715622
34	0x3ca8d620	0.020609915
35	0x3cba18de	0.022716936
36	0x3b13d89a	0.0022559525
37	0x3d173b34	0.036921695
38	0x3d295955	0.04134496
39	0x3c3a7180	0.0113796
40	0x3c9be1f0	0.019028634
41	0x3d2b6332	0.041842647
42	0x3cd2f000	0.025749207
43	0x3c93e674	0.018054225
44	0x3cbd962b	0.023142895
45	0x3c9381f1	0.018006297
46	0x3cf7e9da	0.030262876
47	0x3c8ebd66	0.017424297
48	0x3cd8c795	0.026462356
49	0x3b953fc0	0.0045547187
50	0x3cd9ce30	0.026587576
51	0x3ca69acb	0.020337483
52	0x3ca952ee	0.020669427
53	0x3c20a82d	0.009805721
54	0x3cdfc31d	0.027314717
55	0x3ca4d6b3	0.020121908
56	0x3c75b1eb	0.014996032
57	0x3cc1e7e1	0.023670139
58	0x3b6d80db	0.0036240134
59	0x3c685027	0.014179266
60	0x3cd982ff	0.026551722
61	0x3cc6e0b8	0.024277076
62	0x3cf2f005	0.029655466
63	0xbbd7ff64	-0.006591724
64	0x3d09256d	0.033482958
65	0x3c026b5c	0.007960167
66	0x3cdffd08	0.027342334
67	0x3c0123c9	0.007882067
68	0x3c90a849	0.01765837
69	0x3d0b387b	0.03398941
70	0x3caa5d09	0.020796316
71	0x3bf910ab	0.007600864
72	0xbbc2330b	-0.005926495
73	0x3cb4d559	0.022074388
74	0x3c47f1ab	0.012203614
75	0x3ced6643	0.028979426
76	0x3cab0bb2	0.0208796
77	0x3c975dc1	0.018477323
78	0x3c655739	0.013997846
79	0x3c89636d	0.016771043
80	0x3d0ef379	0.034900162
81	0x3cb3dbd1	0.021955403
82	0x3ca3fc2e	0.02001771
83	0x3d17a864	0.037025824
84	0x3c00e16c	0.007866245
85	0x3d3e1407	0.04640582
86	0x3b48fe2a	0.0030669072
87	0x3cd0e979	0.025501953
88	0x3bbc5d1e	0.005748405
89	0x3cd6f068	0.026237682
90	0x3a6390bc	0.000868093
91	0x3cf2eccf	0.029653935
92	0x3bade9ac	0.005307397
93	0x3cd8fd95	0.026488105
94	0x3bc9afbe	0.0061549833
95	0x3b820a57	0.0039685178
96	0x3c55af96	0.013042351
97	0x3cacd9a6	0.021099877
98	0x3cae9a4a	0.021313805
99	0x3c4024f5	0.011727561
100	0x3c26758c	0.010159861
101	0x3c12d096	0.008960864
102	0x3cf07326	0.029351782
103	0x3c886e49	0.01665415
104	0xbb8b3566	-0.004248309
105	0x3c99e7d1	0.018787296
106	0x3c62cc22	0.013842614
107	0x3b90ecef	0.004422776
108	0x3d0bd95c	0.034142837
109	0x3c6684e6	0.014069771
110	0x3c0bc6e4	0.008531306
111	0x3c423b53	0.011854964
112	0x3cb36e6f	0.021903245
113	0x3c7794d9	0.015111172
114	0x3c363417	0.011120818
115	0x3cb4a955	0.0220534
116	0x3c72527b	0.014790173
117	0x38b9b784	8.85567e-05
118	0xbb25148d	-0.0025189251
119	0x3d0150a8	0.03157106
120	0x3c06f1f5	0.008236398
121	0x3d15fb96	0.036616884
122	0x3b1abf73	0.0023612648
123	0x3c83a6d1	0.016070755
124	0x3cf45951	0.029827746
125	0x3c8577ad	0.016292417
126	0x3c7187b2	0.014741825
127	0x3be7f0ef	0.007078282

action_model._continuous_distribution.mu.weight f4 [1, 128]
0	0xbdbd4a1d	-0.092426516
1	0xbe003571	-0.12520386
2	0xbd539d07	-0.051663425
3	0xbd18ab70	-0.03727287
4	0x3d0427ad	0.0322644
5	0xbd97babc	-0.07408664
6	0xbd862046	-0.065491244
7	0x3d809d4c	0.06280002
8	0xbc9a69e1	-0.018849315
9	0x3d150bfb	0.03638838
10	0x3d44a63a	0.04801009
11	0x3e00ef60	0.12591314
12	0xbcf012fe	-0.029305931
13	0x3df362f4	0.11884108
14	0x3db0d171	0.08633698
15	0xbd338786	-0.043830417
16	0x3d90b5e5	0.07065944
17	0xbcd1ec5e	-0.025625404
18	0x3da8d543	0.082438014
19	0xbd60c965	-0.054879565
20	0xbd912df5	-0.07088844
21	0xbdc37461	-0.09543682
22	0x3db128ab	0.08650335
23	0x3d75b831	0.05999011
24	0xbca3b03f	-0.019981502
25	0x3e038836	0.12844929
26	0xbd8969f1	-0.0670966
27	0xbd24358e	-0.040090136
28	0xbdc67359	-0.096899696
29	0xbdcc20cc	-0.09967193
30	0xbcac95f2	-0.021067593
31	0x3d83a3e7	0.06427746
32	0x3d07c694	0.033148363
33	0xbd1728f3	-0.036904287
34	0x3dac22a2	0.08405043
35	0x3e06d80e	0.13168356
36	0x3d4b3cc5	0.0496185
37	0x3dc048b5	0.09388868
38	0x3d9da013	0.07696547
39	0xbd60a35c	-0.05484329
40	0x3dec12c9	0.115270205
41	0xbdf991cf	-0.12186014
42	0x3de88e7d	0.113553025
43	0xbd21f971	-0.039544526
44	0xbdbd2047	-0.09234672
45	0xbd9ea6d0	-0.07746661
46	0xbd599ef6	-0.053130113
47	0x3da354cf	0.0797516
48	0x3d9dfdbd	0.07714412
49	0x3b1444d9	0.0022624044
50	0x3dabdedf	0.08392119
51	0xbd8b30eb	-0.0679644
52	0x3d408938	0.047005862
53	0xbcfa5f57	-0.03056304
54	0x3e15c097	0.14624248
55	0x3dd79003	0.10525515
56	0x3df6c824	0.120498925
57	0x3d9744fc	0.073862046
58	0x3c4fab72	0.012675153
59	0xbd1ff6c8	-0.03905371
60	0xbdaa5c3c	-0.083183736
61	0xbd884e88	-0.06655604
62	0x3dfa1339	0.12210698
63	0xbc11ca41	-0.008898319
64	0x3df1973c	0.11796424
65	0x3d3200ea	0.043457903
66	0x3d6d8075	0.057983834
67	0xbce3ed7b	-0.0278232
68	0xbdb82257	-0.08990925
69	0xbd8c5565	-0.06852225
70	0x3dc92428	0.098213494
71	0x3cf2cdbe	0.029639121
72	0xbb87d467	-0.0041451934
73	0xbcd3e08a	-0.025863905
74	0xbd28db3f	-0.041224714
75	0xbd6551e8	-0.055986315
76	0x3db226d3	0.086988114
77	0x3da3eb47	0.0800386
78	0xbdb621d2	-0.088931695
79	0x3d921c00	0.07134247
80	0x3dab734d	0.08371601
81	0xbdd036f6	-0.10166733
82	0x3dad85b3	0.08472767
83	0x3d638291	0.05554444
84	0x3d7862c3	0.06064106
85	0x3dc7894b	0.097429834
86	0x3d070777	0.032966103
87	0x3db169dd	0.0866277
88	0x3d041f61	0.032256488
89	0x3df85bbd	0.12126873
90	0x3d1f7c2f	0.03893679
91	0xbd8105b5	-0.06299917
92	0x3cff5fa4	0.031173535
93	0xbdd9b918	-0.10631007
94	0xbcff7813	-0.031185186
95	0x3dab606f	0.083680026
96	0x3d479ef0	0.04873556
97	0x3de15945	0.11003355
98	0xbd8e65ae	-0.069529876
99	0xbd13add3	-0.036054444
100	0x3d25d646	0.04048755
101	0xbd4c729d	-0.04991399
102	0xbd90fd92	-0.07079615
103	0x3d1120a7	0.03543153
104	0x3d455179	0.0481734
105	0x3d585c7d	0.05282258
106	0xbc33b60e	-0.010968698
107	0x3d533dda	0.051572658
108	0x3dcd4ad5	0.10024039
109	0xbd4cc50d	-0.04999261
110	0xbd2df091	-0.04246575
111	0x3cccac16	0.0249844
112	0x3daffbe6	0.08592968
113	0x3bcb268b	0.006199663
114	0xbce33e15	-0.027739564
115	0x3da8d3cc	0.08243522
116	0xbd9a0b8a	-0.07521732
117	0xbc60f9e8	-0.013731457
118	0x3ba8de8b	0.0051534823
119	0xbd86859d	-0.065684535
120	0xbd54f263	-0.05198897
121	0xbdfa0fdb	-0.122100554
122	0xbc988018	-0.018615767
123	0x3dc7fea6	0.09765367
124	0xbda861b6	-0.08221762
125	0x3dd1fd1b	0.10253354
126	0xbd721470	-0.059101522
127	0xbd53f255	-0.051744778

exp_avg f4 [128, 98]
0	0xb7ca98aa	-2.4151366e-05
1	0x393db28c	0.00018090958
2	0xb68d6213	-4.213545e-06
3	0x00000004	6e-45
4	0x38a5f02f	7.912551e-05
5	0x3453b466	1.9716535e-07
6	0xb8156947	-3.5622415e-05
7	0x39c4d412	0.00037542038
8	0x38d9c1cf	0.00010383466
9	0x364c121a	3.0408905e-06
10	0x00000004	6e-45
11	0x38fc754b	0.00012038144
12	0xb9b41a9b	-0.00034352098
13	0x38a5df63	7.909422e-05
14	0xb9ceb62f	-0.0003942712
15	0x3984bbab	0.00025316825
16	0x36b3333a	5.3405793e-06
17	0x00000000	0.0
18	0x3a16786c	0.000573999
19	0xb8e5b8e3	-0.00010954009
20	0x388876ef	6.5071385e-05
21	0x3894c64f	7.094128e-05
22	0xb80fe138	-3.4303608e-05
23	0x38a54d11	7.882168e-05
24	0x00000004	6e-45
25	0x3872f5a9	5.7926085e-05
26	0x387b22cc	5.987547e-05
27	0x3908e208	0.00013054174
28	0x39d5d879	0.0004078781
29	0x3973cd6d	0.00023250813
30	0x32e79da8	2.6963633e-08
31	0x00000000	0.0
32	0xb979ca40	-0.00023821834
33	0xb8915132	-6.9292626e-05
34	0x38b36b85	8.555412e-05
35	0x38ada34b	8.2796985e-05
36	0xb89dfb73	-7.5331795e-05
37	0x38131f51	3.5076697e-05
38	0x00000000	0.0
39	0x392adff7	0.00016295897
40	0xb817f5fb	-3.6230293e-05
41	0x3760d2b5	1.34004995e-05
42	0xba00dc1c	-0.00049156114
43	0xb6d823ef	-6.441485e-06
44	0x355a35fd	8.128989e-07
45	0x00000000	0.0
46	0x39e74706	0.0004411267
47	0x39835ca9	0.00025055304
48	0x399ede0c	0.00030301546
49	0x366c631b	3.5224427e-06
50	0xb93ae38b	-0.00017823109
51	0x3808b3ef	3.2592503e-05
52	0x00000000	0.0
53	0x3948c509	0.00019146888
54	0x38cad761	9.672228e-05
55	0x38a7ffe5	8.0108446e-05
56	0xb9612fae	-0.00021475434
57	0xb8b2bc76	-8.522805e-05
58	0xb02b2c5f	-6.227249e-10
59	0x00000000	0.0
60	0x39ef5443	0.00045648412
61	0x389ec1df	7.5701384e-05
62	0x391d58ec	0.00015005813
63	0xb93bf7c0	-0.00017926004
64	0xb96ba99d	-0.00022474532
65	0x394dc5a7	0.00019623955
66	0x00000004	6e-45
67	0x39f995a2	0.00047604466
68	0xb86f2303	-5.7014648e-05
69	0xb62b80c4	-2.5555937e-06
70	0xb9a10f21	-0.00030719585
71	0x38a5c726	7.9049074e-05
72	0x35a5937c	1.2336382e-06
73	0x00000004	6e-45
74	0x39afa241	0.0003349949
75	0x3899ee19	7.339958e-05
76	0x3902ef03	0.00012486805
77	0xb9701cc5	-0.00022898901
78	0x37e5d4ca	2.7398015e-05
79	0x388635cc	6.3996384e-05
80	0x00000004	6e-45
81	0x397c0b0f	0.00024036712
82	0x38a26fd4	7.7455916e-05
83	0x38d6b505	0.00010238033
84	0xb94983f0	-0.00019218004
85	0xb8eeeb95	-0.00011392605
86	0xb6a9b148	-5.0572307e-06
87	0x80000004	-6e-45
88	0x39e99ac4	0.00044556533
89	0x38aceba0	8.245488e-05
90	0x3915636a	0.00014246782
91	0xb883e61c	-6.289428e-05
92	0x35bce738	1.4074385e-06
93	0x380badfc	3.3302218e-05
94	0x389708e3	7.2018964e-05
95	0x35aa4e20	1.2688724e-06
96	0x3a7048d5	0.0009166126
97	0xb93b5836	-0.00017866571
98	0xb88f28d2	-6.826375e-05
99	0xb859a30b	-5.1888677e-05
100	0xb783b573	-1.570091e-05
101	0x80000004	-6e-45
102	0xb800966b	-3.0657666e-05
103	0xb71ac20e	-9.224297e-06
104	0xb894b530	-7.090939e-05
105	0xb877a5d5	-5.9043832e-05
106	0xb7270228	-9.954478e-06
107	0x35976361	1.12793e-06
108	0x00000004	6e-45
109	0xb88036de	-6.1137354e-05
110	0xb8487fbe	-4.7802685e-05
111	0xb8c2570d	-9.266855e-05
112	0x3792317e	1.7427603e-05
113	0xb8629eff	-5.4030676e-05
114	0xb635ce1e	-2.7091078e-06
115	0x00000000	0.0
116	0xb8cd0c92	-9.777503e-05
117	0xb8b0ddfc	-8.433682e-05
118	0xb8b50386	-8.631409e-05
119	0xb8c4fa58	-9.3926385e-05
120	0x3704aba8	7.90778e-06
121	0x37424eb7	1.1581628e-05
122	0x00000004	6e-45
123	0xb8c23957	-9.261321e-05
124	0xb61ee5d1	-2.3677605e-06
125	0xb741aba1	-1.1543657e-05
126	0xb8949689	-7.085229e-05
127	0xb885bed3	-6.377478e-05
128	0x351ef01a	5.920898e-07
129	0x00000000	0.0
130	0xb78affb2	-1.656995e-05
131	0xb80853cc	-3.250297e-05
132	0xb8dbfcfd	-0.000104898565
133	0xb90c07cd	-0.00013354346
134	0x385ba15e	5.2363954e-05
135	0x37dbb724	2.6192116e-05
136	0x00000000	0.0
137	0xb90a6502	-0.00013198334
138	0x37e42aee	2.7199709e-05
139	0x370883e5	8.136941e-06
140	0x38eec793	0.00011385898
141	0xb8000441	-3.052154e-05
142	0x3420ce71	1.4976264e-07
143	0x00000000	0.0
144	0xb9422f31	-0.00018518862
145	0xb887adcb	-6.469673e-05
146	0xb8c6e695	-9.484325e-05
147	0xb8a076a0	-7.65149e-05
148	0xb69cf536	-4.6777086e-06
149	0x37236b05	9.7404745e-06
150	0x00000000	0.0
151	0xb86827ad	-5.535006e-05
152	0xb7d31be2	-2.5166144e-05
153	0xb5577e5e	-8.027763e-07
154	0x35879aa9	1.0103296e-06
155	0x379a369e	1.8383664e-05
156	0xb518e039	-5.69507e-07
157	0x00000000	0.0
158	0xb92aa437	-0.00016273638
159	0xb7cf92e1	-2.4744719e-05
160	0xb87b6ae6	-5.994262e-05
161	0xb885e8f5	-6.385326e-05
162	0x37b2afa9	2.1301052e-05
163	0xb7af770c	-2.0917061e-05
164	0x80000004	-6e-45
165	0xb9022e16	-0.00012414934
166	0x376c910b	1.4100467e-05
167	0xb78a8fab	-1.6517783e-05
168	0x38aabe68	8.1416976e-05
169	0xb85251df	-5.014415e-05
170	0x35d90a7d	1.6170812e-06
171	0x80000004	-6e-45
172	0xb92c4a79	-0.00016430941
173	0xb7d65c5d	-2.5553798e-05
174	0xb87a3b6b	-5.9659982e-05
175	0x3804ce32	3.1663287e-05
176	0xb7acb89b	-2.0589961e-05
177	0xb705790b	-7.9556e-06
178	0x80000004	-6e-45
179	0xb8d54789	-0.00010169956
180	0xb894f267	-7.102341e-05
181	0xb864936a	-5.4496726e-05
182	0xb88bec85	-6.672092e-05
183	0x376cbc27	1.4110504e-05
184	0xb6f2f23f	-7.240363e-06
185	0x00000004	6e-45
186	0xb907d72a	-0.00012954758
187	0x37bb6693	2.2339902e-05
188	0xb7ca3fe4	-2.4110028e-05
189	0xb5aab642	-1.2719031e-06
190	0x35460655	7.376996e-07
191	0x34016482	1.2050626e-07
192	0x37513b1d	1.2471134e-05
193	0xb5d499d3	-1.584e-06
194	0xba8700b8	-0.0010299897
195	0x37a66471	1.9835514e-05
196	0xb7a09843	-1.9144389e-05
197	0x39658936	0.00021890257
198	0x387d421f	6.038148e-05
199	0x80000004	-6e-45
200	0x3978b74c	0.00023719406
201	0xba94913d	-0.0011334788
202	0xba900ea8	-0.0010990696
203	0x392b9830	0.00016364525
204	0xb8804c6a	-6.117749e-05
205	0xb9302696	-0.00016799042
206	0x00000004	6e-45
207	0xb6af35e2	-5.221679e-06
208	0xba16bc13	-0.0005750071
209	0xba1348ed	-0.0005618472
210	0x39955eda	0.00028490165
211	0x38ac38a4	8.212149e-05
212	0xb8650cee	-5.4609896e-05
213	0x00000000	0.0
214	0xba3b3ff8	-0.0007143016
215	0xb98e1f81	-0.00027107823
216	0xba24b28c	-0.0006282709
217	0x38596163	5.182753e-05
218	0xb8a20cbd	-7.727135e-05
219	0x37120cbf	8.705246e-06
220	0x00000004	6e-45
221	0x380f7bf7	3.4209308e-05
222	0xba2b7230	-0.00065401476
223	0xba2d2fac	-0.000660653
224	0xb9d97233	-0.0004147455
225	0xb6b3805a	-5.349558e-06
226	0x371104e7	8.643815e-06
227	0x00000000	0.0
228	0xb95cd888	-0.00021061499
229	0xb80a0928	-3.291029e-05
230	0xba4c2831	-0.00077879714
231	0x37e59369	2.736757e-05
232	0x3902abb3	0.00012461729
233	0xb9158a5e	-0.00014261293
234	0x00000000	0.0
235	0xb81c9a7b	-3.733717e-05
236	0xba0f9ae0	-0.0005478095
237	0xba0e715c	-0.0005433762
238	0xb91789e7	-0.00014451855
239	0xb99f8e35	-0.00030432796
240	0x370ef248	8.52027e-06
241	0x00000000	0.0
242	0x3976848d	0.00023509767
243	0xb9da7df3	-0.0004167404
244	0xba15616a	-0.0005698415
245	0xb804f01a	-3.1694864e-05
246	0x385aa459	5.212831e-05
247	0xb8b60048	-8.678489e-05
248	0x00000000	0.0
249	0x38fd2dc4	0.000120725046
250	0xba0fc156	-0.00054838264
251	0xb9f5f492	-0.0004691226
252	0xb9850b90	-0.00025376352
253	0xb82f3de5	-4.1780895e-05
254	0xb67cc90b	-3.7667949e-06
255	0x00000000	0.0

exp_avg_sq f4 [128, 98]
0	0x36f3f2df	7.2702383e-06
1	0x34d2e6f5	3.9283591e-07
2	0x31898177	4.001943e-09
3	0x24f00e63	1.0410778e-16
4	0x35cee447	1.5414633e-06
5	0x34d600e5	3.9861257e-07
6	0x368f7938	4.275844e-06
7	0x361e75d5	2.3612422e-06
8	0x34c7dfcf	3.722948e-07
9	0x32f42585	2.84224e-08
10	0x2568aeeb	2.0182057e-16
11	0x363856f2	2.7468745e-06
12	0x366a376a	3.4900972e-06
13	0x36d1ed3c	6.256303e-06
14	0x3658d4d7	3.2310397e-06
15	0x3499e363	2.8663916e-07
16	0x31757f0b	3.5724408e-09
17	0x00000000	0.0
18	0x36a94e1b	5.045685e-06
19	0x35478cda	7.4338243e-07
20	0x365b36b6	3.266539e-06
21	0x34a5d83b	3.0890973e-07
22	0x34977cfe	2.8216886e-07
23	0x33eb0dc2	1.0945543e-07
24	0x26243211	5.696678e-16
25	0x36b002f1	5.245551e-06
26	0x367604ed	3.6659724e-06
27	0x369ddd0f	4.704699e-06
28	0x35f11d09	1.796435e-06
29	0x34c50316	3.6696355e-07
30	0x302ca7c0	6.281162e-10
31	0x00000000	0.0
32	0x36ff5b7a	7.6102415e-06
33	0x34188094	1.420288e-07
34	0x35ede204	1.7723655e-06
35	0x339fc9df	7.4407346e-08
36	0x349e1ebd	2.9452158e-07
37	0x33bb976f	8.735412e-08
38	0x00000000	0.0
39	0x36c2bf72	5.8039377e-06
40	0x366519d1	3.4138686e-06
41	0x368ac8bd	4.1360895e-06
42	0x36090167	2.0415407e-06
43	0x34b7446b	3.4136187e-07
44	0x2f8cb6e8	2.5595814e-10
45	0x00000000	0.0
46	0x36e270fc	6.748478e-06
47	0x34bcdb3f	3.517725e-07
48	0x35d4c694	1.5853025e-06
49	0x339e3fbf	7.369044e-08
50	0x348f7f96	2.6728657e-07
51	0x351beb49	5.8084385e-07
52	0x00000000	0.0
53	0x3709424e	8.181274e-06
54	0x35539e63	7.883411e-07
55	0x362f67f8	2.613755e-06
56	0x35f6e749	1.8395741e-06
57	0x34783e7e	2.3119534e-07
58	0x2fa75436	3.0436959e-10
59	0x00000000	0.0
60	0x36c94028	5.9977356e-06
61	0x35984ccb	1.1347232e-06
62	0x3615cd7b	2.2322336e-06
63	0x341decdd	1.4707935e-07
64	0x3418ae12	1.421943e-07
65	0x359cd4b0	1.1684806e-06
66	0x25c6f75f	3.451515e-16
67	0x370087b5	7.660991e-06
68	0x355c68cd	8.210889e-07
69	0x360914d7	2.0426721e-06
70	0x35e4f58f	1.7058791e-06
71	0x34549574	1.979841e-07
72	0x2ef9356d	1.13326994e-10
73	0x1f4c8fbf	4.3317584e-20
74	0x369f31b4	4.7443555e-06
75	0x362eaa84	2.6027274e-06
76	0x36659f90	3.4216537e-06
77	0x34b884c3	3.4369268e-07
78	0x33bb782b	8.7297245e-08
79	0x353190bc	6.6148255e-07
80	0x25ac5d56	2.990049e-16
81	0x36f07b1f	7.1668906e-06
82	0x3578116d	9.241256e-07
83	0x361ce806	2.3380867e-06
84	0x35ce4ad5	1.5369975e-06
85	0x34502f4c	1.9388716e-07
86	0x2ea23e67	7.377992e-11
87	0x1f47b2d6	4.228782e-20
88	0x369693e8	4.487567e-06
89	0x3648900f	2.9886176e-06
90	0x367a1cd0	3.7269674e-06
91	0x36b75fda	5.4649836e-06
92	0x348098bb	2.3952984e-07
93	0x3605c689	1.9934107e-06
94	0x375b3df7	1.30678445e-05
95	0x3226b66d	9.7039505e-09
96	0x3a589828	0.0008262419
97	0x348dbebc	2.6402074e-07
98	0x352c412b	6.4169825e-07
99	0x3301c62a	3.0215382e-08
100	0x31a48485	4.788094e-09
101	0x25d034d7	3.6118054e-16
102	0x34100d8f	1.3415978e-07
103	0x345dac57	2.0644926e-07
104	0x3534db99	6.737478e-07
105	0x34d3586a	3.9366142e-07
106	0x32ea2ab6	2.7260608e-08
107	0x3360b080	5.231459e-08
108	0x23b9071b	2.006075e-17
109	0x3447bdde	1.8602393e-07
110	0x34acc7c0	3.2182834e-07
111	0x3564d7eb	8.525082e-07
112	0x34db5101	4.0850867e-07
113	0x3338e8fe	4.3052744e-08
114	0x3027055b	6.0761857e-10
115	0x00000000	0.0
116	0x34a7d9ec	3.1264733e-07
117	0x3476f9d6	2.3001425e-07
118	0x35155acd	5.563896e-07
119	0x33ff568d	1.1890106e-07
120	0x3337b148	4.2769244e-08
121	0x332e85f7	4.0634372e-08
122	0x2a47ef44	1.7757762e-13
123	0x350d244d	5.257942e-07
124	0x34a3aad5	3.0485413e-07
125	0x350223f3	4.8481087e-07
126	0x34d215fa	3.9131538e-07
127	0x338fc99d	6.69563e-08
128	0x2ec25196	8.836591e-11
129	0x00000000	0.0
130	0x34a52a1e	3.076429e-07
131	0x347badd3	2.3439434e-07
132	0x34f5100f	4.564649e-07
133	0x340621cd	1.2492019e-07
134	0x33465649	4.6178943e-08
135	0x332c0b9b	4.0057426e-08
136	0x00000000	0.0
137	0x35226941	6.050287e-07
138	0x34700e20	2.235688e-07
139	0x34b172b8	3.3052288e-07
140	0x349af9f2	2.8866594e-07
141	0x3399289e	7.132006e-08
142	0x2e4d6061	4.6697205e-11
143	0x00000000	0.0
144	0x34c342d8	3.6370216e-07
145	0x34a8f5c2	3.147125e-07
146	0x34f92173	4.6404202e-07
147	0x340416b0	1.2301712e-07
148	0x32e40f78	2.6549728e-08
149	0x33324864	4.1509693e-08
150	0x00000000	0.0
151	0x35418488	7.209096e-07
152	0x34153296	1.389511e-07
153	0x34995f4a	2.8567803e-07
154	0x349b0080	2.8871364e-07
155	0x33a8eae3	7.865835e-08
156	0x2f0de87f	1.2906475e-10
157	0x00000000	0.0
158	0x34abb35c	3.1981733e-07
159	0x34be443d	3.5439908e-07
160	0x34fbfa50	4.693452e-07
161	0x337492f8	5.6944344e-08
162	0x3247e518	1.1635414e-08
163	0x321f918e	9.288113e-09
164	0x29003d2d	2.847477e-14
165	0x35408e2b	7.1732455e-07
166	0x349fff37	2.980175e-07
167	0x34e422ca	4.2493622e-07
168	0x347f1364	2.375578e-07
169	0x33937a4c	6.8674666e-08
170	0x2e8336a4	5.9668964e-11
171	0x21264593	5.633507e-19
172	0x34c0a526	3.5882948e-07
173	0x34e88897	4.331275e-07
174	0x350d9135	5.27379e-07
175	0x33074daa	3.1502772e-08
176	0x32439804	1.1385058e-08
177	0x32414f69	1.1252134e-08
178	0x28f787b5	2.7481362e-14
179	0x35329d5b	6.653915e-07
180	0x34d733e9	4.008464e-07
181	0x3506ee62	5.026578e-07
182	0x343ee675	1.7778969e-07
183	0x33b2c005	8.323699e-08
184	0x2f97b46b	2.7594935e-10
185	0x2181d521	8.797795e-19
186	0x34db41a4	4.083969e-07
187	0x34d3dbdc	3.946178e-07
188	0x35025bd6	4.856241e-07
189	0x350ff4ac	5.3627696e-07
190	0x330a7bd1	3.224324e-08
191	0x35273fc2	6.230513e-07
192	0x35ca4d96	1.5072753e-06
193	0x3285e401	1.5586922e-08
194	0x38a490e7	7.8471196e-05
195	0x330058d6	2.9883118e-08
196	0x37638dff	1.3563315e-05
197	0x35b393fb	1.3379607e-06
198	0x3501f3bb	4.841092e-07
199	0x2a805419	2.2795722e-13
200	0x36079189	2.020128e-06
201	0x37941f39	1.7657514e-05
202	0x38131fb1	3.5077046e-05
203	0x363710d1	2.7278913e-06
204	0x35bcd319	1.4068529e-06
205	0x363fed7a	2.8599447e-06
206	0x2aa04b63	2.847402e-13
207	0x351dbaef	5.875908e-07
208	0x37fd7670	3.0215102e-05
209	0x382ca2c5	4.1159587e-05
210	0x35eb14c6	1.751491e-06
211	0x356a6b01	8.7327504e-07
212	0x33e3dcf2	1.0610701e-07
213	0x00000000	0.0
214	0x374e1feb	1.2285988e-05
215	0x37b26c9d	2.126983e-05
216	0x381229dc	3.4848097e-05
217	0x3640261c	2.8632412e-06
218	0x35a5dbe6	1.2357457e-06
219	0x36273ac3	2.4919143e-06
220	0x2d0dd471	8.0620935e-12
221	0x35248c32	6.129877e-07
222	0x38028cf4	3.1125688e-05
223	0x3821dac3	3.858913e-05
224	0x3697a919	4.5198362e-06
225	0x359270f1	1.0910718e-06
226	0x3315c833	3.4873846e-08
227	0x00000000	0.0
228	0x377089b1	1.43371735e-05
229	0x37796617	1.4865326e-05
230	0x37e333f0	2.7084694e-05
231	0x364a140d	3.0112017e-06
232	0x357d7839	9.442479e-07
233	0x3618e3e4	2.2782415e-06
234	0x00000000	0.0
235	0x35733120	9.059604e-07
236	0x380840f0	3.2485405e-05
237	0x381f34c0	3.795768e-05
238	0x36aed65c	5.210559e-06
239	0x35a34e96	1.2167318e-06
240	0x322f8471	1.0216454e-08
241	0x00000000	0.0
242	0x3725214e	9.842521e-06
243	0x379f309c	1.8976913e-05
244	0x37e97a6f	2.7832777e-05
245	0x365b9fe4	3.2726612e-06
246	0x3569576f	8.6926497e-07
247	0x36830fd1	3.9059455e-06
248	0x00000000	0.0
249	0x36d77896	6.4215374e-06
250	0x37a7f00c	2.0019732e-05
251	0x3806dcbe	3.215367e-05
252	0x366ee548	3.5598223e-06
253	0x35793c15	9.284716e-07
254	0x31e22ee4	6.5827965e-09
255	0x00000000	0.0

exp_avg f4 [128]
0	0x3974efc4	0.00023358973
1	0xb931e1ce	-0.00016964154
2	0xba272f4c	-0.0006377592
3	0xba8c3db9	-0.0010699547
4	0xbaf461d3	-0.0018644877
5	0x3b2593a0	0.0025264993
6	0x3a11f88c	0.00055683474
7	0xb8b73c48	-8.737348e-05
8	0x3a745f26	0.00093220396
9	0x3b2d47fe	0.0026440616
10	0xb942554e	-0.0001853306
11	0xb9654e8b	-0.00021868401
12	0xba3bf6e7	-0.0007170275
13	0x3929a63c	0.00016179023
14	0x3915d4c7	0.00014289013
15	0x37022ccf	7.759037e-06
16	0xbb527b90	-0.0032117106
17	0xba2b488d	-0.0006533943
18	0x3a9cd880	0.0011966377
19	0xba82a8a3	-0.000996847
20	0x390aef50	0.00013249856
21	0x3a24ce38	0.00062868325
22	0x3a188a9f	0.0005818996
23	0x3aa63134	0.0012679459
24	0xbb5198b5	-0.003198189
25	0x3aa90eed	0.0012898125
26	0xba5de424	-0.00084644766
27	0x3b16c197	0.0023003572
28	0x3b48b9ad	0.003062825
29	0x3aa58355	0.0012627641
30	0x3a3447c7	0.0006877151
31	0x39caa561	0.0003865166
32	0x3a52482e	0.000802162
33	0xba2bd969	-0.0006555529
34	0x3a9b600e	0.0011854188
35	0x3af79191	0.0018887987
36	0xbad8b941	-0.0016534702
37	0x3897cf92	7.238904e-05
38	0xba43256b	-0.00074442354
39	0xbaaff6ca	-0.0013424989
40	0xbae0893d	-0.0017130744
41	0xb9763ca0	-0.00023482973
42	0xbb5b6226	-0.003347525
43	0x3945843b	0.00018836644
44	0xbb5f878b	-0.003410789
45	0xba924a93	-0.0011161141
46	0x3a3242aa	0.0006800095
47	0xba5661e8	-0.00081780413
48	0xbb85106f	-0.004060797
49	0xba8342f2	-0.0010014458
50	0x3acdf24e	0.0015712471
51	0xbaaf236d	-0.0013361998
52	0x3ad6a9e4	0.0016377536
53	0x3a90eb68	0.0011056485
54	0xb8d6afdd	-0.00010237072
55	0xbb14b8c1	-0.002269313
56	0xb8ed7838	-0.00011323433
57	0xbb02cec9	-0.001995968
58	0x3a1fec4e	0.0006100581
59	0xbaedddf8	-0.0018147817
60	0xb8745808	-5.825612e-05
61	0x3a1c2b15	0.00059573475
62	0x3b21dfcf	0.002470005
63	0x3a860e7e	0.0010227708
64	0x3a3f4f5c	0.0007297897
65	0x3ab6552f	0.0013910885
66	0x3a122ff7	0.00055766053
67	0x393f5eac	0.00018250447
68	0x3a2cd177	0.0006592492
69	0xbb0e142c	-0.0021679504
70	0x3b67ab02	0.0035349731
71	0x3a1836ea	0.00058065227
72	0xb84a3121	-4.8206308e-05
73	0x3ac3ac0c	0.0014928593
74	0xbaa2c9d1	-0.0012419765
75	0x3b2d1b95	0.0026414145
76	0xba32ce95	-0.0006820944
77	0x38c55c11	9.410841e-05
78	0x3b1f11d8	0.002427211
79	0xbb07d9a0	-0.002072908
80	0x39fe6bc1	0.00048526938
81	0xba47e770	-0.00076257344
82	0xb9019199	-0.00012356638
83	0xba81b70f	-0.0009896475
84	0xbad779e7	-0.0016439528
85	0xbb021596	-0.0019849292
86	0xba7a3263	-0.00095442514
87	0x3abb80ce	0.0014305355
88	0x39b20cf1	0.00033960448
89	0xba36fa7e	-0.0006980075
90	0x3b26ffdc	0.0025482094
91	0x39ea0ba7	0.0004464064
92	0xb7f3c79a	-2.9060804e-05
93	0x38b3b73d	8.569516e-05
94	0xb9e363fe	-0.00043371314
95	0x3ac48108	0.0014992068
96	0xbb0cb214	-0.0021468448
97	0x3a52ab52	0.0008036393
98	0x378ecfdb	1.702451e-05
99	0x3a3ad2d6	0.0007126754
100	0x396370fa	0.00021690494
101	0xba2ed267	-0.00066689256
102	0x39a5f28e	0.0003165197
103	0x3b034f6c	0.0020036353
104	0xb8fef676	-0.00012157571
105	0xba7f30de	-0.000973476
106	0xbb087acd	-0.0020825148
107	0x3ad94052	0.0016574955
108	0xba1543bf	-0.0005693994
109	0x3801139b	3.0774256e-05
110	0x3a1327bd	0.00056135264
111	0xbadc4f41	-0.0016808287
112	0xb916a097	-0.00014364939
113	0xba588b36	-0.000826049
114	0xbad5cb10	-0.0016311128
115	0xb9fb84f9	-0.00047973523
116	0xbb190761	-0.0023350345
117	0xbab2f852	-0.0013654327
118	0xb99a8c9c	-0.0002947793
119	0xbafe8358	-0.0019417806
120	0x3ad7e992	0.0016472808
121	0xb7e7b82d	-2.762311e-05
122	0xba27e9c2	-0.0006405377
123	0xbaf60b5e	-0.0018771698
124	0xba69d1e8	-0.0008919523
125	0xb8e69b1f	-0.00010996148
126	0x3a5adedb	0.0008349248
127	0x3ade7466	0.0016971945

exp_avg_sq f4 [128]
0	0x37433946	1.1636241e-05
1	0x35bd9e91	1.4127746e-06
2	0x3866deec	5.5043885e-05
3	0x38b6d202	8.717553e-05
4	0x395067d6	0.00019875108
5	0x39ef93a3	0.0004569563
6	0x37334ce2	1.0687132e-05
7	0x362187a2	2.4069818e-06
8	0x384fa9a9	4.9510654e-05
9	0x39e283c8	0.00043204264
10	0x3688ca08	4.0766354e-06
11	0x37d7ce33	2.5726016e-05
12	0x3808e3fb	3.263725e-05
13	0x358c0d33	1.0434654e-06
14	0x37514de8	1.247551e-05
15	0x3555be28	7.9625397e-07
16	0x39f73184	0.00047148403
17	0x37b41a94	2.1470049e-05
18	0x388c05d9	6.6768094e-05
19	0x38b6b835	8.7127475e-05
20	0x362690f7	2.4820308e-06
21	0x3808c457	3.2607782e-05
22	0x372699e6	9.930203e-06
23	0x38b6af0b	8.7110406e-05
24	0x39e19ad7	0.0004303071
25	0x38f73a1d	0.00011788702
26	0x3899cdf6	7.333972e-05
27	0x39c736e2	0.0003799713
28	0x3a0aa075	0.0005288192
29	0x3881cead	6.189696e-05
30	0x388851ec	6.5002445e-05
31	0x3742107d	1.156714e-05
32	0x37c758b1	2.3763949e-05
33	0x37dcd2a8	2.6324138e-05
34	0x38f90f9d	0.000118761534
35	0x3934a34b	0.00017226969
36	0x38cd4d88	9.789603e-05
37	0x359cac7c	1.1673105e-06
38	0x37b539c6	2.1603784e-05
39	0x3859b5ee	5.1906267e-05
40	0x38be0419	9.060669e-05
41	0x366aa641	3.496549e-06
42	0x3a31014f	0.0006752209
43	0x37482619	1.1929799e-05
44	0x3a4fa964	0.00079216645
45	0x3837745a	4.373896e-05
46	0x37dcfb7f	2.6343156e-05
47	0x3843b945	4.666417e-05
48	0x3a4ef212	0.00078943477
49	0x3869fa4a	5.578463e-05
50	0x39060576	0.0001278127
51	0x38bd7308	9.0336485e-05
52	0x390f96f5	0.00013693779
53	0x38d58d74	0.00010182979
54	0x34bc5767	3.5081322e-07
55	0x399136cf	0.0002769739
56	0x382c0ad9	4.10181e-05
57	0x394093a8	0.00018365553
58	0x37dc169e	2.6236576e-05
59	0x3926a849	0.00015893685
60	0x369d8a6e	4.69508e-06
61	0x380e2465	3.3889333e-05
62	0x39423c20	0.0001852368
63	0x384e7230	4.9220573e-05
64	0x38229ef2	3.877184e-05
65	0x38fc4208	0.00012028596
66	0x39ab6274	0.00032689015
67	0x363c5122	2.8061409e-06
68	0x37c9ee39	2.4071998e-05
69	0x394a10e6	0.00019270516
70	0x3a0ae822	0.0005298873
71	0x37980cc3	1.8125755e-05
72	0x34e17bd7	4.199962e-07
73	0x3910d5c0	0.00013812538
74	0x38865136	6.4047446e-05
75	0x39b9cd27	0.000354388
76	0x380e2c15	3.3896493e-05
77	0x35651a99	8.534785e-07
78	0x39e39fad	0.00043415782
79	0x392b1d28	0.00016318692
80	0x3792a8a7	1.7483091e-05
81	0x382495c4	3.9240127e-05
82	0x35acbb52	1.2869516e-06
83	0x381a75bc	3.682611e-05
84	0x398c9e81	0.00026820975
85	0x396c41ca	0.00022531222
86	0x38988784	7.2731666e-05
87	0x3902cea2	0.00012474743
88	0x376be435	1.4060225e-05
89	0x3781a1c3	1.5453325e-05
90	0x39cc8126	0.00039006135
91	0x37af4ea8	2.0898253e-05
92	0x353a5d51	6.942619e-07
93	0x371598d1	8.916672e-06
94	0x373a908d	1.112012e-05
95	0x39299d05	0.0001617559
96	0x39de1246	0.00042356754
97	0x3805c79b	3.1895568e-05
98	0x35c35759	1.4554054e-06
99	0x37b11166	2.1108146e-05
100	0x36006e34	1.9137633e-06
101	0x3795097b	1.7766599e-05
102	0x374ac0af	1.2085001e-05
103	0x39359297	0.00017316114
104	0x369eebe4	4.736228e-06
105	0x3866bff2	5.5015036e-05
106	0x391c5071	0.00014907286
107	0x393b5b52	0.00017867729
108	0x3800ad1c	3.06788e-05
109	0x345a7f05	2.0349042e-07
110	0x383727c6	4.3667642e-05
111	0x38b0d18c	8.431365e-05
112	0x35b59842	1.3529864e-06
113	0x38666e5f	5.4939064e-05
114	0x39c6061c	0.00037770055
115	0x37a26483	1.935871e-05
116	0x399fab7b	0.00030454606
117	0x38faebd1	0.00011964853
118	0x37558370	1.2726392e-05
119	0x397e7895	0.00024268248
120	0x39325a60	0.0001700907
121	0x35502341	7.753734e-07
122	0x38042537	3.150591e-05
123	0x390040ec	0.00012231217
124	0x3898431f	7.260427e-05
125	0x3661abe5	3.3627668e-06
126	0x38427814	4.6365036e-05
127	0x39831157	0.00024999186
