results/ppo/OpponentAI/OpponentAI-2499942.onnx (onnx, 119084 bytes, 5 tensors)

action_model._continuous_distribution.mu.weight f4 [1, 128]
000000 1d 4a bd bd 71 35 00 be 07 9d 53 bd 70 ab 18 bd
       -0.092426516 -0.12520386 -0.051663425 -0.03727287
000010 ad 27 04 3d bc ba 97 bd 46 20 86 bd 4c 9d 80 3d
       0.0322644 -0.07408664 -0.065491244 0.06280002
000020 e1 69 9a bc fb 0b 15 3d 3a a6 44 3d 60 ef 00 3e
       -0.018849315 0.03638838 0.04801009 0.12591314
000030 fe 12 f0 bc f4 62 f3 3d 71 d1 b0 3d 86 87 33 bd
       -0.029305931 0.11884108 0.08633698 -0.043830417
000040 e5 b5 90 3d 5e ec d1 bc 43 d5 a8 3d 65 c9 60 bd
       0.07065944 -0.025625404 0.082438014 -0.054879565
000050 f5 2d 91 bd 61 74 c3 bd ab 28 b1 3d 31 b8 75 3d
       -0.07088844 -0.09543682 0.08650335 0.05999011
000060 3f b0 a3 bc 36 88 03 3e f1 69 89 bd 8e 35 24 bd
       -0.019981502 0.12844929 -0.0670966 -0.040090136
000070 59 73 c6 bd cc 20 cc bd f2 95 ac bc e7 a3 83 3d
       -0.096899696 -0.09967193 -0.021067593 0.06427746
000080 94 c6 07 3d f3 28 17 bd a2 22 ac 3d 0e d8 06 3e
       0.033148363 -0.036904287 0.08405043 0.13168356
000090 c5 3c 4b 3d b5 48 c0 3d 13 a0 9d 3d 5c a3 60 bd
       0.0496185 0.09388868 0.07696547 -0.05484329
0000a0 c9 12 ec 3d cf 91 f9 bd 7d 8e e8 3d 71 f9 21 bd
       0.115270205 -0.12186014 0.113553025 -0.039544526
0000b0 47 20 bd bd d0 a6 9e bd f6 9e 59 bd cf 54 a3 3d
       -0.09234672 -0.07746661 -0.053130113 0.0797516
0000c0 bd fd 9d 3d d9 44 14 3b df de ab 3d eb 30 8b bd
       0.07714412 0.0022624044 0.08392119 -0.0679644
0000d0 38 89 40 3d 57 5f fa bc 97 c0 15 3e 03 90 d7 3d
       0.047005862 -0.03056304 0.14624248 0.10525515
0000e0 24 c8 f6 3d fc 44 97 3d 72 ab 4f 3c c8 f6 1f bd
       0.120498925 0.073862046 0.012675153 -0.03905371
0000f0 3c 5c aa bd 88 4e 88 bd 39 13 fa 3d 41 ca 11 bc
       -0.083183736 -0.06655604 0.12210698 -0.008898319
000100 3c 97 f1 3d ea 00 32 3d 75 80 6d 3d 7b ed e3 bc
       0.11796424 0.043457903 0.057983834 -0.0278232
000110 57 22 b8 bd 65 55 8c bd 28 24 c9 3d be cd f2 3c
       -0.08990925 -0.06852225 0.098213494 0.029639121
000120 67 d4 87 bb 8a e0 d3 bc 3f db 28 bd e8 51 65 bd
       -0.0041451934 -0.025863905 -0.041224714 -0.055986315
000130 d3 26 b2 3d 47 eb a3 3d d2 21 b6 bd 00 1c 92 3d
       0.086988114 0.0800386 -0.088931695 0.07134247
000140 4d 73 ab 3d f6 36 d0 bd b3 85 ad 3d 91 82 63 3d
       0.08371601 -0.10166733 0.08472767 0.05554444
000150 c3 62 78 3d 4b 89 c7 3d 77 07 07 3d dd 69 b1 3d
       0.06064106 0.097429834 0.032966103 0.0866277
000160 61 1f 04 3d bd 5b f8 3d 2f 7c 1f 3d b5 05 81 bd
       0.032256488 0.12126873 0.03893679 -0.06299917
000170 a4 5f ff 3c 18 b9 d9 bd 13 78 ff bc 6f 60 ab 3d
       0.031173535 -0.10631007 -0.031185186 0.083680026
000180 f0 9e 47 3d 45 59 e1 3d ae 65 8e bd d3 ad 13 bd
       0.04873556 0.11003355 -0.069529876 -0.036054444
000190 46 d6 25 3d 9d 72 4c bd 92 fd 90 bd a7 20 11 3d
       0.04048755 -0.04991399 -0.07079615 0.03543153
0001a0 79 51 45 3d 7d 5c 58 3d 0e b6 33 bc da 3d 53 3d
       0.0481734 0.05282258 -0.010968698 0.051572658
0001b0 d5 4a cd 3d 0d c5 4c bd 91 f0 2d bd 16 ac cc 3c
       0.10024039 -0.04999261 -0.04246575 0.0249844
0001c0 e6 fb af 3d 8b 26 cb 3b 15 3e e3 bc cc d3 a8 3d
       0.08592968 0.006199663 -0.027739564 0.08243522
0001d0 8a 0b 9a bd e8 f9 60 bc 8b de a8 3b 9d 85 86 bd
       -0.07521732 -0.013731457 0.0051534823 -0.065684535
0001e0 63 f2 54 bd db 0f fa bd 18 80 98 bc a6 fe c7 3d
       -0.05198897 -0.122100554 -0.018615767 0.09765367
0001f0 b6 61 a8 bd 1b fd d1 3d 70 14 72 bd 55 f2 53 bd
       -0.08221762 0.10253354 -0.059101522 -0.051744778

network_body._body_endoder.seq_layers.0.bias f4 [128]
000000 7f d0 a6 bb bd 9e ba bc 8b 18 16 3c 03 2b 99 bb
       -0.0050907726 -0.02278077 0.009161125 -0.004674317
000010 dd 96 b8 3c 48 97 a7 3c 9d 03 1d bd d3 83 d2 3a
       0.022532875 0.020457879 -0.038333524 0.0016061015
000020 41 93 0e 3c 37 26 f7 3c 5d a6 63 bc 31 e8 25 bb
       0.0087021 0.03016959 -0.013894645 -0.0025315399
000030 e0 d1 20 3d 02 e3 47 bd e6 e7 6d bc af b1 b0 bb
       0.039262652 -0.048800476 -0.014520621 -0.0053922753
000040 be a4 c8 3c 54 3b 03 3b 8c 86 8a 3c db 1d 25 3b
       0.024492618 0.0020024376 0.01690986 0.0025194797
000050 78 a9 c3 bc d2 b7 ae 3a f8 54 2d 3c 6c 98 2b bc
       -0.02388452 0.0013329929 0.01057934 -0.010473352
000060 68 9a de 3c c4 7a 8f 3c 5c 55 dd 3b a2 b3 07 3d
       0.027173236 0.017514594 0.0067545604 0.033130296
000070 ad 52 b2 3c fd 0b 7a 3c b4 2f fe 3b fd 2c 7a 3d
       0.021767939 0.015261647 0.0077571515 0.06107806
000080 57 80 fc 3c d6 ac cb 3b 26 bd 28 3d 5d 54 f0 3c
       0.030822916 0.006215672 0.04119601 0.029337103
000090 d8 8d 81 bb 73 eb 94 bc 2a fe 54 bb 12 b1 a5 bb
       -0.0039536767 -0.018178677 -0.0032500126 -0.005056509
0000a0 32 03 39 3c a9 20 c5 3b 60 e3 d2 3c 4b a2 8b 39
       0.011292266 0.0060158563 0.025743186 0.00026633064
0000b0 f4 a2 0c 3d 06 50 92 bc 6e 84 5e bb d8 53 11 3c
       0.03433509 -0.017860424 -0.0033953446 0.008870088
0000c0 f4 26 df 3c 9d 1b 78 bb 03 65 0d 3b 75 9e 87 3c
       0.027240254 -0.0037858256 0.00215751 0.01655505
0000d0 36 45 5a 3c 94 6b 81 3b 8c 56 da bc 5b aa b5 3c
       0.013322165 0.003949592 -0.026652597 0.022175958
0000e0 8c 8a 21 3d de 13 40 bc 85 4f a9 3c 8f 8a 79 bb
       0.03943877 -0.011723487 0.0206678 -0.0038076972
0000f0 de be a2 bc b5 be a1 bc bd 6d 07 3d 61 8c 13 bc
       -0.019866403 -0.019744257 0.03306364 -0.009005637
000100 24 64 5d 3d c3 b1 ca 3c cc 82 17 3d 10 ba 9a bc
       0.05405058 0.024742967 0.036989972 -0.01888755
000110 09 ab f5 3b 21 bd 3b 3c 54 22 ab 3c 4f 58 a9 3c
       0.0074971956 0.011458666 0.020890392 0.020671992
000120 06 c4 26 bc fb 54 ce 3b 8a 40 be 3b 2e a2 d8 3c
       -0.010178572 0.0062967516 0.0058060335 0.02644452
000130 7f 0b 3d 3c e5 c5 43 3b a7 35 e6 3c 29 51 b1 3c
       0.011538385 0.0029872593 0.028101755 0.021645145
000140 4a 69 59 3b 59 37 1b bb 44 6c 6f bc 10 ba 97 3c
       0.003317433 -0.0023684113 -0.014613215 0.018521339
000150 00 38 2d 3d a0 e2 d6 3c 93 aa ae 3c 8c 8f fc 3c
       0.042289734 0.02623111 0.02132157 0.030830167
000160 3f 2e b2 bc 93 9c 8b bc 9d c3 b1 3c 9d da 3c 3c
       -0.021750567 -0.017042434 0.021699721 0.011526731
000170 6b e4 e6 bc 34 67 40 3a 73 0c e0 3c 49 c6 d7 3c
       -0.02818509 0.0007339597 0.027349686 0.026339667
000180 67 ca 16 3d dc dc e1 3c 00 95 25 bd 60 6e 9b 3b
       0.03681412 0.027571134 -0.0404253 0.0047433823
000190 fa ce d1 bb 58 45 39 3c f5 3e 89 3c 5a 88 33 3d
       -0.0064028474 0.011308037 0.016753653 0.043831207
0001a0 15 00 5d 3b 52 db 19 3d eb bc 24 3c 72 96 c7 3c
       0.0033721973 0.037562676 0.010054807 0.02436373
0001b0 ce 42 56 3d 85 80 3b 3d 39 a1 6f 3c c2 e0 df bc
       0.052309804 0.045776863 0.014625841 -0.027328853
0001c0 39 37 77 bc b5 b6 c7 bc 4f c3 93 3c 9e 6a 20 3b
       -0.01508885 -0.024379114 0.018037466 0.0024477611
0001d0 1e 6c b8 3c e7 4c 68 3c b9 f0 43 3d 79 97 ec 3b
       0.022512492 0.014178491 0.047836993 0.0072202054
0001e0 f8 e5 bc 3d da 16 c7 3c cb fa 9e 3c b7 f8 86 3c
       0.092235506 0.024302889 0.019406697 0.016476018
0001f0 17 e0 4b 3c 03 23 af 3c e7 6d 0e 3c 9b 72 32 3c
       0.012443564 0.021379 0.008693195 0.010891582

network_body._body_endoder.seq_layers.0.weight f4 [128, 98]
000000 d0 01 b1 3c 58 e8 5c 3d 38 a1 15 3e eb 48 b8 3d
       0.02160731 0.053932518 0.14612281 0.08998283
000010 f5 90 05 3e 1c be ea bd 22 51 73 3a 1b 6b 6b 3d
       0.13043578 -0.11462042 0.0009281804 0.05747519
000020 e6 4e 7a 3e 58 2f c0 ba 97 e3 21 3d fe f2 63 bd
       0.2444416 -0.0014662547 0.039523687 -0.055651657
000030 26 7f d6 3d 02 17 1d be e9 48 2e 3d 2b ef ba bc
       0.104734704 -0.15340808 0.04255 -0.022819122
000040 64 36 70 bd a7 00 0d 3c a0 69 11 3d 76 98 97 be
       -0.05864562 0.008606113 0.035501122 -0.29608506
000050 f5 11 87 bc 39 0a c1 3d 41 11 a9 bc c9 71 ec bc
       -0.016488055 0.09425778 -0.02063811 -0.02886285
000060 1c 14 fb 3d a2 d2 8b 3c 65 c4 8b bb 18 82 22 3d
       0.12259695 0.017068211 -0.0042653554 0.03967485
000070 bd 51 02 be 68 78 d5 3d 9b 56 e2 bd aa 7b 38 bd
       -0.12726493 0.10423356 -0.11051675 -0.04503981
000080 05 c4 eb bc 3e 03 19 bd 55 ca a8 be 33 a4 59 be
       -0.028779993 -0.037356608 -0.32966867 -0.21254043
000090 93 d6 a0 3c db 69 84 bc 63 0c 96 bd 7b ed 49 3d
       0.019633567 -0.016163757 -0.07326581 0.049298745
0000a0 d7 1d cb 3d 62 f3 70 bc a8 ad b9 bd 1e 03 89 3b
       0.09917801 -0.0147064645 -0.090663254 0.00418128
0000b0 3f 74 2c 3e 33 66 4a bd f5 60 3f 3d 5d 02 82 3d
       0.1684122 -0.04941387 0.046723325 0.06348107
0000c0 a0 cf 18 3c 06 cb ed 3c c5 2c 21 bd 8f 82 ed 3d
       0.009326845 0.029027473 -0.039349336 0.11597168
0000d0 14 fd 4b 3d 4b 65 4f bd 2a 6e 3e be 56 47 a5 3d
       0.0498019 -0.05063371 -0.18596712 0.08070247
0000e0 f8 ac a6 3d 41 75 15 be 51 ae dd 3c dd 9c d4 3d
       0.0813846 -0.1459551 0.02706066 0.10381482
0000f0 75 2d 37 bd 60 c8 0f be 82 30 b1 bb cb 6a 88 be
       -0.044721086 -0.14041281 -0.005407394 -0.26643977
000100 c9 95 13 be f7 96 48 3d 83 ce d4 3d ce 24 65 3e
       -0.14412607 0.048972096 0.103909515 0.22377321
000110 12 03 4f be a4 4e 0b be 72 f2 bb 3b 4a 0c de bd
       -0.20216015 -0.13604218 0.005735689 -0.10842188
000120 09 2a a7 3c 7d 82 12 bd 36 ac 03 3d b5 df 8c bd
       0.020405786 -0.035768975 0.032146655 -0.06878606
000130 de 69 a5 bc 0b 96 45 be e5 72 04 3e 77 be b6 bd
       -0.020192083 -0.19295518 0.12934454 -0.08923047
000140 b3 e0 db 3d ee fe e3 bd 5a 08 21 be fc 70 41 be
       0.10736217 -0.11132608 -0.15725842 -0.18890756
000150 f5 f7 73 3e c1 50 c6 3d 90 5e 0e 3e 73 20 1d 3d
       0.23825057 0.09683371 0.1390326 0.038361024
000160 42 0d d5 bd bf fd 20 be 42 d9 b0 3c ee b7 67 bd
       -0.10402919 -0.15721796 0.021587972 -0.056571893
000170 44 a8 7c bd 05 30 f3 3c 28 43 bd be da 5e 8a bd
       -0.061683908 0.029685983 -0.369653 -0.06756373
000180 ff 05 ba 3d d6 46 37 3a e0 54 dc 3d 32 f9 c0 bd
       0.09083175 0.00069914514 0.10758376 -0.0942253
000190 16 13 43 3e 51 27 10 be 35 e5 a2 bd 7e 97 f4 bd
       0.1905025 -0.14077498 -0.07953874 -0.11942957
0001a0 b1 c6 0a be 26 f2 07 3d 6f b9 13 be 11 ff de 3d
       -0.13552357 0.033189915 -0.14426206 0.10888494
0001b0 67 33 3e 3d df ee 2c 3e 55 84 b9 3d 81 8a 6f bd
       0.04643574 0.16887997 0.090584435 -0.058481697
0001c0 b6 82 00 3c 35 72 f2 3c 94 74 d5 bd bb cb 8b bd
       0.007843664 0.029595474 -0.10422626 -0.06825968
0001d0 6e f2 62 3d fa ff a4 3d b0 c3 a6 3d 61 20 f7 bd
       0.05540698 0.08056636 0.08142793 -0.12066723
0001e0 e4 79 8d be 5c 11 a6 bd fb 39 96 3d 92 b1 90 bd
       -0.27632058 -0.0810878 0.07335278 -0.07065119
0001f0 11 81 da bc 2a dc 2b be c3 c7 1a 3e 64 0b 47 3d
       -0.026672872 -0.16783205 0.15115266 0.048594847
000200 38 2c 9b bd f6 05 9e 3d ec d4 59 3d 12 14 f2 3d
       -0.075767934 0.07715981 0.053181574 0.11820234
000210 e2 07 1b bd e6 45 05 bd 8b 0a ff bc 24 a3 70 bd
       -0.037849315 -0.032537363 -0.031132957 -0.058749333
000220 33 16 13 bd ed f3 71 3d a9 e9 98 bc c5 05 0a be
       -0.035909843 0.059070516 -0.018666105 -0.13478763
000230 c6 b0 3a be 47 9f b2 3c fa 04 78 b8 75 80 bc bd
       -0.18231496 0.021804465 -5.9132442e-05 -0.09204189
000240 fc 42 91 bd fb 80 12 3d 6f 76 07 be d9 d6 96 bd
       -0.070928544 0.035767537 -0.13228773 -0.07365198
000250 69 3d a1 3d e5 15 40 3d 7c 2b 01 be b4 70 98 bc
       0.07873041 0.04689588 -0.12614244 -0.018608429
000260 65 9a 17 be 03 59 52 be ff 9b 9c 3c ce 8c 92 bd
       -0.1480499 -0.20541768 0.019117353 -0.071557626
000270 0d ca d2 3d 42 15 14 3b b6 85 12 be e6 56 09 be
       0.102924444 0.0022595678 -0.14308819 -0.13412055
000280 ac 9e 1c bc 73 7d 9b bd c4 7b 16 be 24 b0 80 be
       -0.009559315 -0.07592287 -0.1469565 -0.25134385
000290 90 56 cb 3c c6 fd b0 3d ac 0d 04 3e f3 53 99 3d
       0.02482155 0.086421534 0.1289584 0.07486715
0002a0 70 26 1d 3d 9d d7 8b 3d 5b fd 46 bc ae 98 72 ba
       0.038366735 0.06828234 -0.012145366 -0.00092543184
0002b0 24 91 e9 3c 31 bc a7 3d 36 80 d7 bc e0 27 a5 3d
       0.028511591 0.081901915 -0.026306253 0.08064246
0002c0 a4 10 80 3d d2 cb 43 bc a4 bc 8a bd a0 e9 ae bd
       0.06253174 -0.01195045 -0.067742616 -0.08540654
0002d0 23 2f dd 3d af 76 0e bb 45 f2 18 3c 44 ac dc 3d
       0.10800006 -0.0021738221 0.009335105 0.107750446
0002e0 b1 e3 5f 3e b8 a5 23 3e 0e 25 dc 3c c2 1f 0e be
       0.21864201 0.15981185 0.026873138 -0.13879302
0002f0 4a 2f e1 bd 5e 5b 57 3d 0a 9a 3a 3e a5 f7 75 3d
       -0.10995348 0.05257737 0.18222824 0.060050625
000300 29 2a e5 bc f3 5e 13 3e b4 62 01 3c 57 fa f9 3d
       -0.027974205 0.14391689 0.007897068 0.12205952
000310 b7 34 2d 3e 72 31 02 3e b3 73 ae 3d 42 95 0a 3e
       0.1691464 0.12714174 0.085181616 0.135335
000320 9b c8 20 be 8c 02 80 3d 52 d0 f0 bd be f7 56 be
       -0.15701525 0.06250486 -0.11758484 -0.20992944
000330 eb a9 d4 3d 66 bf 5a 3e 70 3b 78 bd 77 be 91 bd
       0.10383972 0.21362075 -0.06060356 -0.071164064
000340 a6 17 23 3e 94 bf 34 3c 5e 36 44 be fd 43 a0 bd
       0.1592699 0.011032004 -0.19161364 -0.07825468
000350 c5 43 03 be 18 c7 2d 3e c4 1c 81 3d 39 df 9a 3e
       -0.12818821 0.1697048 0.06304315 0.3024843
000360 24 c9 e2 3d bc 70 d8 bd d1 e8 d1 bb 3d 3e 9b 3b
       0.11073521 -0.105683774 -0.0064059277 0.004737644
000370 f0 a9 81 3d ae bc b9 bd 91 a8 75 3d 26 9b ba 3c
       0.06331241 -0.09069191 0.05997521 0.022779059
000380 82 89 f5 3d 10 53 24 be bf 74 a6 bc 18 57 b4 bc
       0.11989118 -0.16047311 -0.02031934 -0.022014186
000390 40 30 a2 3e a4 c9 bc bc ec 73 d2 3d 31 23 29 be
       0.31677437 -0.023045368 0.102760166 -0.1651733
0003a0 f3 09 d2 bd ce 70 06 bd 86 79 32 3e c9 7f c1 bd
       -0.10255804 -0.032822423 0.1742917 -0.09448201
0003b0 92 e3 1b 3e 38 53 6a bd 05 0b d9 3d e0 0b 59 bc
       0.1522353 -0.05720827 0.10597805 -0.01324746
0003c0 9f 03 7f bd 55 c2 cf bd 2d 9e da 3d ce 75 e5 bd
       -0.062259313 -0.10144488 0.10674701 -0.1120411
0003d0 08 c2 8e bd a5 4b 5a bd 53 4a 20 3c f9 c4 11 3e
       -0.06970602 -0.053294796 0.009783345 0.14235295
0003e0 3d 84 b0 3d 8d 6f 87 3b 2b 10 65 be e0 01 a8 bc
       0.086189725 0.004133171 -0.22369449 -0.020508707
0003f0 e7 29 77 bd e5 65 56 3d 3c 31 91 bb 00 da 24 bc
       -0.060342696 0.052343268 -0.004430918 -0.010061741

network_body._body_endoder.seq_layers.2.bias f4 [128]
000000 11 21 db 3c 9b 16 25 3d e1 7f 34 bb e5 e0 14 3b
       0.026749166 0.04030476 -0.0027542042 0.0022717055
000010 b5 5b d0 3a ab 35 10 3d 92 cc 81 3c db e2 70 3c
       0.0015896471 0.03520743 0.015844617 0.014702524
000020 bf b0 39 3b f7 80 68 3c 21 b8 0d 3c a3 d1 85 3c
       0.0028334109 0.014190904 0.008649857 0.016335314
000030 ce 06 94 3c 1f d8 2b 3c 83 e1 26 3d 6e 9a 0e 3c
       0.018069651 0.010488539 0.04074241 0.008703811
000040 63 79 b6 3c 7c 92 6a 3b 77 51 8e 3c dd 92 2a 3c
       0.022274679 0.0035792878 0.01737283 0.0104109915
000050 22 0e 23 3c 21 a4 ec 3c 6d ce cc 3c 4c 11 02 3c
       0.0099521 0.028886857 0.025000775 0.007938694
000060 02 3b b3 bb 04 66 f9 3c 99 d3 ae 3c 21 5e 41 3c
       -0.0054696808 0.030444153 0.021341132 0.011802227
000070 2a c7 7e 3c dc 4a 1b 3d ca 19 32 3c ae 0a a8 3c
       0.015550414 0.03791319 0.010870406 0.020512905
000080 b7 e3 c7 3c b9 7e ea 3b 20 d6 a8 3c de 18 ba 3c
       0.024400575 0.00715622 0.020609915 0.022716936
000090 9a d8 13 3b 34 3b 17 3d 55 59 29 3d 80 71 3a 3c
       0.0022559525 0.036921695 0.04134496 0.0113796
0000a0 f0 e1 9b 3c 32 63 2b 3d 00 f0 d2 3c 74 e6 93 3c
       0.019028634 0.041842647 0.025749207 0.018054225
0000b0 2b 96 bd 3c f1 81 93 3c da e9 f7 3c 66 bd 8e 3c
       0.023142895 0.018006297 0.030262876 0.017424297
0000c0 95 c7 d8 3c c0 3f 95 3b 30 ce d9 3c cb 9a a6 3c
       0.026462356 0.0045547187 0.026587576 0.020337483
0000d0 ee 52 a9 3c 2d a8 20 3c 1d c3 df 3c b3 d6 a4 3c
       0.020669427 0.009805721 0.027314717 0.020121908
0000e0 eb b1 75 3c e1 e7 c1 3c db 80 6d 3b 27 50 68 3c
       0.014996032 0.023670139 0.0036240134 0.014179266
0000f0 ff 82 d9 3c b8 e0 c6 3c 05 f0 f2 3c 64 ff d7 bb
       0.026551722 0.024277076 0.029655466 -0.006591724
000100 6d 25 09 3d 5c 6b 02 3c 08 fd df 3c c9 23 01 3c
       0.033482958 0.007960167 0.027342334 0.007882067
000110 49 a8 90 3c 7b 38 0b 3d 09 5d aa 3c ab 10 f9 3b
       0.01765837 0.03398941 0.020796316 0.007600864
000120 0b 33 c2 bb 59 d5 b4 3c ab f1 47 3c 43 66 ed 3c
       -0.005926495 0.022074388 0.012203614 0.028979426
000130 b2 0b ab 3c c1 5d 97 3c 39 57 65 3c 6d 63 89 3c
       0.0208796 0.018477323 0.013997846 0.016771043
000140 79 f3 0e 3d d1 db b3 3c 2e fc a3 3c 64 a8 17 3d
       0.034900162 0.021955403 0.02001771 0.037025824
000150 6c e1 00 3c 07 14 3e 3d 2a fe 48 3b 79 e9 d0 3c
       0.007866245 0.04640582 0.0030669072 0.025501953
000160 1e 5d bc 3b 68 f0 d6 3c bc 90 63 3a cf ec f2 3c
       0.005748405 0.026237682 0.000868093 0.029653935
000170 ac e9 ad 3b 95 fd d8 3c be af c9 3b 57 0a 82 3b
       0.005307397 0.026488105 0.0061549833 0.0039685178
000180 96 af 55 3c a6 d9 ac 3c 4a 9a ae 3c f5 24 40 3c
       0.013042351 0.021099877 0.021313805 0.011727561
000190 8c 75 26 3c 96 d0 12 3c 26 73 f0 3c 49 6e 88 3c
       0.010159861 0.008960864 0.029351782 0.01665415
0001a0 66 35 8b bb d1 e7 99 3c 22 cc 62 3c ef ec 90 3b
       -0.004248309 0.018787296 0.013842614 0.004422776
0001b0 5c d9 0b 3d e6 84 66 3c e4 c6 0b 3c 53 3b 42 3c
       0.034142837 0.014069771 0.008531306 0.011854964
0001c0 6f 6e b3 3c d9 94 77 3c 17 34 36 3c 55 a9 b4 3c
       0.021903245 0.015111172 0.011120818 0.0220534
0001d0 7b 52 72 3c 84 b7 b9 38 8d 14 25 bb a8 50 01 3d
       0.014790173 8.85567e-05 -0.0025189251 0.03157106
0001e0 f5 f1 06 3c 96 fb 15 3d 73 bf 1a 3b d1 a6 83 3c
       0.008236398 0.036616884 0.0023612648 0.016070755
0001f0 51 59 f4 3c ad 77 85 3c b2 87 71 3c ef f0 e7 3b
       0.029827746 0.016292417 0.014741825 0.007078282

network_body._body_endoder.seq_layers.2.weight f4 [128, 128]
000000 8e a0 86 be 36 86 53 3d 86 70 90 bc d0 8a 3f bd
       -0.26294369 0.051641665 -0.01763178 -0.04676324
000010 fb 1c 35 3e 05 91 78 be 00 c5 90 be 4a e6 87 bb
       0.17686836 -0.2427407 -0.282753 -0.0041473256
000020 1d 11 f9 bd 6f bf 43 be 35 b9 bb bd b8 86 19 bc
       -0.12161467 -0.19115995 -0.09166185 -0.009370498
000030 3b 64 0e 3e 09 ad c6 3b 0a 11 a6 3d 3b 35 5e be
       0.13905422 0.006063108 0.08108719 -0.21699993
000040 14 9c c3 3d 73 0d 92 3c 56 e1 2b 3d 5a 20 84 b9
       0.09551254 0.017828679 0.041962944 -0.00025201106
000050 2d 07 db bd bd bb 58 bd 9f 7b 2c bc ab cd f9 bc
       -0.10694728 -0.052913416 -0.01052752 -0.030493578
000060 7a df 03 3d 88 e7 9f 3d df 20 da 3c 40 e9 d0 bd
       0.032195546 0.07807833 0.026627002 -0.10200739
000070 b9 e8 ab bc c3 d2 05 3d cd 1c ba bd 10 20 2c bc
       -0.020984994 0.0326717 -0.090875246 -0.010505691
000080 c7 e3 df bd df 7f 40 3e d3 26 8a bd 71 86 e8 bd
       -0.10932117 0.18798779 -0.067456864 -0.11353768
000090 c9 45 96 bd 7f 37 52 bd b8 1c df 3d 1c f4 53 3b
       -0.07337529 -0.051322456 0.108941495 0.0032341545
0000a0 95 15 01 3e 1c 44 9b 3d 40 ff 31 3e ed e5 06 bd
       0.12605889 0.0758135 0.17382526 -0.032934118
0000b0 95 40 3c 3e d5 f4 9a 3c 95 c6 71 3d a1 74 14 be
       0.18384011 0.018915573 0.059027273 -0.14497615
0000c0 fa 15 2d 3e d9 1a 4a 3e d0 76 cc bd 2f ff ac 3c
       0.16902915 0.19736804 -0.09983599 0.021117775
0000d0 d1 aa 79 bd 00 48 08 bd 8e e8 ad bc e7 95 02 bd
       -0.06095392 -0.03327179 -0.021229055 -0.03188124
0000e0 d2 ae 06 3e f9 b0 7b 3d fb 1b 70 be f1 be 18 bd
       0.13152626 0.06144807 -0.23448174 -0.03729147
0000f0 5d 0a 1d bc 6b 8b 9c 3d e7 b5 bd 3c 01 09 a6 3b
       -0.00958499 0.07643779 0.023158027 0.0050669913
000100 90 3f b6 bc 99 14 89 3b 54 12 95 bd 41 56 9a bc
       -0.022247106 0.0041833636 -0.072788864 -0.018839957
000110 dc 69 4d 3d ff 70 5f 3d 30 3c 23 bd e8 eb 82 3c
       0.050149783 0.05455112 -0.03985232 0.01598163
000120 26 5b 55 3d 83 58 26 be 29 91 2c 3d 6f 7d 68 3b
       0.05208888 -0.16244702 0.042130623 0.0035475155
000130 48 9e a3 3d 5e 0c 77 bd 26 99 ca bd b8 66 8b 3d
       0.07989174 -0.06031453 -0.09892492 0.068067014
000140 2c 59 1c 3b 90 72 05 be ad 74 83 3d d3 de c3 3d
       0.0023856862 -0.13031983 0.064187385 0.09563985
000150 a5 dc 47 3e d1 78 ad 3d e1 96 0e 3e ab 3e a5 bc
       0.19517763 0.084703095 0.13924743 -0.020171484
000160 1e 57 92 3c c0 0c 21 bd 85 36 a1 3d 6c ff 6e be
       0.017863806 -0.0393188 0.07871727 -0.23339623
000170 98 34 54 3b 02 84 0b bc 87 91 2f 3c 7c 3e 37 bd
       0.003237998 -0.00851536 0.010715849 -0.044737324
000180 e9 e1 69 3d 81 9f 2b be be 51 53 bd 7a 9e 5e 3d
       0.05710021 -0.16760065 -0.051591627 0.054350354
000190 1d f1 07 be 3d 5f 92 bd 73 68 42 3d 26 13 09 3e
       -0.13275571 -0.071470715 0.04746289 0.13386211
0001a0 84 0b 88 3d c4 72 0c 3d 9a 5d a2 ba 5b 1b 39 be
       0.066428214 0.034289137 -0.0012387515 -0.18076842
0001b0 5d 25 d8 3d fb d2 de bd 26 a6 f3 bd a5 3c 56 3e
       0.105540015 -0.10880085 -0.11896925 0.20921572
0001c0 49 10 7f bc b3 d7 66 3e 34 7b 22 3e b8 c1 04 bd
       -0.0155678475 0.2254322 0.15867311 -0.032411307
0001d0 20 de 8a 3d 55 b5 54 bd 07 04 cc bc 30 a9 08 3e
       0.06780648 -0.051930744 -0.024904264 0.1334579
0001e0 39 a0 4e 3c 60 9c b1 bd 46 22 1f 3e da fa 16 3e
       0.012611442 -0.08672404 0.15540418 0.1474413
0001f0 8a c0 09 3e 8a d0 c4 3c a1 c5 55 be 90 65 ea 3a
       0.13452354 0.02402522 -0.2087617 0.0017883051
000200 fb 29 2f be 7a a8 e5 3d 78 c3 8e bd 50 c2 74 3d
       -0.17105858 0.11213775 -0.069708765 0.059755623
000210 58 a8 2f 3c 5e ce 18 be 32 db c4 bd c1 81 ab 3d
       0.010721289 -0.14922473 -0.09612121 0.08374358
000220 93 98 8a 3d 00 31 02 be 05 5f a6 3d 1f 47 4c bd
       0.067673825 -0.12714005 0.08123592 -0.049872514
000230 f2 39 30 3d 94 f7 a7 bd b4 a2 0f bd 1b 70 86 bd
       0.04302401 -0.08201519 -0.035067275 -0.06564351
000240 e7 7f 0d 3e 8d ca 0e 3e ca 48 f9 3d 62 7b b9 3d
       0.13818322 0.13944454 0.121720865 0.090567365
000250 df f9 19 be ed 8c 6f 3d cc fa db 3d 68 92 b7 bd
       -0.15036725 0.058484007 0.10741195 -0.08963472
000260 bb 6b 57 bc 29 3e 03 3e eb e9 94 3d e8 f7 cf 3c
       -0.013148244 0.12816681 0.07271179 0.025386766
000270 07 48 e3 bd 38 88 15 bd 0a bd 6e be 17 7a 28 3e
       -0.110977225 -0.03650686 -0.233143 0.16452824
000280 56 9f ae bd ab 21 a6 3d fa 38 f3 bc 22 5e be bd
       -0.08526485 0.081118904 -0.029690254 -0.09295298
000290 7d 74 f6 3d e9 e1 10 be 0f 32 8e 3c 7e 9f 49 3d
       0.12033937 -0.14148678 0.017357854 0.04922437
0002a0 3a 21 65 bd 44 2b 2b bd 2c eb 6f 3e bd d2 a3 bd
       -0.05593989 -0.04178931 0.23429555 -0.079991795
0002b0 85 e2 90 3e 5c a3 fa bc b8 6e 44 bc b3 1a c6 bb
       0.2829782 -0.030595474 -0.011989288 -0.0060456633
0002c0 29 4b 26 3e b6 a1 d5 bd 2b a8 74 3c ec 0e 11 3e
       0.16239609 -0.104312345 0.0149326725 0.14165848
0002d0 48 c0 21 be a5 79 87 3b 31 f1 44 be a4 0c ec 3c
       -0.15796006 0.004134374 -0.19232632 0.028814621
0002e0 36 1b 46 3e 17 37 d1 3d 36 94 54 bd e2 62 c5 3d
       0.19346318 0.10215586 -0.051899157 0.09638001
0002f0 64 bb c1 3c fe c6 d7 bd 59 2d da bd 63 04 8f bd
       0.023648925 -0.105360016 -0.10653181 -0.069832586
000300 6a 48 db bd 5f 52 79 bd 7c 5d 3f be 95 96 0d be
       -0.10707171 -0.06086957 -0.18688005 -0.13826974
000310 a7 cd 37 be dc b3 a6 3d ac c9 1b bd dd 94 a5 3d
       -0.17949544 0.08139774 -0.038034126 0.08085034
000320 a7 b7 2b bd a7 e5 99 bd af c4 05 bd 96 b0 8a bd
       -0.04192319 -0.07514506 -0.032658275 -0.06771962
000330 5f 15 3d 3e 81 35 17 3c c0 6d 2a bd 5f bf 36 3e
       0.18465184 0.009229065 -0.041608572 0.1784644
000340 0f 73 5f bd f7 34 c6 bc ba fb fd 3c 53 76 15 3e
       -0.054553088 -0.024195177 0.031003822 0.14595918
000350 95 7d 97 3e 86 74 d1 bd b1 ed 41 bd 99 69 c8 3c
       0.29588 -0.10227303 -0.04734582 0.024464415
000360 f6 27 50 bd a4 2f 79 3d 7b 68 a2 bc b4 a3 a1 bd
       -0.05081936 0.06083645 -0.01982521 -0.07892552
000370 d3 88 63 3d 2c f2 ef bd d3 eb 26 3e a4 e6 37 be
       0.055550408 -0.117161125 0.16300897 -0.17959076
000380 23 21 a1 3d 85 b8 26 be c0 fd 5e 3c 37 df bd bd
       0.078676485 -0.16281326 0.013610303 -0.092710905
000390 d1 d2 73 3d 7d 0a cb bc 18 1f 48 be 78 17 3a 3d
       0.059527222 -0.024785275 -0.19543111 0.045432538
0003a0 2f a3 ed 3a 9e e6 4c 3e c3 ac 76 3d 9a 05 1d be
       0.0018130298 0.20009848 0.060223352 -0.15334168
0003b0 6d 0f bb 3c 5e 73 d6 bd 28 e9 86 bd 40 7a b3 bd
       0.022834504 -0.10471223 -0.0658744 -0.08763552
0003c0 05 9c be 3d 60 c1 b5 bd 8b 8e 3d 3e 09 e8 2c 3c
       0.09307102 -0.08874774 0.18511407 0.010553368
0003d0 8f 84 ae 3c 78 e9 db 3c b2 c4 d2 3d fc cf 03 3d
       0.021303443 0.026844725 0.10291423 0.03218077
0003e0 7a bf 67 be ed 08 0e 3e ac d7 89 3d 24 5b f6 3c
       -0.22631636 0.13870592 0.06730589 0.030072756
0003f0 11 af dd 3d bc 57 97 3d a8 b5 c0 bd 89 2e 48 be
       0.10824407 0.07389781 -0.09409648 -0.19549002
