results/ppo/OpponentAI/OpponentAI-1999979.pt (torch, 720479 bytes, 30 tensors)

network_body._body_endoder.seq_layers.0.weight f4 [128, 98]
0	0x3ca18097	0.019714637
1	0x3dc89203	0.097934745
2	0x3e220716	0.15823016
3	0x3db848eb	0.08998283
4	0x3e0c415b	0.13696806
5	0xbe0ce12d	-0.13757773
6	0x3ae16964	0.0017197547
7	0x3d2c24fe	0.042027466
8	0x3e74d484	0.23909193
9	0x3c986876	0.018604498
10	0x3d21e397	0.039523687
11	0xbcf786cc	-0.030215643
12	0x3ded6710	0.11591923
13	0xbe25ede4	-0.1620403
14	0x3d292941	0.04129911
15	0xbcc3dd61	-0.023909273
16	0xbd688ab7	-0.056772914
17	0x3c0d00a7	0.008606113
18	0x3d2ca54d	0.04214983
19	0xbe944d09	-0.28965023
20	0xbbd4e087	-0.0064964923
21	0x3db9ef79	0.09078879
22	0xbc621a7a	-0.013800258
23	0xbc9ecd6c	-0.019385062
24	0x3dfb141c	0.12259695
25	0x3cb6892d	0.022282207
26	0xbb7df871	-0.003875282
27	0x3d28f288	0.04124692
28	0xbdf70a42	-0.120625034
29	0x3dbb24ec	0.09137902
30	0xbdf6a55e	-0.1204326
31	0xbd387baa	-0.04503981
32	0xbcb1e0af	-0.021713583
33	0xbd076dbc	-0.033063635
34	0xbea30aee	-0.31844276
35	0xbe5d047b	-0.2158374
36	0x3ce19ce5	0.027540633
37	0x3a0a765d	0.000528192
38	0xbd960c63	-0.07326581
39	0x3d48346b	0.048878115
40	0x3dd87fa8	0.105712235
41	0xbc01b2a5	-0.007916127
42	0xbda1fecc	-0.07909927
43	0x3c3301b3	0.010925698
44	0x3e287741	0.16451742
45	0xbd4a6633	-0.04941387
46	0x3d43f1f1	0.047838155
47	0x3d81c799	0.06336898
48	0x3c8d71b9	0.017266141
49	0x3cf9c22f	0.030488102
50	0xbcf187c4	-0.029483683
51	0x3e02c481	0.12770273
52	0x3d4bfd14	0.0498019
53	0xbd376130	-0.04477042
54	0xbe4a32e0	-0.1974597
55	0x3db017b8	0.08598274
56	0x3db2b182	0.08725263
57	0xbe2b0f2c	-0.16705006
58	0x3d59f308	0.05321029
59	0x3dd49cdd	0.10381482
60	0xbd214db9	-0.039380763
61	0xbe0c0718	-0.13674581
62	0x3b4ff205	0.0031729948
63	0xbe92a9bf	-0.2864513
64	0xbe233a2b	-0.15940158
65	0x3d758c2f	0.059948143
66	0x3dd4ce83	0.103909515
67	0x3e6c05fc	0.23049158
68	0xbe50a2b2	-0.20374563
69	0xbe08f404	-0.13374335
70	0xbb9e7c32	-0.0048365826
71	0xbdc8aef0	-0.09798992
72	0x3c41a783	0.011819723
73	0xbd12827d	-0.035768975
74	0x3d094464	0.033512488
75	0xbd6e37a2	-0.058158524
76	0xbc1a91ce	-0.009434177
77	0xbe4590b3	-0.1929348
78	0x3dd475a8	0.10374004
79	0xbda73d01	-0.081659324
80	0x3ddbe0b3	0.10736217
81	0xbddb2eeb	-0.10702308
82	0xbe23815d	-0.15967317
83	0xbe397b4a	-0.18113437
84	0x3e7f9c7c	0.24962038
85	0x3ddff958	0.109362304
86	0x3de8b737	0.113630705
87	0x3d1d2073	0.038361024
88	0xbddccbd2	-0.10781063
89	0xbe1b6376	-0.1517466
90	0x3cf5d0a3	0.030006712
91	0xbd45cd6f	-0.04829162
92	0xbd5e7026	-0.05430617
93	0x3c9be406	0.019029628
94	0xbeb80e30	-0.35948324
95	0xbd8e83ed	-0.069587566
96	0x3dbe2d3f	0.09285974
97	0xba8336f1	-0.0010010881
98	0x3df6ed6d	0.12057004
99	0xbdff141f	-0.1245501
100	0x3e44dcf5	0.19224913
101	0xbe102751	-0.14077498
102	0xbdd2b9fa	-0.102893785
103	0xbdd09ebd	-0.10186527
104	0xbe0895df	-0.13338421
105	0x3d0bf6f1	0.03417105
106	0xbe24d704	-0.16097647
107	0x3e0a5d64	0.13512188
108	0x3d3e3367	0.04643574
109	0x3e2220e2	0.15832856
110	0x3db064e4	0.08612993
111	0xbd3e3016	-0.046432577
112	0x3aa2c884	0.0012419377
113	0x3d13345f	0.035938617
114	0xbdcf4273	-0.10120096
115	0xbd8bcbbb	-0.06825968
116	0x3d88fa82	0.066884056
117	0x3da30f84	0.07961944
118	0x3da4e679	0.08051772
119	0xbe000f3d	-0.12505813
120	0xbe8e095e	-0.27741522
121	0xbd980139	-0.07422108
122	0x3d9639fb	0.07335278
123	0xbd8e23b6	-0.06940405
124	0xbcba759e	-0.022761162
125	0xbe2a00b2	-0.16601828
126	0x3e0e6cd0	0.13908696
127	0x3d408b1d	0.04700767
128	0xbd84fbc0	-0.0649333
129	0x3d9e05f6	0.07715981
130	0x3d762174	0.060090497
131	0x3e0324f1	0.12807061
132	0xbd06d046	-0.03291347
133	0xbd15f518	-0.036610693
134	0xbcc4c4e5	-0.024019668
135	0xbd3876e4	-0.045035258
136	0xbd131633	-0.035909843
137	0x3d84aa10	0.06477749
138	0xbce67450	-0.028131634
139	0xbe0f9ea5	-0.14025362
140	0xbe3863a8	-0.18006766
141	0xbacebb48	-0.0015772367
142	0xbc450ca3	-0.012026939
143	0xbdbc8075	-0.09204189
144	0xbd7efef0	-0.062254846
145	0x3d15c0b4	0.03656073
146	0xbe051adc	-0.12998527
147	0xbd9d6285	-0.07684807
148	0x3d9f385a	0.0777442
149	0x3d57323e	0.05253815
150	0xbe012b7c	-0.12614244
151	0xbc900600	-0.017580986
152	0xbe16170d	-0.1465723
153	0xbe52a549	-0.20570864
154	0x3c2982f6	0.010346165
155	0xbd7d1b46	-0.061793588
156	0x3ddad11f	0.10684418
157	0x3b141542	0.0022595678
158	0xbe0e67c8	-0.13906777
159	0xbe040b77	-0.12894998
160	0xbbb4ddb3	-0.0055195927
161	0xbd9fd1d4	-0.078036934
162	0xbe10c220	-0.14136553
163	0xbe85bade	-0.2611913
164	0x3ccb5690	0.02482155
165	0x3db2cfa2	0.08731009
166	0x3e0833ed	0.13301058
167	0x3da36483	0.079781555
168	0x3d44d01e	0.04805004
169	0x3d598b8c	0.053111598
170	0x3c0cd78f	0.008596315
171	0xba7298ae	-0.00092543184
172	0x3d11e6ed	0.03562062
173	0x3da47fac	0.08032164
174	0xbce2bfe7	-0.027679397
175	0x3dac1213	0.08401885
176	0x3d6e494e	0.058175378
177	0xbb40eb35	-0.002943707
178	0xbd8abca4	-0.067742616
179	0xbdab511a	-0.08365078
180	0x3de53f77	0.111937456
181	0xba939784	-0.0011260365
182	0xbbf44feb	-0.007455816
183	0x3dafbda9	0.08581097
184	0x3e6edb47	0.23325835
185	0x3e23a5b8	0.15981185
186	0x3d46c529	0.04852787
187	0xbe0c29bf	-0.136878
188	0xbddfa135	-0.1091942
189	0x3d71c173	0.05902238
190	0x3e3a2ee9	0.18181957
191	0x3d58c09a	0.052918054
192	0xbcb516c5	-0.022105584
193	0x3e118150	0.14209485
194	0x3c30c507	0.0107891625
195	0x3dd23ee0	0.10265899
196	0x3e2efb23	0.17087989
197	0x3e0a2997	0.13492428
198	0x3dc4dbfa	0.0961227
199	0x3e0a9542	0.135335
200	0xbe2334d2	-0.15938118
201	0x3d77c996	0.06049498
202	0xbdf4252d	-0.11921153
203	0xbe48fab1	-0.19626881
204	0x3dbf2a59	0.09334249
205	0x3e625f7a	0.22106734
206	0xbd783b70	-0.06060356
207	0xbdaac8ee	-0.083391055
208	0x3e21ee78	0.15813625
209	0x3c7e404f	0.015518262
210	0xbe397edb	-0.18114798
211	0xbda8bfd3	-0.082397126
212	0xbdf58651	-0.119885094
213	0x3e2dc718	0.1697048
214	0x3d6b6a99	0.057474706
215	0x3e9d2daa	0.306989
216	0x3de1c71f	0.110243075
217	0xbdbd20f9	-0.09234805
218	0xbc312a0c	-0.010813247
219	0x3c86df1d	0.01646381
220	0x3d81a9f0	0.06331241
221	0xbdb8474f	-0.08997976
222	0x3d650c1c	0.05591975
223	0x3cac5fe0	0.02104181
224	0x3dfcef94	0.123503834
225	0xbe2d220a	-0.16907516
226	0x3b933a5c	0.004493041
227	0xbcb45718	-0.022014186
228	0x3ea0153e	0.31266207
229	0xbc8fcc7e	-0.017553564
230	0x3dd5a118	0.10431117
231	0xbe24451a	-0.16041985
232	0xbdd6402a	-0.10461457
233	0xbcfab8bc	-0.030605666
234	0x3e327986	0.1742917
235	0xbdafc544	-0.08582547
236	0x3e1c14dc	0.15242332
237	0xbd6954fa	-0.056965806
238	0x3de53be3	0.11193063
239	0xbc66f055	-0.014095386
240	0xbd83a24a	-0.064274386
241	0xbdcfc255	-0.10144488
242	0x3dd85d85	0.105647124
243	0xbde57bbe	-0.112052426
244	0xbd8a84fa	-0.067636445
245	0xbd419640	-0.04726243
246	0xbc01459a	-0.007890129
247	0x3e126a8b	0.14298455
248	0x3db0843d	0.086189725
249	0x3a824492	0.0009938648
250	0xbe610ef1	-0.21978356
251	0xbc983b46	-0.018582951
252	0xbd7e7038	-0.06211874
253	0x3d2140a8	0.0393683
254	0x3b190d9d	0.0023354061
255	0xbc24da00	-0.010061741

network_body._body_endoder.seq_layers.0.bias f4 [128]
0	0x39f2a34f	0.0004627951
1	0xbcaac430	-0.020845503
2	0x3c3147ad	0.0108203115
3	0xbb65e17c	-0.0035077026
4	0x3cb6de22	0.022322718
5	0x3cb9aa22	0.022664133
6	0xbd11c3c1	-0.035587076
7	0x3c009b44	0.007849518
8	0x3c26e141	0.010185541
9	0x3cfe66ca	0.031054873
10	0xbc960284	-0.018311746
11	0xbb6a8797	-0.0035786384
12	0x3d118456	0.035526596
13	0xbd35aa47	-0.044351842
14	0xbc252949	-0.010080644
15	0xbb9542de	-0.0045550903
16	0x3cca669f	0.024707137
17	0x3b20e59d	0.0024550923
18	0x3c9628ec	0.01833006
19	0x3b3aa27a	0.0028478191
20	0xbcb51ac6	-0.022107493
21	0x3b22c135	0.0024834399
22	0x3c372384	0.011177901
23	0xbc17b3fb	-0.009259219
24	0x3cd2738f	0.025689868
25	0x3c966640	0.018359303
26	0x3c02a3ae	0.007973595
27	0x3d06a44c	0.03287153
28	0x3cb4a54c	0.022051476
29	0x3c83656a	0.016039569
30	0x3be506bf	0.0069893296
31	0x3d84d271	0.06485451
32	0x3ced1fdb	0.028945854
33	0x3be9de5d	0.0071371035
34	0x3d2fac91	0.04288918
35	0x3cf6b7e1	0.030116977
36	0xbb77e4a5	-0.0037825492
37	0xbc509040	-0.012729704
38	0xbb1090ee	-0.002205904
39	0xbc0c1ad8	-0.008551322
40	0x3c091737	0.008367351
41	0x3c23e1a7	0.01000253
42	0x3cc61d42	0.024183873
43	0x3af38794	0.0018579834
44	0x3d088a3d	0.03333496
45	0xbc8ec248	-0.017426625
46	0xbb11d86b	-0.002225424
47	0x3c17d75c	0.009267654
48	0x3cdab3aa	0.026696999
49	0xbb917d0c	-0.0044399556
50	0x3b563d1a	0.0032690228
51	0x3c80988a	0.015697736
52	0x3c71fe2b	0.014770071
53	0x3bd0ea17	0.006375562
54	0xbce84357	-0.028352423
55	0x3cb08037	0.021545513
56	0x3d27531b	0.04085074
57	0xbc1d5b40	-0.009604275
58	0x3cabdff1	0.020980807
59	0xbb96fdd3	-0.004607895
60	0xbcaa0426	-0.020753931
61	0xbc8c4b53	-0.017125761
62	0x3d0901a9	0.03344885
63	0xbbd0c1ad	-0.006370744
64	0x3d62c904	0.055367485
65	0x3cd4d48c	0.025980256
66	0x3d16307f	0.036667343
67	0xbca94843	-0.02066434
68	0x3c1866d6	0.009301862
69	0x3c451565	0.012029027
70	0x3caed8da	0.021343637
71	0x3caeacea	0.021322686
72	0xbc551331	-0.013005064
73	0x3bc8561a	0.0061137797
74	0x3bc8927f	0.0061209793
75	0x3cdcc311	0.026948484
76	0x3c2c68c9	0.01052303
77	0xbb4e401b	-0.0031471315
78	0x3cf3997c	0.029736273
79	0x3cbc52d2	0.02298871
80	0x3ac65ffb	0.0015134806
81	0xba93fe9a	-0.0011291087
82	0xbc72f5ff	-0.014829158
83	0x3c98e4fb	0.018663874
84	0x3d29e241	0.04147554
85	0x3cce4b12	0.02518228
86	0x3cb9f0be	0.022697803
87	0x3d041ddf	0.03225505
88	0xbca08a1b	-0.019597104
89	0xbc832602	-0.016009334
90	0x3cbd78c8	0.023128882
91	0x3c5386eb	0.012910585
92	0xbc77a7bf	-0.015115677
93	0x3b451849	0.003007429
94	0x3cdbcd4b	0.02683129
95	0x3cd3dbe7	0.025861694
96	0x3d193c1f	0.03741085
97	0x3cfb00c2	0.03064001
98	0xbd239a04	-0.039941803
99	0x3bac817f	0.0052644606
100	0xbbeee576	-0.0072905375
101	0x3c2d9b6b	0.010596137
102	0x3c929c46	0.017896783
103	0x3d39c191	0.045350615
104	0x3b40891b	0.0029378596
105	0x3d0dad6f	0.034589227
106	0x3c0eff45	0.008727853
107	0x3cc0007a	0.023437727
108	0x3d53d0f8	0.05171296
109	0x3d0a56f6	0.03377434
110	0x3c68225e	0.01416835
111	0xbcd721d8	-0.026261255
112	0xbca5fc64	-0.02026195
113	0xbcb76461	-0.022386732
114	0x3c964d16	0.018347304
115	0x3b11bdef	0.0022238453
116	0x3ca42d8d	0.020041252
117	0x3c54f0ae	0.012996836
118	0x3d48621b	0.048921686
119	0x3bfcbba5	0.0077127987
120	0x3dbfe181	0.09369183
121	0x3cb946d2	0.022616778
122	0x3caac34e	0.020845082
123	0x3c83cbc7	0.01608838
124	0x3c400d60	0.011721939
125	0x3cd802da	0.026368547
126	0x3beac8c2	0.0071650455
127	0x3c42bce6	0.011885857

network_body._body_endoder.seq_layers.2.weight f4 [128, 128]
0	0xbe8920a5	-0.26782718
1	0x3d5a1378	0.053241223
2	0xbc5bf23e	-0.013424454
3	0xbd344dff	-0.044019695
4	0x3e3701cb	0.17871778
5	0xbe7d55bc	-0.24739736
6	0xbe902c5b	-0.2815884
7	0xbb2c66d5	-0.002630641
8	0xbe011d9c	-0.12608951
9	0xbe458e39	-0.19292535
10	0xbdba6d5e	-0.091028914
11	0xbc2a1697	-0.010381362
12	0x3e0b025a	0.13575116
13	0x3ba289ed	0.0049602897
14	0x3da31fa1	0.07965017
15	0xbe5f9e16	-0.21837649
16	0x3dc08670	0.09400642
17	0x3ca1f9b3	0.019772386
18	0x3d2a2a5e	0.04154431
19	0xba95ae81	-0.0011419804
20	0xbdd839d0	-0.10557902
21	0xbd59180a	-0.05300144
22	0xbbfaaeb5	-0.007650221
23	0xbcf07d46	-0.02935661
24	0x3cf26552	0.029589329
25	0x3d9f0662	0.07764889
26	0x3cea7454	0.028619923
27	0xbdc0265c	-0.093823165
28	0xbc91f733	-0.01781807
29	0x3d0637aa	0.03276793
30	0xbdb3cdd0	-0.0877949
31	0xbc3a7540	-0.011380494
32	0xbdd0299a	-0.10164185
33	0x3e3fb6d1	0.18722083
34	0xbd95e849	-0.073196955
35	0xbde56c48	-0.11202294
36	0xbd9ab647	-0.07554298
37	0xbd5cb20a	-0.05388073
38	0x3dde069e	0.10841106
39	0xbbd63e70	-0.006538205
40	0x3ddd7e4c	0.10815105
41	0x3da0aed5	0.078458466
42	0x3e2e1606	0.17000589
43	0xbd0a7e88	-0.033812076
44	0x3e3b12d4	0.18268901
45	0x3c888460	0.016664684
46	0x3d74f0dc	0.059800014
47	0xbe15de38	-0.14635551
48	0x3e23107a	0.15924254
49	0x3e4b6ccd	0.19865723
50	0xbdc8ec44	-0.09810689
51	0x3c514709	0.012773284
52	0xbd70b9c4	-0.05877091
53	0xbd11c283	-0.03558589
54	0xbcb85cff	-0.022505281
55	0xbd0ebabd	-0.034846056
56	0x3e06dda4	0.13170487
57	0x3d865a59	0.06560201
58	0xbe6dfc87	-0.23240863
59	0xbd458176	-0.048219167
60	0xbc2595b6	-0.010106495
61	0x3d900cbe	0.070336804
62	0x3cdfb806	0.027309429
63	0x3b52992f	0.0032134762
64	0xbcb11521	-0.02161652
65	0x3a97d1e5	0.0011582939
66	0xbd8dddc3	-0.06927063
67	0xbc87e008	-0.016586319
68	0x3d4fc6fc	0.050726876
69	0x3d535229	0.051592026
70	0xbd1040e8	-0.03521815
71	0x3c7bb6b2	0.015363382
72	0x3d5065ac	0.05087821
73	0xbe1f4b7a	-0.15556136
74	0x3d2feb4c	0.042949006
75	0x3be4da0b	0.0069840006
76	0x3da5e521	0.081003435
77	0xbd748e30	-0.059705913
78	0xbdcc6222	-0.09979655
79	0x3d8a0cee	0.067407474
80	0x3bbffeb7	0.005859222
81	0xbe0310e1	-0.12799408
82	0x3d915d78	0.07097906
83	0x3dc149b9	0.094378896
84	0x3e3e9a83	0.18613629
85	0x3da5d23d	0.080967404
86	0x3e11a43b	0.14222805
87	0xbcae3cb2	-0.021269176
88	0x3c8a27c0	0.016864657
89	0xbd246e9a	-0.04014454
90	0x3da29259	0.0793807
91	0xbe6fa6de	-0.23403499
92	0x3b634b17	0.0034682208
93	0xbbe3c83f	-0.0069513614
94	0x3bf8414c	0.0075761434
95	0xbd223b2b	-0.03960721
96	0x3d730a61	0.05933607
97	0xbe3753f4	-0.1790312
98	0xbd57b6af	-0.052664455
99	0x3d80fb77	0.06297963
100	0xbe065310	-0.13117623
101	0xbda19aeb	-0.078908764
102	0x3d46758f	0.048451956
103	0x3e06f994	0.13181144
104	0x3d8a8a86	0.067647025
105	0x3cb8492c	0.022495829
106	0xbbfc9807	-0.0077085528
107	0xbe34ad92	-0.17644337
108	0x3dd1c3fb	0.102424584
109	0xbddad777	-0.10685628
110	0xbdfa3f3f	-0.122190945
111	0x3e535ca4	0.20640808
112	0xbcafd857	-0.021465464
113	0x3e642006	0.22277841
114	0x3e1e8ceb	0.15483443
115	0xbcfe405d	-0.03103655
116	0x3d65a279	0.05606315
117	0xbd6c19a8	-0.057641655
118	0xbcb2e0dc	-0.021835737
119	0x3e0a6360	0.13514471
120	0x3c4ac1fe	0.012375353
121	0xbdace030	-0.08441198
122	0x3e205961	0.15659095
123	0x3e10cc45	0.14140423
124	0x3e0c3f95	0.1369613
125	0x3ccd5ce3	0.025068706
126	0xbe4d953d	-0.20076461
127	0x3b29ac71	0.0025890137
128	0xbe325cb9	-0.17418183
129	0x3de84df7	0.113429956
130	0xbd81df68	-0.063414395
131	0x3d76eb16	0.06028279
132	0x3c324786	0.01088131
133	0xbe1cbb9c	-0.15305942
134	0xbdc21a15	-0.09477631
135	0x3dac3326	0.08408193
136	0x3d824243	0.06360295
137	0xbe024893	-0.12722997
138	0x3daa531d	0.08316634
139	0xbd50d5a8	-0.05098501
140	0x3d294fcf	0.041335877
141	0xbdab11f0	-0.08353031
142	0xbd120171	-0.035645906
143	0xbd8532a6	-0.06503801
144	0x3e0a0860	0.13479757
145	0x3e0e8d7c	0.1392116
146	0x3df42be5	0.11922435
147	0x3db7726e	0.089573726
148	0xbe19842c	-0.14991826
149	0x3d74dfd4	0.05978377
150	0x3de27add	0.110585906
151	0xbdb8ada3	-0.090174936
152	0xbc919688	-0.017771974
153	0x3e0203b9	0.12696733
154	0x3d996c17	0.074913196
155	0x3d0acbc6	0.03388574
156	0xbddd843b	-0.108162366
157	0xbd13b4bf	-0.036061045
158	0xbe68bfe3	-0.22729449
159	0x3e27a7ab	0.16372554
160	0xbd969c81	-0.073540695
161	0x3da58470	0.08081901
162	0xbd02d301	-0.03193951
163	0xbdbd3bc3	-0.09239914
164	0x3df423c7	0.119208865
165	0xbe141f3c	-0.1446504
166	0x3c74fd14	0.014952917
167	0x3d154438	0.03644201
168	0xbd87376b	-0.06602367
169	0xbd203f12	-0.03912265
170	0x3e6b5d70	0.22984862
171	0xbda621d0	-0.08111918
172	0x3e903d5d	0.28171816
173	0xbd14a34f	-0.036288556
174	0xbc355700	-0.011068106
175	0xbba7f87f	-0.0051260586
176	0x3e1cb3f3	0.1530302
177	0xbdd79922	-0.10527255
178	0x3c90b299	0.017663287
179	0x3e0a2ded	0.13494082
180	0xbe1ee521	-0.15517093
181	0x3acedfa2	0.00157832
182	0xbe451a98	-0.19248426
183	0x3cc74c94	0.024328507
184	0x3e461d2e	0.19347069
185	0x3dda8a0b	0.10670861
186	0xbd4863f9	-0.048923466
187	0x3db00724	0.08595112
188	0x3cd76269	0.026292043
189	0xbde0d7dc	-0.10978672
190	0xbdd400c0	-0.103517056
191	0xbd98d59b	-0.07462617
192	0xbddbaabf	-0.107259266
193	0xbd817a9f	-0.06322216
194	0xbe3cfa31	-0.18454815
195	0xbe0bc03d	-0.13647552
196	0xbe37b034	-0.1793831
197	0x3da0838d	0.07837591
198	0xbd092f65	-0.033492465
199	0x3d9b99c7	0.0759769
200	0xbd3447ba	-0.044013716
201	0xbd866a8c	-0.06563291
202	0xbd04ae0f	-0.032392558
203	0xbd87367d	-0.0660219
204	0x3e3c793d	0.18405624
205	0x3c49d19a	0.012318039
206	0xbd2ebcf0	-0.042660654
207	0x3e34b2e1	0.17646362
208	0xbd40b4df	-0.047047492
209	0xbcadd86e	-0.021221366
210	0x3d1f6511	0.038914744
211	0x3e16693c	0.14688581
212	0x3e913d61	0.2836714
213	0xbde0ad21	-0.10970522
214	0xbd3b72a0	-0.04576361
215	0x3cc3f51f	0.023920594
216	0xbd5bb793	-0.053641867
217	0x3d681c6f	0.05666774
218	0xbca89357	-0.02057807
219	0xbda304f6	-0.079599306
220	0x3d5f9e33	0.05459423
221	0xbdeb5cc6	-0.114923045
222	0x3e1edfb6	0.15515026
223	0xbe305ad2	-0.17222145
224	0x3da69b39	0.08135075
225	0xbe2e2e18	-0.17009771
226	0x3c52154c	0.01282246
227	0xbdb19d36	-0.08672564
228	0x3d73b53a	0.059499003
229	0xbd014251	-0.031557385
230	0xbe45c086	-0.19311723
231	0x3d332886	0.043739818
232	0x3a5bcd75	0.00083848025
233	0x3e3e9b27	0.18613873
234	0x3d5eacca	0.054364003
235	0xbe12e296	-0.14344248
236	0x3c9c329c	0.019067101
237	0xbdd0524c	-0.10171947
238	0xbd8831b4	-0.06650105
239	0xbdbe4a2d	-0.09291492
240	0x3db14e26	0.08657484
241	0xbdbd2c6c	-0.092369884
242	0x3e368af7	0.17826448
243	0x3c2ca977	0.01053845
244	0x3c2aad72	0.010417329
245	0x3c98abd7	0.018636627
246	0x3dd73f16	0.105100796
247	0x3d0e4363	0.034732234
248	0xbe687d19	-0.22703971
249	0x3e155fac	0.14587277
250	0x3d88e0f0	0.066835284
251	0x3ce4a4e4	0.027910657
252	0x3dd34854	0.1031653
253	0x3d947e02	0.072505966
254	0xbdae55f1	-0.08512486
255	0xbe46af76	-0.1940287

network_body._body_endoder.seq_layers.2.bias f4 [128]
0	0x3cda493b	0.026646247
1	0x3d20f409	0.03929523
2	0xbb4b79db	-0.0031047973
3	0x3a41fe23	0.0007400235
4	0x3b31988f	0.0027098989
5	0x3d0cb58c	0.034352824
6	0x3c83349c	0.016016297
7	0x3c695a15	0.014242669
8	0x3b38d3f7	0.0028202513
9	0x3c826a36	0.015919786
10	0x3c260ee4	0.010135386
11	0x3c8b0d8e	0.016974237
12	0x3c934b46	0.01798023
13	0x3c48a537	0.012246422
14	0x3d2ee084	0.042694584
15	0x3c0ce90f	0.008600487
16	0x3cbdf6e8	0.023189023
17	0x3b527e9f	0.003211893
18	0x3c8ec80d	0.017429376
19	0x3c257f78	0.010101192
20	0x3c153162	0.009106012
21	0x3ced2c72	0.028951857
22	0x3cd8fa00	0.026486397
23	0x3c1b7485	0.00948823
24	0xbba20500	-0.0049444437
25	0x3cfa4ca0	0.030554116
26	0x3ca3e577	0.020006878
27	0x3c4669c7	0.01211018
28	0x3c7a0f16	0.015262386
29	0x3d11d08f	0.035599288
30	0x3c0e1bef	0.008673652
31	0x3cb0107e	0.02149224
32	0x3ccb10fa	0.024788368
33	0x3be3d515	0.0069528916
34	0x3caf82e0	0.02142471
35	0x3cbb185d	0.022838766
36	0x3b839ae7	0.0040162685
37	0x3d111d1b	0.035428148
38	0x3d2a5128	0.041581303
39	0x3c39533f	0.011311351
40	0x3ca779a6	0.020443749
41	0x3d26c0e6	0.040711306
42	0x3cd591c6	0.026070487
43	0x3c8c8f90	0.0171583
44	0x3cb72d5a	0.022360492
45	0x3c92c95d	0.017918283
46	0x3cf0a89f	0.02937728
47	0x3ca9a67b	0.020709267
48	0x3cd5123f	0.026009677
49	0xbad0480b	-0.0015890611
50	0x3cd807e2	0.026370946
51	0x3ca8a9df	0.020588813
52	0x3cb1452c	0.021639429
53	0x3c1606fa	0.009156937
54	0x3cd68d35	0.02619038
55	0x3ca44416	0.020051997
56	0x3c840f6b	0.016120633
57	0x3ccc1fbc	0.024917476
58	0x3baa3dbe	0.0051953485
59	0x3c6ab7c0	0.014326036
60	0x3cd740cd	0.026276017
61	0x3cc321c5	0.023819814
62	0x3cfa2c97	0.03053884
63	0xbb9288e2	-0.004471884
64	0x3d09db0e	0.033656172
65	0x3c13920c	0.009006988
66	0x3ce89cd5	0.028395096
67	0x3c109466	0.008824443
68	0x3c8fc86a	0.01755162
69	0x3d0603ad	0.03271835
70	0x3caff0a1	0.021477045
71	0x3c29ab0b	0.010355721
72	0xbba47b71	-0.005019598
73	0x3ca64f57	0.020301504
74	0x3c3f5a94	0.01167931
75	0x3cec28df	0.028828083
76	0x3cac4d79	0.021033036
77	0x3c9b5283	0.018960243
78	0x3c6af96c	0.014341693
79	0x3c92b0bf	0.017906545
80	0x3d0f0023	0.03491224
81	0x3cade4fc	0.021227352
82	0x3caa61a4	0.020798512
83	0x3d1d5bda	0.038417675
84	0x3c147a7c	0.009062406
85	0x3d440c62	0.04786337
86	0x3b9e138a	0.0048241066
87	0x3cd1c9a4	0.025608845
88	0x3befe8d0	0.0073214546
89	0x3cda2259	0.026627706
90	0x3b432147	0.0029774474
91	0x3ced3454	0.028955616
92	0x3be6663e	0.007031231
93	0x3cc5b354	0.024133362
94	0x3bbd01b9	0.0057680276
95	0x3b94f38e	0.0045456355
96	0x3c5cecc3	0.013484183
97	0x3cb6f9cf	0.022335915
98	0x3ca78e18	0.020453498
99	0x3c274b5d	0.010210839
100	0x3c2fd598	0.010732077
101	0x3c04c1a3	0.008102807
102	0x3cef6182	0.0292213
103	0x3c87875e	0.01654404
104	0xbb16dab8	-0.002301855
105	0x3ca4f38f	0.020135669
106	0x3b1891cd	0.0023280263
107	0x3b91d19a	0.0044500353
108	0x3d0f48de	0.0349816
109	0x3c5f2a9f	0.0136210015
110	0x3c0851ec	0.008320313
111	0x3c748dd1	0.01492639
112	0x3cbd7979	0.023129212
113	0x3c84e734	0.016223527
114	0x3c4c9ea0	0.012488991
115	0x3cc000b4	0.023437835
116	0x3c54ef05	0.01299644
117	0x3a93fffc	0.0011291499
118	0xbad802c9	-0.0016480322
119	0x3cfed938	0.031109437
120	0x3be5d65d	0.0070140795
121	0x3d0f2213	0.034944605
122	0x3a81b68d	0.0009896323
123	0x3c87301b	0.01650243
124	0x3ceee2fd	0.02916097
125	0x3c8cba81	0.017178776
126	0x3c55a07a	0.013038749
127	0x3ba3687f	0.004986822

action_model._continuous_distribution.mu.weight f4 [1, 128]
0	0xbdbb6ae8	-0.0915125
1	0xbdf9639b	-0.12177201
2	0xbd572189	-0.052522216
3	0xbd120385	-0.035647888
4	0x3cba5a7b	0.022748223
5	0xbd98bc52	-0.07457794
6	0xbd8b390e	-0.06797992
7	0x3d7ec560	0.06219995
8	0xbcc30f05	-0.023810873
9	0x3d104167	0.035218623
10	0x3d2e372a	0.042533077
11	0x3e024386	0.1272107
12	0xbd16c89d	-0.036812413
13	0x3df34e62	0.11880185
14	0x3db2b4f6	0.08725922
15	0xbd364a75	-0.0445046
16	0x3d8fd334	0.07022706
17	0xbcc93ad2	-0.02456418
18	0x3da27d78	0.079340875
19	0xbd6280dd	-0.055298675
20	0xbd8e0370	-0.069342494
21	0xbdbe2daa	-0.092860535
22	0x3dac32aa	0.08408101
23	0x3d7fd7cc	0.06246166
24	0xbc9ede9e	-0.019393262
25	0x3dfdf9e0	0.124011755
26	0xbd81e280	-0.063420296
27	0xbd31511f	-0.043290254
28	0xbdcab817	-0.098983936
29	0xbdb64d5c	-0.08901474
30	0xbc314650	-0.010819986
31	0x3d7b8acb	0.06141166
32	0x3cdbc8c2	0.026829127
33	0xbd179f50	-0.037017167
34	0x3da76323	0.08173206
35	0x3e0349e1	0.12821151
36	0x3d4f8cd9	0.050671432
37	0x3da3765c	0.0798156
38	0x3d9b26f1	0.07575787
39	0xbd6177ea	-0.055046
40	0x3deefa3d	0.11668823
41	0xbdf6d3dd	-0.120521285
42	0x3de723ca	0.11286123
43	0xbd17a1ad	-0.03701942
44	0xbdb84a0a	-0.08998497
45	0xbd9dfec9	-0.07714612
46	0xbd500f26	-0.050795697
47	0x3daacd22	0.08339907
48	0x3d9032c8	0.07040936
49	0x3aaba927	0.0013096676
50	0x3da3521b	0.07974645
51	0xbd869f47	-0.065733485
52	0x3d3a96c6	0.045553945
53	0xbcf3494a	-0.029698033
54	0x3e112ad4	0.14176494
55	0x3dcfb100	0.10141182
56	0x3df20445	0.118172206
57	0x3d9ca1a6	0.076480195
58	0x3c7d35f5	0.015454759
59	0xbd1c70d0	-0.038193524
60	0xbda76063	-0.08172681
61	0xbd88ab84	-0.06673339
62	0x3dfa5fce	0.122253045
63	0xbc2c6ef1	-0.010524497
64	0x3dea1608	0.114299834
65	0x3d26d7f1	0.04073328
66	0x3d669eb1	0.056303684
67	0xbcf77216	-0.030205768
68	0xbdb50639	-0.088390775
69	0xbd8f85e4	-0.070079595
70	0x3dc3af5d	0.09554932
71	0x3cf39be0	0.029737413
72	0xbb670f2e	-0.003525685
73	0xbcc186bb	-0.023623815
74	0xbd26b56a	-0.040700354
75	0xbd6680f9	-0.05627534
76	0x3daa059f	0.083018534
77	0x3da21c51	0.07915557
78	0xbdb0b723	-0.086286806
79	0x3d97d583	0.07413771
80	0x3da2c1a3	0.079470895
81	0xbdcb673f	-0.09931802
82	0x3da6d5a8	0.081462204
83	0x3d5429b0	0.05179757
84	0x3d70abf1	0.058757726
85	0x3dc88e0c	0.09792718
86	0x3ced38fb	0.028957834
87	0x3db1e3c7	0.08686023
88	0x3cad9a34	0.021191694
89	0x3df43f37	0.1192612
90	0x3d1974f1	0.03746504
91	0xbd7bf2a3	-0.061510693
92	0x3d02955f	0.031880733
93	0xbdcbe7a0	-0.09956288
94	0xbce84817	-0.028354688
95	0x3d9cf50c	0.076639265
96	0x3d2df52b	0.04247014
97	0x3de2fdb4	0.11083546
98	0xbd87d9f2	-0.06633367
99	0xbd149155	-0.036271412
100	0x3d1d5bde	0.03841769
101	0xbd3461c0	-0.044038534
102	0xbd916de1	-0.07101036
103	0x3cfa4ae4	0.030553289
104	0x3d2e1e0e	0.04250913
105	0x3d4bf1d2	0.049791165
106	0xbc38c6b0	-0.01127784
107	0x3d2c117a	0.042008854
108	0x3dc72198	0.097232044
109	0xbd4b2b3a	-0.04960177
110	0xbd25e1ef	-0.04049867
111	0x3d070269	0.032961283
112	0x3dabf1c8	0.083957255
113	0x3b839ffb	0.004016874
114	0xbcd80edb	-0.026374271
115	0x3d94e18d	0.07269583
116	0xbd91a80e	-0.07112132
117	0xbc57bd4a	-0.013167689
118	0x39570b32	0.00020508168
119	0xbd8954f7	-0.06705659
120	0xbd43c5f1	-0.047796194
121	0xbdf79857	-0.120896034
122	0xbc647418	-0.0139436945
123	0x3db53c35	0.08849374
124	0xbda5585b	-0.08073493
125	0x3dd308fc	0.10304448
126	0xbd609d24	-0.05483736
127	0xbd3bf208	-0.045885116

exp_avg f4 [128, 98]
0	0xba15d124	-0.00057150633
1	0x396b24bf	0.00022425035
2	0x37706adb	1.4329994e-05
3	0x00000004	6e-45
4	0x39e24e2a	0.00043164316
5	0xb892370b	-6.972075e-05
6	0x3884e910	6.337662e-05
7	0x38fcdc37	0.000120573146
8	0x3898dd4e	7.289146e-05
9	0x37b65164	2.1733991e-05
10	0x00000004	6e-45
11	0xb9d2f73e	-0.0004023853
12	0x38995b4b	7.312613e-05
13	0xb83a367d	-4.4396602e-05
14	0x394faabf	0.00019804666
15	0xb9c47cf8	-0.00037477142
16	0x3754832f	1.2666728e-05
17	0x00000000	0.0
18	0x39c6378e	0.00037806894
19	0xb930e7a4	-0.00016870961
20	0x384dc75f	4.9061488e-05
21	0xb75aee30	-1.304927e-05
22	0x39b26a7f	0.0003403015
23	0xb728436f	-1.0029281e-05
24	0x00000004	6e-45
25	0x37f960bf	2.9728164e-05
26	0xb9aa15f2	-0.00032441277
27	0xb9909c53	-0.0002758229
28	0xb6fdf44f	-7.568429e-06
29	0xb980eeb8	-0.00024591922
30	0x37cd754f	2.449253e-05
31	0x00000000	0.0
32	0x398f071d	0.00027280385
33	0xb729dc0a	-1.0124417e-05
34	0x3882e772	6.241993e-05
35	0xb8bc326a	-8.973929e-05
36	0x39b3e2f8	0.00034310645
37	0xb9323591	-0.00016995358
38	0x00000000	0.0
39	0xb9b5f617	-0.00034706361
40	0x39abe778	0.0003278812
41	0x3928439f	0.0001604692
42	0xb9a999c9	-0.0003234877
43	0x3902633f	0.00012434738
44	0x36f6dd0d	7.357105e-06
45	0x00000000	0.0
46	0x39111926	0.00013837646
47	0x384aa103	4.8310507e-05
48	0x3792c5ee	1.7496724e-05
49	0xb8608c69	-5.353653e-05
50	0x398e5618	0.00027148495
51	0x390c5a58	0.00013385096
52	0x00000000	0.0
53	0xba0b00a5	-0.0005302525
54	0x394a623a	0.00019300813
55	0x38b0f984	8.43881e-05
56	0x39426030	0.00018537114
57	0xb87b515a	-5.9918828e-05
58	0x3570e9fb	8.9747454e-07
59	0x00000000	0.0
60	0xb9c41a29	-0.00037403524
61	0x380ea649	3.4010303e-05
62	0xb7982550	-1.8137187e-05
63	0xb88445e4	-6.3072686e-05
64	0x394e7feb	0.00019693344
65	0xb93b9e21	-0.00017892617
66	0x00000004	6e-45
67	0x38fb61de	0.00011986842
68	0x372ea4e2	1.0409598e-05
69	0x3955f69b	0.0002040513
70	0x3925142c	0.00015743141
71	0xb85f2d8f	-5.3209773e-05
72	0xb4216b25	-1.5033272e-07
73	0x00000004	6e-45
74	0x380e0fa6	3.3870012e-05
75	0xb9827ec2	-0.00024889974
76	0xb8f8ad8c	-0.00011857887
77	0x387eac67	6.071888e-05
78	0x3919a309	0.00014651952
79	0xb89164a1	-6.9328824e-05
80	0x00000004	6e-45
81	0xb95c1d75	-0.00020991809
82	0xb7f1d724	-2.8829621e-05
83	0x38cb9130	9.7068376e-05
84	0xb9734c1b	-0.00023202637
85	0xb86972da	-5.5658493e-05
86	0xb4914516	-2.705862e-07
87	0x80000004	-6e-45
88	0x3956cc45	0.00020484727
89	0x38e40a3e	0.00010873795
90	0x392b18d3	0.00016317079
91	0x38df5dd8	0.000106509484
92	0xb708931d	-8.140484e-06
93	0x37a4e81f	1.9658413e-05
94	0x392bf355	0.00016398479
95	0xb705c047	-7.972186e-06
96	0x38f4aba2	0.00011666796
97	0xb7b25041	-2.1256625e-05
98	0x391b3847	0.00014802917
99	0xb783cb6e	-1.5711146e-05
100	0xb46dab44	-2.2134651e-07
101	0x80000004	-6e-45
102	0xb932d179	-0.00017053437
103	0xb7a6f6a7	-1.9903599e-05
104	0xb8b575d4	-8.6527e-05
105	0xb815ad55	-3.5685796e-05
106	0xb7119fb2	-8.6798555e-06
107	0xb835128d	-4.317104e-05
108	0x00000004	6e-45
109	0x3905b15e	0.00012749943
110	0xb88ad74f	-6.620457e-05
111	0xb879ebcb	-5.9585826e-05
112	0xb8bc3f7f	-8.976366e-05
113	0x389dc76e	7.52349e-05
114	0x359faff4	1.1897632e-06
115	0x00000000	0.0
116	0xb80008ec	-3.0525887e-05
117	0xb7c6d0a1	-2.370059e-05
118	0xb86fa3fa	-5.7134755e-05
119	0xb8afbb04	-8.379485e-05
120	0xb8b52e2a	-8.639351e-05
121	0x37bb5e62	2.2336088e-05
122	0x00000004	6e-45
123	0xb86c80a9	-5.638661e-05
124	0x391a4d02	0.00014715272
125	0x390a429f	0.00013185524
126	0xb7acd943	-2.0605168e-05
127	0x38169083	3.5897374e-05
128	0x36468ec5	2.9587402e-06
129	0x00000000	0.0
130	0x36c25bd7	5.792342e-06
131	0xb8dbd847	-0.000104830186
132	0xb8cfad15	-9.902768e-05
133	0xb8d45002	-0.000101238504
134	0xb82658f6	-3.9660335e-05
135	0x37a026f3	1.9091623e-05
136	0x00000000	0.0
137	0x38fcf8ad	0.00012062616
138	0xb88e04e0	-6.771996e-05
139	0x36be4872	5.670875e-06
140	0x38d7366b	0.00010262135
141	0xb91089c8	-0.00013784238
142	0x350c8fcc	5.2363316e-07
143	0x00000000	0.0
144	0xb70bf4e8	-8.342067e-06
145	0xb7098f82	-8.199249e-06
146	0xb8204927	-3.82151e-05
147	0xb8f9f8fb	-0.000119196215
148	0xb7d1437b	-2.4946165e-05
149	0x377b61e4	1.4983558e-05
150	0x00000000	0.0
151	0x38852c8f	6.350234e-05
152	0x362f2303	2.6097412e-06
153	0xb781be9b	-1.5466756e-05
154	0xb8411784	-4.6036686e-05
155	0xb7eb8876	-2.8077728e-05
156	0x35b58742	1.3524916e-06
157	0x00000000	0.0
158	0x390a1259	0.0001316754
159	0xb884db3b	-6.335085e-05
160	0xb8925f12	-6.979531e-05
161	0xb7f057c6	-2.8651102e-05
162	0xb7aaf684	-2.0380372e-05
163	0x36d9b8db	6.488624e-06
164	0x80000004	-6e-45
165	0x367e0490	3.7851605e-06
166	0xb83f74ed	-4.5646844e-05
167	0xb8280334	-4.0057304e-05
168	0xb91e176d	-0.00015076781
169	0x38340775	4.292229e-05
170	0xb455d95d	-1.9916247e-07
171	0x80000004	-6e-45
172	0x3917026b	0.00014401383
173	0xb8689946	-5.5455857e-05
174	0xb8834557	-6.259482e-05
175	0xb7c928a5	-2.3979994e-05
176	0xb762d709	-1.35207165e-05
177	0xb6aa4e9a	-5.0755452e-06
178	0x80000004	-6e-45
179	0x38891e6d	6.538336e-05
180	0xb803e1fb	-3.1443295e-05
181	0xb85b9d7c	-5.2360338e-05
182	0xb7af1428	-2.0871012e-05
183	0x388578cd	6.364435e-05
184	0xb49f0f10	-2.9627017e-07
185	0x00000004	6e-45
186	0xb70d5c72	-8.425779e-06
187	0xb8c0f9dc	-9.2018134e-05
188	0xb8d718e1	-0.00010256633
189	0x37c69afc	2.367561e-05
190	0x352ce805	6.4412626e-07
191	0xb769e7ee	-1.3941883e-05
192	0xb8cadb49	-9.672956e-05
193	0x34a8897a	3.1392466e-07
194	0xb868fd11	-5.5548797e-05
195	0x350209c5	4.844299e-07
196	0xb98ebd4a	-0.00027225382
197	0x39a6edda	0.000318392
198	0x387b5109	5.9918533e-05
199	0x80000004	-6e-45
200	0xb869571c	-5.5632656e-05
201	0xb8e3735a	-0.000108456894
202	0xb97d95e0	-0.00024183793
203	0x399f8a99	0.00030430107
204	0x3806c315	3.2129774e-05
205	0xb94d4c24	-0.00019578688
206	0x00000004	6e-45
207	0x398e2446	0.00027111376
208	0xb9e1097c	-0.0004292241
209	0xb80dc3e1	-3.3799446e-05
210	0x397ffa8a	0.00024412028
211	0xb791adac	-1.736622e-05
212	0x3756ddf7	1.2807074e-05
213	0x00000000	0.0
214	0xba066bd0	-0.00051277597
215	0x394a53c3	0.00019295425
216	0xb91e760d	-0.00015112032
217	0xb8df5b42	-0.00010650467
218	0xb94dbbc4	-0.00019620272
219	0x38a51391	7.871458e-05
220	0x00000004	6e-45
221	0x37e7e6f7	2.7644897e-05
222	0x390923a3	0.00013078614
223	0x39363a9b	0.00017378705
224	0x39bd4dd6	0.0003610688
225	0xb89a0dfd	-7.345898e-05
226	0xb85d76d8	-5.2801188e-05
227	0x00000000	0.0
228	0x34b9ca7f	3.460627e-07
229	0xb9a30237	-0.00031091433
230	0xb98caa27	-0.00026829654
231	0xb9833cf7	-0.0002503169
232	0xb8444368	-4.679282e-05
233	0x399e4f5e	0.00030195242
234	0x00000000	0.0
235	0x39460ee1	0.00018888294
236	0xb99700bc	-0.00028801512
237	0xb8897f84	-6.556421e-05
238	0x395e7ba2	0.00021217627
239	0xb95f6552	-0.00021304682
240	0x370f69eb	8.548125e-06
241	0x00000000	0.0
242	0x3919fdb4	0.00014685729
243	0xb96d651e	-0.0002263975
244	0xb90f9641	-0.00013693517
245	0xb9c60940	-0.00037772395
246	0xb8aa2034	-8.11223e-05
247	0xb95c882f	-0.00021031567
248	0x00000000	0.0
249	0x38862afe	6.397626e-05
250	0x39fe1a27	0.0004846614
251	0x395c4016	0.00021004709
252	0x39ac2169	0.0003283129
253	0xb9a46a37	-0.00031359654
254	0x3782d4e2	1.5596339e-05
255	0x00000000	0.0

exp_avg_sq f4 [128, 98]
0	0x36a5d49b	4.9421337e-06
1	0x3487c4b0	2.5288819e-07
2	0x3146d87c	2.893585e-09
3	0x25fd7a99	4.397158e-16
4	0x358e321d	1.0594409e-06
5	0x348991e2	2.5624382e-07
6	0x363d15e3	2.8175934e-06
7	0x3611c129	2.1719118e-06
8	0x347e2cab	2.3671844e-07
9	0x328f90a1	1.671316e-08
10	0x2675b180	8.524201e-16
11	0x3599cdcb	1.1459282e-06
12	0x362baa9a	2.5580289e-06
13	0x36ac6d67	5.1387356e-06
14	0x35fa938f	1.8669397e-06
15	0x345ea1f8	2.0734285e-07
16	0x31175a38	2.2024675e-09
17	0x00000000	0.0
18	0x367a45a4	3.729344e-06
19	0x351f2441	5.928487e-07
20	0x3617fd6e	2.264827e-06
21	0x34da1d7a	4.062711e-07
22	0x342074a8	1.49436e-07
23	0x3390c01a	6.7404656e-08
24	0x272d606b	2.4060841e-15
25	0x3647af4d	2.975535e-06
26	0x363d3c60	2.8198338e-06
27	0x36856404	3.9753522e-06
28	0x35a7cce6	1.2502103e-06
29	0x348a53d0	2.5765485e-07
30	0x2fc45687	3.5713674e-10
31	0x00000000	0.0
32	0x36b66890	5.4361954e-06
33	0x33e4bf5b	1.0651885e-07
34	0x35a03902	1.193752e-06
35	0x339890a1	7.1043594e-08
36	0x34224336	1.5111877e-07
37	0x33834190	6.1120886e-08
38	0x00000000	0.0
39	0x3681d41e	3.8691933e-06
40	0x362eb456	2.603299e-06
41	0x365e46bf	3.3121757e-06
42	0x35a5cc0f	1.2352847e-06
43	0x34565a78	1.9963215e-07
44	0x2f0f4c17	1.3032807e-10
45	0x00000000	0.0
46	0x36a24244	4.8356906e-06
47	0x3481cfe5	2.4179386e-07
48	0x35927834	1.0912831e-06
49	0x3376d4a5	5.7469737e-08
50	0x340d810a	1.3178592e-07
51	0x34d2c78c	3.9260738e-07
52	0x00000000	0.0
53	0x36cd3926	6.116129e-06
54	0x35117b7f	5.419642e-07
55	0x3606c2b9	2.00809e-06
56	0x359e4db8	1.1794536e-06
57	0x341d009c	1.4621986e-07
58	0x2f111a51	1.3197023e-10
59	0x00000000	0.0
60	0x36903262	4.2973998e-06
61	0x353ed9ec	7.1097634e-07
62	0x35c8bbc0	1.4955804e-06
63	0x33ec8512	1.1013812e-07
64	0x338a04a6	6.426971e-08
65	0x3573845e	9.0717174e-07
66	0x26d2178c	1.457806e-15
67	0x36abc36a	5.1189463e-06
68	0x3523ab25	6.097128e-07
69	0x35cd6db1	1.5305615e-06
70	0x35992c57	1.1412293e-06
71	0x3409c0f2	1.2829312e-07
72	0x2f446d09	1.7864833e-10
73	0x2057ffdd	1.8295866e-19
74	0x365d06d8	3.293555e-06
75	0x35f2b76d	1.8083789e-06
76	0x36244d79	2.4483e-06
77	0x3487780c	2.5233055e-07
78	0x337a841c	5.8327814e-08
79	0x350edaa6	5.32173e-07
80	0x26b60092	1.2628941e-15
81	0x36a091b8	4.7853355e-06
82	0x351a483b	5.747458e-07
83	0x35e28e04	1.6879644e-06
84	0x359071a8	1.0761914e-06
85	0x33eeb907	1.1116395e-07
86	0x2effd56f	1.1633971e-10
87	0x2052dd5e	1.7860936e-19
88	0x363e0264	2.8313598e-06
89	0x361906c1	2.2802708e-06
90	0x363e542e	2.8361205e-06
91	0x34f2ead1	4.5246864e-07
92	0x3412f201	1.368535e-07
93	0x35847f58	9.871828e-07
94	0x36547bcb	3.1662519e-06
95	0x3298b853	1.777895e-08
96	0x3a1bbddd	0.00059410726
97	0x3450b117	1.9435934e-07
98	0x34def7db	4.153106e-07
99	0x32b8037e	2.1422007e-08
100	0x319909bf	4.453994e-09
101	0x26dbd91a	1.5255023e-15
102	0x33d00a9b	9.687684e-08
103	0x3427d1d3	1.562942e-07
104	0x34f69ae9	4.5933783e-07
105	0x349ba2c5	2.898943e-07
106	0x32a830d6	1.9579982e-08
107	0x3320f802	3.7478465e-08
108	0x24c35faf	8.4729864e-17
109	0x33d24c21	9.792735e-08
110	0x348244d0	2.4264455e-07
111	0x35265a0b	6.197085e-07
112	0x3481b720	2.4161363e-07
113	0x330781b2	3.1550094e-08
114	0x2ff558b6	4.4628273e-10
115	0x00000000	0.0
116	0x347773ee	2.3045843e-07
117	0x343a94bf	1.7376713e-07
118	0x34ca83ef	3.7721426e-07
119	0x33ce7e06	9.615546e-08
120	0x33109ba0	3.3669153e-08
121	0x32e893a8	2.7075501e-08
122	0x2b531d23	7.5002694e-13
123	0x349cf909	2.923846e-07
124	0x348083c9	2.3937744e-07
125	0x34d33df0	3.9346878e-07
126	0x34841904	2.4605117e-07
127	0x333926d5	4.3108987e-08
128	0x2f161ccd	1.3652653e-10
129	0x00000000	0.0
130	0x34789263	2.3150055e-07
131	0x34493fd8	1.874281e-07
132	0x34ad7fcd	3.2316748e-07
133	0x33d19cab	9.7608186e-08
134	0x331c1c18	3.634713e-08
135	0x330d7c80	3.2942353e-08
136	0x00000000	0.0
137	0x34d21f78	3.9138445e-07
138	0x342b14ea	1.5933225e-07
139	0x3481dd0d	2.4188958e-07
140	0x343cc92c	1.758205e-07
141	0x333592cd	4.227586e-08
142	0x2ef234b0	1.1014245e-10
143	0x00000000	0.0
144	0x347efd14	2.3747663e-07
145	0x347dd048	2.3638233e-07
146	0x34b04f63	3.2840316e-07
147	0x33cb3aa2	9.4635894e-08
148	0x32dc9403	2.5678679e-08
149	0x32f8117e	2.8878954e-08
150	0x00000000	0.0
151	0x35033c29	4.888885e-07
152	0x33d9268c	1.01118616e-07
153	0x345e4fa8	2.070434e-07
154	0x34373c40	1.7065122e-07
155	0x33571dd9	5.0085735e-08
156	0x2f6a0334	2.1283314e-10
157	0x00000000	0.0
158	0x347318ec	2.2640205e-07
159	0x34873f0a	2.5191576e-07
160	0x34b0735b	3.2866487e-07
161	0x3357613f	5.0147033e-08
162	0x3241f8e7	1.1290672e-08
163	0x31f9ef20	7.274039e-09
164	0x2a0768cf	1.2026771e-13
165	0x350036ee	4.776365e-07
166	0x34667601	2.1463349e-07
167	0x34a36bd3	3.0439568e-07
168	0x340dd0d2	1.3207617e-07
169	0x333ad19e	4.3497145e-08
170	0x2f08b471	1.2433234e-10
171	0x222f918b	2.3793972e-18
172	0x3489dc31	2.567845e-07
173	0x34adae09	3.2350388e-07
174	0x34cd7b84	3.8274095e-07
175	0x32c606dd	2.3053355e-08
176	0x32398eea	1.0800912e-08
177	0x32287588	9.8056105e-09
178	0x2a02af68	1.1607176e-13
179	0x34ee5bea	4.439783e-07
180	0x349515d9	2.776931e-07
181	0x34ba4e07	3.4701972e-07
182	0x34041851	1.2302304e-07
183	0x3359a621	5.0675343e-08
184	0x2fc1df0d	3.5264983e-10
185	0x22891799	3.715891e-18
186	0x348c52d7	2.6137306e-07
187	0x34a14a51	3.004266e-07
188	0x34c0112c	3.577528e-07
189	0x351b59d3	5.787271e-07
190	0x335ab601	5.0922612e-08
191	0x35c4a79b	1.4651918e-06
192	0x35664ac1	8.579046e-07
193	0x3335bd93	4.2314763e-08
194	0x3866eeff	5.5058856e-05
195	0x32d27919	2.4502286e-08
196	0x377adcc3	1.4952561e-05
197	0x360062ea	1.9131062e-06
198	0x35379194	6.8384657e-07
199	0x2b8780fc	9.628127e-13
200	0x3614c1da	2.2166555e-06
201	0x37b4ecea	2.1567994e-05
202	0x382cbdb3	4.1184667e-05
203	0x3665b427	3.4228522e-06
204	0x35ee72ef	1.7765832e-06
205	0x36521d79	3.1309594e-06
206	0x2ba941e3	1.202646e-12
207	0x350f47ba	5.3376027e-07
208	0x381a3e3c	3.677442e-05
209	0x384c900f	4.8771555e-05
210	0x36129c41	2.1846647e-06
211	0x35aa4092	1.268478e-06
212	0x3418393f	1.4176929e-07
213	0x00000000	0.0
214	0x375dc27b	1.32179075e-05
215	0x37d70147	2.5630592e-05
216	0x382aaadc	4.0690284e-05
217	0x36762a15	3.6681352e-06
218	0x35c6c275	1.4808744e-06
219	0x3637f9aa	2.7414449e-06
220	0x2e15c295	3.40515e-11
221	0x350bfa5f	5.2145873e-07
222	0x381afc62	3.695151e-05
223	0x384145db	4.6079844e-05
224	0x36c937ab	5.9967474e-06
225	0x35c2760a	1.448848e-06
226	0x339545cf	6.951051e-08
227	0x00000000	0.0
228	0x3781347c	1.5402438e-05
229	0x379a361a	1.8383424e-05
230	0x38073d45	3.224357e-05
231	0x367faaa4	3.8097287e-06
232	0x35a28c22	1.2110725e-06
233	0x362a55c6	2.53819e-06
234	0x00000000	0.0
235	0x35779a18	9.2238906e-07
236	0x382021c3	3.8178416e-05
237	0x383c0c2f	4.483404e-05
238	0x36e9fda8	6.9734706e-06
239	0x35d31b17	1.5728609e-06
240	0x32cc1692	2.375899e-08
241	0x00000000	0.0
242	0x37328978	1.0641634e-05
243	0x37c13109	2.3030227e-05
244	0x38099757	3.280429e-05
245	0x368005dd	3.81538e-06
246	0x35981caf	1.133323e-06
247	0x3684ea0c	3.961153e-06
248	0x00000000	0.0
249	0x36f0db01	7.178053e-06
250	0x37d5b796	2.5477068e-05
251	0x3823ccca	3.9052953e-05
252	0x369975e3	4.573479e-06
253	0x35a83ef2	1.2535295e-06
254	0x3280a93b	1.4978118e-08
255	0x00000000	0.0

exp_avg f4 [128]
0	0x37d3f89d	2.526893e-05
1	0xb871eaa8	-5.767742e-05
2	0xb88cd130	-6.7146844e-05
3	0xb8b7dbee	-8.767085e-05
4	0xb9043955	-0.00012609859
5	0x3a80fd94	0.0009841197
6	0x396b219b	0.00022423865
7	0x390234f9	0.000124175
8	0x3a0803d8	0.0005188561
9	0x3a0b3de7	0.00053116534
10	0x38b029ec	8.4001425e-05
11	0xb7baf2aa	-2.2285927e-05
12	0xb758b91f	-1.2917705e-05
13	0xb535859a	-6.762217e-07
14	0x394ff87c	0.00019833626
15	0xb89554da	-7.1206785e-05
16	0xb99fe012	-0.0003049379
17	0xb8eecabd	-0.00011386487
18	0x39aeaa2f	0.00033314663
19	0x38291914	4.0316096e-05
20	0xb89561e7	-7.1231094e-05
21	0x389ce6e1	7.481664e-05
22	0x37eb32e7	2.8037886e-05
23	0x39c6dc27	0.0003792953
24	0xb9d96250	-0.00041462714
25	0x399e6753	0.0003021309
26	0x3880a7a6	6.1347426e-05
27	0xb9adc7f5	-0.0003314611
28	0x3939f213	0.00017733155
29	0x38aae201	8.148328e-05
30	0x38c450e2	9.361074e-05
31	0x3988d347	0.00026097355
32	0xb990a03c	-0.00027585204
33	0xb85c13d6	-5.247056e-05
34	0x3a01419f	0.0004930738
35	0x39435e5b	0.000186318
36	0xb973beb3	-0.00023245327
37	0x3822354d	3.867345e-05
38	0x37d415e7	2.5282568e-05
39	0x3809d9ff	3.286637e-05
40	0x399d997f	0.00030059737
41	0x375f6d48	1.331728e-05
42	0xba11c7d2	-0.00055610866
43	0xb891cab5	-6.951896e-05
44	0xba3b97b0	-0.0007156087
45	0xb977bfc0	-0.00023627188
46	0x391fdb0a	0.0001524502
47	0x37607511	1.3378697e-05
48	0x38c2c1c9	9.286736e-05
49	0xb90209db	-0.00012401438
50	0x3a0ebe06	0.0005445186
51	0x386cf387	5.6493587e-05
52	0x39db7f15	0.0004186562
53	0x39a07fba	0.00030612742
54	0xb830b1dd	-4.2127318e-05
55	0x3913a54d	0.00014080592
56	0x3981080f	0.00024610801
57	0xba0ee4cf	-0.0005450965
58	0x391ed090	0.0001514575
59	0x399b0aec	0.0002957204
60	0x3983cbaf	0.00025138023
61	0x3904015a	0.00012589004
62	0x39fd14ed	0.0004827151
63	0xb61c4fcf	-2.3292266e-06
64	0x3998d620	0.00029151235
65	0xb7c41891	-2.337646e-05
66	0x37989047	1.8186996e-05
67	0xb83f66bb	-4.5633624e-05
68	0x396196b9	0.0002151382
69	0x37c3a2c6	2.3321609e-05
70	0x3a2ef1ce	0.0006673605
71	0x391f3e79	0.00015186695
72	0xb6c92a49	-5.9951894e-06
73	0x399dcaaa	0.0003009637
74	0xb9016e53	-0.00012343498
75	0xb6e4d0a9	-6.8192207e-06
76	0xb89d2284	-7.4927724e-05
77	0x38965bda	7.169666e-05
78	0x3a4c4022	0.0007791539
79	0xb9430b38	-0.00018600828
80	0x37dd2039	2.6360258e-05
81	0xb8caff51	-9.679667e-05
82	0xb93f7495	-0.0001825861
83	0xb9a3a67e	-0.0003121383
84	0xba23908f	-0.00062394975
85	0xb9907705	-0.00027554497
86	0x3702972f	7.783804e-06
87	0x39b7bce7	0.00035045223
88	0x38586b25	5.15982e-05
89	0xb9039463	-0.00012548412
90	0x3a05d040	0.0005104579
91	0x389e4a35	7.547849e-05
92	0x38569c3c	5.116708e-05
93	0xb8d44005	-0.00010120872
94	0x3691e542	4.348026e-06
95	0xba37418d	-0.0006990664
96	0x396c0ddd	0.00022511878
97	0x375ac8d4	1.30405715e-05
98	0x3824fef4	3.933809e-05
99	0x38384c16	4.393988e-05
100	0xb7f43d18	-2.9115516e-05
101	0x38b3041a	8.536149e-05
102	0x39f710fb	0.00047124163
103	0x39f0b921	0.000459143
104	0x3810cb3b	3.452155e-05
105	0x370dda7b	8.455124e-06
106	0xb9e016ba	-0.00042741542
107	0x37e3e6f3	2.7168053e-05
108	0xb7622a55	-1.3480506e-05
109	0xb741636e	-1.1526847e-05
110	0x37c91b73	2.397385e-05
111	0xb96d25ac	-0.00022616115
112	0xb878a7c5	-5.9284055e-05
113	0xb92f3439	-0.00016708755
114	0xba967dd0	-0.0011481587
115	0xb8583f03	-5.1557097e-05
116	0xb99e9ca5	-0.00030252818
117	0xb95e7b7b	-0.0002121757
118	0x38c81f77	9.542604e-05
119	0xb9676174	-0.00022066181
120	0x3a1a72d8	0.0005891747
121	0xb73d3ce2	-1.1279453e-05
122	0xb8b8c764	-8.810943e-05
123	0xb9aef77c	-0.00033372256
124	0x36c38060	5.8263977e-06
125	0x3864db1f	5.456351e-05
126	0x38b66b40	8.698413e-05
127	0x3a7d7761	0.0009668973

exp_avg_sq f4 [128]
0	0x370e3a73	8.477468e-06
1	0x35824da3	9.70835e-07
2	0x38865403	6.405266e-05
3	0x38b9c4c7	8.85814e-05
4	0x39389d20	0.00017606141
5	0x39bdbf18	0.00036191265
6	0x36bd7f60	5.6474673e-06
7	0x363085ef	2.6304003e-06
8	0x3813d5d0	3.524666e-05
9	0x39bb85dd	0.00035767155
10	0x35b96a63	1.3814537e-06
11	0x37aacd8b	2.0361293e-05
12	0x37d7dcad	2.5732757e-05
13	0x34ef4dc2	4.4573795e-07
14	0x3726f8b1	9.952274e-06
15	0x355d976b	8.254926e-07
16	0x39c03c76	0.0003666614
17	0x37e9fcf4	2.7893555e-05
18	0x38753e40	5.8470527e-05
19	0x38923587	6.971793e-05
20	0x35d043f0	1.551698e-06
21	0x37d2a8ff	2.5112646e-05
22	0x36df9f67	6.6644748e-06
23	0x387d9222	6.0455997e-05
24	0x399854fb	0.00029055015
25	0x38e09f86	0.00010710866
26	0x388e0ff0	6.774056e-05
27	0x3993fe17	0.00028227337
28	0x39d0bfaa	0.00039815652
29	0x38438633	4.6616606e-05
30	0x3806ddd8	3.2154698e-05
31	0x3747ae23	1.1901869e-05
32	0x3735ce7e	1.0836518e-05
33	0x37b20716	2.1222553e-05
34	0x389d2333	7.4929e-05
35	0x3913da86	0.00014100419
36	0x38809408	6.1310886e-05
37	0x360dee33	2.1149287e-06
38	0x37bab8b6	2.225894e-05
39	0x37cd6abe	2.448761e-05
40	0x384b6f97	4.8502898e-05
41	0x36a33f6b	4.8651614e-06
42	0x3a012806	0.00049269234
43	0x3716bb3c	8.984291e-06
44	0x3a14c6e0	0.00056753866
45	0x38220c92	3.8635517e-05
46	0x37b243ac	2.1250766e-05
47	0x37f33a35	2.8994962e-05
48	0x3a0f9450	0.00054771174
49	0x38580a3f	5.1507956e-05
50	0x38c709d5	9.490891e-05
51	0x38a83ac4	8.02181e-05
52	0x38db1285	0.00010446183
53	0x389e0c92	7.5363685e-05
54	0x34c26156	3.6206137e-07
55	0x394d0d50	0.00019555283
56	0x3815b1de	3.569002e-05
57	0x392fe993	0.00016776314
58	0x37a6471c	1.9821855e-05
59	0x38c963a1	9.602984e-05
60	0x36908e91	4.3081313e-06
61	0x37d3dfd7	2.5257394e-05
62	0x39039ff2	0.00012552718
63	0x3815f127	3.574896e-05
64	0x37f57572	2.9260966e-05
65	0x38e656c2	0.000109834145
66	0x3987bb8f	0.0002588895
67	0x35c3feb7	1.4602764e-06
68	0x37d30dd9	2.5159608e-05
69	0x39171702	0.00014409053
70	0x39c75274	0.0003801767
71	0x3788ae6b	1.6293683e-05
72	0x34f74e54	4.6064326e-07
73	0x38b51ef8	8.636521e-05
74	0x383e0ffc	4.5314417e-05
75	0x398b55c3	0.00026576043
76	0x3801d207	3.09516e-05
77	0x3428ff06	1.5738996e-07
78	0x39b8ead4	0.00035270175
79	0x3914cd03	0.00014190753
80	0x3714bcbe	8.865432e-06
81	0x37ee265c	2.8389673e-05
82	0x35aae583	1.2732784e-06
83	0x37d556bd	2.543197e-05
84	0x395edd42	0.00021253995
85	0x393928c9	0.00017658169
86	0x3895ac16	7.136927e-05
87	0x38c92d2c	9.592841e-05
88	0x37419398	1.1538061e-05
89	0x376198f1	1.34466545e-05
90	0x39a252b9	0.0003096068
91	0x378d6f9f	1.6860487e-05
92	0x358d9575	1.0548816e-06
93	0x36ae79db	5.19979e-06
94	0x3725ce34	9.882777e-06
95	0x38d53d53	0.00010168054
96	0x39c8b4d8	0.00038281712
97	0x38045ffd	3.156065e-05
98	0x35ac18fd	1.2822271e-06
99	0x377be795	1.5014685e-05
100	0x35cf23fb	1.5433174e-06
101	0x37221885	9.661661e-06
102	0x36c14f96	5.7611132e-06
103	0x391f3ad6	0.0001518534
104	0x3705ff84	7.98691e-06
105	0x380da13f	3.376719e-05
106	0x38e880bc	0.00011086601
107	0x390077f5	0.00012251719
108	0x37f06f81	2.8662153e-05
109	0x33a10439	7.497915e-08
110	0x37b923ec	2.2070446e-05
111	0x38736746	5.8031896e-05
112	0x34feb325	4.7441532e-07
113	0x382251c2	3.8699953e-05
114	0x39a87ce7	0.00032136517
115	0x37903610	1.7191313e-05
116	0x3939dbac	0.00017724809
117	0x38afae19	8.3770785e-05
118	0x377f4ed6	1.521754e-05
119	0x39557dfd	0.00020360197
120	0x3911a380	0.00013889186
121	0x34b7fe18	3.4271284e-07
122	0x380683b0	3.2070733e-05
123	0x38a66154	7.9336256e-05
124	0x38a2b42f	7.758324e-05
125	0x3676d5a8	3.678122e-06
126	0x380f4907	3.416187e-05
127	0x395d990f	0.00021133221
