results/ppo/OpponentAI/OpponentAI-1555035.pt (torch, 720479 bytes, 30 tensors)

network_body._body_endoder.seq_layers.0.weight f4 [128, 98]
00000000: 322f 783c b855 413d 3812 283e eb48 b83d
00000010: 7a91 293e e495 4bbe 474e 64bc cd68 903a
00000020: 13c4 473e de52 1b3d 97e3 213d d390 923c
00000030: d693 e13d 3a81 37be 8e1b 543c 40cd 26bd
00000040: 3963 84bd a700 0d3c 63c9 023d 7c34 74be
00000050: 9209 8d3b 9853 153d 2546 c6bb a3ab 0abd
00000060: 1c14 fb3d 7f3c 223d 45cd aabc 0638 a43c
00000070: 0aa0 b9bd 9913 a93d ce09 fabd aa7b 38bd
00000080: 4feb 40bd 2388 59bd 4a58 a7be 84ab 6cbe
00000090: 1a48 8c3d 2f6f a8bc 630c 96bd 800f 263d
000000a0: 8d5d b43d 9aa3 adbc a43c c8bd 4728 343c
000000b0: 0122 2d3e 3366 4abd a949 283d 2b4c 2c3d
000000c0: 5731 993c f685 c9bc 9eb8 f2bb a8f8 133e
000000d0: 14fd 4b3d 9a84 76bd 0b1e 4ebe 2d3f a03d
000000e0: 0e5d 183d 6c6e 16be 83e0 1e3d dd9c d43d
000000f0: a896 1abd 16a8 0fbe 0deb 2b3c f350 97be
00000100: 1ad3 25be dbb1 823d 83ce d43d 17ab 613e
00000110: df38 63be 76a1 00be 9203 30bd 428e 02bd
00000120: f91c 653a 7d82 12bd fb0b 903c d1d3 6fbd
00000130: 673e 42bb 4949 52be abe2 963d f2fb a3bd
00000140: b3e0 db3d d2c2 e5bd 554b 1cbe b618 28be
00000150: 1a56 4e3e bddd 1d3e 0740 ba3d 7320 1d3d
00000160: 9a68 edbd aa6c 16be 2198 113d 079a 37bd
00000170: 26b7 35bd ed05 983c 3b9f b3be 73ba 84bd
00000180: 9faa 8e3d 7dbb 07bb e9c6 e03d d11c 01be
00000190: 5508 253e 5127 10be 024c e4bd 40d0 babd
000001a0: ca1e 0ebe f197 2f3d 8db4 12be 79d9 1a3e
000001b0: 6733 3e3d df95 0f3e 9584 8c3d 68fc 5cbd
000001c0: 79d4 e838 73ef c83c d55b c8bd bbcb 8bbd
000001d0: 5794 793d ea15 9b3d af8d 8a3d 90de d5bd
000001e0: 1c24 88be fc7b 89bd fb39 963d a40d b9bd
000001f0: 2370 0dbd a7bc 32be e6a6 cf3d ebec 423d
00000200: bb81 8fbd f605 9e3d 1d3d a23d 81b3 023e
00000210: 071a 18bd b30b eabc 3046 14bd 310a 59bd
00000220: 3316 13bd d158 793d fd2d 11bd 13da 13be
00000230: 3f3d 3fbe 75e0 57bc 915c faba 7580 bcbd
00000240: f5e7 82bd 9906 193d 3f7d 0abe 48e6 98bd
00000250: 5c2b 943d 4803 0d3d 7c2b 01be c797 bfbc
00000260: 9d46 15be 5c7d 56be c061 f23c 8700 acbd
00000270: 548b f83d 4215 143b dc1b 0dbe 2684 10be
00000280: 5ae9 a8bc 88da 92bd 2548 10be d248 8dbe
00000290: 9056 cb3c c5af 9f3d 1d34 043e 8743 893d
000002a0: 2ebc 4c3d 99a2 f43c 980b 673c ae98 72ba
000002b0: 719f 613d 02ee 843d 3024 33bd 73cb bb3d
000002c0: bb95 8e3d d8cc 003b a4bc 8abd 9e18 c1bd
000002d0: 5c61 d43d 4de6 85bc 7078 41bb cb84 4d3d
000002e0: 083a 7d3e b8a5 233e 1f30 713d c569 12be
000002f0: a073 f1bd 3dde 5e3d 892a 363e f901 4c3d
00000300: 4cd3 96bc 7aa3 123e 8c4d b83b b60c 943d
00000310: a122 363e e6f4 0e3e b203 a83d 4295 0a3e
00000320: f1c2 2ebe e558 7a3d f8a9 f6bd d84c 42be
00000330: 901b c03d ded3 673e 703b 78bd 87de c2bd
00000340: afb1 203e 4c66 903c c9ae 37be 7b96 a7bd
00000350: 1b60 e9bd 18c7 2d3e 81ad 6d3d b8b1 9c3e
00000360: df9e d53d f332 a0bd b00a a3bc 4442 ec3c
00000370: f0a9 813d ca00 dabd 1013 5b3d adc5 af3c
00000380: f085 ee3d 6e46 2dbe 3fe4 3e3c 1857 b4bc
00000390: 0786 a33e 0bfe 93bc b622 d43d 0d85 1ebe
000003a0: 9ace d4bd 84d7 bebc 8679 323e 7c0e aebd
000003b0: 0829 193e 085d 69bd 09dd e93d e2ab cbbc
000003c0: e1a7 71bd 55c2 cfbd fd6c e13d c078 e4bd
000003d0: 01a3 8abd f6b2 5dbd 8cc0 fabb 08c7 073e
000003e0: 3d84 b03d 2da3 9038 0b32 5abe 976c 52bc
000003f0: 969c 73bd 0944 b43c 4bfe 4f3c 00da 24bc
0.015147971 0.04720089 0.164132 0.08998283 0.16559401 -0.19881397 -0.013934678 0.0011017561
0.1950839 0.037920825 0.039523687 0.017891323 0.110145256 -0.1792039 0.012946023 -0.040723085
-0.06464238 0.008606113 0.03193034 -0.23848146 0.0043041194 0.036456674 -0.0060508423 -0.03385509
0.12259695 0.039608475 -0.020849833 0.020046245 -0.09063728 0.08255691 -0.12208901 -0.04503981
-0.047099408 -0.053108346 -0.32684547 -0.23112303 0.0684969 -0.020560829 -0.07326581 0.040542126
0.08806906 -0.021196175 -0.09777191 0.010995931 0.16907503 -0.04941387 0.041085873 0.042064827
0.018700285 -0.02460001 -0.007407262 0.14450324 0.0498019 -0.060185052 -0.20128648 0.0782455
0.03719812 -0.1469056 0.03878833 0.10381482 -0.037741333 -0.14028963 0.010493052 -0.29553947
-0.1619381 0.063815795 0.103909515 0.22037922 -0.22189663 -0.12561592 -0.042972155 -0.03187395
0.0008739974 -0.035768975 0.017583838 -0.058551613 -0.0029639245 -0.20535769 0.07367452 -0.08007039
0.10736217 -0.112188 -0.15263112 -0.16415676 0.20150033 0.15416618 0.090942435 0.038361024
-0.11592217 -0.1468989 0.035545472 -0.044824626 -0.044364117 0.018557513 -0.3508242 -0.06480875
0.06966137 -0.0020711117 0.10975439 -0.12608649 0.1611646 -0.14077498 -0.1114731 -0.09121752
-0.13878933 0.042869512 -0.14326687 0.15122022 0.04643574 0.14022015 0.068612255 -0.05395165
0.00011102198 0.02452824 -0.097831406 -0.06825968 0.060932484 0.07572539 0.06765305 -0.10442841
-0.2659005 -0.06713101 0.07335278 -0.09035805 -0.03453077 -0.17454778 0.10139255 0.047589224
-0.07007166 0.07715981 0.07921813 0.12763788 -0.037134197 -0.028570032 -0.03619975 -0.052988235
-0.035909843 0.060875718 -0.03544425 -0.14438657 -0.18675707 -0.013176073 -0.0019101073 -0.09204189
-0.063918985 0.037359808 -0.1352434 -0.07465798 0.07234833 0.034426957 -0.12614244 -0.023387803
-0.14577718 -0.20946258 0.029587626 -0.08398538 0.1213595 0.0022595678 -0.13780159 -0.1411291
-0.020619083 -0.07170588 -0.14090021 -0.2759462 0.02482155 0.07797197 0.12910505 0.06702333
0.04998415 0.029862689 0.014101885 -0.00092543184 0.055083696 0.06490709 -0.043735683 0.09169664
0.069621526 0.0019653346 -0.067742616 -0.094285235 0.10370132 -0.016345168 -0.002952125 0.05017547
0.24729168 0.15981185 0.058883782 -0.1429816 -0.11789632 0.05441116 0.17789663 0.04980657
-0.018411301 0.14320174 0.0056244787 0.07228987 0.17786647 0.13960609 0.0820383 0.135335
-0.17066552 0.061119933 -0.12044138 -0.18974626 0.09380257 0.22639415 -0.06060356 -0.095151
0.15692781 0.017626904 -0.17937769 -0.08182999 -0.11395284 0.1697048 0.058026794 0.3060434
0.10430693 -0.07822218 -0.019902557 0.028840192 0.06331241 -0.10644682 0.053484976 0.021456564
0.1164664 -0.16921398 0.011651098 -0.022014186 0.31938192 -0.018065473 0.10358183 -0.15480442
-0.103909686 -0.023296125 0.1742917 -0.084988564 0.14957058 -0.056973487 0.11419112 -0.024862234
-0.058997992 -0.10144488 0.11007116 -0.11155844 -0.06769372 -0.05412575 -0.007652348 0.13259518
0.086189725 6.896849e-05 -0.21308152 -0.012843273 -0.059475504 0.022005098 0.0126949055 -0.010061741

network_body._body_endoder.seq_layers.0.bias f4 [128]
00000000: 3480 6cbc 1960 debc 5fd3 403c 5901 203a
00000010: 395a bd3c c57c b33c 1ad7 2bbd c508 123c
00000020: 12c0 043c 2ac0 013d 3cdd f6bc 0673 85ba
00000030: 1f69 173d fa2e 0ebd b83b 40bc ac11 debb
00000040: c035 d03c 8562 953b 1f63 9c3c 6760 ab3b
00000050: bd5d 04bd a501 583b 1a0f 3b3c d286 19bc
00000060: 3a8d c63c b4df 933c 4f14 113c 46d5 033d
00000070: d468 af3c 7984 823c 2400 b03b 11dc 873d
00000080: 7970 9b3c f47e 193c b447 2c3d 7502 f23c
00000090: 1508 73bb 4b33 28bc c978 f138 455a abbb
000000a0: b75b 103c f14b 2e3c 351c c63c 8521 20bb
000000b0: 1817 083d 6370 74bc 48c8 76ba 55d3 163c
000000c0: 8fc6 e43c a2ab 74bb 1eb1 7e3b 86fe 8b3c
000000d0: 6b73 803c b189 903b 3f94 e1bc 851c bd3c
000000e0: bc71 2b3d 277d 06bc 1212 a53c abcc 05bb
000000f0: c1b8 82bc 98c8 8bbc 6e5c 013d 09e5 e4bb
00000100: c6c4 613d ff2a e13c ca90 173d 45d3 abbc
00000110: 1bc5 1d3c 0c7d 1e3c 9b7f ae3c b4bc b73c
00000120: aed5 1abc 94f7 a63b 78c8 e43b c57c c73c
00000130: bb28 3a3c 488c 74bc ae75 fd3c 0f6e be3c
00000140: 294c 5d3a b02a dcba 992f 7cbc 4baa a33c
00000150: e6e3 373d 7a8b dc3c fd74 c53c 5873 fd3c
00000160: a283 d1bc 96a0 85bc 830f b83c 9d6b 463c
00000170: b60a 10bc 1ac9 eabb 0aab ee3c 1cb9 b53c
00000180: ce26 1f3d 10ca d23c 6080 02bd b32e e33b
00000190: 2e3b 9fbb 12ac 3e3c f59f b83b 1ef7 3c3d
000001a0: e97b 553b c1a5 133d b5dd 0d3c ca67 b83c
000001b0: 1f9e 623d daf5 f03c ed8e 563c b3a8 d1bc
000001c0: a388 b1bc ff82 b9bc b57b a43c 8257 1f3b
000001d0: a3b0 973c 3888 703c 456a 4b3d b9a0 043c
000001e0: 1112 bc3d 35be b53c 74b1 b23c c8f6 813c
000001f0: d073 783c e221 cd3c 6f3f db3b 37e0 4e3c
-0.014434863 -0.027145432 0.011769145 0.00061037164 0.02311431 0.02191008 -0.041953184 0.008913224
0.008102434 0.031677403 -0.03013479 -0.0010181374 0.036965486 -0.03471277 -0.011732988 -0.006777009
0.025416255 0.0045588636 0.019090233 0.005229998 -0.03231596 0.0032959965 0.011417175 -0.009370523
0.024237264 0.018051006 0.00885494 0.032185815 0.02141229 0.015932309 0.0053711105 0.06633771
0.01897453 0.009368647 0.04206057 0.029542187 -0.0037083675 -0.010266135 0.000115142735 -0.005229267
0.008810929 0.010638223 0.024183372 -0.0024434042 0.03322515 -0.014919373 -0.00094139995 0.009205659
0.027926711 -0.0037333746 0.0038862894 0.01708914 0.015680036 0.0044109453 -0.02753651 0.023084888
0.041856512 -0.00820855 0.020150218 -0.002041618 -0.015957238 -0.017063424 0.03158229 -0.006985311
0.0551193 0.027486322 0.037003316 -0.020974765 0.009629513 0.009673368 0.021301081 0.022428848
-0.009450359 0.0050954316 0.0069819055 0.024351487 0.01136225 -0.014926024 0.030939903 0.02324584
0.00084418297 -0.001679739 -0.015392208 0.019978663 0.044895075 0.026921976 0.024103636 0.03093879
-0.025575463 -0.016311925 0.022468334 0.012110618 -0.008791616 -0.0071650865 0.029134292 0.022182994
0.038855366 0.025731117 -0.03186071 0.006933057 -0.0048593497 0.011637704 0.0056343027 0.046134107
0.0032575077 0.036046747 0.008658816 0.022510428 0.055326577 0.029414106 0.0130956 -0.025593137
-0.021671599 -0.022645472 0.02007852 0.0024313633 0.018516844 0.014680915 0.049661893 0.00809496
0.091831334 0.022185424 0.021813132 0.015864745 0.015164331 0.02504057 0.0066909115 0.012626699

network_body._body_endoder.seq_layers.2.weight f4 [128, 128]
00000000: f01f 7ebe ec94 523d b19d 31bc 1f98 0cbd
00000010: 7a52 3b3e cf93 7bbe 3095 8cbe 5670 87bb
00000020: b9d6 f8bd 8522 48be d0e4 c7bd f944 45bc
00000030: 568b 083e c60f ca3b edbb a13d 3fcc 5ebe
00000040: baca bc3d f1e7 d03c d685 2d3d d97d 4cba
00000050: 0e0d d0bd d196 5fbd a6f3 febb 4e7a e7bc
00000060: d21d a93c 8ce7 963d 5399 da3c 08e6 ccbd
00000070: cfaa 8bbc 4442 1d3d f1df a1bd 87c0 8abc
00000080: d5c3 a5bd 1818 3f3e c338 88bd 07de e4bd
00000090: 9800 b3bd aaa0 50bd 9179 e33d b976 c5bb
000000a0: 1bb3 d13d 83a9 993d b00e 2b3e d975 30bd
000000b0: 0f9a 343e 9174 a83c 9bef 633d 5f30 21be
000000c0: b262 1f3e bbec 503e 1968 c7bd 585b 883b
000000d0: 73e8 82bd 0769 00bd f173 4cbc fdd8 1dbd
000000e0: ce4f 073e 6522 843d 7288 6ebe 9e65 6fbd
000000f0: 9be6 0abc 6f04 813d 3eef 043d f4c8 343c
00000100: 9599 b0bc 66e9 25bb 3149 90bd 81f0 e8b8
00000110: 4b88 443d e1ce 203d cd06 0dbd e630 2e3c
00000120: 6655 543d b4b5 20be 0b93 1a3d 9d67 533c
00000130: 7372 a63d d038 5bbd b6fe d9bd e59f 873d
00000140: eab6 df3b eea5 0ebe ca40 843d 010b ac3d
00000150: c76f 3c3e c9f4 b43d f655 133e 3b41 bbbc
00000160: e73a c63c 6fd0 11bd a78c aa3d c849 71be
00000170: 8ecc ad3b 52a2 d238 b290 223c 04e1 f9bc
00000180: 0260 823d c9c7 32be f536 64bd 18d7 6a3d
00000190: 8f02 0abe efb3 a0bd 0d68 5e3d 2ce4 fc3d
000001a0: 0128 8c3d c6df 853c 3cff 2abc fa3e 36be
000001b0: a1e8 da3d 961d dbbd 7594 e7bd a213 4c3e
000001c0: 6014 b9bc 2a30 5d3e 5eaa 1a3e 9720 07bd
000001d0: 3bfe 1b3d 42b6 6bbd c7b0 cdbc a7a4 063e
000001e0: e492 3c3c ccca bbbd 5377 233e 1c66 053e
000001f0: f411 1e3e 4f87 dc3c 3b0d 50be 44eb af3a
00000200: 1a6e 24be ea73 ea3d 20a6 6bbd 34fa 873d
00000210: 7d9b 3d3c 09c5 1cbe 6a81 b6bd 717a a73d
00000220: e51c 943d 85b4 08be 00a4 a23d 504a 4dbd
00000230: 8c5f 263d afd5 aebd 647d 03bd 16f7 7fbd
00000240: 1cc6 063e d5e0 123e 7f38 ed3d 7ecc b33d
00000250: 823f 15be b6af 803d ff9e e43d 9a41 bbbd
00000260: 8047 b7bc 5d91 fa3d 8679 963d ee15 143d
00000270: 31b2 dfbd 779e 08bd 4dce 57be 738b 233e
00000280: 0b31 66bd 44c9 a13d 061b b5bc 3e5d bcbd
00000290: c173 e23d 9a50 12be d0c3 8c3c 0f9b 1a3d
000002a0: 975e 8bbd cb4c 33bd 0d20 673e af8f b7bd
000002b0: b849 8c3e 9110 17bd e30f 70bc 2fac 5dbc
000002c0: 0607 173e 5e2b d8bd 9e24 833c 8700 043e
000002d0: 21f8 20be 6285 ec3b 0901 40be 38cd a43c
000002e0: eb87 483e bb1d d33d c40f 37bd 2c4e 9b3d
000002f0: 4710 ff3c e04a ddbd ca27 cbbd d4ed 92bd
00000300: 755d dcbd 05bc 82bd 6eff 3abe 8c95 03be
00000310: 6011 3abe a8c1 8d3d 04da 0dbd 31cf 903d
00000320: fdd5 38bd 6058 7fbd baa8 20bd c3c6 71bd
00000330: d1b3 3a3e 3a00 a93c 52a4 41bd e91c 313e
00000340: 73c4 2cbd 1915 04bd 9f08 143d b3e1 113e
00000350: c27e 8e3e e230 d7bd 4ae9 3fbd bf45 b13c
00000360: e383 4dbd 4785 633d 2ca6 98bc f9ba 9fbd
00000370: e936 5a3d 3392 d8bd 9c25 273e 2c16 21be
00000380: 9a04 ae3d 0b0b 26be 32ba 4d3c 067e b3bd
00000390: f3f6 603d 7dac e1bc 567b 3cbe 875a 123d
000003a0: 6d1e 1f39 5187 363e f73e 503d 2d17 15be
000003b0: 3ee0 be3c 03ed ccbd 866b 63bd b60a d9bd
000003c0: 9016 b13d 5894 dabd bb66 323e 60ea a73b
000003d0: 0ec3 88bb 0e42 813c b4f7 d03d 3f72 e73c
000003e0: 084f 69be 7a1c 0a3e ea7e 893d 3a95 813c
000003f0: acdd e83d 7860 903d 44c2 a6bd bbf6 47be
-0.2481687 0.051411554 -0.010840819 -0.03432476 0.18293181 -0.24568103 -0.2745757 -0.0041332645
-0.1215033 -0.19544418 -0.097604394 -0.01204037 0.13334402 0.006166431 0.07897172 -0.21757601
0.092183545 0.025501223 0.042363964 -0.0007800735 -0.1015874 -0.05458719 -0.00778051 -0.028256562
0.020644102 0.07368383 0.026684439 -0.100048125 -0.017049221 0.038393274 -0.079040416 -0.016937507
-0.080939926 0.18661535 -0.066514514 -0.11175161 -0.087403476 -0.05093447 0.11107171 -0.0060261157
0.1023924 0.07503035 0.16704822 -0.04308114 0.17636894 0.020563396 0.055648427 -0.15741108
0.15564993 0.20402806 -0.09736652 0.0041612796 -0.063919924 -0.031350162 -0.012478814 -0.038537014
0.13214037 0.06451873 -0.23294237 -0.05844652 -0.008477832 0.06299674 0.03245472 0.011034239
-0.021557609 -0.0025316118 -0.0704521 -0.000111074194 0.04798154 0.039259795 -0.034430314 0.0106317755
0.051839255 -0.15694314 0.037737887 0.012903121 0.08127298 -0.053520977 -0.106442854 0.06622294
0.006827225 -0.13930485 0.0645767 0.08400536 0.18402015 0.088357516 0.1438826 -0.022858253
0.024198009 -0.03559917 0.083276086 -0.23563302 0.005303926 0.00010043815 0.009922193 -0.030502804
0.06365968 -0.17459024 -0.055716474 0.057334036 -0.13477539 -0.078468196 0.05429845 0.12348208
0.06843568 0.016342055 -0.010436829 -0.17797461 0.10688902 -0.106990024 -0.11307613 0.19929364
-0.022592723 0.21600404 0.15104052 -0.032990064 0.03808425 -0.05754686 -0.025108708 0.13148747
0.011509631 -0.0916954 0.15963487 0.13027233 0.15436536 0.026919989 -0.20317547 0.0013421555
-0.16057625 0.1144789 -0.057531476 0.06639519 0.011572716 -0.15309538 -0.089114025 0.08177651
0.07232074 -0.13350113 0.07941437 -0.050119698 0.040618464 -0.08536851 -0.032102004 -0.0624915
0.1316151 0.14343579 0.115830414 0.08779238 -0.14575008 0.06283514 0.111631386 -0.09143372
-0.022372961 0.12234757 0.073473975 0.036153726 -0.10922659 -0.03335425 -0.21074791 0.15971164
-0.056199115 0.078997165 -0.022107612 -0.09197472 0.110572346 -0.1428856 0.017183214 0.03774553
-0.06805151 -0.043774407 0.2257082 -0.08962952 0.27399993 -0.036881033 -0.014652225 -0.013529821
0.14748773 -0.10555147 0.016008671 0.12890826 -0.15719654 0.007218049 -0.18750395 0.020117387
0.19583099 0.10308405 -0.04469277 0.075832695 0.031135691 -0.10805297 -0.099196985 -0.07174268
-0.10760013 -0.06383518 -0.18261501 -0.12850016 -0.1817069 0.069217026 -0.034631744 0.070707686
-0.04512595 -0.06234014 -0.03922341 -0.059027445 0.18232657 0.02062999 -0.04727585 0.17296185
-0.042179536 -0.032246683 0.036141034 0.14246254 0.27831084 -0.105073705 -0.04685334 0.021639703
-0.050174605 0.055547025 -0.018633924 -0.07799334 0.053275023 -0.1057476 0.1632294 -0.15731114
0.084969714 -0.1621515 0.012556599 -0.087642714 0.05492301 -0.02754807 -0.18406424 0.035730865
0.00015174756 0.17825057 0.050841298 -0.14559622 0.023300286 -0.10006144 -0.055522464 -0.10597746
0.086468816 -0.106728256 0.17422001 0.005124375 -0.004173643 0.015778568 0.102034956 0.028252719
-0.22784054 0.13487425 0.0671366 0.015818227 0.113704056 0.0704965 -0.08142522 -0.19527714

network_body._body_endoder.seq_layers.2.bias f4 [128]
00000000: 5492 d93c 5a96 1c3d 2215 52bb 09f2 2c39
00000010: ff60 323b a262 0a3d 40ba 8b3c 2944 463c
00000020: 0ff8 883b e7a4 7b3c 973b 013c c8bd 813c
00000030: 6287 953c a37f 303c 0226 1e3d 3e98 063c
00000040: c88c bb3c 6796 9b3b 3356 853c e81e 263c
00000050: 6d9b 293c 4483 f13c 9e3a cc3c 15b5 f73b
00000060: fbf5 3dbb 47d8 e03c 469c 9d3c a2c8 553c
00000070: 092d 803c 4196 103d 1f1b 1e3c 926d a03c
00000080: bbc5 9c3c 2f51 263c 38de 993c ca44 ac3c
00000090: a524 a53b 1b82 fd3c 4564 213d a1b6 4e3c
000000a0: 78c0 9e3c 5707 243d 3258 d73c 0cf8 983c
000000b0: b3f1 be3c 62bb 993c f6dc fa3c 2ba7 943c
000000c0: 61f2 b93c 3ad2 d5bb 9aaa cf3c 092a ae3c
000000d0: a68e a73c eedd 1b3c 0620 c93c 4629 a23c
000000e0: 4588 683c 8be5 be3c dec1 703b 251f 813c
000000f0: 30b1 d73c 0c28 bc3c 0180 f23c efcf cdba
00000100: 9310 003d 4c86 013c 2b0f db3c 91a4 283c
00000110: 563e 973c a69f 023d 4c01 9f3c a971 b03b
00000120: 1d0c b4ba c957 b43c 551f 583c 2c74 f03c
00000130: 946e 9d3c a768 8e3c 35b9 893c 5aa9 683c
00000140: 6205 043d 6539 af3c 68db 903c 9888 173d
00000150: f8e4 cd3b da7a 353d d791 843b bb59 bb3c
00000160: b234 f83a db76 cb3c f763 fa39 712b ef3c
00000170: d578 ed3b 8538 cd3c 3d13 f63b 701e 903b
00000180: 008d 243c dded b03c b7e5 ac3c 1d28 f93b
00000190: 6ad4 0e3c 1f94 163c 3cdd f93c c8b1 333c
000001a0: 5a63 9bbb 2551 8f3c 864e 923b 8e40 af3b
000001b0: 9830 0d3d 6234 6e3c f8ff 1c3c 3205 283c
000001c0: 3680 b23c 8c0c 553c b899 7d3c 5137 ad3c
000001d0: a0f9 4c3c ed2c 883b 3fa2 d9ba c08d f23c
000001e0: 3aff d83b d042 0d3d 562c 073b 464d 623c
000001f0: c891 ed3c 0936 753c 8c2b 423c f207 ba3b
0.026559032 0.038229324 -0.0032056053 0.00016493363 0.0027218459 0.03378547 0.017056584 0.012101212
0.0041799615 0.01535914 0.0078877425 0.015837565 0.018253032 0.010772618 0.038610466 0.008215008
0.022894278 0.004748154 0.016276455 0.010139205 0.010351998 0.029481538 0.024930295 0.0075594285
-0.0028985727 0.02744688 0.019239556 0.013048323 0.015646474 0.035299543 0.009650021 0.019583497
0.019137254 0.010151192 0.01878272 0.021028895 0.0050397688 0.030945828 0.039402265 0.012616784
0.019378886 0.040046062 0.026287172 0.018672965 0.02330861 0.018766109 0.03062294 0.018146118
0.022698583 -0.006525305 0.025349904 0.021260278 0.020453762 0.009513361 0.024551403 0.019795071
0.014192645 0.023302814 0.0036736648 0.015761921 0.026329607 0.022968315 0.029602053 -0.0015702228
0.031265806 0.007905554 0.026740631 0.010293142 0.018462341 0.031890534 0.019409798 0.005384643
-0.001373652 0.022014515 0.013191064 0.02935227 0.019217767 0.017383887 0.016811946 0.014200533
0.032231696 0.021389673 0.017682746 0.0369955 0.0062833987 0.044306614 0.004045706 0.022869935
0.0018936603 0.024836948 0.00047758195 0.02919552 0.0072470703 0.025051365 0.0075096176 0.0043981597
0.010043383 0.021597797 0.02110563 0.007603659 0.008717636 0.009190588 0.030501 0.010967679
-0.0047420682 0.017494747 0.004464927 0.0053482717 0.03447017 0.014538856 0.009582512 0.010255145
0.021789651 0.01300348 0.015478544 0.021144541 0.012510687 0.004155746 -0.0016604139 0.029608607
0.0066222223 0.034487545 0.0020625792 0.013812369 0.029000178 0.014966496 0.011851203 0.0056772167

action_model._continuous_distribution.mu.weight f4 [1, 128]
00000000: 7d90 b7bd b87f ebbd 9cfa 2cbd 2139 edbc
00000010: 97e4 c83c 6106 90bd 0faf 86bd 43eb 683d
00000020: 3a3d c6bc 8710 0b3d 20dd 1b3d fb4d fe3d
00000030: eb59 0ebd 0dac e63d f92c a23d db4e 07bd
00000040: 780e 883d 00c5 c2bc 4705 9f3d f15d 60bd
00000050: bc1f 89bd 6418 b3bd e85c a33d f77b 633d
00000060: c3b1 58bc 7ad7 f13d 3a02 62bd a5e0 29bd
00000070: 4203 c7bd 1fa6 9dbd 1966 3ebc 6a8c 713d
00000080: dae4 a63c 997e 1fbd 8f83 9f3d d48e fd3d
00000090: 84a6 4b3d 0890 7a3d 01c0 923d 62f0 64bd
000000a0: e606 e23d 47bb ecbd 0d87 e43d fce8 0cbd
000000b0: fef4 b0bd 606c 9ebd cfdf 4abd dd26 9e3d
000000c0: 2c6b 813d 6f3b b13a c586 a13d 5e19 80bd
000000d0: aad6 313d d9f2 e8bc 66b9 0c3e 4be4 cb3d
000000e0: c04f de3d b864 943d c367 133c f068 1ebd
000000f0: 8658 a2bd bee4 7cbd 18d3 f53d 59d7 35bc
00000100: d9e2 df3d 8319 193d 96b2 533d d270 e1bc
00000110: 3e8b b2bd ab6e 86bd 6884 ba3d 7d87 ca3c
00000120: 6181 01bc 642f bcbc b9dd 29bd 9e14 59bd
00000130: d398 a03d fcaf 9b3d 12d3 afbd c46a 7e3d
00000140: 1344 953d a33c c4bd fed4 963d b68b 233d
00000150: 9de2 4c3d f52c b83d acd2 e23c d904 a43d
00000160: 0b66 373c d4f2 e53d 7a2b d33c d180 7bbd
00000170: 8711 083d c71d c1bd 5d7d e6bc bbac 7c3d
00000180: 92ff ff3c 83c4 dc3d 43e9 74bd c7e5 afbc
00000190: d9ed 043d e7e9 18bd d663 90bd 6792 ab3c
000001a0: 70b2 103d 7d09 333d 6324 07bc c2ef 273d
000001b0: b5d5 c23d 3e80 45bd b355 1abd 6d6e 803c
000001c0: ffc2 a73d 1110 d03a 5637 acbc 17b8 883d
000001d0: eff4 84bd 2dd1 8ebc ae5e 08ba aa67 7dbd
000001e0: a6cc 33bd f575 e9bd b7c6 4dbc 22f5 a23d
000001f0: ce5b 9abd 06a4 ca3d a64c 3fbd 5f21 33bd
-0.08963106 -0.1149897 -0.042231187 -0.028957905 0.024523063 -0.07032467 -0.065763585 0.056864988
-0.024199117 0.03395131 0.038052678 0.12417217 -0.03475372 0.11263285 0.07918734 -0.033034187
0.06643385 -0.023775578 0.077646784 -0.05477709 -0.06695506 -0.087448865 0.07976705 0.055538144
-0.013225975 0.11808677 -0.055177905 -0.041474003 -0.09717418 -0.07697701 -0.011621022 0.0589718
0.020372797 -0.038939092 0.07788765 0.12380758 0.04971935 0.061172515 0.07165528 -0.05589331
0.11036472 -0.11559158 0.111585714 -0.03440188 -0.086404786 -0.07735515 -0.049529847 0.07722256
0.063192695 0.0013521741 0.078870334 -0.062548384 0.04341761 -0.028436111 0.13742599 0.09955653
0.10855055 0.07245773 0.008996907 -0.038674295 -0.07927041 -0.061741583 0.120031536 -0.011098706
0.1093194 0.037377845 0.051683985 -0.027519617 -0.087179646 -0.06564077 0.09107286 0.024722809
-0.0079043815 -0.022971816 -0.041471217 -0.052998178 0.07841649 0.07601926 -0.0858518 0.06211354
0.07288375 -0.09581878 0.07364844 0.03992816 0.050020803 0.0899295 0.027688347 0.08008737
0.0111937625 0.112279564 0.025777567 -0.061402146 0.03321984 -0.09429508 -0.02813595 0.061688166
0.031249795 0.10779669 -0.05979277 -0.021471871 0.03245339 -0.03733244 -0.07050292 0.020943834
0.03532642 0.04371022 -0.008248421 0.041000135 0.09513418 -0.048218004 -0.037679385 0.015677655
0.081914894 0.0015873929 -0.02102248 0.06675737 -0.0649203 -0.017433727 -0.00052020967 -0.06186644
-0.04389634 -0.11399452 -0.012559584 0.079569116 -0.075370416 0.09894566 -0.046703957 -0.043732997

exp_avg f4 [128, 98]
00000000: 1bda 9639 845e 68b8 7acc 90b7 0400 0000
00000010: 6309 b138 17b3 e4b6 6fdc 8eb7 84e8 a339
00000020: 0253 6bb8 e03f 91b7 0400 0000 d517 1239
00000030: dcbd 62b8 e07f 0839 9f25 3b39 1628 ee38
00000040: f291 dcb6 0000 0000 2fc8 1b39 9165 24b7
00000050: 3bb5 1f38 fd6f c038 97c8 e536 89c2 5a38
00000060: 0400 0000 c9b6 3039 f0c1 bcb8 947a 02b7
00000070: 111b 5739 b4b1 8736 c874 a336 0000 0000
00000080: 0089 e338 aafd 1a38 7c2c e738 e0cd 5738
00000090: 87df 2739 6f3e 0238 0000 0000 9d77 6639
000000a0: c7c5 2bb9 b858 e3b8 fc39 3eb8 aa48 7638
000000b0: cc08 c835 0000 0000 f8ba b539 6d69 29b8
000000c0: 901a 1739 05c7 4538 db61 c738 bf38 f637
000000d0: 0000 0000 b9eb b138 9a20 9a37 94c2 1e38
000000e0: a9c0 4138 33bc bb38 c795 0336 0000 0000
000000f0: d265 f138 7bbc 5d38 88c1 0039 6af0 7437
00000100: 4cf6 f2b8 9cfc 6ab8 020e c30b d29e c339
00000110: 8a60 e937 240d 5139 1b5a 36b6 225c bc37
00000120: bb1c b235 0400 0000 d1d6 6839 5487 f4b5
00000130: 3871 a138 3b67 80b7 0d33 d3b7 6b06 09b7
00000140: 020e c30b 603b aa39 7055 0fb7 db27 8938
00000150: 4a34 1939 6887 6fb7 bffa 8f34 0400 0080
00000160: 6d75 9739 c6c1 9fb8 6724 0038 7b76 cdb8
00000170: a8ac 9b36 8ad2 6cb7 75d8 adb9 36be 3e36
00000180: dfdb 553b 482d 3cb8 6edc 27b9 fe24 1cb7
00000190: ffd0 31b8 0400 0080 27c3 56b8 7a24 41b7
000001a0: 8865 f3b8 99c3 8bb8 25ad 07b8 d71c 8e37
000001b0: 0400 0000 7cca a4b8 0113 cdb8 95dd 35b9
000001c0: c37b 9bb8 8524 6eb8 3a9d d935 0000 0000
000001d0: 50b4 27b9 c412 a4b7 2477 f5b8 f41d 12b9
000001e0: 8813 e336 4177 60b7 0400 0000 6566 89b8
000001f0: b034 60b8 ede0 06b9 db1a c9b8 e5cb 3bb6
00000200: 26e2 90b6 0000 0000 66a5 2cb9 1be1 97b7
00000210: 4520 00b9 f648 c0b7 66ff 96b8 6695 30b8
00000220: 0000 0000 c0c5 deb8 28cb d3b7 2e50 abb8
00000230: 4d37 7bb7 f057 30b6 b74f 4cb6 0000 0000
00000240: ec3b 25b9 471f d3b8 3d5c 27b9 66e2 1138
00000250: 6d83 07b8 db0e 20b8 0000 0000 9d49 35b9
00000260: 8b2b 5bb8 047c ecb8 02b7 0f37 ef32 86b8
00000270: 24e6 a8b5 0000 0000 99ce 05b9 359e c1b8
00000280: 91fa 11b9 1813 2f37 d4fb bfb6 8186 b4b3
00000290: 24bf 698d 0277 60b9 6006 14b8 240a dab8
000002a0: c984 bdb8 6185 e5b7 932d 1435 0400 0080
000002b0: ab24 e0b8 7341 f0b7 0ab9 b5b8 a440 7834
000002c0: ebd9 b737 b360 33b7 24bf 698d 4ac1 5eb9
000002d0: d732 91b8 dd41 dfb8 21fd feb8 e86f 7c37
000002e0: 7f2d 2635 0400 0000 8154 07b9 bc59 0cb8
000002f0: 54c8 ccb8 03d2 2737 38cf a8b4 42ed 1db7
00000300: cfcf d638 3c10 ffb5 e171 12bb 74d6 2cb7
00000310: 5388 28ba af8c 2bb7 b618 acb9 0400 0080
00000320: 5847 36b9 ac95 9eba 43c1 ebba 2880 52b9
00000330: c64c a6b9 571e efb9 0400 0000 0596 85b9
00000340: 9f86 93ba 66e7 e6ba 0063 14ba 4d29 8db9
00000350: 804e be37 0000 0000 b920 30ba 7d0a 82ba
00000360: 0eeb e6ba 3e60 1aba d4ef 8e39 8681 07ba
00000370: 0400 0000 bcd0 aeb9 f965 94ba 84ee dcba
00000380: b20e c9b9 9a19 11b9 e4a3 d538 0000 0000
00000390: 20dd 62ba 4f0b 91ba a3b9 fcba 8009 5538
000003a0: 749f f0b9 e85e d7b9 0000 0000 bccf 37b9
000003b0: d293 a9ba b1d3 bfba 0a94 7cb9 2f06 bd39
000003c0: 2cd7 a3b8 0000 0000 ddcc 0dba 8b39 f5ba
000003d0: 4bcd 0dbb 48c9 9c39 3814 9eb9 4232 82b9
000003e0: 0000 0000 6ee3 16ba dcfc a7ba 0f18 f5ba
000003f0: 5a52 c1b9 7aae a0b9 5628 6ab8 0000 0000
0.0002877273 -5.5401135e-05 -1.7261355e-05 6e-45 8.441766e-05 -6.8157783e-06 -1.7030367e-05 0.0003126302
-5.6105673e-05 -1.7315091e-05 6e-45 0.00013932523 -5.405942e-05 0.00013017608 0.00017847725 0.00011356191
-6.573501e-06 0.0 0.00014856526 -9.7988095e-06 3.8077338e-05 9.176133e-05 6.8480836e-06 5.2156425e-05
6e-45 0.00016852761 -9.000662e-05 -7.777144e-06 0.00020514081 4.044001e-06 4.8713737e-06 0.0
0.00010849722 3.6952704e-05 0.00011023224 5.145173e-05 0.00016009632 3.105256e-05 0.0 0.00021979069
-0.00016381509 -0.00010840729 -4.5353532e-05 5.8718644e-05 1.4903721e-06 0.0 0.00034662313 -4.0390925e-05
0.00014410377 4.715381e-05 9.5072864e-05 2.935191e-05 0.0 8.4839245e-05 1.8373412e-05 3.785135e-05
4.6194215e-05 8.95191e-05 1.9607703e-06 0.0 0.00011510741 5.2866042e-05 0.00012279127 1.4599509e-05
-0.000115853356 -5.602521e-05 7.5132344e-32 0.0003731163 2.7820719e-05 0.00019936688 -2.7172562e-06 2.245425e-05
1.3270395e-06 6e-45 0.0002220527 -1.8218802e-06 7.698167e-05 -1.530686e-05 -2.5176932e-05 -8.167331e-06
7.5132344e-32 0.00032469165 -8.543357e-06 6.540093e-05 0.00014610696 -1.4277037e-05 2.6818267e-07 -6e-45
0.00028888453 -7.617804e-05 3.055148e-05 -9.7972305e-05 4.63946e-06 -1.4115716e-05 -0.00033158404 2.8422924e-06
0.0032632274 -4.4864864e-05 -0.00016008478 -9.3069375e-06 -4.239473e-05 -6e-45 -5.1203326e-05 -1.1512189e-05
-0.000116060546 -6.6644694e-05 -3.234776e-05 1.6941149e-05 6e-45 -7.857845e-05 -9.7787015e-05 -0.00017344051
-7.4140284e-05 -5.6777633e-05 1.6213519e-06 0.0 -0.00015993533 -1.9559062e-05 -0.00011704702 -0.00013934803
6.767401e-06 -1.3379206e-05 6e-45 -6.5517415e-05 -5.345483e-05 -0.00012863027 -9.589429e-05 -2.7983854e-06
-4.3178616e-06 0.0 -0.00016464814 -1.8105426e-05 -0.00012219053 -2.2922159e-05 -7.200129e-05 -4.2100808e-05
0.0 -0.00010622619 -2.5247762e-05 -8.16885e-05 -1.4973642e-05 -2.627723e-06 -3.044477e-06 0.0
-0.00015757949 -0.0001006709 -0.00015960723 3.4781544e-05 -3.2308908e-05 -3.8160808e-05 0.0 -0.00017288928
-5.225422e-05 -0.00011276457 8.566074e-06 -6.399105e-05 -1.2583955e-06 0.0 -0.00012760832 -9.2324255e-05
-0.00013921621 1.0435258e-05 -5.7215602e-06 -8.406369e-08 -7.2028745e-31 -0.00021406639 -3.5291887e-05 -0.00010396939
-9.0369555e-05 -2.7361037e-05 5.5200616e-07 -6e-45 -0.00010687982 -2.8640707e-05 -8.665219e-05 2.3120316e-07
2.1916776e-05 -1.0691746e-05 -7.2028745e-31 -0.00021243576 -6.9236085e-05 -0.000106457366 -0.00012158813 1.5046426e-05
6.1906024e-07 6e-45 -0.00012906083 -3.3462173e-05 -9.764792e-05 1.0002873e-05 -3.144321e-07 -9.41317e-06
0.000102430226 -1.9003705e-06 -0.002234571 -1.030193e-05 -0.00064290053 -1.022515e-05 -0.00032824808 -6e-45
-0.0001738345 -0.0012099049 -0.0017986674 -0.00020074903 -0.00031719188 -0.00045608237 6e-45 -0.0002547951
-0.001125533 -0.001761657 -0.0005660504 -0.00026924387 2.268632e-05 0.0 -0.0006718743 -0.0009921339
-0.0017617659 -0.0005888975 0.00027263036 -0.0005169142 6e-45 -0.00033343385 -0.0011321894 -0.0016855751
-0.00038348656 -0.00013837815 0.000101871585 0.0 -0.0008654166 -0.0011065992 -0.0019281398 5.0792005e-05
-0.0004589517 -0.00041078706 0.0 -0.00017529627 -0.0012937731 -0.0014635233 -0.00024087742 0.00036053496
-7.8125246e-05 0.0 -0.000540925 -0.0018709166 -0.0021637257 0.00029904605 -0.00030151173 -0.00024832977
0.0 -0.00057559356 -0.0012816447 -0.0018699187 -0.00036873185 -0.00030647573 -5.5827513e-05 0.0

exp_avg_sq f4 [128, 98]
00000000: 2aa3 c134 7d55 db32 3657 c730 7e5a e626
00000010: 878f 2234 2a2a 0c33 cd24 4e34 5705 4834
00000020: bec7 ef32 db27 be31 3247 5f27 9e8b dd33
00000030: fa7f 6234 b296 b234 2804 9933 da80 5732
00000040: 52ab 0830 0000 0000 95c1 e634 5054 8433
00000050: 035a 1f34 65da 9d33 268e 3f32 2884 2632
00000060: 138f 1d28 bed9 2e34 cbee 8534 9294 b834
00000070: d1df 4233 5d68 5032 e26e 382f 0000 0000
00000080: e982 1135 cbb9 1033 6c46 cb33 9def 0833
00000090: 4251 5632 88bd ab31 0000 0000 c997 6f34
000000a0: e791 8934 2004 ab34 7e0d 6e33 6ee0 7132
000000b0: be10 9d2e 0000 0000 5e36 0535 6d85 1233
000000c0: 40d7 c333 5f58 9032 f425 4932 cf53 3133
000000d0: 0000 0000 9ba1 df34 0687 b833 3582 6034
000000e0: 20c2 9133 e028 2a32 52be 2e2e 0000 0000
000000f0: 26b0 e134 957f 9b33 0cff 0c34 dbc9 5632
00000100: 18e6 e931 34fd e033 abec be27 a023 c834
00000110: 115c b033 f4f3 2334 d707 a633 c667 e431
00000120: b55e 422e 044b 4421 4872 9a34 d402 4334
00000130: 6b7c 6e34 b61a bd32 0681 ed31 8af2 6633
00000140: db65 a527 0de9 be34 6a5a af33 8da7 3034
00000150: 8646 9833 3231 a731 1303 112e 90a0 3f21
00000160: 014c 8134 c489 6634 f695 8434 7e5a 8d34
00000170: c7b1 b632 3241 a734 2e44 2f35 9706 8a32
00000180: 087b 3238 94dc a932 5c0a 0234 8b35 3232
00000190: f5ea ca31 77ca c727 3e9c 9d33 db7c 0734
000001a0: e2df 9034 0617 a133 f490 4532 ee68 e632
000001b0: a28c b125 57b9 3e33 2b6f 4534 2ada a534
000001c0: 16af 4533 31bb 7632 38fa 3830 0000 0000
000001d0: ce7e 0534 0c7c 2634 7d5e 8a34 4bc4 a033
000001e0: 883d 8332 b77a b832 90da 3f2c db19 5433
000001f0: 3943 3334 1795 8334 cc5b 4033 4036 9432
00000200: 4921 992f 0000 0000 fd9b f733 794c 3734
00000210: 1f52 8334 e5e7 d433 1e48 9e32 0d86 c132
00000220: 0000 0000 16f9 8b33 1e65 0634 075b 4034
00000230: dced 1333 ca97 8d32 e282 752f 0000 0000
00000240: 88b0 ca33 3f1b 6934 8c1f 8d34 3e5c d133
00000250: 9347 a032 0626 d532 0000 0000 c4bd d833
00000260: 1bc7 b333 7e85 2334 c6cf 3e33 cd19 a632
00000270: 04cb af2f 0000 0000 db61 ad33 10cf 6e34
00000280: 7aef 8b34 b2bc 5733 601e 1d32 4ce0 9631
00000290: 7f1c f62a 65e0 d933 3127 4634 0b58 8134
000002a0: aa4e dc32 a454 8032 ebda 762f 098d 1f23
000002b0: 6eee 9e33 365c 9334 27c9 a134 52b1 cc32
000002c0: 6be2 4e32 ecbc db31 7386 ed2a bc08 bb33
000002d0: e9a3 7b34 444e 9634 869b fe32 d851 be32
000002e0: c800 0030 892b 7923 32ad 9433 fb2e 8c34
000002f0: b349 9a34 5803 5e35 a3b3 2834 410b 6736
00000300: 0eb7 8a35 9853 0334 3a50 c337 5477 7532
00000310: 3572 7337 97af 2a36 16d3 8335 8a48 762c
00000320: 94ec 1836 eec6 c737 0116 3938 2e28 9c36
00000330: f55f 2136 61de 5736 cdd0 992c 5fd3 cc34
00000340: 7036 1d38 7c5c 5238 fe34 3336 bd62 ea35
00000350: bf4f 6334 0000 0000 03a5 5237 2d9e ee37
00000360: b8ef 3738 67d4 a736 a785 ff35 92fb 5236
00000370: d718 082f 1f12 6e34 7e0a 1d38 4750 4538
00000380: 6d0e ef36 5e9b 0336 3415 1234 0000 0000
00000390: 2306 5a37 f1f0 b437 222c 1638 5452 a136
000003a0: d567 cb35 338b 2436 0000 0000 5550 0935
000003b0: 4e1b 2538 05c3 4138 5256 1037 ee57 1036
000003c0: a6e5 3c33 0000 0000 284c 0d37 354b db37
000003d0: 1f54 1638 ebcf 9d36 5576 c635 e2d2 8436
000003e0: 0000 0000 2eb7 a736 bfab f737 2175 2e38
000003f0: 9861 c036 f324 d935 eb20 f532 0000 0000
3.606777e-07 2.5533831e-08 1.4503942e-09 1.5983984e-15 1.513964e-07 3.2634638e-08 1.9198633e-07 1.8628394e-07
2.7914094e-08 5.534259e-09 3.0986062e-15 1.0316511e-07 2.1094448e-07 3.326473e-07 7.125374e-08 1.25439445e-08
4.971997e-10 0.0 4.2981688e-07 6.162065e-08 1.4840775e-07 7.350608e-08 1.1149984e-08 9.692521e-09
8.746275e-15 1.6284227e-07 2.4946925e-07 3.438077e-07 4.5372705e-08 1.2130923e-08 1.6774096e-10 0.0
5.420721e-07 3.369659e-08 9.465734e-08 3.1882895e-08 1.2474915e-08 4.998302e-09 0.0 2.2313829e-07
2.5624396e-07 3.1854233e-07 5.5425964e-08 1.4079076e-08 7.1425074e-11 0.0 4.9625476e-07 3.4114624e-08
9.119549e-08 1.6803993e-08 1.1708369e-08 4.1287247e-08 0.0 4.165457e-07 8.592728e-08 2.0908995e-07
6.7874e-08 9.904596e-09 3.9732058e-11 0.0 4.203768e-07 7.240957e-08 1.3131302e-07 1.2502336e-08
6.807351e-09 1.047687e-07 5.299219e-15 3.7278824e-07 8.2123854e-08 1.5269308e-07 7.7314034e-08 6.647471e-09
4.419461e-11 6.6506665e-19 2.8767886e-07 1.8161819e-07 2.221074e-07 2.2014643e-08 6.912276e-09 5.3771636e-08
4.590713e-15 3.5559825e-07 8.165519e-08 1.6452232e-07 7.09088e-08 4.8659325e-09 3.2971913e-11 6.492582e-19
2.4083423e-07 2.1470538e-07 2.4696027e-07 2.6329138e-07 2.1268432e-08 3.115361e-07 6.5291795e-07 1.6068311e-08
4.255309e-05 1.9774497e-08 1.2110962e-07 1.0373138e-08 5.9056853e-09 5.545311e-15 7.3393025e-08 1.2618277e-07
2.6984986e-07 7.501335e-08 1.1499868e-08 2.682324e-08 3.0799902e-16 4.4406388e-08 1.8387497e-07 3.089238e-07
4.6026877e-08 1.4361647e-08 6.729439e-10 0.0 1.2432722e-07 1.5505083e-07 2.5773252e-07 7.486286e-08
1.5278388e-08 2.1476223e-08 2.726406e-12 4.9383612e-08 1.669513e-07 2.450913e-07 4.4786972e-08 1.7254138e-08
2.7854188e-10 0.0 1.1530208e-07 1.7071024e-07 2.4460402e-07 9.914201e-08 1.8426416e-08 2.2529116e-08
0.0 6.5180004e-08 1.2516509e-07 1.7914509e-07 3.4442436e-08 1.6483586e-08 2.2329119e-10 0.0
9.438469e-08 2.1709728e-07 2.628625e-07 9.7491e-08 1.8659e-08 2.4813755e-08 0.0 1.0092802e-07
8.371554e-08 1.5229122e-07 4.442679e-08 1.9336676e-08 3.1976566e-10 0.0 8.07374e-08 2.2240806e-07
2.606501e-07 5.0230206e-08 9.145509e-09 4.391074e-09 4.3718151e-13 1.0145667e-07 1.8454445e-07 2.4092182e-07
2.5647143e-08 1.4939651e-08 2.2451345e-10 8.649273e-18 7.4008184e-08 2.7447976e-07 3.0134944e-07 2.3829362e-08
1.204226e-08 6.395217e-09 4.219295e-13 8.709455e-08 2.3435827e-07 2.7996623e-07 2.9640216e-08 2.215613e-08
4.656724e-10 1.3507536e-17 6.923291e-08 2.6111215e-07 2.8738359e-07 8.270631e-07 1.5711571e-07 3.4428233e-06
1.0335077e-06 1.2230737e-07 2.328317e-05 1.4288009e-08 1.451052e-05 2.543418e-06 9.821695e-07 3.499897e-12
2.2787472e-06 2.3815282e-05 4.412793e-05 4.65384e-06 2.4046724e-06 3.2166938e-06 4.371703e-12 3.8151754e-07
3.7482416e-05 5.0154034e-05 2.6703924e-06 1.7463095e-06 2.1170034e-07 0.0 1.2555395e-05 2.8445467e-05
4.3853855e-05 5.0017147e-06 1.9037878e-06 3.1438872e-06 1.2377953e-10 2.217207e-07 3.744149e-05 4.7043224e-05
7.1244344e-06 1.9610957e-06 1.3605023e-07 0.0 1.2995241e-05 2.156987e-05 3.580389e-05 4.807758e-06
1.5154898e-06 2.451893e-06 0.0 5.1153376e-07 3.9364495e-05 4.6196412e-05 8.603167e-06 2.1508854e-06
4.3981025e-08 0.0 8.421986e-06 2.6141855e-05 3.584113e-05 4.7031695e-06 1.4786589e-06 3.9584565e-06
0.0 4.9983128e-06 2.952467e-05 4.1593918e-05 5.7334073e-06 1.6178514e-06 2.8536723e-08 0.0

exp_avg f4 [128]
00000000: 39ee 9d39 e86e 8eb9 66e0 1abb 4ad2 74bb
00000010: e771 8bbb ef78 c93b f9da 1f3a ee75 10ba
00000020: 8fa6 c33a 79c4 c33b a72d 23b9 7786 b1ba
00000030: 2a2a 97ba 539e 4239 504b 153a 47f3 8139
00000040: 2d79 d2bb 7e1f 01bb af33 173b 140d 2ebb
00000050: 6e65 af39 6b7b b53a 0be0 3d3a fd5e 0f3b
00000060: 4218 9cbb 9433 4d3b 03d0 34bb a33a a13b
00000070: 6994 bf3b 9cf0 0b3b 47ef 853a 10e2 5b3a
00000080: 8101 483a 9e85 b6ba ea37 f83a 34f6 743b
00000090: 9fe7 04bb 77a5 2339 e5be 91ba 096d 00bb
000000a0: a387 feba 04d0 45ba daa3 eabb 2b4e 6dba
000000b0: 5621 f4bb 0988 f3ba ecda cd3a 08e0 a2ba
000000c0: 2720 f3bb 9aa4 12bb 3c01 473b b0a2 2fbb
000000d0: 2e07 3b3b c4af 023b 463e d4b8 22ab 94bb
000000e0: 3978 f3ba 070f 8abb 93e1 943a b5f1 1bbb
000000f0: f3b2 30ba d014 ab3a 3e79 613b 4c2f d63a
00000100: 48d8 9c3a c02b 5b3b 3eaf 5f3b 0a7b 98b8
00000110: 520a c83a 2e9c 60bb 95e4 cc3b 31f0 e93a
00000120: 66cd 1239 d34c 603b 2019 01bb d5c2 a33b
00000130: dfd8 f8ba 68a2 0a38 6f43 963b ccc9 81bb
00000140: 89f5 5b3a 0c71 adba a667 eeb8 fe7c beba
00000150: b5a5 b2bb 36df 95bb f338 43bb 65fd 3f3b
00000160: 3aec 993a a9f4 a2ba a1ad c03b 97c8 4b3a
00000170: b8b9 c9b9 f0af 3d39 8e5e aaba a7f7 1d3b
00000180: b9b4 d5bb 07c0 983a 041f dcb9 28b2 c23a
00000190: e01e 5f39 4bcf 6bba 268a 4db9 31aa 903b
000001a0: 3c0b 2cba d026 f0ba de0a 16bb 6a78 643b
000001b0: fbf4 02bb fba8 b737 e391 763a 4d18 0abb
000001c0: 8088 76b8 1645 cdba 3701 c2bb d960 88ba
000001d0: e56b 82bb 662d 3dbb ae4b afba 7cce 90bb
000001e0: 6a2f 553b 8283 9438 7730 0abb f6c7 28bb
000001f0: 3fcd 67bb 45bd 26ba 7f4d 0a3b c9d6 863b
0.00030122863 -0.00027166982 -0.0023632287 -0.0037356787 -0.0042555216 0.0061484496 0.0006097998 -0.0005510737
0.0014926958 0.005974349 -0.00015561898 -0.0013544102 -0.0011532952 0.00018560262 0.00056951214 0.00024786053
-0.0064231367 -0.0019702609 0.0023071577 -0.0026558088 0.00033454172 0.0013845986 0.0007243163 0.0021876686
-0.004763634 0.003131126 -0.0027589805 0.00492032 0.0058465493 0.002135313 0.0010218405 0.0008387873
0.00076296186 -0.0013925319 0.0018937562 0.0037378194 -0.0020279658 0.00015606532 -0.0011119513 -0.001959624
-0.0019419085 -0.00075459504 -0.007160646 -0.00090524805 -0.007450263 -0.001857997 0.0015705503 -0.0012426386
-0.0074196043 -0.0022375942 0.0030365726 -0.002679985 0.0028538215 0.001994119 -0.00010120547 -0.004537002
-0.0018575258 -0.004213217 0.001135873 -0.0023795192 -0.00067405327 0.0013052467 0.0034404541 0.0016341
0.0011966312 0.0033442825 0.0034131552 -7.2708426e-05 0.0015261865 -0.0034272778 0.006252835 0.0017848072
0.00014000162 0.0034225478 -0.0019698814 0.004997591 -0.0018985531 3.3053017e-05 0.0045856754 -0.0039608236
0.00083907746 -0.0013232543 -0.000113680304 -0.00145331 -0.0054518827 -0.004573728 -0.0029788583 0.0029295322
0.0011743375 -0.0012432534 0.005880073 0.00077737257 -0.0003847608 0.00018089986 -0.001299815 0.002410391
-0.006521788 0.0011653908 -0.00041984778 0.001485412 0.00021278439 -0.00089954276 -0.00019601788 0.0044148196
-0.00065629533 -0.0018322114 -0.002289466 0.0034861811 -0.0019982446 2.1893988e-05 0.0009405894 -0.0021071613
-5.8778096e-05 -0.0015660848 -0.005920555 -0.0010404839 -0.003980147 -0.002886617 -0.0013373995 -0.004419146
0.0032529482 7.081685e-05 -0.0021086016 -0.0025753952 -0.003537014 -0.0006360601 0.002110332 0.00411496

exp_avg_sq f4 [128]
00000000: 1e4f 2635 4150 0035 636c 8b38 63fa a438
00000010: 4598 f138 2f13 7339 5e3c ce35 f8c9 7636
00000020: 07cd db37 e3d6 8139 79f6 5334 2fd7 8237
00000030: 01c8 bb37 fd70 7d34 cc2e a936 d0e0 6635
00000040: 8116 6439 aad6 db37 8a06 1f38 5624 6c38
00000050: 650c 0435 241d 9537 e501 f136 4a98 3538
00000060: efd8 0f39 8489 ae38 1602 3f38 794c 5139
00000070: 3d6c 8939 46c0 b137 9fbd 9137 103c 2037
00000080: ecd7 2836 2b0f a337 cf68 5638 cc1a d038
00000090: a0e2 c937 2fa4 4136 d81e 5837 dd85 6937
000000a0: 68b4 c037 849a 1b36 441b b839 d59d 8836
000000b0: 74d2 c639 2d55 0d38 f170 7f37 f272 4b37
000000c0: e4d5 b239 4e9f fa37 3967 9a38 4f3c 5138
000000d0: f2f6 9e38 af67 2b38 978c 7534 6a72 0039
000000e0: b2c2 f537 bf89 bd38 e4ff 8337 6347 4338
000000f0: 21ce 7a36 6cb4 9137 06d9 8038 b61b 8a37
00000100: 4820 a437 fa72 c138 36f5 5639 bc35 a635
00000110: 158c 9237 0665 9d38 526f 6439 d75f 3d37
00000120: 97ae 8435 e3f3 3e38 9855 ac37 8a82 0239
00000130: 4d47 e637 85bc 4733 58e1 8739 7eee ac38
00000140: e8cf a336 e5d6 4137 1353 8235 06ca 1a37
00000150: 7823 3439 7d5c 1239 71fc 6438 aa3f 9938
00000160: 15ca 6d36 4616 1137 6e71 2d39 ff4b 6537
00000170: e84c 9f35 de3b f135 5897 ec36 99bc 1a38
00000180: 0457 9b39 03cf 8d37 1698 7935 1ac3 7737
00000190: e929 1636 1350 0637 31ca 2736 3c20 d838
000001a0: f176 2037 52df c537 3fc5 4038 d564 9938
000001b0: c921 d737 d544 9033 2063 8237 6201 9e37
000001c0: 78a2 f734 1370 7f37 2b76 9d39 2c9d 6f37
000001d0: 4641 a938 59f0 8e38 e4c8 1e37 59ce 0739
000001e0: eea6 ae38 897e d034 491a eb37 1e7f de37
000001f0: c811 a238 472f 8636 a709 b337 6e44 2439
6.195495e-07 4.78005e-07 6.648225e-05 7.8667676e-05 0.00011520138 0.00023181432 1.5365765e-06 3.6774418e-06
2.6202308e-05 0.000247649 1.9740573e-07 1.559741e-05 2.2385271e-05 2.3603566e-07 5.0420404e-06 8.600882e-07
0.00021752158 2.6206795e-05 3.7914644e-05 5.6300625e-05 4.919187e-07 1.7775754e-05 7.1825802e-06 4.3295593e-05
0.00013718357 8.322581e-05 4.553989e-05 0.00019960281 0.0002621132 2.1189579e-05 1.7373646e-05 9.550728e-06
2.5159634e-06 1.9438177e-05 5.1119187e-05 9.923204e-05 2.4066598e-05 2.8854809e-06 1.2881785e-05 1.391905e-05
2.2972192e-05 2.318674e-06 0.0003511553 4.07149e-06 0.00037922303 3.3696346e-05 1.5225481e-05 1.2126506e-05
0.00034110167 2.9876504e-05 7.362519e-05 4.988565e-05 7.580024e-05 4.086614e-05 2.286855e-07 0.00012249654
2.9296938e-05 9.0378795e-05 1.5735575e-05 4.6558107e-05 3.7372886e-06 1.7369362e-05 6.1439394e-05 1.6463786e-05
1.9565356e-05 9.224373e-05 0.00020499979 1.2383603e-06 1.7469787e-05 7.5051605e-05 0.00021785244 1.1287592e-05
9.885579e-07 4.5526667e-05 2.0543855e-05 0.00012446396 2.7451339e-05 4.6504756e-08 0.000259171 8.246022e-05
4.881982e-06 1.15537305e-05 9.709933e-07 9.2261525e-06 0.00017179351 0.000139581 5.459454e-05 7.307467e-05
3.543338e-06 8.647859e-06 0.00016540822 1.3667158e-05 1.1868806e-06 1.7973323e-06 7.050967e-06 3.6892106e-05
0.00029628736 1.6904907e-05 9.298104e-07 1.4767773e-05 2.2376137e-06 8.005666e-06 2.500263e-06 0.00010305687
9.564436e-06 2.3588222e-05 4.5960067e-05 7.31439e-05 2.564573e-05 6.718043e-08 1.5543366e-05 1.8835712e-05
4.6125547e-07 1.5225279e-05 0.00030033416 1.42821045e-05 8.070706e-05 6.815856e-05 9.464307e-06 0.00012951474
8.3280596e-05 3.8835086e-07 2.8026423e-05 2.6523656e-05 7.728074e-05 3.999015e-06 2.1342958e-05 0.00015665751

exp_avg f4 [128, 128]
00000000: eb6a 1d39 e3ae 9239 d75c 9db9 eb65 38ba
00000010: e677 27ba 4011 e3b9 39f4 a038 b06a 0bbb
00000020: b7ee 6639 dfb1 2dba b248 ad39 f29e 9439
00000030: ecc0 8f39 5c33 92ba 43ed c639 06f0 a439
00000040: 1caa bdba ad0c 99ba da8c caba 0249 aaba
00000050: c80a ae39 888c 28b9 94d3 d5b8 d3af 66b9
00000060: c73f b8b8 6593 0abb bffa edb9 d0be f9b8
00000070: 4ef1 31ba 1d6c edb9 b352 cd39 0acd c3ba
00000080: 5f91 5f39 5a8d 2bba 41cc 6538 1ed3 34ba
00000090: 2d1b b6b9 71bf edb9 8603 8ab7 d08c 3eb8
000000a0: 0164 0b39 e831 a4ba ac89 2dba e6ad a439
000000b0: 73e3 06ba 5bd5 88ba 3701 81ba 33c8 1eb9
000000c0: 3e0c 56ba 20df 45ba ebf8 0dba f062 22b9
000000d0: 7ec9 9db9 d3b6 26ba 8052 2939 2469 e2b9
000000e0: db42 8238 7cde 5eba 75bc 8739 30c4 bd37
000000f0: 4808 8d39 495c 2339 1761 9aba 4fe2 87ba
00000100: 4f61 01bb 936b 04ba 7bf6 2939 7bdb 4fb9
00000110: 4be9 a2ba 07ca 23ba 950e a6ba ff38 feb9
00000120: 7c0e 44b9 fe69 b2b9 6748 dfba 289d 45ba
00000130: bdd1 bdba 9703 dd39 3c64 47b9 c6f1 48ba
00000140: 5e16 9f39 a0bc c9b9 0c1a 21b8 7408 84b9
00000150: e431 4db8 c803 93b9 8b77 d4ba 7d3b 97ba
00000160: 9cf5 83b8 23f8 61ba 03b7 71ba 2df5 e938
00000170: 60d1 26bb f256 da39 f70c 24b9 74d9 7c39
00000180: 1c83 93b9 2fd8 8639 248d 9d39 9dc7 8db9
00000190: d6fa 9237 e62e a439 0644 083a b498 6bba
000001a0: 8761 94ba 4098 6438 a731 8b38 8d4b 91b9
000001b0: 34ef 5cb8 d4d6 ce39 076c af38 ec63 81ba
000001c0: 9ecd 9e39 33d6 5bba b5b1 cfb8 b527 32ba
000001d0: d184 b6b8 ce29 28b9 6fd2 98ba 9056 b9ba
000001e0: 041d c0ba 5214 7c38 3ebc f2ba 0494 47b9
000001f0: 3d26 58b9 69f8 68bb 0555 6b38 8bdc f0b9
00000200: 7c40 9139 4167 b339 e5bd d5b9 97a7 3eba
00000210: 8088 32ba db99 01ba e744 2739 fa9a 1cbb
00000220: 1610 7d39 9088 25ba c632 c439 4ab3 8e39
00000230: 7721 8839 981e 9eba 4528 d639 6714 c639
00000240: f173 c7ba 406b 9bba 1a4f bbba 0fe2 d4ba
00000250: 79fc d639 b4d5 80b9 6c72 51b8 9c20 7ab9
00000260: e568 b6b8 a95a 14bb 9a36 0eba 9e8e 10b9
00000270: f804 4bba ae0c bdb9 ff92 cc39 ab9c f0ba
00000280: ed72 7839 7b03 48ba 0ce2 d937 4491 25ba
00000290: 2766 f7b9 1918 dfb9 68c5 78b8 e1bd 3db8
000002a0: ab19 f538 86c9 c4ba 57ce 4cba 2a17 b939
000002b0: fb49 15ba 7f96 90ba 83be 8dba 24fa 33b9
000002c0: 1769 80ba a510 2fba 27f8 27ba 5fd9 42b9
000002d0: d09d b6b9 d237 5dba b4cb 3539 265c 0fba
000002e0: 7dec 3437 9ca7 76ba 5080 9a39 65a8 0cb8
000002f0: 2ff7 8739 a580 2c39 eabb 9cba a211 6fba
00000300: f28f 17bb 7410 1cba a3ca 0139 7a95 4fb9
00000310: 2374 a5ba e983 37ba b637 a2ba 4423 cdb9
00000320: 8c52 86b9 4521 afb9 4b72 f1ba c014 3fba
00000330: 4e8b dcba 461f ec39 5f00 7db9 4ea4 60ba
00000340: 5229 ab39 6fc0 f9b9 2772 a7b7 1157 87b9
00000350: 4e59 2fb8 bde5 8bb9 ccf8 e5ba d973 a1ba
00000360: ce47 1938 92f7 30ba 50ce 72ba f575 2838
00000370: 5d21 32bb 7a0b f139 f718 02b9 2aa3 9f39
00000380: 52b1 c6b9 2400 9b39 9726 b039 6ce5 54b9
00000390: 5e95 9e36 35f4 b339 1f38 183a 9b3c 56ba
000003a0: f448 9bba 45a4 a038 ba75 a538 c421 81b9
000003b0: af89 10b9 a631 dc39 4f6a a837 b09f 5aba
000003c0: 75bb 9e39 cb8f 66ba 4038 15b9 f64a 40ba
000003d0: 6e93 f6b8 4fa2 76b9 c659 bcba 4d32 daba
000003e0: 6b47 ddba e212 de37 f2ca 01bb 4596 67b9
000003f0: ba83 7cb9 96ce 65bb 441c 8938 fb9a 16ba
0.00015012517 0.0002797759 -0.00030014545 -0.000703423 -0.00063884107 -0.00043309666 7.6748845e-05 -0.0021273308
0.00022023437 -0.0006625931 0.00033051294 0.00028347183 0.00027418823 -0.0011154222 0.00037942277 0.0003145935
-0.0014470252 -0.0011676751 -0.0015453354 -0.0012991729 0.000331959 -0.0001607408 -0.00010196041 -0.00022000009
-8.785683e-05 -0.0021144983 -0.00045390983 -0.00011908787 -0.00067879714 -0.00045284713 0.00039162263 -0.0014938426
0.00021321092 -0.00065441953 5.478808e-05 -0.0006897914 -0.00034733993 -0.00045346798 -1.6452523e-05 -4.5430672e-05
0.00013293327 -0.001252708 -0.0006619941 0.00031410082 -0.0005145587 -0.0010439561 -0.0009842281 -0.00015142634
-0.00081652764 -0.0007548202 -0.0005415815 -0.00015486381 -0.00030095497 -0.00063596404 0.0001614783 -0.00043184415
6.211336e-05 -0.00085017807 0.00025889618 2.2621913e-05 0.00026899786 0.0001557927 -0.0011778203 -0.0010367128
-0.0019741838 -0.000505143 0.00016208917 -0.00019822821 -0.0012429146 -0.0006248061 -0.0012669141 -0.0004848912
-0.00018697412 -0.00034029776 -0.0017035127 -0.0007538372 -0.0014482063 0.0004215508 -0.00019015459 -0.00076654216
0.00030343508 -0.00038478244 -3.840965e-05 -0.000251833 -4.8922273e-05 -0.00028040842 -0.0016209943 -0.0011538115
-6.292315e-05 -0.0008620044 -0.0009220691 0.00011155973 -0.0025454387 0.0004164498 -0.00015645089 0.000241136
-0.0002813571 0.0002571954 0.00030050531 -0.0002704234 1.752136e-05 0.0003131546 0.00051981246 -0.0008987293
-0.0011320569 5.450123e-05 6.637285e-05 -0.00027712845 -5.2674863e-05 0.0003945144 8.364772e-05 -0.0009871698
0.00030289305 -0.0008386105 -9.90363e-05 -0.0006796078 -8.703175e-05 -0.00016037302 -0.0011659394 -0.0014140178
-0.0014657085 6.0100407e-05 -0.0018519235 -0.00019033259 -0.0002061361 -0.0035548455 5.6107547e-05 -0.00045940685
0.000277046 0.0003421847 -0.00040768008 -0.00072728976 -0.0006810501 -0.0004943886 0.00015952029 -0.0023896084
0.00024133953 -0.00063146 0.00037421862 0.0002721793 0.00025964875 -0.0012063561 0.00040847264 0.00037780704
-0.0015217048 -0.0011857525 -0.0014290542 -0.0016241687 0.00041005368 -0.00024573284 -4.9936047e-05 -0.00023854006
-8.6979744e-05 -0.0022637045 -0.00054250064 -0.00013786039 -0.0007744576 -0.00036058336 0.00039019433 -0.0018357238
0.00023693936 -0.0007629913 2.5973677e-05 -0.0006315897 -0.0004718762 -0.0004255183 -5.9311657e-05 -4.523795e-05
0.000116872914 -0.0015013672 -0.00078127295 0.00035303208 -0.0005694923 -0.001103118 -0.0010814223 -0.00017163955
-0.0009796944 -0.00066782004 -0.0006407522 -0.00018582259 -0.00034831325 -0.0008438799 0.0001733739 -0.0005468748
1.0783898e-05 -0.0009409131 0.0002946877 -3.353543e-05 0.00025933373 0.00016451122 -0.0011957858 -0.0009119754
-0.002312657 -0.00059533794 0.00012377887 -0.00019796743 -0.0012623112 -0.0007000552 -0.0012376222 -0.00039126922
-0.00025619974 -0.0003340339 -0.0018420903 -0.0007289164 -0.0016826184 0.00045036728 -0.00024128098 -0.0008569405
0.00032646448 -0.00047636355 -1.9961108e-05 -0.00025814076 -4.1806423e-05 -0.00026683314 -0.0017545461 -0.001231785
3.6544916e-05 -0.0006750758 -0.00092623103 4.0164177e-05 -0.002718053 0.00045975653 -0.00012407066 0.0003044841
-0.00037897617 0.0002956401 0.00033598088 -0.00020303362 4.7261556e-06 0.0003432349 0.00058067025 -0.0008172483
-0.0011847303 7.659992e-05 7.8897414e-05 -0.00024629955 -0.00013784201 0.0004199866 2.0076664e-05 -0.00083398353
0.00030275775 -0.00087952305 -0.00014230702 -0.0007335389 -0.00011757655 -0.00023520853 -0.0014370016 -0.0016647071
-0.0016882246 2.6473255e-05 -0.0019804803 -0.00022085856 -0.00024081665 -0.0035065762 6.537934e-05 -0.000574514
