results/opponentL/OpponentL/checkpoint.pt (torch, 760415 bytes, 30 tensors)

network_body._body_endoder.seq_layers.0.weight f4 [128, 111]
000000 02 1b 20 bc da 92 04 3e 91 2e a6 be c5 b2 3e 3e
       -0.009772064 0.12946644 -0.32457402 0.18622883
000010 3c 89 c9 bc 9f f1 71 3e e6 f6 90 3c e4 79 0b 3d
       -0.024601571 0.23627327 0.017695855 0.03405179
000020 16 4b b6 3d 58 39 70 3d 84 e1 16 be d9 8e b7 bd
       0.0890104 0.058648437 -0.14734465 -0.08962793
000030 1c 3b ce bd f7 97 de 3d 14 f4 31 be 6e f2 6d 3d
       -0.10069868 0.10868829 -0.17378265 0.058092527
000040 6b 46 2e be 1c 27 50 3d 57 38 09 3e 1b fe d5 bd
       -0.1701905 0.050818548 0.13400398 -0.104488574
000050 5e 8f 69 bd 1b f6 ce 3d 42 ca 0a 3e 7f 0d 0b be
       -0.05702149 0.10105535 0.13553718 -0.13579367
000060 e5 e9 bc bd fc 7d c9 bc f2 8a a5 3d c9 7d c6 bc
       -0.09224299 -0.024596207 0.08083142 -0.0242299
000070 5e 0d ef 3d 4b d7 e3 bc df a0 20 be 27 f7 69 3e
       0.116724715 -0.02781262 -0.15686367 0.22848187
000080 c1 f2 25 3d 75 c6 6e 3d 7f 6b c5 3d 72 9b 1b 3d
       0.04051471 0.058294732 0.09639644 0.03799004
000090 cf 63 04 be b5 97 35 be 0b ac 32 bd b3 45 98 bd
       -0.12928699 -0.17733653 -0.043621104 -0.07435169
0000a0 11 43 6a 3e 64 fa 2b 3d 56 77 15 3e 6d 90 ce bd
       0.22877146 0.041986838 0.14596304 -0.10086141
0000b0 f9 b9 99 3d 0a 2c a1 3d 2c ff 20 bd 08 57 ec bc
       0.075061746 0.07869728 -0.03930585 -0.028850093
0000c0 02 56 00 3e 24 58 91 3c 38 cf 8b bd 03 7d 4b 3e
       0.1253281 0.017742224 -0.06826633 0.19871907
0000d0 0c 4c 8e bd 70 0f 38 bc c4 72 9b bd a4 c7 c9 bd
       -0.069480985 -0.011234149 -0.07590249 -0.098525316
0000e0 01 b6 92 3d 18 ba af bb 52 0a 86 3d cc 14 4d 3e
       0.07163621 -0.0053627603 0.06544937 0.20027465
0000f0 f1 5c 43 3d 67 40 1f 3d 00 e4 f2 3b f5 ab 7e 3b
       0.047696058 0.03887978 0.0074124336 0.0038859819
000100 d8 6d cd 3c 0c 7d 3e 3e ca f2 4a be b1 78 a8 bd
       0.025076792 0.18602389 -0.19819179 -0.08226145
000110 c1 c2 f0 3c 36 65 99 bc f3 cb 50 bc c6 2d 4d 3e
       0.02938974 -0.018725019 -0.012743938 0.20036992
000120 ee c8 b7 3d c6 a1 83 3b b9 e0 44 bc 13 77 fd 3d
       0.08973871 0.0040170876 -0.012016469 0.12376227
000130 1c 57 6a be 69 59 be 3c b8 d0 06 bc 74 40 46 3d
       -0.22884792 0.023235993 -0.008228473 0.04840131
000140 46 93 03 3e 4b e3 cf bc 38 e8 a5 bd 97 4e 4a 3b
       0.12849149 -0.025376936 -0.08100933 0.0030869597
000150 d7 f8 5a bc cd c3 37 3d 9d 10 6e bc ae 90 2e 3e
       -0.013364992 0.044864465 -0.014530328 0.17047378
000160 40 1e 84 3d 28 3e 03 bd e4 75 57 bd 34 1f e8 bc
       0.06451082 -0.0320417 -0.052602664 -0.028335191
000170 9e c9 07 be f2 2f 82 3d 2c 12 03 bb 13 24 99 3e
       -0.13260505 0.06356801 -0.0019999845 0.29910335
000180 f2 7a 34 be 54 f3 e4 3d f5 4a 44 be e9 f7 64 bd
       -0.17625025 0.11179224 -0.19169219 -0.055900488
000190 8b bf 20 3e d8 f8 08 be aa aa 85 3e 60 89 3e 3d
       0.15698068 -0.13376176 0.2610677 0.04651773
0001a0 e5 66 e4 3d 98 d6 0c 3e 1b fd 1b 3e 58 f2 4c be
       0.11152438 0.13753736 0.15233271 -0.20014322
0001b0 f6 62 50 3d 5e 76 8b 3d 96 2c 3e be 04 46 cf bd
       0.050875627 0.06809686 -0.18571696 -0.10120776
0001c0 5a 1e 4f bd ad 49 28 3d 6f 11 6a 3d 43 99 51 be
       -0.050566055 0.041085888 0.057145532 -0.20468621
0001d0 db 2e d8 bd 78 60 f2 3d c7 7e 0f 3d 86 4f 5d be
       -0.10555812 0.11834806 0.035033014 -0.21612367
0001e0 c5 6e 21 3d a4 c2 0e be 38 9b 01 be ab 2d b3 3b
       0.03941228 -0.13941437 -0.12656868 0.0054680905
0001f0 d3 00 3b 3c 61 e5 f2 3d 75 ec 84 bd c1 e9 32 3b
       0.011413771 0.11860157 -0.06490413 0.0027299973
000200 77 a8 98 3c 6f 07 08 be 1f f3 18 bc 84 51 6a 3c
       0.018635018 -0.13284086 -0.009335308 0.014301661
000210 1b 5c fe 3c 3e 08 12 3e 3d 30 ff 3c 9d 23 39 3b
       0.031049779 0.14260957 0.031150931 0.0028249987
000220 35 96 2c 3e 94 02 cf bc a8 82 02 3d f9 34 77 bd
       0.16854174 -0.025269784 0.031862885 -0.060353253
000230 c9 c8 be bd 75 0c 57 bd 2b 90 3d 3b d1 7a fe 3d
       -0.093156405 -0.052502114 0.0028925042 0.12425769
000240 d3 b8 13 bc cd eb 3c 3e db 60 2f 3d 42 2c 17 bc
       -0.0090162335 0.18449326 0.042816978 -0.0092268605
000250 b5 d7 05 bd 3f b5 4f be 70 ab b9 3d 26 46 26 3a
       -0.032676417 -0.20283984 0.09065902 0.00063428504
000260 2a 5f 05 be d7 00 9e bc ff b9 aa 3a 82 7f ab 3d
       -0.13024583 -0.01928751 0.0013025402 0.083739296
000270 cf 32 e6 3d 95 fb 24 3d f8 21 31 be 19 f6 f6 3c
       0.1124016 0.04027899 -0.17298114 0.030146645
000280 eb 3d 9b 3d d4 c0 ec 3d 8b 39 98 3e 9f 84 09 3e
       0.07580169 0.115602165 0.29731402 0.13429497
000290 55 c9 97 3d c0 9a 1d be 2e 79 b8 bc 56 0f 2a 3d
       0.07411448 -0.15391064 -0.02251872 0.04151853
0002a0 61 35 2b 3d de 07 47 be 85 c3 59 be 52 ef 28 be
       0.041798953 -0.19436595 -0.21265991 -0.16497543
0002b0 72 93 36 bd 9e 1e 0b bd 8c 57 a0 3d ab 87 b4 3d
       -0.04457421 -0.033964746 0.07829198 0.08814939
0002c0 9f 78 a9 3d bb 2b 20 3e 07 69 07 3e e5 16 58 bc
       0.0827496 0.15641682 0.13223659 -0.013189052
0002d0 29 c9 3c 3d fb 50 87 bd c2 15 14 3e 7d cb 02 be
       0.04609028 -0.06607243 0.14461425 -0.12772937
0002e0 ec 47 04 be 0a a5 37 bd b7 f6 d6 3b 76 ea 1f 3d
       -0.12918061 -0.044835128 0.0065601724 0.03904196
0002f0 bf 9d 8a 3e 7b 97 e9 bc dc bb f9 3d ca 2b 60 3d
       0.27073476 -0.028514614 0.121940345 0.05472926
000300 1a 10 05 be f4 99 f6 3b aa 35 63 bc fe 88 ee 3d
       -0.12994424 0.007525677 -0.013867775 0.11647223
000310 80 e8 a2 bc 3d 97 f9 bc 5c 73 50 be 4c 98 c1 bd
       -0.019886255 -0.030467624 -0.20356506 -0.094528764
000320 1f ca e3 bc f1 92 5e 3c de a5 2e 3d 19 a0 af 3d
       -0.02780634 0.013584838 0.042638652 0.08575458
000330 5e 8d b0 bd df ff be 3d 55 db b7 bc a6 a4 d1 bd
       -0.08620714 0.09326147 -0.022443453 -0.10236482
000340 6c 99 86 bd 94 bb 90 bd 19 e9 0b 3d b2 e0 c9 bd
       -0.06572232 -0.07067028 0.034157846 -0.0985731
000350 9f c5 03 bd d9 c8 a9 3b b4 03 ce 3d 6d 8f ae bd
       -0.032170888 0.0051814136 0.100593 -0.0852345
000360 23 57 55 3d 5d 1c 57 bd 5a a7 2d bb 98 f2 e1 bd
       0.052085053 -0.052517284 -0.0026497454 -0.11032599
000370 d2 96 02 be 29 a6 8e 3d 4c be fb 3b 27 e2 92 3c
       -0.12752846 0.06965286 0.0076825973 0.017930103
000380 a8 d2 6e 39 85 ee 0f be 68 8e d7 bd e7 92 25 be
       0.00022775924 -0.14055832 -0.10525209 -0.1616932
000390 72 47 92 bd b3 e6 36 be c9 94 f1 bd 30 90 c6 bd
       -0.07142533 -0.17861442 -0.11795957 -0.0969547
0003a0 d2 9b 07 3e 22 6c 9a bc 56 e1 0c be b2 4f 22 bb
       0.13243034 -0.01885039 -0.13757834 -0.002476674
0003b0 11 72 15 3e 5d 51 34 bd 0d b5 d4 bd 0a 33 70 bb
       0.14594294 -0.044022907 -0.10386095 -0.0036651515
0003c0 77 b0 af bc c8 e8 a1 3d ce 1a 54 3b 81 f7 fb bd
       -0.02144645 0.079057276 0.003236461 -0.12303067
0003d0 b4 a9 f7 3b a3 9c c3 3c 93 40 ef bd 7f 83 8b be
       0.007558072 0.023878401 -0.116822384 -0.2724876
0003e0 2f 2a a2 bd d8 ba 41 3d 75 89 01 3e a3 e4 ea 3b
       -0.07918202 0.04729733 0.12650092 0.007168369
0003f0 f7 75 3a 3d 30 a3 6e be 86 7b 6a 3d f9 89 1e 3d
       0.045522656 -0.23304439 0.057246707 0.0387058

network_body._body_endoder.seq_layers.0.bias f4 [128]
000000 f3 bd a6 3c 15 0b d1 3b a5 b5 6f bd 2d fd 09 3c
       0.020354247 0.006379495 -0.05852284 0.008422178
000010 b7 9b 04 3c 61 84 81 3c 99 f0 6c 3c 11 5d 01 3d
       0.008093766 0.015810193 0.01446166 0.031582896
000020 8b 6a 2b 3c 3c 86 80 3b fc 07 e3 37 24 69 e1 3a
       0.010462414 0.003922252 2.7064227e-05 0.0017197472
000030 0c d0 e3 bc 29 5a aa 3c b8 1f 57 3c d9 96 95 3c
       -0.027809165 0.020794945 0.013130121 0.018260406
000040 da c1 4d 3c 97 81 02 3c 31 2f bd 3c d6 70 6d 3c
       0.012558425 0.007965467 0.023093792 0.014492234
000050 25 13 c7 3c 8d 3f c6 3c 9f e3 fc 3c a6 f1 06 bc
       0.024301121 0.024200225 0.030870257 -0.008236324
000060 f7 a1 86 bc 4a 43 19 3c 3b ed 3d 3d e5 39 d0 3c
       -0.016434653 0.009354422 0.04636882 0.025418231
000070 b5 64 0c 3d c5 da d8 3b 70 4e 2b 3c 81 b0 e9 bb
       0.03427573 0.0066178762 0.010455713 -0.0071316366
000080 41 5a 4c 3c ce 3e b5 3b 24 db 73 3c 8d 99 d2 3b
       0.01247269 0.0055311685 0.01488379 0.006426996
000090 2c bf 0b bc 0e 91 9e 3c bc 56 e5 3c d9 fa 1c 3b
       -0.008529466 0.019356277 0.02799546 0.0023953228
0000a0 44 b7 02 3c 28 b1 fa bb 49 de ab 3b 87 90 92 bc
       0.007978264 -0.007650513 0.0052450043 -0.017891182
0000b0 5a 7b bd 3c aa bb 64 bb aa 6e eb 3b b1 13 64 3c
       0.023130108 -0.0034901896 0.007184823 0.01392071
0000c0 52 0b e1 bc a2 a7 9f 3b 5a 3e 7e 3c a3 31 31 bc
       -0.027471218 0.0048722783 0.015517795 -0.010815057
0000d0 b5 1d a6 3b ec 2d ac bc 21 b1 8b 3b e6 70 a6 3c
       0.0050694593 -0.021017991 0.004263059 0.020317506
0000e0 ad 3e 78 bc 2f 76 13 3a 74 73 7f 3a cd 83 d7 bc
       -0.015151662 0.00056252157 0.0009744682 -0.026307965
0000f0 9f 0d e8 3c ff 04 04 bc 3d d1 2e bd 0b bb de bb
       0.028326808 -0.008057832 -0.042680014 -0.0067971996
000100 33 e3 9d bb a5 6c 66 3b af 76 28 3d 6c e7 0f 3c
       -0.004818344 0.0035159972 0.04112881 0.008783203
000110 b9 b2 86 3c d6 33 87 3c 12 d9 7d 3c e8 58 87 b9
       0.016442643 0.01650421 0.015493648 -0.00025815447
000120 91 d0 11 3c 50 68 a0 3b e8 8c 96 bb 12 de 1f 3d
       0.008899824 0.0048952475 -0.004594434 0.039030142
000130 80 31 86 bc 95 b5 91 3c a7 ff ea 3b 6b e7 e0 3c
       -0.016381025 0.01778678 0.0071715894 0.027454099
000140 43 da ff bc f3 29 8b 3c e7 ea 6a bc 59 7d 86 3c
       -0.031232005 0.016987776 -0.014338232 0.016417192
000150 84 35 53 3c ee ac af bc fd 33 8f 3c 8c 90 4e 3c
       0.012891177 -0.021444764 0.017480845 0.012607705
000160 99 ee 30 37 c5 08 53 3c 9f b3 cc bb d1 06 78 bc
       1.054597e-05 0.012880509 -0.0062469984 -0.015138344
000170 2b c5 d9 ba 7e cc 7e 3c 71 24 1d 3d 2a a2 d7 3c
       -0.0016614547 0.015551684 0.03836483 0.026322443
000180 42 86 6d 3c 15 a6 e2 3c 9f e8 12 3d 96 23 f5 bb
       0.014497342 0.027667085 0.035866376 -0.007481049
000190 8b 09 11 3b 92 78 1d 3b 3e ab 04 3d 79 73 95 bc
       0.0022130932 0.0024028164 0.03238987 -0.018243538
0001a0 27 47 11 bc ec 95 68 bb fd fd 89 bc e8 84 89 bb
       -0.008867062 -0.003548975 -0.016844744 -0.004196752
0001b0 de 8e 96 3b bd 94 ee 3c e6 41 c2 3c 08 36 87 bb
       0.004594668 0.029123658 0.023713063 -0.004126314
0001c0 9f 26 27 bc f8 23 08 bb 4e 07 09 3d ad 29 35 3b
       -0.010202079 -0.0020773392 0.033454232 0.002764325
0001d0 2d fd a9 3c 63 f3 7e 3c 4a f8 79 3b 43 b9 9b 3c
       0.020750606 0.015560958 0.0038142377 0.019009238
0001e0 5e bf da 3b 8a 87 d5 bb ae 7a cf 3b 3b e6 ca ba
       0.006675645 -0.0065164017 0.006331763 -0.0015479991
0001f0 30 0e 4a ba 3a a5 56 3c ef e5 57 3d 51 5e 94 3b
       -0.00077078026 0.0131009165 0.052709516 0.004527845

network_body._body_endoder.seq_layers.2.weight f4 [128, 128]
000000 b1 cd 87 bd 5f bd 2c be 09 fd 3b bd fd ee 2d 3d
       -0.066310294 -0.16869114 -0.04589561 0.042464245
000010 ff bc 1c 3d d4 31 86 bd e2 80 56 3e 9d 04 c4 bc
       0.03826618 -0.06552473 0.20947602 -0.023927981
000020 40 c2 b0 bd 70 bc df bd de b1 4e 3c 08 e5 b8 bd
       -0.086308 -0.109246135 0.012615649 -0.09028059
000030 a4 ec 72 bc 81 83 33 be 96 18 da 3d ed 87 53 bd
       -0.014826927 -0.17530634 0.10649221 -0.0516433
000040 78 06 81 bd f9 c3 2c 3d d2 29 98 bd a9 81 01 3e
       -0.06300062 0.04217908 -0.074298516 0.12647118
000050 a2 eb 08 3e d8 b4 e2 bc 83 cd 75 be f2 a5 86 bd
       0.13371137 -0.027674124 -0.24004178 -0.0657462
000060 0f 65 0c bd 09 e9 9c 3d 81 80 0b 3d 04 51 84 3b
       -0.034276064 0.076616354 0.034058098 0.004037978
000070 ad 7e ac bd 8f 02 f2 bc 99 1d 94 bc 4a 44 f8 bc
       -0.08422599 -0.029542236 -0.01808052 -0.030306
000080 00 6e 8a bc 02 47 97 3c 66 6a 0b bd 19 92 c3 bd
       -0.016898155 0.018466476 -0.034037016 -0.0954935
000090 85 72 84 3e 67 09 87 bd 03 4c 00 3d 90 00 1d 3e
       0.2586862 -0.0659359 0.03132249 0.15332246
0000a0 ea 1e 56 3d 2c c6 04 be c4 a1 4b bc 3f 8d 33 be
       0.052275576 -0.12966222 -0.012428705 -0.1753435
0000b0 9c b6 8c 3d d9 d3 5e bd 25 b3 7e bd 59 f7 11 be
       0.068707675 -0.054401252 -0.062182564 -0.14254512
0000c0 8f b4 73 3d 46 38 5b 3d fb 2a 33 3d 65 79 c0 3d
       0.059498366 0.053520463 0.04374216 0.09398154
0000d0 8f 04 45 3e f8 40 09 3e 8b e5 8b 3d 9e 90 ec 3d
       0.1924002 0.1340369 0.06830891 0.11551021
0000e0 db d5 24 3d ba e3 aa bd 75 4b d1 3b b6 d2 79 bd
       0.04024301 -0.08344217 0.006387169 -0.060991965
0000f0 76 a2 07 3c 55 c8 9a 3c 7f 0e 33 bd 4d d2 ea 3d
       0.00827848 0.018894354 -0.043714996 0.11465893
000100 b0 53 91 bc 64 b4 44 3d 0a 6b 62 3d 1b af 57 be
       -0.0177401 0.048023596 0.05527786 -0.21062891
000110 c2 32 47 3d 26 d5 26 be fa f6 de bd 2c 88 00 be
       0.04863239 -0.16292247 -0.10886951 -0.12551945
000120 2a 06 8a bd 4e de 15 be bd 14 eb 3b 04 66 8d 3c
       -0.06739457 -0.14635584 0.007174103 0.017260559
000130 c2 51 70 3d cb a4 ca 3c 17 19 8a bc 1c c1 cf 3c
       0.05867172 0.024736783 -0.016857667 0.025360636
000140 83 97 f8 bd 63 02 80 bd 6d 8b e0 3c c6 ae d0 bd
       -0.121382736 -0.06250455 0.027410233 -0.101895854
000150 63 d4 fa 3d 9e 1b d6 bb e7 fe 8e bc 6b 35 18 3d
       0.12247541 -0.006534054 -0.017455531 0.03716032
000160 10 97 ae bd f0 6d e6 bd e3 06 45 bc e8 d0 2a bd
       -0.08524907 -0.11251438 -0.012025568 -0.041703135
000170 c3 69 44 be 2b db e6 bd 0b f6 48 bc b8 5b 2b bd
       -0.1918097 -0.11272272 -0.012265692 -0.041835517
000180 24 3f 1c 3e 91 6e ee bd 5a 8b 9a bd ac de 84 bd
       0.15258461 -0.116421826 -0.075461105 -0.06487784
000190 5f 5c 04 bd 5b b2 5e 3d 39 fe 37 bd 45 66 a7 bd
       -0.032314654 0.05436931 -0.04492018 -0.08173803
0001a0 e3 59 32 3d 7e b8 73 3d ab 04 26 3d ff 85 b1 bd
       0.043542754 0.059502117 0.040531795 -0.08668136
0001b0 b5 da 1b be 0e 43 0c be 77 a4 93 3e 64 b6 19 3c
       -0.15220149 -0.13697454 0.28836414 0.009381864
0001c0 f7 f5 d8 bc 9b 01 15 3e 02 1b 29 bd 7b 8b 5c bc
       -0.026484473 0.14551394 -0.041285522 -0.013460989
0001d0 61 86 0b 3e 9e 70 aa bd 09 a2 77 3b e3 bb 68 3e
       0.1362548 -0.08322261 0.003778579 0.22727923
0001e0 b8 ec bb 3c 58 f8 a3 3c 02 8e 04 bb 1b 5d 14 3c
       0.022940025 0.02001588 -0.0020226245 0.009055401
0001f0 45 c0 ed bd 6a 88 07 bb 2a 17 d3 bd 11 60 15 3e
       -0.11608938 -0.0020680674 -0.103071526 0.14587428
000200 f0 f7 51 3c 68 b6 b1 bd 7e 43 ab 3d c0 7b 0f 3e
       0.012815461 -0.08677369 0.083624825 0.1401205
000210 b3 9c bd bc 8d 95 b4 bb c7 3f cb 3d e8 c2 5b 3e
       -0.02314601 -0.005510992 0.09924274 0.2146107
000220 96 2a 38 be 69 63 57 be 92 ba ba bc 53 b7 c7 bd
       -0.17984995 -0.21034016 -0.022794042 -0.09751763
000230 99 4d 3f bd e1 10 cd bd a0 f7 79 bd f8 fb 8c be
       -0.046704862 -0.10012985 -0.06102717 -0.27535987
000240 80 bd b4 3c 9e 70 2b be 24 20 28 3d 55 1c 07 3e
       0.022063017 -0.16742179 0.041046277 0.13194402
000250 0d ab 5b 3d d8 2e 70 bd 03 43 20 bc c3 82 76 bd
       0.053629924 -0.058638424 -0.009781602 -0.060183298
000260 de 6d 32 3c bb 27 f0 3c 40 29 d3 ba 0e 3c 2c bd
       0.010890452 0.02931582 -0.0016110316 -0.04204946
000270 98 45 f1 bb fc bc dd 3d f5 2f 31 bd 07 bb fe 3c
       -0.0073630325 0.108270615 -0.043258626 0.031095041
000280 5e c3 44 bc d9 80 37 3e 8a 47 21 bd b0 46 05 bd
       -0.01200947 0.17920245 -0.039374866 -0.032538116
000290 4e 10 f8 bd d7 8e e1 bd a2 b7 9c 3c 32 4f 72 3d
       -0.12112485 -0.11013573 0.019130532 0.059157558
0002a0 b9 b1 9b 3d 07 cd f7 3d 57 7c a5 bd a6 89 b6 bd
       0.07602257 0.12099653 -0.080803566 -0.08912973
0002b0 b7 66 c4 3d 35 be df 3c 7c ad 47 be fa c6 5c 3d
       0.09589904 0.027312377 -0.19499773 0.053900696
0002c0 92 31 0e bd 60 74 fa bb 4c 43 86 bd 53 7f 12 3e
       -0.034715243 -0.0076432675 -0.065558046 0.14306383
0002d0 ba 93 8b bd 23 7c 7c 3d 36 84 7b bd 62 3e 52 3d
       -0.06815286 0.061641824 -0.061405383 0.051329024
0002e0 2a bb 4a be 99 a6 37 be 70 cc 4f 3d 0f df 84 3d
       -0.1979796 -0.17934646 0.050732076 0.064878576
0002f0 50 59 26 bd dd fd 0f 3e da 19 3c be c4 43 6a bc
       -0.04061252 0.14061685 -0.18369237 -0.014298383
000300 c0 98 f8 3a bd 56 3e 3e 10 b9 c4 bd d8 7c 10 be
       0.0018966421 0.18587776 -0.0960561 -0.14110124
000310 6d 4f e8 3d 7d be 38 bc e9 b9 44 3d ac de 05 3e
       0.11343274 -0.011275885 0.04802886 0.13073224
000320 5d ae cd 3d 02 72 64 3c 15 54 12 3d 67 79 9d bc
       0.10043023 0.013943197 0.035724718 -0.019222928
000330 d0 43 f7 bd d2 87 a8 3c c7 8f 15 bd e3 39 09 be
       -0.12073481 0.020572577 -0.03651407 -0.13400988
000340 61 4e 79 bd 5f e3 82 bd 42 4c 87 3d 35 0a 6c 3d
       -0.060865764 -0.06391024 0.06606342 0.05762692
000350 ce 81 1d bd db b9 8b 3d 11 d1 89 3e 25 2e df b9
       -0.03845387 0.068225585 0.26917318 -0.00042568255
000360 4b 4a df 3d 51 ea 2d 3d 43 15 25 3e 97 17 0e be
       0.10902842 0.04245979 0.16121392 -0.13876186
000370 70 72 0d bd 28 52 ba 3d 47 66 be bd ff 81 94 3d
       -0.034532964 0.09097701 -0.092968516 0.07251357
000380 70 75 32 3e c1 09 bb 3c c8 5a 3e bd 6e a9 ca 3c
       0.17427611 0.0228318 -0.046473294 0.024738993
000390 a8 54 49 3d 95 71 1a 3e 4a 58 66 bd f9 df 78 3c
       0.049153 0.1508239 -0.056236543 0.015190118
0003a0 58 d4 18 3e 1c 5a 80 3d 36 20 ef bd 22 55 6c bc
       0.14924753 0.06267187 -0.116760656 -0.014424594
0003b0 f4 ee 91 bd 7f f2 6a bd 42 b2 d4 3c 19 ec c3 3c
       -0.07125655 -0.05736017 0.025963906 0.023916291
0003c0 21 5f c1 bc 48 26 ec 3c 1b 5a 90 3d 78 44 cf 3c
       -0.023604931 0.028826848 0.07048436 0.025301203
0003d0 24 66 96 3d 0f 2e e7 3d a0 91 b3 3d 3a eb 17 3d
       0.073437005 0.11288082 0.0876801 0.037089564
0003e0 93 28 15 be 81 fe 3d 3d 02 67 e7 3d 76 1d e0 3c
       -0.14566259 0.046385292 0.11298944 0.027357798
0003f0 5e 68 84 bd e2 88 a6 3d 27 d1 4d 3d ea d4 b4 3b
       -0.06465219 0.08131577 0.05024829 0.0055185454

network_body._body_endoder.seq_layers.2.bias f4 [128]
000000 36 e0 54 3c 3f d3 00 3c 5e f2 0f 3c 5c 2f 67 3c
       0.012992909 0.007862865 0.008785812 0.014110412
000010 45 15 41 3c ca 2f 6b 3c 27 54 44 3d e1 55 bc 3c
       0.011784856 0.0143546555 0.047931816 0.022990169
000020 c0 76 09 3d 0a 78 9a 3c 3c 2d e9 3b b0 30 6c 3c
       0.033560514 0.018856067 0.007115988 0.014415905
000030 a7 a9 a3 3a a1 28 7a 3c 09 dd 75 3c 63 8a 00 3d
       0.0012486473 0.015268476 0.015006312 0.031381976
000040 21 ec 2c 3d 81 b0 8d 3c 2e 9c c8 3c 51 97 86 3c
       0.042217378 0.017296078 0.024488535 0.016429575
000050 b3 56 08 3d 2e ab ac 3c 6b 8d 84 3c 09 ff d2 3c
       0.033285808 0.021077719 0.016180715 0.025756376
000060 ff 2e a5 ba 85 52 0f 3c 63 22 24 3d 3a 66 97 3c
       -0.0012602507 0.0087477015 0.040071856 0.018481363
000070 45 22 a7 3c 69 52 71 3c a2 85 f4 3b a4 5f de 3c
       0.020402083 0.014729121 0.0074622193 0.027145214
000080 27 75 1a 3d 8b ae 10 3c 1f a6 20 3d de 7f 93 3c
       0.03770938 0.008830677 0.039220925 0.018005308
000090 7e 70 b0 3c ee ed 9f 3c 87 9e 8e 3c d3 4d 2f 3c
       0.021538015 0.019522633 0.017409576 0.010699707
0000a0 4b 08 b7 3c ab b8 28 3c 20 44 25 3d 73 c6 30 3c
       0.022342822 0.0102979345 0.040348172 0.0107895015
0000b0 95 d4 3d bb c3 99 c8 3b 37 13 b9 3c ff 8a 22 3d
       -0.002896582 0.0061218455 0.02259217 0.03968334
0000c0 98 55 07 3d b7 bc 8a 3c 63 55 3a 3d 1c 2d 0d 3c
       0.033040613 0.01693569 0.045491587 0.008616712
0000d0 a5 c0 60 3c 5a aa a9 3c d0 b8 15 3d 86 39 0c 3b
       0.013717805 0.020711113 0.036553204 0.0021396591
0000e0 00 0e e6 3c f2 55 e5 3c ae fa 19 3d 85 f3 60 3c
       0.028082848 0.027995083 0.037592582 0.013729935
0000f0 3d 42 36 3d b9 7e 49 bc 4b e1 c4 3c 70 11 b0 3c
       0.044496763 -0.012298279 0.02403321 0.02149269
000100 1c 7a 8a 3c 59 d9 f8 3c 34 80 e3 3c 3f 92 de 3c
       0.01690393 0.030377077 0.027771093 0.027169345
000110 06 29 ba 3c 63 c0 93 3c 4a 3d c5 3c f7 73 d6 3c
       0.02272464 0.018036073 0.024077076 0.026178343
000120 98 c2 c0 3a 7b ab 9b 3c da 08 99 3c d5 d5 b1 3c
       0.0014706431 0.019002667 0.018680979 0.021708408
000130 22 e8 fb 3c cd 59 84 bc 09 d4 1d 3b 42 02 ff 3c
       0.030750338 -0.016156102 0.0024082682 0.031129006
000140 4e c2 91 3c 83 88 1a 3b d6 bf 06 3d 92 6a ad 3c
       0.017792847 0.0023579902 0.032897793 0.02116898
000150 c9 d9 68 3c 74 e9 bd 3c 3e 70 ef 3c 38 bc 06 3d
       0.01421208 0.023182608 0.029228326 0.032894343
000160 36 08 2f 3b b0 81 ce 3c 11 65 5d 3c 8a d5 ee 3c
       0.0026707775 0.025208324 0.013512866 0.029154558
000170 9d ba e8 3c 25 82 a8 3b 95 04 4f 3c c1 78 30 bb
       0.028409297 0.0051424676 0.01263537 -0.0026927444
000180 41 b2 35 3c e8 80 54 3b 6a 47 aa 3c b9 31 5f ba
       0.011089862 0.0032425467 0.020786006 -0.0008514184
000190 7a 33 a1 3c fb e9 98 3c 8e be 86 3a 15 f7 af 3c
       0.019677866 0.018666258 0.0010280178 0.021480123
0001a0 a5 22 70 3c 2d 24 27 3d cb ea e9 3c fb 3e 56 3c
       0.014656697 0.040805984 0.02855434 0.013076539
0001b0 a7 82 f6 3c 85 f4 b0 3b 22 67 03 3d de d4 dc 3a
       0.030091597 0.0054002427 0.032080777 0.0016848107
0001c0 38 10 8d 3b 9d a2 09 3d 68 e6 93 3c 99 ad 82 3c
       0.004304912 0.033602346 0.018054202 0.015951918
0001d0 55 0e 01 3d 7b 64 1f 3c d1 2e de 3c e6 d6 16 bc
       0.03150781 0.009728546 0.027121933 -0.009206509
0001e0 54 65 b3 3c d6 c5 cb 3c ce 29 3f 3d 1f 7a 8d 3c
       0.021898903 0.024874609 0.046670727 0.017270146
0001f0 39 05 a1 3c 39 e6 d5 3c 52 1a 53 3c 9c 1a a9 3c
       0.01965581 0.026110755 0.012884693 0.020642571

action_model._continuous_distribution.mu.weight f4 [1, 128]
000000 e1 b2 80 bd be 72 85 bd b9 69 82 3d cb 96 57 bd
       -0.062841184 -0.06516026 0.06367821 -0.05263404
000010 a4 f8 87 3d f8 79 f5 3d 68 70 c4 3d 4e ba 88 bd
       0.06639221 0.11986154 0.09591752 -0.0667616
000020 8a 4b 19 3e a3 30 b8 bd b2 9a 86 bd dc 8f a1 3d
       0.14970222 -0.08993652 -0.065724745 0.07888767
000030 0b 97 4e bd c7 dd 36 3d c7 3a b9 bd 81 73 0f be
       -0.050437015 0.044645097 -0.09044414 -0.14008905
000040 2b d9 1d 3e c4 e9 c0 3d 82 c7 ac 3d ff 65 84 bd
       0.15414874 0.09419587 0.084364906 -0.06464767
000050 f5 48 ce bd f7 45 c9 3d 55 e1 68 bd 70 a9 90 3d
       -0.10072509 0.09827798 -0.05685552 0.07063568
000060 c9 9f 2b bd f4 c0 76 3d ee 81 00 3e da d5 dc bc
       -0.04190043 0.06024261 0.12549564 -0.026957441
000070 46 90 bc 3d 68 ba 5b 3d 0b ae 98 bd af 00 2e bb
       0.092072055 0.053644568 -0.07455071 -0.00265507
000080 3b a2 19 3e 2b 21 d8 bb ec e5 30 3e 49 7d 40 3d
       0.15003292 -0.006595751 0.17275208 0.04699448
000090 b5 27 ca bd 92 0e 40 bd 63 e6 86 bd f6 fc 6c bd
       -0.09870855 -0.046888895 -0.065869115 -0.05785843
0000a0 07 b7 9f 3d 9b a9 05 3d 47 71 e3 3d 5f 51 6c 3d
       0.077985816 0.03263245 0.1110559 0.05769479
0000b0 75 1e cb bc 67 e2 31 bd c8 dc fc bd e6 87 f9 3d
       -0.024794796 -0.043428805 -0.12346798 0.12184124
0000c0 e4 51 d5 3d b5 15 a8 3d 0c 1e c2 bd b2 f2 69 bd
       0.1041601 0.08207265 -0.09478387 -0.057116218
0000d0 bb 93 15 bd be 27 a8 3d 3b 9f 9f 3d 03 fb 1b bd
       -0.03651784 0.08210705 0.07794043 -0.03808118
0000e0 c2 73 b0 bd b1 04 1e 3e b9 83 08 be 94 40 7e bd
       -0.08615829 0.15431477 -0.13331498 -0.062073305
0000f0 36 f4 19 3e 6e ad 99 3c 7a 61 93 3d ca 39 aa 3d
       0.15034565 0.018759456 0.071963266 0.08311804
000100 63 4e e5 bd 7b ed b6 3d f3 9d 81 bd 29 91 f9 bd
       -0.11196592 0.089320146 -0.063289545 -0.1218589
000110 06 eb 04 bd 40 ca 68 bd 27 d9 91 3d 1e 11 f6 3d
       -0.0324507 -0.056833506 0.07121497 0.120149836
000120 bb 78 eb bc d7 41 db bd 70 18 b3 bd 71 c7 cb 3d
       -0.028744092 -0.10705917 -0.087448955 0.0995015
000130 42 a2 d1 3d 7b ae 7f bc 87 ce 99 bd eb 34 7a 3d
       0.10236026 -0.015605564 -0.07510095 0.061085623
000140 8a 44 e0 3d f3 8c 89 3b d7 25 9d 3d 0e 61 94 bd
       0.10950573 0.0041977107 0.07673233 -0.07245074
000150 ef 36 8a bd c9 3a 2d 3d 28 b4 bb bd 93 b4 be bd
       -0.06748759 0.04229239 -0.091652215 -0.093117855
000160 8a c2 3a bd 18 d9 ee bd fe ce 96 b9 d0 d9 aa 3d
       -0.045595683 -0.11662501 -0.0002876445 0.08342326
000170 d3 49 db bd 06 b3 6b bd be 21 72 3d 7f fc e1 bc
       -0.1070744 -0.057543777 0.05911421 -0.02758622
000180 09 bd 4b 3d 66 ca f7 bc 00 b3 bc bd e8 6c 27 bd
       0.049740825 -0.030247878 -0.09213829 -0.040875345
000190 56 fc b3 3d 1c 5c 88 3d 54 ec 29 bd 15 a9 7e bd
       0.08788364 0.066581935 -0.041485146 -0.062172968
0001a0 99 21 9b 3c 59 c1 10 be 4c 8d 1b 3e c9 dd 8e bd
       0.018936919 -0.14136256 0.15190619 -0.06975896
0001b0 94 42 91 3d f8 1a 4c bd 96 eb b8 3d e0 22 e3 bc
       0.07092777 -0.049830407 0.090293095 -0.02772659
0001c0 d8 65 22 bd 1e cf e8 3d ad 92 89 bd e4 9f 7c 3d
       -0.039647907 0.113676295 -0.06717429 0.06167592
0001d0 4d bd b0 3d 8d b5 3d bd 3a ef 81 3d 1f d4 2e 3d
       0.08629856 -0.04631572 0.06344457 0.042682763
0001e0 0d b9 9a 3d b3 70 b5 3d 6f 10 1a 3e c3 df 96 3d
       0.07554827 0.08859386 0.15045331 0.07366898
0001f0 85 8c a3 3d 70 55 8d 3d 44 e0 7e bd 4f 26 bf 3d
       0.07985786 0.069010615 -0.062225595 0.09333479

exp_avg f4 [128, 111]
000000 bb a5 86 bb d8 75 bd b8 2e ef b0 b8 04 00 00 80
       -0.004109112 -9.0341724e-05 -8.436885e-05 -6e-45
000010 95 c1 ec 39 e3 ce 55 ba 1d d9 4e bb 75 39 9e bb
       0.00045157658 -0.00081561337 -0.0031562515 -0.0048286268
000020 4f f7 5e bb fd ff 49 ba 21 6c 6f b9 04 00 00 00
       -0.003402192 -0.0007705687 -0.00022833097 6e-45
000030 64 f2 69 ba f4 f9 3b ba 2c 14 eb ba cb 3b b4 bb
       -0.00089243636 -0.000717073 -0.0017935089 -0.005500292
000040 19 10 b0 bb 03 26 40 ba 6f 2c 22 ba 04 00 00 80
       -0.0053730127 -0.0007329883 -0.00061864307 -6e-45
000050 d6 be b5 b9 7e 8c 65 3a 52 d3 d2 ba fa 57 88 bb
       -0.00034665194 0.00087565917 -0.0016084707 -0.0041608782
000060 bb 0c cb bb 23 23 09 3a 88 ec 0a ba 04 00 00 00
       -0.006196586 0.0005231371 -0.0005299528 6e-45
000070 b6 d7 01 37 03 86 66 b9 c6 01 b6 ba 8b df 58 bb
       7.739223e-06 -0.00021984433 -0.0013886027 -0.0033092226
000080 ef 2d d4 bb 4a 3f 1e bb 42 9e 30 b9 04 00 00 80
       -0.0064752023 -0.002414661 -0.00016843624 -6e-45
000090 c1 03 04 b9 5a 94 9f 39 0e ff 8c 3a a6 16 e2 ba
       -0.000125899 0.00030437374 0.0010757165 -0.0017249181
0000a0 03 ab d5 bb 79 f8 5d b8 6c d3 64 3a 04 00 00 00
       -0.0065206303 -5.2921914e-05 0.0008729014 6e-45
0000b0 6e de e7 37 fc 73 c4 b8 4c 86 05 bb 8f 6c 5b bb
       2.7640923e-05 -9.367612e-05 -0.0020374237 -0.0033481454
0000c0 25 89 ef bb a6 31 f7 b9 4e f3 81 38 04 00 00 00
       -0.00731005 -0.00047148502 6.1965184e-05 6e-45
0000d0 26 1d 28 39 07 88 2a 39 3e a5 d5 b9 aa 15 0b bb
       0.00016032587 0.00016263138 -0.0004074964 -0.002122263
0000e0 45 2e cf bb f7 d1 8a b9 60 39 92 39 04 00 00 80
       -0.0063226544 -0.00026477847 0.00027890038 -6e-45
0000f0 41 11 15 ba ce 7d 25 3a 80 3d cc ba 95 f5 45 bb
       -0.000568647 0.0006312997 -0.0015582293 -0.0030206193
000100 cb 23 b2 bb 13 6e ac ba 9f 09 2a 37 04 00 00 00
       -0.0054363958 -0.0013155363 1.013503e-05 6e-45
000110 f6 a9 81 36 d6 66 0c ba 11 17 0b ba 08 d5 0e bb
       3.8642856e-06 -0.00053559 -0.00053058664 -0.0021794457
000120 f5 0f a1 bb fa 1a 1f 3a e3 73 05 b9 04 00 00 00
       -0.0049152323 0.00060693885 -0.0001272704 6e-45
000130 2e 6c 56 39 83 19 74 3a f7 97 93 bb f3 83 79 bb
       0.0002044893 0.0009311663 -0.0045041996 -0.0038073033
000140 22 bc 95 bb 48 ea dd ba 96 d9 26 b8 04 00 00 00
       -0.0045695463 -0.0016930783 -3.9780127e-05 6e-45
000150 c7 21 9c b9 7b 86 c4 b9 92 55 59 ba c5 0d cc ba
       -0.00029779805 -0.0003748423 -0.0008290644 -0.0015568068
000160 b9 f8 a3 bb 5c 86 f9 39 93 16 c2 38 04 00 00 00
       -0.0050040153 0.00047593086 9.254846e-05 6e-45
000170 20 d2 14 b9 ff 47 7b ba 25 a4 14 bb ec 44 65 bb
       -0.00014192658 -0.00095856184 -0.0022680846 -0.0034983708
000180 c1 8d 99 bb 10 8f f5 b9 86 ab 91 38 04 00 00 80
       -0.004686088 -0.0004683663 6.9460875e-05 -6e-45
000190 b3 2f 52 ba 9d 37 ad b9 90 00 d0 ba 6f 19 2a bb
       -0.0008017972 -0.00033038566 -0.0015869308 -0.00259551
0001a0 8e 46 41 b8 61 2b 9a 36 fb a0 e8 b8 c8 3c 7b ba
       -4.6080495e-05 4.5946076e-06 -0.00011092607 -0.0009583947
0001b0 e9 55 64 b8 81 8c 45 bd b6 4f 89 b9 dd e5 a5 b7
       -5.4439446e-05 -0.048229698 -0.00026190066 -1.9776571e-05
0001c0 54 a9 9b b7 42 16 5e 37 04 00 00 80 28 01 52 36
       -1.855629e-05 1.3237413e-05 -6e-45 3.1293112e-06
0001d0 1e fc 92 37 a7 57 e0 39 36 1f c4 39 e8 9c 09 b8
       1.7521957e-05 0.00042789915 0.00037407287 -3.2809476e-05
0001e0 30 81 39 39 f2 0c cb 37 04 00 00 80 c1 3c a7 b5
       0.00017691101 2.4205514e-05 -6e-45 -1.2460151e-06
0001f0 af cd f0 36 66 a9 82 39 83 5f b8 39 40 ad 37 39
       7.176502e-06 0.00024921744 0.00035166377 0.0001751678
000200 95 91 a3 b7 8b 46 79 b6 04 00 00 00 95 d3 e3 b4
       -1.9498906e-05 -3.7144953e-06 6e-45 -4.243599e-07
000210 d1 be 08 b8 00 a9 9f 39 a6 99 96 39 ae a7 d9 37
       -3.260264e-05 0.00030452758 0.00028724706 2.5946498e-05
000220 fc 21 d8 b7 f5 e7 67 37 04 00 00 80 52 e0 a8 b3
       -2.5765032e-05 1.382268e-05 -6e-45 -7.863913e-08
000230 cc 93 ea 34 7a 7b d6 39 2d ed d0 39 dd 93 f5 39
       4.3693433e-07 0.00040909258 0.0003984956 0.00046840208
000240 56 0d ed 38 6a ec 3c 37 04 00 00 00 7f 25 d9 33
       0.00011303525 1.1260718e-05 6e-45 1.01116704e-07
000250 2e e7 f3 b7 15 15 13 b9 bc d5 8c b6 f5 59 31 39
       -2.9075509e-05 -0.00014026866 -4.197207e-06 0.00016913547
000260 b2 31 a5 37 ba 78 59 b8 04 00 00 80 2d 71 87 b6
       1.9692674e-05 -5.1849267e-05 -6e-45 -4.036489e-06
000270 eb ef 52 36 14 aa 96 39 69 30 a7 39 a1 61 1f 3a
       3.143209e-06 0.00028736948 0.0003188879 0.00060799165
000280 1d 37 d1 b8 b1 6f b9 b6 04 00 00 80 53 7b 25 34
       -9.976162e-05 -5.5264322e-06 -6e-45 1.5411688e-07
000290 3e 42 44 b8 ce c7 08 b8 fe c8 ea 38 57 23 c1 38
       -4.6791734e-05 -3.261101e-05 0.00011195427 9.20954e-05
0002a0 ec 05 72 38 f4 b4 41 b7 04 00 00 00 a3 2c c8 b5
       5.770281e-05 -1.1545828e-05 6e-45 -1.4914152e-06
0002b0 3b 7e 9a b6 66 b9 98 39 62 6d af 39 17 8a 10 39
       -4.604253e-06 0.00029129832 0.00033460098 0.00013784353
0002c0 84 b5 28 39 ae 02 11 b6 04 00 00 80 71 81 31 35
       0.00016089348 -2.1608244e-06 -6e-45 6.6126e-07
0002d0 a0 e9 0f b7 db 57 0d 39 13 bb 8f 39 d2 c9 86 37
       -8.577859e-06 0.00013479537 0.00027414467 1.6068025e-05
0002e0 03 56 83 b8 e2 be 21 36 04 00 00 80 b1 97 85 b5
       -6.262588e-05 2.4101978e-06 -6e-45 -9.95342e-07
0002f0 99 b9 2d b8 b1 b2 05 3a 8b 84 e5 39 39 57 6e 38
       -4.1419265e-05 0.00051001745 0.00043777036 5.6824854e-05
000300 0f 71 25 39 e8 5a 09 36 04 00 00 80 8f ae 00 36
       0.00015777744 2.0467505e-06 -6e-45 1.9175093e-06
000310 2e 0b 0d 36 29 a3 54 39 84 aa 73 39 f4 7b 83 38
       2.1017145e-06 0.00020278677 0.00023237808 6.269655e-05
000320 52 08 78 b8 5a ec 1e 37 04 00 00 80 3c e7 bf 35
       -5.9135557e-05 9.472564e-06 -6e-45 1.4297907e-06
000330 db 81 e1 b5 70 4f d7 39 4a 60 d8 39 82 76 5b 37
       -1.6801599e-06 0.0004106718 0.0004127047 1.30810095e-05
000340 a0 a0 4a 38 37 ef 60 b6 04 00 00 00 d5 ad 8c b6
       4.8310147e-05 -3.3517842e-06 6e-45 -4.192562e-06
000350 d8 f4 f0 36 22 04 be 39 42 bc b9 39 83 16 2e 37
       7.181061e-06 0.00036242703 0.00035426213 1.037645e-05
000360 98 60 16 32 65 ef 83 38 2a 38 2d 3a 29 10 42 36
       8.753112e-09 6.2911575e-05 0.00066077954 2.891766e-06
000370 21 72 04 39 b8 2a 37 38 62 6f 8e 39 ae 79 0b 36
       0.00012631017 4.3670385e-05 0.00027167337 2.078344e-06
000380 c4 81 46 36 04 00 00 00 a4 fb b1 b7 b3 c7 b8 b2
       2.9579833e-06 6e-45 -2.1217224e-05 -2.1511232e-08
000390 32 ef 02 39 75 42 82 39 53 1b 59 39 c3 48 3f b7
       0.00012486873 0.00024845047 0.00020704912 -1.1401428e-05
0003a0 3a a9 4f b7 04 00 00 00 ce da 70 38 ee 9d 67 b7
       -1.2377563e-05 6e-45 5.7424237e-05 -1.3805444e-05
0003b0 a3 e7 20 39 20 16 a2 39 05 4d 74 39 bc 05 85 38
       0.0001534508 0.00030915532 0.00023298345 6.343002e-05
0003c0 b4 b6 34 b6 04 00 00 00 f5 d2 fb 37 0a e6 11 b7
       -2.6928437e-06 6e-45 3.0019766e-05 -8.696234e-06
0003d0 48 ef 88 38 ab 05 74 39 3d a0 bc 39 93 c2 0b b7
       6.529555e-05 0.00023271765 0.0003597754 -8.3303485e-06
0003e0 79 e9 e9 37 04 00 00 80 6a ac 63 33 e2 bf 7f b7
       2.7884484e-05 -6e-45 5.3009366e-08 -1.5243861e-05
0003f0 62 e7 87 37 21 b6 1c 39 0a d7 8f 39 9e 61 ed 38
       1.6201e-05 0.00014945168 0.00027435302 0.00011319223

exp_avg_sq f4 [128, 111]
000000 04 e7 88 39 1f 7c d0 37 4a b9 75 35 94 bb e3 2b
       0.00026112061 2.485333e-05 9.1539243e-07 1.6181383e-12
000010 67 28 cb 35 cb fd 6b 37 92 91 10 39 9b ed b5 39
       1.5136437e-06 1.4066182e-05 0.0001378714 0.0003470004
000020 8e 1c 7c 39 2a b9 a1 37 44 f6 bb 36 1f 9d 21 2b
       0.0002404323 1.927892e-05 5.6017034e-06 5.741674e-13
000030 a9 dd 3b 36 e3 9e 54 36 bd 85 3d 39 74 82 ce 39
       2.7994195e-06 3.1682946e-06 0.00018074266 0.00039388577
000040 16 e5 3c 39 44 58 b7 37 8c cb 41 36 f1 11 6f 2a
       0.00018014418 2.1856402e-05 2.887772e-06 2.1233689e-13
000050 01 6c 27 35 02 a7 1c 38 83 bf 44 39 02 f5 ae 39
       6.2369514e-07 3.7348836e-05 0.0001876336 0.0003337041
000060 7a ad 37 39 4e 48 99 37 f5 1f b6 37 26 78 d8 30
       0.00017516865 1.827269e-05 2.1710972e-05 1.5750217e-09
000070 43 35 81 33 d5 e1 18 35 de 06 80 39 6a 5d bf 39
       6.016719e-08 5.695304e-07 0.0002441918 0.00036499958
000080 13 7d 35 39 fd 7c a8 37 2d 6a a1 34 c4 2d a2 27
       0.00017308099 2.0085363e-05 3.006584e-07 4.501365e-15
000090 70 e3 f6 34 1b 33 88 38 c0 80 2b 39 18 0c 93 39
       4.5986553e-07 6.4945045e-05 0.00016355794 0.00028047035
0000a0 00 6a 36 39 80 46 8f 37 13 d3 b7 37 3f a8 f3 30
       0.0001739636 1.7079758e-05 2.1913589e-05 1.7728395e-09
0000b0 60 79 35 35 4b 9c 45 36 b9 98 84 39 51 0a ad 39
       6.760438e-07 2.9446262e-06 0.0002529079 0.00033004818
0000c0 3f c7 38 39 44 1f 97 37 18 e9 6b 33 53 02 92 29
       0.00017621832 1.8015162e-05 5.49272e-08 6.4841057e-14
0000d0 83 7b 18 35 70 ac 81 38 b4 f6 33 39 86 1b 8d 39
       5.6804146e-07 6.183318e-05 0.00017162674 0.00026914122
0000e0 ed e6 2d 39 00 c8 64 37 97 b0 bf 37 6e 65 68 30
       0.00016584592 1.3636425e-05 2.2851205e-05 8.454525e-10
0000f0 dd 15 8e 36 e6 35 b3 37 9a 37 61 39 3a 0c a3 39
       4.234475e-06 2.1363561e-05 0.00021478385 0.00031098892
000100 f2 6a 0c 39 f8 01 8a 37 8e 2f 05 33 23 8a 76 28
       0.0001339128 1.6451799e-05 3.1009726e-08 1.3685697e-14
000110 4b 97 aa 35 ee 1d 38 38 0f ef 82 39 25 dd a9 39
       1.2710019e-06 4.3896893e-05 0.00024973645 0.00032398957
000120 c9 ae 27 39 ad 83 18 37 47 f5 a5 37 dd 6b 76 2e
       0.00015991474 9.090564e-06 1.9783749e-05 5.6029726e-11
000130 b6 69 33 36 fe 46 8e 37 2b 2e 89 39 d7 06 af 39
       2.673461e-06 1.6960777e-05 0.00026165074 0.00033383697
000140 69 bf e7 38 53 76 53 37 d2 96 03 33 f7 f9 74 28
       0.00011050591 1.260413e-05 3.0637985e-08 1.3598923e-14
000150 62 9e 7f 35 f5 57 90 37 86 8a b5 39 63 1a d0 39
       9.522538e-07 1.7207096e-05 0.00034626218 0.0003969251
000160 c2 61 1b 39 01 20 c0 36 39 24 4f 37 f4 0c 30 2e
       0.0001481837 5.7257716e-06 1.2346595e-05 4.002927e-11
000170 44 54 42 35 73 e3 88 37 d4 64 9c 39 54 e9 c0 39
       7.2393254e-07 1.6318378e-05 0.00029829761 0.00036794937
000180 74 9c d8 38 c0 c5 33 37 87 d4 81 32 83 a9 86 2c
       0.00010328824 1.0715274e-05 1.5114223e-08 3.8273286e-12
000190 ee d1 ac 35 23 0b 8f 37 92 10 c6 39 18 34 dc 39
       1.2876096e-06 1.7052114e-05 0.0003777785 0.00042000483
0001a0 44 ae 53 38 76 08 c8 36 25 57 11 39 56 4e ec 39
       5.0468618e-05 5.9614495e-06 0.00013860741 0.00045071793
0001b0 c8 5a 81 36 a6 cb a8 3c 49 0c 0f 37 e3 5d 86 34
       3.855068e-06 0.02060492 8.526325e-06 2.5027757e-07
0001c0 b8 f4 3c 34 bb 74 b3 30 99 81 80 28 b3 4b 8b 2e
       1.7597893e-07 1.3057141e-09 1.4267059e-14 6.334435e-11
0001d0 3d 1f db 30 9e c4 8b 35 be 52 d5 35 27 18 13 34
       1.5943226e-09 1.041353e-06 1.5893818e-06 1.3699228e-07
0001e0 17 bc 0e 34 d5 df 5d 32 3d cb b5 27 c4 78 b1 2d
       1.3293207e-07 1.2914787e-08 5.0457943e-15 2.0176201e-11
0001f0 e7 4f 04 31 3f 53 ae 35 c2 2b e8 35 51 bb 91 34
       1.9253947e-09 1.2988238e-06 1.7298082e-06 2.7144645e-07
000200 96 bb 0e 34 6e e6 1b 32 c8 66 8d 28 10 e0 2c 2d
       1.3293024e-07 9.074581e-09 1.5698719e-14 9.82682e-12
000210 a5 21 9c 32 a5 f6 8c 35 2d a4 c5 35 7e 78 0b 34
       1.817609e-08 1.0502596e-06 1.4725425e-06 1.2989219e-07
000220 cf c5 08 34 d0 29 f8 32 49 4e 41 2b 43 8e 28 2e
       1.273795e-07 2.8890014e-08 6.8676016e-13 3.832513e-11
000230 c4 d6 4e 30 6e d9 b2 35 b3 19 dd 35 64 3a 72 35
       7.5247564e-10 1.3325314e-06 1.6473263e-06 9.0236995e-07
000240 97 31 e0 33 11 69 a1 30 6c 66 a9 25 83 4e b9 2d
       1.0439833e-07 1.1744153e-09 2.938623e-16 2.1066931e-11
000250 8d f7 b0 32 13 c8 de 34 a1 39 66 35 52 fd 1c 34
       2.060167e-08 4.1496295e-07 8.576554e-07 1.462079e-07
000260 99 7a a8 33 68 16 1b 33 2d ca 91 2b 8b 39 9b 30
       7.84541e-08 3.6109128e-08 1.0358985e-12 1.1294089e-09
000270 ce bb e3 30 a4 9b c0 35 f3 b4 db 35 3a e8 41 35
       1.6569801e-09 1.4350412e-06 1.6369435e-06 7.2236037e-07
000280 0a 01 2e 34 5a a2 6d 2f 0e c4 a7 25 a0 d4 57 2e
       1.6205391e-07 2.1612703e-10 2.9102734e-16 4.907419e-11
000290 72 58 93 32 d7 c3 0c 35 93 87 6c 35 8d a3 e4 33
       1.7153273e-08 5.243905e-07 8.811414e-07 1.0646827e-07
0002a0 a1 ca 6b 33 ce 5b 85 31 d4 05 62 2a 16 2f 4f 2e
       5.489949e-08 3.8812464e-09 2.0074854e-13 4.710817e-11
0002b0 65 70 4a 31 9e 90 d9 35 d3 67 ed 35 ac da 87 34
       2.9458758e-09 1.6209849e-06 1.7688093e-06 2.5304814e-07
0002c0 38 01 13 34 2c aa e1 2e 8b 54 03 23 d0 cf 3d 2d
       1.3690885e-07 1.0262044e-10 7.119427e-18 1.078955e-11
0002d0 36 c2 23 31 0e 6a 9d 35 f8 97 b7 35 dd e8 6f 33
       2.3830018e-09 1.1728278e-06 1.3678791e-06 5.585831e-08
0002e0 93 07 10 33 41 bc 3f 31 e6 a6 b3 2a c8 76 78 2e
       3.35345e-08 2.7901168e-09 3.1912596e-13 5.649417e-11
0002f0 5e 61 75 32 a8 0c f0 35 36 b7 fe 35 e8 15 ec 33
       1.4283016e-08 1.7885077e-06 1.8977796e-06 1.0993591e-07
000300 5a 50 9b 33 d7 19 1e 2f 8c e9 cb 22 8e a5 64 2e
       7.232366e-08 1.4379196e-10 5.5270538e-18 5.198824e-11
000310 a3 b0 27 30 47 a8 da 35 e7 f5 e5 35 d5 36 3e 33
       6.100526e-10 1.6291241e-06 1.7133397e-06 4.428769e-08
000320 b6 a7 01 33 9b d3 62 31 5a 05 95 28 12 73 3b 2f
       3.0187685e-08 3.3007612e-09 1.6544644e-14 1.7048432e-10
000330 a9 5b 39 30 ce 71 f8 35 d6 d3 00 36 62 ff 51 33
       6.7432865e-10 1.8510561e-06 1.919679e-06 4.8893874e-08
000340 e0 2d 25 33 32 bb 94 2d 3c a5 2d 28 67 08 12 2e
       3.845878e-08 1.6908783e-11 9.639259e-15 3.320402e-11
000350 3c b4 e2 2f a9 2d f7 35 3b bc fd 35 a3 7a f0 34
       4.1237225e-10 1.8416223e-06 1.8904751e-06 4.4792714e-07
000360 9b 7e 08 33 40 e8 e2 34 5a 29 78 36 ec 7e c4 31
       3.1780115e-08 4.2264764e-07 3.697895e-06 5.71878e-09
000370 18 96 8e 36 f5 ec f5 32 47 94 22 35 25 80 96 33
       4.249403e-06 2.862951e-08 6.0565475e-07 7.008229e-08
000380 b1 fe d9 2f 30 b2 8e 27 79 62 2b 32 9d e9 c0 31
       3.965304e-10 3.960611e-15 9.9759e-09 5.614494e-09
000390 19 f1 b3 33 86 c6 ab 34 4c 40 0c 35 69 e9 f7 32
       8.3791925e-08 3.1995677e-07 5.224763e-07 2.8860727e-08
0003a0 03 27 70 31 03 ab 1d 27 16 c6 70 32 12 ba 8d 30
       3.4946772e-09 2.1880832e-15 1.4014878e-08 1.0311985e-09
0003b0 20 8b 3f 34 1a a3 02 35 0a a9 13 35 81 8c 6c 33
       1.7838875e-07 4.866612e-07 5.500775e-07 5.507582e-08
0003c0 c5 ca 22 31 e9 83 41 27 47 0c 98 31 4d 10 ef 32
       2.3689364e-09 2.685564e-15 4.425178e-09 2.7830675e-08
0003d0 5c b3 db 33 29 bc 87 34 d2 f9 03 35 c8 9b f3 32
       1.02306075e-07 2.5282614e-07 4.916484e-07 2.8359764e-08
0003e0 b5 4b 95 32 20 f8 57 2d 6d ef 14 30 40 f8 18 31
       1.738031e-08 1.227643e-11 5.418233e-10 2.2260025e-09
0003f0 89 f8 6e 34 1c 24 b7 34 da 62 2a 35 d6 66 19 33
       2.2255894e-07 3.411268e-07 6.3473783e-07 3.5716617e-08

exp_avg f4 [128]
000000 9c b9 ff bb 2a 03 de 39 54 68 c7 39 43 bf bb 3b
       -0.007804109 0.00042345497 0.00038033968 0.0057295873
000010 a2 24 d1 3b 13 1e 51 39 e4 62 16 39 c4 ce e8 3a
       0.006382541 0.00019942997 0.00014341954 0.0017761816
000020 09 6e 6c bb 0b 9e 0a bc 89 52 2b 3b c7 8e a3 bb
       -0.0036076328 -0.008460532 0.0026141724 -0.0049913856
000030 8b d2 31 3b 7e 30 50 bb b3 6d 76 3b 44 f2 b3 ba
       0.002713355 -0.0031767185 0.0037602007 -0.0013728817
000040 71 3b 27 3b 3f 36 c9 bb 51 86 da bb d3 9c cb 3b
       0.0025517608 -0.0061405 -0.006668844 0.0062137633
000050 d8 ce 01 3c 59 bd 79 3b c7 bb 26 bc d0 fc 1d bb
       0.007922851 0.0038107245 -0.010176606 -0.0024106987
000060 b0 17 71 3a a4 16 9b b8 74 ed 2d bc 3e 99 86 bb
       0.000919695 -7.395193e-05 -0.010615695 -0.0041076234
000070 b9 c0 93 ba 8b cc ea 3b 3c f5 84 3b d1 b2 94 bb
       -0.0011272646 0.0071654967 0.0040575545 -0.004537918
000080 6d 39 43 3b 8f 30 8f 3b 67 5a 89 bb 78 bf 91 3b
       0.0029788867 0.0043698023 -0.004191685 0.0044478737
000090 c7 e8 3e 3b bb 5a 59 bc c0 5f 31 bb a6 ad 84 3a
       0.0029130445 -0.013266261 -0.0027065128 0.0010122552
0000a0 f2 d8 db 3b d3 76 f5 3a 17 3d 2b bc ab 89 16 bb
       0.0067092115 0.0018727429 -0.010451577 -0.002297024
0000b0 c6 88 19 3b a4 55 92 39 35 41 18 bb 97 46 45 bb
       0.002342747 0.00027911097 -0.0023232226 -0.003010189
0000c0 ce 21 98 39 bc f0 25 3a 2d 2f 97 bb 00 05 9b 3b
       0.00029016886 0.00063301227 -0.004613778 0.0047308207
0000d0 54 ba 67 bb da fb 77 3b 79 38 57 3b ec e4 3b 3b
       -0.0035358863 0.0037839324 0.0032840057 0.0028670384
0000e0 c8 fd 71 39 e5 6b 9c ba e7 ed 2e bb 4a 60 e1 39
       0.00023078092 -0.001193401 -0.0026692094 0.00042987085
0000f0 0b c6 eb 3a 73 56 01 3b a7 1d 8d 3a 53 0c 51 3b
       0.0017988099 0.0019735366 0.0010766283 0.0031898215
000100 f4 49 a2 3a ff 41 77 3b 39 97 d3 bb 59 75 c6 bb
       0.0012381659 0.0037728546 -0.006457236 -0.0060564694
000110 a4 e0 81 3b d3 df 8c b7 df ab 6a ba 96 20 cc 3b
       0.003963547 -1.6793527e-05 -0.00089520024 0.0062294705
000120 6d dd c2 ba 98 1a ec 3a a3 bd d9 3a 2e 4b 94 3b
       -0.0014867015 0.0018013297 0.0016612302 0.0045255637
000130 82 ae 79 3a d2 63 7c 3b f2 7f d8 3b e2 f9 a4 bb
       0.00095246 0.0038511646 0.006607049 -0.005034671
000140 42 5d 25 b8 8b 1b dc b9 46 bb 43 39 5f 1b 10 3b
       -3.942592e-05 -0.0004198219 0.00018666414 0.002198897
000150 eb 6a 09 bb d4 ce dd 38 65 fe ca 3b 4a cf f5 3a
       -0.002096827 0.00010576626 0.006194877 0.0018753794
000160 68 5e dd 3b a0 cf f6 bb af 95 38 ba 53 48 c9 3a
       0.006755639 -0.007532075 -0.00070413476 0.0015356637
000170 71 b9 0e bb b2 9d bc 3a 34 00 dc bb 80 63 e5 ba
       -0.0021778012 0.0014390259 -0.0067138914 -0.0017500967
000180 0c a7 ca 3b 46 5d af b9 19 e6 9f bb 8b a3 92 bb
       0.0061844643 -0.00033448095 -0.0048797247 -0.0044750622
000190 f9 55 03 bc ed 6c a8 3a 7f 2a 52 bb d3 27 7f ba
       -0.008016103 0.0012849845 -0.0032068787 -0.00097334123
0001a0 e8 b2 05 3a b5 a2 04 3b d8 bf fc 38 a2 79 aa 3a
       0.00051002065 0.0020238583 0.0001205203 0.001300622
0001b0 fe ea 5d 3b fe 73 0b ba ba 42 12 3c 6f 39 16 3b
       0.003386199 -0.00053197134 0.008927042 0.0022922417
0001c0 75 4a 2f 3a 65 91 4c 3a 9a b5 36 bb 30 62 5e 3b
       0.0006686815 0.0007803648 -0.002787924 0.0033933036
0001d0 85 28 fd 3b ac 49 6e 3b 1f 47 fc 3a a2 1a 32 3c
       0.0077257776 0.003635983 0.001924727 0.010870608
0001e0 72 7b c5 ba e0 ec 3e ba 70 b5 0a ba 19 47 dc bb
       -0.0015066697 -0.0007283222 -0.00052913185 -0.0067223427
0001f0 40 ab 9c 3b 58 7c fd 39 b8 0f a5 3a f0 cc 54 3a
       0.004781157 0.00048348564 0.0012593186 0.0008117696

exp_avg_sq f4 [128]
000000 90 29 32 3a 9e 14 13 36 0b 96 68 35 8b 7b f3 39
       0.00067963544 2.1916708e-06 8.6645076e-07 0.00046440618
000010 2f f0 65 3a e6 04 1c 36 2d 64 d0 35 d3 33 b0 38
       0.0008771447 2.3248663e-06 1.5526363e-06 8.401987e-05
000020 17 7b 88 39 4b d2 06 3a 73 c2 01 39 a6 f2 95 39
       0.0002603165 0.00051430304 0.00012374837 0.00028600282
000030 13 7c 89 38 5a 28 9d 39 27 f1 4e 39 e0 12 d3 39
       6.55578e-05 0.00029975438 0.00019735527 0.0004025912
000040 58 51 10 39 84 4f ea 39 fc be e0 39 6d 84 0a 3a
       0.00013763213 0.00044691202 0.00042866904 0.0005284015
000050 d2 f1 40 3a 8e 79 30 39 a3 48 a9 3a 49 6b fc 38
       0.0007360253 0.0001682995 0.0012915324 0.0001203628
000060 c7 64 44 37 6f 96 f9 35 dc 83 90 3a 02 6f 3f 39
       1.1705974e-05 1.8595728e-06 0.0011025625 0.00018256533
000070 08 8e 1b 38 d2 ab f2 39 9b d7 46 39 5b b7 44 39
       3.7087157e-05 0.00046285853 0.00018963071 0.00018760322
000080 be 47 82 39 b4 12 9a 39 4c a7 34 39 7a fc 6d 39
       0.00024848984 0.00029387104 0.0001722846 0.00022696136
000090 32 3e ce 38 05 77 ca 3a 7c ed b2 38 c7 86 47 37
       9.83443e-05 0.0015446848 8.531936e-05 1.1892705e-05
0000a0 0d b6 fc 39 5a 02 25 38 2a 73 40 3a cd eb 25 38
       0.00048200824 3.9341256e-05 0.00073413795 3.9558672e-05
0000b0 e1 a2 a2 38 4f b6 21 37 8c 54 cf 39 c9 f2 2f 39
       7.7551005e-05 9.638795e-06 0.0003954511 0.00016779745
0000c0 da c4 c0 35 b8 16 d9 37 b4 ec d6 39 e7 1d 8a 39
       1.4362406e-06 2.5878995e-05 0.00040993618 0.0002634369
0000d0 c2 57 02 39 99 7d 1e 39 d7 1a 1a 39 21 ed 46 39
       0.00012430458 0.00015114843 0.00014696583 0.00018971089
0000e0 3e 4c 9d 35 db d6 f8 37 fd dd 00 39 18 e7 bd 35
       1.1719601e-06 2.9663954e-05 0.00012289728 1.4148854e-06
0000f0 dc 10 8c 38 98 44 11 38 98 cb 67 37 dc d0 ae 38
       6.6788605e-05 3.4634577e-05 1.3816076e-05 8.33587e-05
000100 f7 77 de 36 ef 87 77 39 cc fd 30 3a d5 b7 48 39
       6.6300813e-06 0.00023606395 0.0006751686 0.00019141969
000110 f1 da 9b 39 f5 9d e5 34 59 a6 21 37 59 11 c2 39
       0.00029727028 4.2769503e-07 9.635079e-06 0.00037015488
000120 27 58 5c 38 19 cb 11 39 b4 59 00 38 62 87 16 39
       5.2534186e-05 0.00013903937 3.060112e-05 0.00014355549
000130 92 23 b5 37 e9 5f 50 39 54 fe 04 3a f3 3e c6 39
       2.1593445e-05 0.00019872155 0.0005073298 0.00037812404
000140 2a 34 85 34 60 fa 08 39 60 22 30 37 31 b3 89 38
       2.4811135e-07 0.00013063243 1.0498421e-05 6.566046e-05
000150 4c 75 67 38 94 1f 73 35 34 75 24 3a b7 9b 92 38
       5.5183933e-05 9.0570506e-07 0.0006273568 6.990827e-05
000160 d3 95 e6 39 77 49 30 3a 50 ba fc 36 8a 53 0a 38
       0.00043980646 0.00067248143 7.531875e-06 3.2979566e-05
000170 74 72 08 38 a0 02 57 38 f4 07 4e 3a 62 5c 1f 39
       3.253152e-05 5.126244e-05 0.00078594615 0.00015197837
000180 97 1a 02 3a 83 5e 36 38 a4 67 0a 3a f8 5a 47 39
       0.00049630686 4.3480202e-05 0.0005279726 0.00019012007
000190 5f a1 19 3a 1f 60 f5 37 fc fd 39 39 1c b3 07 37
       0.0005860533 2.9251036e-05 0.00017737591 8.088329e-06
0001a0 28 3a 85 36 f7 78 a8 38 32 57 59 35 d2 70 59 37
       3.970479e-06 8.033396e-05 8.0965685e-07 1.2960476e-05
0001b0 04 d9 7d 38 f8 77 14 36 96 36 95 3a bd 05 0f 39
       6.0522012e-05 2.212355e-06 0.0011384066 0.0001363968
0001c0 58 3b 9b 36 72 f3 86 36 94 47 62 39 86 c2 15 39
       4.6262685e-06 4.021852e-06 0.00021579704 0.00014282213
0001d0 95 12 3d 3a bd 3d 08 3a 00 70 a8 38 be b1 ca 3a
       0.0007212547 0.0005197188 8.031726e-05 0.0015464348
0001e0 16 50 1b 38 65 4f 95 37 8f 7f a8 36 b5 71 c5 39
       3.7029466e-05 1.7799155e-05 5.02164e-06 0.00037659486
0001f0 03 4e b3 39 2c 7c 7e 36 23 8e ca 37 69 21 b5 37
       0.00034199664 3.7921227e-06 2.4146464e-05 2.159244e-05
