results/opponentL/OpponentL/OpponentL-3499939.onnx (onnx, 125740 bytes, 5 tensors)

action_model._continuous_distribution.mu.weight f4 [1, 128]
-0.061179426 -0.066950105 0.06170907 -0.05186232 0.06379282 0.1177029 0.09382614 -0.067719355
0.14677654 -0.09228044 -0.06809742 0.07534704 -0.051386874 0.044976026 -0.09029067 -0.13878533
0.15238968 0.09236143 0.08129151 -0.0670867 -0.09961201 0.096718766 -0.058089823 0.070508495
-0.042108722 0.05730129 0.124877766 -0.030306945 0.09083097 0.057136662 -0.074278034 0.00077903515
0.14758722 -0.007496469 0.16713828 0.044144224 -0.09871447 -0.046290904 -0.06601957 -0.0569349
0.07865699 0.032347992 0.10921175 0.06165937 -0.031810828 -0.042461403 -0.1231617 0.12014699
0.10283498 0.084339775 -0.096018896 -0.05910516 -0.029041063 0.077334166 0.07872574 -0.041367613
-0.08612545 0.15259466 -0.13093325 -0.063387215 0.14837395 0.017879233 0.070942715 0.08108465
-0.10998876 0.08830679 -0.062369127 -0.121362016 -0.03039072 -0.056700315 0.07191518 0.11640292
-0.029319083 -0.10692481 -0.08748781 0.09721094 0.100545436 -0.012823068 -0.07243798 0.059151597
0.10743813 0.006120154 0.075510874 -0.07330923 -0.06839708 0.04149822 -0.09160357 -0.09425861
-0.04924184 -0.115411445 -0.00045008326 0.079909146 -0.106032506 -0.058869638 0.0574033 -0.029384492
0.049227074 -0.02980455 -0.09118546 -0.041724164 0.08733764 0.065244034 -0.04017431 -0.060824025
0.016527675 -0.14132373 0.14799806 -0.07068667 0.07047398 -0.04851319 0.088294595 -0.024357805
-0.037952784 0.11244614 -0.06876216 0.061732657 0.083360024 -0.052749462 0.062045634 0.041854665
0.07686457 0.08455524 0.1481996 0.073387094 0.07695576 0.0655267 -0.06371284 0.09243938
00000000: 4797 7abd 231d 89bd a6c2 7c3d 966d 54bd
00000010: cfa5 823d 380e f13d eb27 c03d 72b0 8abd
00000020: 974c 163e 87fd bcbd a976 8bbd 8d4f 9a3d
00000030: 0b7b 52bd c838 383d 51ea b8bd be1d 0ebe
00000040: 0a0c 1c3e fd27 bd3d 2a7c a63d c064 89bd
00000050: 6201 ccbd 7d14 c63d 98ef 6dbd c266 903d
00000060: 327a 2cbd c2b4 6a3d eabf ff3d 4546 f8bc
00000070: 9605 ba3d 2208 6a3d 151f 98bd 2a38 4c3a
00000080: 1b21 173e f1a4 f5bb 4c26 2b3e 93d0 343d
00000090: d02a cabd 889b 3dbd 4535 87bd 9234 69bd
000000a0: ea16 a13d 547f 043d 69aa df3d 898e 7c3d
000000b0: 124c 02bd 02ec 2dbd 343c fcbd a00f f63d
000000c0: 259b d23d 55ba ac3d 8ea5 c4bd 4118 72bd
000000d0: 86e7 edbc 6061 9e3d f63a a13d 1671 29bd
000000e0: 8a62 b0bd c641 1c3e 5e13 06be 28d1 81bd
000000f0: 57ef 173e 7877 923c 6a4a 913d b50f a63d
00000100: c941 e1bd 31da b43d c576 7fbd a68c f8bd
00000110: f6f5 f8bc 973e 68bd 4448 933d a764 ee3d
00000120: 932e f0bc 65fb dabd cf2c b3bd 8816 c73d
00000130: c4ea cd3d d817 52bc 5d5a 94bd f248 723d
00000140: 8608 dc3d 938b c83b 72a5 9a3d 2623 96bd
00000150: c513 8cbd 0afa 293d a79a bbbd a80a c1bd
00000160: d0b1 49bd d65c ecbd 27f9 ebb9 68a7 a33d
00000170: 9227 d9bd 4a21 71bd b91f 6b3d bfb7 f0bc
00000180: 54a2 493d ac28 f4bc 71bf babd f5e6 2abd
00000190: 14de b23d aa9e 853d d18d 24bd 9d22 79bd
000001a0: 0c65 873c 2bb7 10be ce8c 173e 2cc4 90bd
000001b0: a954 903d c4b5 46bd ccd3 b43d 058a c7bc
000001c0: 6174 1bbd 294a e63d 2dd3 8cbd 62db 7c3d
000001d0: a9b8 aa3d d20f 58bd 9023 7e3d cc6f 2b3d
000001e0: 2c6b 9d3d 4c2b ad3d a3c1 173e f94b 963d
000001f0: fb9a 9d3d dd32 863d e17b 82bd dc50 bd3d

network_body._body_endoder.seq_layers.0.bias f4 [128]
0.021062724 0.0047177398 -0.056360703 0.008214527 0.0076311384 0.012851676 0.010372765 0.031891793
0.009938735 0.0043715606 -0.0001056174 0.0010122427 -0.028084643 0.022002654 0.013998384 0.019272795
0.013466522 0.008098774 0.023068968 0.014325808 0.0239467 0.024260852 0.029652096 -0.008324796
-0.015111529 0.010948894 0.04537152 0.02474422 0.034375068 0.0065208166 0.011468711 -0.007183378
0.01305316 0.005592158 0.014249895 0.006109732 -0.008801458 0.019677686 0.02829414 0.0026698909
0.008591478 -0.007454674 0.006089119 -0.018972117 0.022967823 -0.00428284 0.007118273 0.012305381
-0.028394725 0.0014054066 0.01623742 -0.010615995 0.0051091174 -0.020153545 0.0050742934 0.019759707
-0.018759495 0.0005602597 0.0018098943 -0.022315528 0.029573718 -0.007233428 -0.042746823 -0.006512185
-0.006884621 0.004438074 0.04151329 0.010074723 0.01616618 0.008381243 0.016587451 -0.0006836061
0.009695931 0.005638936 -0.0037191529 0.040041737 -0.018196555 0.017759038 0.006415833 0.027858755
-0.03174849 0.01687072 -0.017355105 0.015135201 0.013286769 -0.02125141 0.017134888 0.012532928
0.00028350187 0.013452599 -0.009399332 -0.015410898 -0.001035254 0.01688519 0.03762621 0.027077002
0.014041631 0.029037884 0.036146965 -0.0073000193 0.00264073 0.0032903214 0.03319203 -0.017108532
-0.0067787804 -0.005055792 -0.02072912 -0.0050198426 0.0065434854 0.021557705 0.024058796 -0.004958618
-0.012438474 -0.0007954616 0.033897333 0.0029591867 0.020889472 0.015095715 0.004917072 0.01898423
0.007853546 -0.0060733403 0.008325067 -0.0014044951 -0.0016504743 0.013212619 0.05356159 0.0032943576
00000000: bc8b ac3c 4597 9a3b 7bda 66bd 3996 063c
00000010: a10e fa3b d68f 523c 88f2 293c f8a0 023d
00000020: 13d6 223c 4f3f 8f3b e97e ddb8 3bad 843a
00000030: c411 e6bc e93e b43c 7a59 653c fbe1 9d3c
00000040: b0a2 5c3c b8b0 043c 22fb bc3c cbb6 6a3c
00000050: df2b c43c b2be c63c f4e8 f23c ba64 08bc
00000060: 5996 77bc fd62 333c 7dd7 393d 64b4 ca3c
00000070: dfcc 0c3d 93ac d53b 43e7 3b3c 8b62 ebbb
00000080: ecdc 553c 6c3e b73b 6478 693c 2634 c83b
00000090: fe33 10bc 1933 a13c 1dc9 e73c 56f9 2e3b
000000a0: 45c3 0c3c 5746 f4bb 3b87 c73b 6a6b 9bbc
000000b0: 0427 bc3c 1157 8cbb 6740 e93b 829c 493c
000000c0: 0e9c e8bc 9f35 b83a 5604 853c b6ee 2dbc
000000d0: 626a a73b 0c19 a5bc 4246 a63b 1cdf a13c
000000e0: 83ad 99bc 64de 123a fa39 ed3a 0ecf b6bc
000000f0: 9544 f23c 6406 edbb 4b17 2fbd 2b64 d5bb
00000100: 6398 e1bb 436d 913b d709 2a3d 7310 253c
00000110: f06e 843c 7b51 093c 68e2 873c 0734 33ba
00000120: afdb 1e3c d3c6 b83b 08bd 73bb ce02 243d
00000130: f110 95bc 677b 913c e83b d23b 0b38 e43c
00000140: b40a 02bd 7734 8a3c 4b2c 8ebc a2f9 773c
00000150: c0b0 593c 7017 aebc 775e 8c3c e956 4d3c
00000160: faa2 9439 4a68 5c3c a8ff 19bc fe7d 7cbc
00000170: 5cb1 87ba cf52 8a3c f11d 1a3d 97d0 dd3c
00000180: de0e 663c dbe0 ed3c d70e 143d 0035 efbb
00000190: 1910 2d3b 6fa2 573b 5ef4 073d 3127 8cbc
000001a0: 8820 debb 0fab a5bb 1ed0 a9bc 7e7d a4bb
000001b0: bc6a d63b c999 b03c f416 c53c e77b a2bb
000001c0: beca 4bbc 8686 50ba eed7 0a3d eaee 413b
000001d0: 6620 ab3c 0554 773c 641f a13b d184 9b3c
000001e0: 29ac 003c df02 c7bb dd65 083c 0917 b8ba
000001f0: ba54 d8ba be79 583c 6663 5b3d 26e6 573b

network_body._body_endoder.seq_layers.0.weight f4 [128, 111]
-0.00712643 0.13037501 -0.33794475 0.18622883 -0.034965906 0.23219429 0.018852733 0.03650402
0.08869516 0.06768245 -0.15756251 -0.08962793 -0.11395705 0.12130977 -0.173461 0.05548438
-0.17221572 0.047020163 0.13473935 -0.104488574 -0.048930064 0.102563895 0.13896018 -0.13177972
-0.09423354 -0.029011074 0.08263633 -0.0242299 0.11554438 -0.03066426 -0.15320419 0.22817063
0.04042694 0.060773652 0.08392769 0.03799004 -0.13809262 -0.17816447 -0.041479934 -0.07317091
0.22442815 0.048334204 0.1507004 -0.10086141 0.09192027 0.055117916 -0.036032837 -0.027172506
0.12421903 0.011100928 -0.060522113 0.19871907 -0.069248274 -0.008313557 -0.07328593 -0.095205456
0.07250551 -0.013089864 0.06813646 0.20027465 0.054951686 0.04795955 0.004927163 0.0046753543
0.02568622 0.17646766 -0.16687153 -0.08226145 0.027618697 -0.018691467 -0.009768116 0.2031681
0.08668889 0.0056152856 -0.007667181 0.12376227 -0.21514644 0.03155815 -0.010020877 0.048899822
0.13001683 -0.02939977 -0.07720368 0.0030869597 0.0016849375 0.044816382 -0.014476387 0.17228591
0.066135995 -0.05049461 -0.05382361 -0.028335191 -0.13317375 0.06816725 -0.00021818701 0.30186626
-0.17433016 0.11163476 -0.19335476 -0.055900488 0.16770664 -0.13835633 0.2613681 0.047352217
0.10947314 0.13764268 0.15236041 -0.19879273 0.051363472 0.06754544 -0.18765196 -0.10483878
-0.06413697 0.072536945 0.057145532 -0.21821782 -0.105184995 0.1224699 0.035921857 -0.20815119
0.025740111 -0.12272743 -0.12656868 0.017095739 0.011377728 0.11667796 -0.06606781 0.0035505532
0.020745896 -0.13267644 -0.009335308 0.016281527 0.032120142 0.13872969 0.026698781 0.009926669
0.160482 -0.03367928 0.031862885 -0.058090515 -0.09014995 -0.053269517 0.0030765396 0.11848081
-0.001979513 0.1920195 0.042816978 0.0014786295 -0.029472662 -0.2030041 0.09172522 0.0003420004
-0.15070994 -0.021887023 0.0013025402 0.071203575 0.13440208 0.043413445 -0.1712001 0.029690547
0.07494039 0.11473051 0.29731402 0.13080923 0.0718319 -0.15588431 -0.023699777 0.032356165
0.04978688 -0.20093986 -0.21265991 -0.1549003 -0.042995874 -0.03486384 0.0769234 0.081299216
0.091183566 0.13573931 0.13223659 -0.0090725 0.053202778 -0.06810526 0.14292377 -0.12766837
-0.126632 -0.038262088 0.0065601724 0.03896671 0.25385305 -0.029496493 0.11884146 0.055480808
-0.13462387 0.0037009516 -0.013867775 0.10611492 -0.022707326 -0.03148494 -0.20509464 -0.09295014
-0.01892292 0.029283712 0.042638652 0.07498069 -0.06703707 0.089047685 -0.026729425 -0.102656476
-0.067497596 -0.07014728 0.034157846 -0.09543464 -0.027758474 0.0035393345 0.098713845 -0.08388608
0.05493892 -0.05132061 -0.00090868934 -0.111550115 -0.1300266 0.061811052 0.0062416242 0.020219723
0.020241236 -0.14055832 -0.09736811 -0.16261302 -0.06820491 -0.17586422 -0.11548258 -0.09564266
0.13576892 -0.01885039 -0.12966667 0.00079069706 0.14315785 -0.03739886 -0.103903934 0.008344419
-0.028239632 0.079057276 -0.0019078752 -0.13660528 0.013642291 0.025251796 -0.11873676 -0.27960587
-0.0930627 0.04729733 0.12408393 0.0042801644 0.058597878 -0.22298388 0.06084429 0.03843362
00000000: d484 e9bb 0781 053e 1807 adbe c5b2 3e3e
00000010: 6938 0fbd 57c4 6d3e 0c71 9a3c 3d85 153d
00000020: cfa5 b53d 199d 8a3d 1158 21be d98e b7bd
00000030: 5062 e9bd 4271 f83d c39f 31be 9743 633d
00000040: 5159 30be 3798 403d 1df9 093e 1bfe d5bd
00000050: e46a 48bd 050d d23d 944b 0e3e 43f1 06be
00000060: 84fd c0bd a2a8 edbc 3c3d a93d c97d c6bc
00000070: 88a2 ec3d 9d33 fbbc 8fe1 1cbe 90a5 693e
00000080: b896 253d cbed 783d 48e2 ab3d 729b 1b3d
00000090: 2768 0dbe bf70 36be dde6 29bd a1da 95bd
000000a0: 7ed0 653e 16fa 453d 3551 1a3e 6d90 cebd
000000b0: b240 bc3d 53c3 613d 2b97 13bd e098 debc
000000c0: 8c66 fe3d abe0 353c 09e6 77bd 037d 4b3e
000000d0: 0ad2 8dbd 9635 08bc ef16 96bd 14fb c2bd
000000e0: c57d 943d de76 56bc 218b 8b3d cc14 4d3e
000000f0: 0515 613d 3c71 443d 0a74 a13b b733 993b
00000100: e86b d23c f0b3 343e 5fe0 2abe b178 a8bd
00000110: 9b40 e23c d91e 99bc 730a 20bc 4c0b 503e
00000120: f289 b13d 6e00 b83b fa3c fbbb 1377 fd3d
00000130: 594f 5cbe 1e43 013d 9b2e 24bc 2e4b 483d
00000140: 2223 053e c9d7 f0bc f71c 9ebd 974e 4a3b
00000150: 1fd9 dc3a 6291 373d 5e2e 6dbc b86b 303e
00000160: 4f72 873d 70d3 4ebd 2576 5cbd 341f e8bc
00000170: b35e 08be 459b 8b3d 21c9 64b9 378e 9a3e
00000180: 9b83 32be c4a0 e43d cafe 45be e9f7 64bd
00000190: 4abb 2b3e 48ad 0dbe 0ad2 853e 66f4 413d
000001a0: 7433 e03d 34f2 0c3e 5e04 1c3e 5290 4bbe
000001b0: 8162 523d 4355 8a3d d627 40be b7b5 d6bd
000001c0: 3e5a 83bd 408e 943d 6f11 6a3d 7e74 5fbe
000001d0: 3b6b d7bd 80d1 fa3d cc22 133d 9625 55be
000001e0: eddc d23c 8558 fbbd 389b 01be 5d0c 8c3c
000001f0: a669 3a3c dbf4 ee3d 8f4e 87bd 66b0 683b
00000200: 4cf3 a93c 55dc 07be 1ff3 18bc d660 853c
00000210: 6990 033d 280f 0e3e 67b7 da3c 78a3 223c
00000220: 6555 243e 49f3 09bd a882 023d 52f0 6dbd
00000230: 89a0 b8bd 2331 5abd c59f 493b 11a6 f23d
00000240: b8ba 01bb c3a0 443e db60 2f3d 93ce c13a
00000250: a770 f1bc 4fe0 4fbe 6fda bb3d 844e b339
00000260: b553 1abe 6a4c b3bc ffb9 aa3a 2ed3 913d
00000270: b3a0 093e 4cd2 313d 144f 2fbe 9739 f33c
00000280: 597a 993d d4f7 ea3d 8b39 983e dbf2 053e
00000290: 9a1c 933d 23a0 1fbe 0926 c2bc e687 043d
000002a0: 54ed 4b3d 2ec3 4dbe 85c3 59be 2f9e 1ebe
000002b0: 711c 30bd 63cd 0ebd 048a 9d3d 3480 a63d
000002c0: 73be ba3d 3fff 0a3e 0769 073e d3a4 14bc
000002d0: 28eb 593d c57a 8bbd 9c5a 123e 7fbb 02be
000002e0: d2ab 01be b5b8 1cbd b7f6 d63b 8f9b 1f3d
000002f0: 07f9 813e a1a2 f1bc 2763 f33d d83f 633d
00000300: d7da 09be aa8b 723b aa35 63bc c752 d93d
00000310: b704 babc 5af6 00bd 5404 52be a55c bebd
00000320: 3d04 9bbc 65e4 ef3c dea5 2e3d 7a8f 993d
00000330: bb4a 89bd a25e b63d abf7 dabc 8f3d d2bd
00000340: 2e3c 8abd 61a9 8fbd 19e9 0b3d 3d73 c3bd
00000350: bd65 e3bc 2ef4 673b 7c2a ca3d 77cc abbd
00000360: a207 613d 8f35 52bd 1c35 6eba 6374 e4bd
00000370: b125 05be 962d 7d3d 8a86 cc3b d5a3 a53c
00000380: f3d0 a53c 85ee 0fbe ef68 c7bd 0784 26be
00000390: 04af 8bbd c015 34be 2282 ecbd 4de0 c3bd
000003a0: 0207 0b3e 226c 9abc 57c7 04be c846 4f3a
000003b0: f997 123e 8c2f 19bd 96cb d4bd 08b7 083c
000003c0: cd56 e7bc c8e8 a13d ab11 faba 41e2 0bbe
000003d0: ea83 5f3c dbdc ce3c 422c f3bd 8028 8fbe
000003e0: a897 bebd d8ba 413d b71f fe3d 9f40 8c3b
000003f0: 5404 703d e355 64be dd37 793d 926c 1d3d

network_body._body_endoder.seq_layers.2.bias f4 [128]
0.013160988 0.008348321 0.007992576 0.0134570785 0.011515902 0.015012119 0.04766472 0.02305012
0.03325947 0.019046172 0.007452637 0.013767132 0.00173474 0.015570729 0.015146443 0.031215116
0.04232519 0.017311992 0.02416487 0.01698251 0.03303256 0.021194816 0.016329551 0.025925241
-0.001165148 0.00860553 0.039959732 0.019175937 0.020359034 0.015529375 0.007874132 0.025568709
0.037551004 0.008690092 0.0384362 0.017729566 0.02093448 0.020263186 0.017324205 0.010366527
0.022899535 0.010276102 0.040592883 0.011757724 -0.0019592464 0.0059747463 0.021564633 0.039812636
0.033567872 0.017634373 0.04566812 0.008794026 0.013086725 0.01968275 0.036853798 0.0026391253
0.02779254 0.028422562 0.037097253 0.013579273 0.04474643 -0.01213351 0.024922298 0.021360368
0.016438698 0.030724151 0.027031979 0.026892938 0.022807384 0.017764006 0.024810718 0.025711019
0.0015973867 0.018922219 0.017795421 0.021208111 0.030540612 -0.015910774 0.0025058882 0.030940218
0.017313654 0.0022040226 0.033487104 0.021229701 0.013875269 0.023238003 0.029135624 0.033488438
0.0035631114 0.025016006 0.008742561 0.028776472 0.028282695 0.0051092114 0.012180474 -0.0024195241
0.0108728465 0.0033104417 0.02022728 -0.0005121024 0.019380137 0.01885149 0.0006713605 0.021804057
0.01340608 0.040264327 0.028320666 0.012610316 0.030417208 0.0050120256 0.032205515 0.0014491938
0.0041684457 0.03339522 0.018316232 0.016019009 0.031126508 0.010547276 0.02709398 -0.009465999
0.022796342 0.025054617 0.045969974 0.01694867 0.018734252 0.026141992 0.013424324 0.020758312
00000000: 2fa1 573c 65c7 083c 4bf3 023c 147b 5c3c
00000010: 32ad 3c3c 64f5 753c 153c 433d 9bd3 bc3c
00000020: 153b 083d b806 9c3c 4035 f43b 898f 613c
00000030: 3760 e33a 5f1c 7f3c c928 783c d8b6 ff3c
00000040: 2e5d 2d3d e1d1 8d3c 68f5 c53c e81e 8b3c
00000050: 264d 073d c0a0 ad3c 8dc5 853c 2c61 d43c
00000060: e1b7 98ba 35fe 0c3c d1ac 233d db16 9d3c
00000070: fdc7 a63c eb6e 7e3c 8102 013c 7875 d13c
00000080: 15cf 193d e360 0e3c 476f 1d3d 983d 913c
00000090: c97e ab3c fbfe a53c 7eeb 8d3c 5ed8 293c
000000a0: ce97 bb3c 195d 283c b944 263d 78a3 403c
000000b0: b366 00bb cec7 c33b 50a8 b03c 9312 233d
000000c0: 777e 093d f675 903c 7f0e 3b3d d214 103c
000000d0: b469 563c b83d a13c 02f4 163d 2df5 2c3b
000000e0: 2ead e33c 6fd6 e83c 4af3 173d 997b 5e3c
000000f0: 0848 373d a1cb 46bc d929 cc3c f0fb ae3c
00000100: 73aa 863c 37b1 fb3c 2b72 dd3c 944e dc3c
00000110: 8dd6 ba3c d285 913c d93f cb3c ea9f d23c
00000120: 675f d13a c502 9b3c b4c7 913c a2bc ad3c
00000130: 4e30 fa3c 5057 82bc d439 243b 5776 fd3c
00000140: 5dd5 8d3c 5d71 103b c629 093d e9e9 ad3c
00000150: 1955 633c a05d be3c d5ad ee3c 2c2b 093d
00000160: 1783 693b 5eee cc3c f53c 0f3c a3bc eb3c
00000170: 1cb1 e73c 2c6b a73b 9c90 473c e190 1ebb
00000180: 0624 323c fff3 583b aeb3 a53c 9c3e 06ba
00000190: 18c3 9e3c 716e 9a3c 3efe 2f3a 6c9e b23c
000001a0: 2da5 5b3c 35ec 243d be00 e83c 809b 4e3c
000001b0: 822d f93c eb3b a43b eee9 033d e0f2 bd3a
000001c0: 7597 883b 6dc9 083d ec0b 963c 4c3a 833c
000001d0: 05fd fe3c 7bce 2c3c 32f4 dd3c 4717 1bbc
000001e0: 65bf ba3c 573f cd3c 034b 3c3d f0d7 8a3c
000001f0: 9378 993c bb27 d63c b2f1 5b3c 560d aa3c

network_body._body_endoder.seq_layers.2.weight f4 [128, 128]
-0.06535263 -0.16885084 -0.04579076 0.043202326 0.03910212 -0.06723063 0.20544595 -0.02380312
-0.08354145 -0.1078255 0.011663442 -0.08310401 -0.015402075 -0.17487007 0.10765949 -0.05083156
-0.05995062 0.04184622 -0.071997 0.12613876 0.1327776 -0.025914602 -0.2357201 -0.06797295
-0.03376311 0.073185466 0.036906246 0.013365622 -0.08286438 -0.03088605 -0.01884957 -0.027523724
-0.013653592 0.017447473 -0.031874716 -0.09735538 0.25854656 -0.06459691 0.03168106 0.15326439
0.052760504 -0.1301677 -0.011295794 -0.16927244 0.068177626 -0.0550447 -0.059335433 -0.13879193
0.059591807 0.05011553 0.039911307 0.093849525 0.19254252 0.13539973 0.06943473 0.11616303
0.037498135 -0.08060911 0.0007059481 -0.063378945 0.009053002 0.018042916 -0.04396552 0.11436181
-0.023846785 0.052430976 0.052986313 -0.21193585 0.049581435 -0.16328156 -0.11155117 -0.1223133
-0.0657993 -0.14417122 0.007041877 0.012528987 0.05502714 0.026637537 -0.016739614 0.024896266
-0.12139653 -0.061995126 0.027292231 -0.10335178 0.12303802 -0.003950859 -0.01882078 0.038075358
-0.08246193 -0.11300322 -0.004246816 -0.041376732 -0.19178241 -0.10842491 -0.0076826224 -0.04290942
0.15025501 -0.11835072 -0.0754507 -0.06592831 -0.031921145 0.05379758 -0.04739135 -0.0804877
0.046721797 0.058184657 0.04008948 -0.08991681 -0.15732768 -0.13230124 0.28254557 0.008912118
-0.027976245 0.1425145 -0.040904906 -0.013625855 0.13695484 -0.08483201 0.008415097 0.22580262
0.0200473 0.023428632 -0.0030857052 0.009667687 -0.11558928 -0.002062658 -0.10190155 0.14284115
0.012960091 -0.08842567 0.0836318 0.14161892 -0.019600192 -0.005997981 0.096868634 0.21636412
-0.17430073 -0.20832437 -0.027273841 -0.09207515 -0.047087755 -0.1009708 -0.058337413 -0.2759787
0.02510529 -0.16799046 0.042616487 0.13209657 0.05260619 -0.05532792 -0.004319489 -0.06205239
0.010465585 0.025676072 0.0014348878 -0.03800217 -0.0069913804 0.107726075 -0.043745656 0.030501848
-0.007833519 0.17946094 -0.03880657 -0.033819024 -0.119799204 -0.110023096 0.019646067 0.05903427
0.07657848 0.121305995 -0.08067904 -0.08321278 0.09889361 0.024281992 -0.19131294 0.05423905
-0.03625176 -0.013719468 -0.06951966 0.14286876 -0.0686565 0.06396879 -0.06309781 0.049743038
-0.19834642 -0.17690042 0.046823014 0.0630572 -0.040098824 0.14010128 -0.1864407 -0.01377293
-0.0036100158 0.19010502 -0.09742376 -0.14390066 0.11686561 -0.011781318 0.044415534 0.13594332
0.10220694 0.0165025 0.035856232 -0.024708156 -0.12225382 0.020015722 -0.034544848 -0.13384904
-0.061071638 -0.06535709 0.06497298 0.056418955 -0.036780696 0.06933682 0.26688465 0.0002752917
0.11088297 0.042712864 0.16949864 -0.13801178 -0.033232853 0.09284109 -0.08901776 0.07055277
0.17284738 0.020128587 -0.046731446 0.023985934 0.050144866 0.15054427 -0.059995037 0.016903222
0.15192233 0.06280123 -0.11395806 -0.017306555 -0.07688053 -0.053318534 0.0196127 0.022367
-0.02494068 0.026050067 0.07060117 0.025565837 0.07518327 0.11239879 0.094447255 0.036359113
-0.149178 0.047161322 0.1123705 0.02762736 -0.06048097 0.081251375 0.051427323 0.006771317
00000000: 9ad7 85bd 3ce7 2cbe 188f 3bbd ecf4 303d
00000010: 8b29 203d 36b0 89bd 6c60 523e c3fe c2bc
00000020: c817 abbd 9ed3 dcbd 0518 3f3c 6f32 aabd
00000030: fc58 7cbc 2411 33be 947c dc3d c134 50bd
00000040: c88e 75bd f166 2b3d 2a73 93bd 852a 013e
00000050: daf6 073e dc4a d4bc 9c60 71be 6735 8bbd
00000060: 304b 0abd 43e2 953d 012b 173d 7bfb 5a3c
00000070: cdb4 a9bd be04 fdbc 6a6a 9abc 6f79 e1bc
00000080: 51b3 5fbc 01ee 8e3c 108f 02bd 4262 c7bd
00000090: 3760 843e 624b 84bd 00c4 013d 57f1 1c3e
000000a0: 661b 583d ae4a 05be fe11 39bc c155 2dbe
000000b0: b6a0 8b3d 8d76 61bd b609 73bd 791f 0ebe
000000c0: 8a16 743d f145 4d3d 0a7a 233d 2e34 c03d
000000d0: de29 453e 3aa6 0a3e cc33 8e3d e2e6 ed3d
000000e0: a597 193d 6416 a5bd 600f 393a d2cc 81bd
000000f0: 0b53 143c bdce 933c 3015 34bd 8636 ea3d
00000100: 555a c3bc ddc1 563d 2d08 593d b605 59be
00000110: e715 4b3d 4833 27be f174 e4bd 657f fabd
00000120: c9c1 86bd 9fa1 13be 8cbf e63b 6146 4d3c
00000130: 2364 613d f736 da3c 8421 89bc 41f3 cb3c
00000140: be9e f8bd 9aee 7dbd f593 df3c 19aa d3bd
00000150: 5cfb fb3d 3576 81bb 092e 9abc e8f4 1b3d
00000160: cde1 a8bd 3b6e e7bd e028 8bbb a67a 29bd
00000170: 9c62 44be e10d debd 82be fbbb cac1 2fbd
00000180: 73dc 193e dd61 f2bd e685 9abd 6c05 87bd
00000190: bfbf 02bd da5a 5c3d 6f1d 42bd bcd6 a4bd
000001a0: 5b5f 3f3d 0953 6e3d de34 243d 4e26 b8bd
000001b0: 821a 21be fa79 07be d0a9 903e 2204 123c
000001c0: 702e e5bc 52ef 113e e78b 27bd fa3e 5fbc
000001d0: e43d 0c3e 68bc adbd 7adf 093c cd38 673e
000001e0: 3c3a a43c 67ed bf3c 8b39 4abb 3865 1e3c
000001f0: 13ba ecbd a92d 07bb c3b1 d0bd f344 123e
00000200: 9056 543c 8518 b5bd 2647 ab3d 8d04 113e
00000210: 9590 a0bc b68a c4bb 1063 c63d 8e8e 5d3e
00000220: e47b 32be fc52 55be 646d dfbc e591 bcbd
00000230: 17df 40bd c7c9 cebd 36f3 6ebd 154d 8dbe
00000240: 9ca9 cd3c b105 2cbe a08e 2e3d 5344 073e
00000250: 9779 573d 879f 62bd 808a 8dbb a62a 7ebd
00000260: d877 2b3c a056 d23c d812 bc3a 2aa8 1bbd
00000270: f317 e5bb 7d9f dc3d a52e 33bd 03df f93c
00000280: 2958 00bc 9cc4 373e a3f3 1ebd d185 0abd
00000290: 4959 f5bd ca53 e1bd caf0 a03c ebcd 713d
000002a0: 2ed5 9c3d 476f f83d 0d3b a5bd 766b aabd
000002b0: bc88 ca3d 07eb c63c 8ae7 43be c429 5e3d
000002c0: ba7c 14bd 9fc7 60bc 5360 8ebd 304c 123e
000002d0: c79b 8cbd 1202 833d 6d39 81bd 5bbf 4b3d
000002e0: 531b 4bbe 6225 35be 7dc9 3f3d 2224 813d
000002f0: aa3e 24bd b676 0f3e 50ea 3ebe dba7 61bc
00000300: 0496 6cbb e4aa 423e 1c86 c7bd b25a 13be
00000310: 3d57 ef3d 6e06 41bc 10ed 353d ba34 0b3e
00000320: df51 d13d 4030 873c fcdd 123d c268 cabc
00000330: 3660 fabd 03f8 a33c e67e 0dbd b90f 09be
00000340: 4126 7abd f0d9 85bd 8e10 853d 9017 673d
00000350: 5ba7 16bd 7600 8e3d 1ba5 883e 0755 9039
00000360: 9c16 e33d aff3 2e3d 0d91 2d3e f652 0dbe
00000370: 2c1f 08bd 7823 be3d f14e b6bd f87d 903d
00000380: e7fe 303e b5e4 a43c 7969 3fbd 267e c43c
00000390: b464 4d3d 4728 1a3e 5bbd 75bd a078 8a3c
000003a0: 8791 1b3e ee9d 803d d862 e9bd 7ac6 8dbc
000003b0: 8a73 9dbd 8964 5abd d0aa a03c 003b b73c
000003c0: 6650 ccbc f366 d53c 5997 903d 726f d13c
000003d0: b0f9 993d 5631 e63d 906d c13d 4bed 143d
000003e0: 1ec2 18be 3b2c 413d 8122 e63d c652 e23c
000003f0: e5ba 77bd 1f67 a63d 75a5 523d ede1 dd3b
