results/opponentL/OpponentL/OpponentL-2999994.pt (torch, 760415 bytes, 30 tensors)

network_body._body_endoder.seq_layers.0.weight f4 [128, 111]
0	0xbb811633	-0.003939414
1	0x3df07724	0.11741474
2	0xbeac0e67	-0.33604738
3	0x3e3eb2c5	0.18622883
4	0xbcb89fa7	-0.022537066
5	0x3e761c55	0.24034245
6	0x3c78b509	0.015179881
7	0x3d20172a	0.03908459
8	0x3dae1cfc	0.08501622
9	0x3d98c621	0.07459665
10	0xbe1c0766	-0.15237197
11	0xbdb78ed9	-0.08962793
12	0xbdcff5ca	-0.101543024
13	0x3dd02e5b	0.101650916
14	0xbe30bcdd	-0.17259546
15	0x3d5b90ef	0.053605016
16	0xbe34fa26	-0.17673549
17	0x3d20d731	0.039267723
18	0x3dfedc3b	0.124443494
19	0xbdd5fe1b	-0.104488574
20	0xbd80e7d8	-0.06294221
21	0x3de9da02	0.11418535
22	0x3e11c7cc	0.14236373
23	0xbe03c261	-0.12867118
24	0xbdc3aa1b	-0.095539294
25	0xbca3d0af	-0.019996969
26	0x3daa7692	0.08323397
27	0xbc98c733	-0.018649673
28	0x3dd4a4e9	0.103830166
29	0xbd362650	-0.04447013
30	0xbe1ea791	-0.15493609
31	0x3e6754cf	0.22590946
32	0x3d220e24	0.039564267
33	0x3d4bb041	0.049728636
34	0x3dbe4363	0.09290197
35	0x3d1b9b72	0.03799004
36	0xbe07e3ac	-0.13270444
37	0xbe30b8f1	-0.1725805
38	0xbd2c3b50	-0.042048752
39	0xbd8dde3e	-0.06927155
40	0x3e64c452	0.22340515
41	0x3d45f3b5	0.04832812
42	0x3e15c91f	0.14627503
43	0xbdc3bfa3	-0.09558036
44	0x3dbfd196	0.09366147
45	0x3d7a9341	0.06117559
46	0xbd13015f	-0.03588998
47	0xbcece106	-0.028915893
48	0x3e00c468	0.12574923
49	0x3b990936	0.0046702875
50	0xbd6afc5a	-0.057369567
51	0x3e4b7d03	0.19871907
52	0xbda404e8	-0.08008748
53	0xbbcb8591	-0.0062109907
54	0xbd985e72	-0.07439889
55	0xbdc2ba48	-0.095081866
56	0x3d8e4ad0	0.06947863
57	0xbc6c79b0	-0.014433309
58	0x3d8c598d	0.06853018
59	0x3e4393af	0.19099306
60	0x3d819f51	0.06329215
61	0x3d4e91fd	0.050432194
62	0x3ba8184d	0.00512985
63	0x3b899af4	0.00419938
64	0x3ce66b0d	0.028127218
65	0x3e2f3c5a	0.17112866
66	0xbe27d395	-0.16389306
67	0xbda878b1	-0.08226145
68	0x3d00ff27	0.031493332
69	0xbca23702	-0.01980162
70	0xbc30af75	-0.01078402
71	0x3e50480a	0.2033998
72	0x3da3e1e0	0.080020666
73	0x3c0bf1c8	0.008541532
74	0xba9966ff	-0.0011703669
75	0x3e044f10	0.12920785
76	0xbe63e693	-0.22255926
77	0x3d14308e	0.036179118
78	0xbc1a0e4d	-0.009402824
79	0x3d4257fc	0.04744719
80	0x3e018ae3	0.12650637
81	0xbd15dc24	-0.036586896
82	0xbdb116cc	-0.08646926
83	0x3b4a4e97	0.0030869597
84	0xbccb4388	-0.024812475
85	0x3d4e0f53	0.050307583
86	0xbc3cebe3	-0.011530849
87	0x3e32c307	0.1745721
88	0x3d84bb3f	0.06481027
89	0xbd24b354	-0.040210083
90	0xbd4c3899	-0.049858663
91	0xbce62e9f	-0.028098403
92	0xbe1bcada	-0.152141
93	0x3d927b2e	0.07152401
94	0xbb032010	-0.0020008124
95	0x3e99f76e	0.30071586
96	0xbe345577	-0.17610727
97	0x3ddc77ec	0.10765061
98	0xbe4d99ba	-0.20078173
99	0xbd7a0e5e	-0.061048858
100	0x3e27ff6f	0.16406034
101	0xbe1111d2	-0.14166954
102	0x3e86bcb1	0.26315835
103	0x3d459424	0.04823698
104	0x3dddbbda	0.108268455
105	0x3e06680d	0.1312563
106	0x3e23b210	0.15985894
107	0xbe4dfc79	-0.20115842
108	0x3d6e13a1	0.05812419
109	0x3d8bb53c	0.06821677
110	0xbe3b5bda	-0.18296757
111	0xbdd49348	-0.10379654
112	0xbd723cb8	-0.059139937
113	0x3dc1a0d3	0.09454503
114	0x3d6a116f	0.057145532
115	0xbe4c9f10	-0.19982553
116	0xbdc73912	-0.09727682
117	0x3df271a3	0.11838081
118	0x3d029613	0.031881403
119	0xbe529479	-0.2056445
120	0x3cd9f89d	0.026607806
121	0xbe026e85	-0.12737472
122	0xbe019b38	-0.12656868
123	0x3cb80e1d	0.022467667
124	0x3d1420c8	0.036164075
125	0x3dea1f4c	0.11431751
126	0xbd8942a3	-0.06702163
127	0xbc88d8ec	-0.016704999
128	0x3cd5dc64	0.026106067
129	0xbdfe5659	-0.12418813
130	0xbc18f31f	-0.009335308
131	0x3b9c4437	0.004768874
132	0x3d00aa8b	0.031412642
133	0x3e1691e7	0.14704095
134	0x3cebe9bd	0.028797979
135	0x3caf5e9a	0.021407414
136	0x3e217549	0.15767397
137	0xbcdd9b2d	-0.027051533
138	0x3cc87927	0.024471832
139	0xbd22f314	-0.0397826
140	0xbd7dfd6e	-0.062009268
141	0xbd7289d7	-0.059213486
142	0x3a373785	0.0006989169
143	0x3df0319c	0.11728212
144	0x39ef868d	0.0004568588
145	0x3e41eb4d	0.18937416
146	0x3d2f60db	0.042816978
147	0x3bd310ca	0.0064412104
148	0xbceb4441	-0.02871907
149	0xbe4fa05a	-0.20276013
150	0x3db85a4d	0.090015985
151	0x3b2fc590	0.0026820637
152	0xbe197c5d	-0.14988847
153	0xbcccdf74	-0.025008895
154	0xbb96b9b0	-0.0045997724
155	0x3d8cea32	0.06880607
156	0x3e0aeb04	0.13566214
157	0x3d2ed1b0	0.042680442
158	0xbe2f6d21	-0.17131473
159	0x3d103c97	0.035214033
160	0x3d8b6398	0.068061054
161	0x3dd91254	0.10599199
162	0x3e98398b	0.29731402
163	0x3e14f1cb	0.14545362
164	0x3d92eb23	0.07173755
165	0xbe22e1b4	-0.15906411
166	0xbccf2e8f	-0.025290756
167	0x3cbdd426	0.02317245
168	0x3d82b696	0.06382482
169	0xbe2d809f	-0.16943596
170	0xbe50863d	-0.20363708
171	0xbe269d89	-0.16271032
172	0xbd1085ec	-0.035283968
173	0xbd19d75e	-0.037558906
174	0x3d991747	0.07475143
175	0x3db56008	0.08856207
176	0x3da716af	0.081586234
177	0x3e01484c	0.12625235
178	0x3e076907	0.13223659
179	0x3c86079d	0.016361052
180	0x3d356edf	0.044295188
181	0xbd8bc3b7	-0.06824439
182	0x3e1025f7	0.14076982
183	0xbdd87ddd	-0.105708815
184	0xbe06aad2	-0.131511
185	0xbcd6a78e	-0.026202943
186	0xbb079cad	-0.0020692751
187	0x3d1eb745	0.038749
188	0x3e7b7dab	0.24559657
189	0xbd07442c	-0.033024
190	0x3dedfea9	0.11620838
191	0x3d9c9d93	0.076472424
192	0xbe060176	-0.13086495
193	0x3c8f0099	0.01745634
194	0xbc6335aa	-0.013867775
195	0x3decf3c4	0.11569932
196	0xbd5c8af2	-0.053843446
197	0xbd1ea772	-0.038733907
198	0xbe5872ab	-0.21137492
199	0xbd9b6b30	-0.07588804
200	0xbc900ff5	-0.017585734
201	0x3d16d731	0.036826316
202	0x3d2b6d81	0.041852478
203	0x3db81dd4	0.08990064
204	0xbd855b68	-0.06511575
205	0x3dae1d52	0.08501686
206	0xbcf5b398	-0.029992864
207	0xbdd5fd22	-0.10448672
208	0xbd703f05	-0.05865385
209	0xbd7403f2	-0.059574075
210	0x3d181697	0.03713092
211	0xbd7c7acd	-0.06164055
212	0xbca005c7	-0.019534005
213	0x3af7d08b	0.0018906755
214	0x3dc7e400	0.097602844
215	0xbda84649	-0.08216531
216	0x3d64f481	0.05589724
217	0xbcf77aac	-0.030209862
218	0xbb352f23	-0.0027646504
219	0xbde0b018	-0.10971087
220	0xbdf94603	-0.12171557
221	0x3d83a88a	0.06428631
222	0x3b2dc358	0.002651414
223	0x3d2a8b71	0.041636888
224	0x3c7e0ccc	0.015505981
225	0xbe0fee85	-0.14055832
226	0xbde2abf8	-0.11067957
227	0xbe250803	-0.16116337
228	0xbd665ba1	-0.056239728
229	0xbe2f4c73	-0.17119007
230	0xbdeb0070	-0.11474693
231	0xbdc3e358	-0.09564847
232	0x3e11fbd4	0.14256221
233	0xbc9a6c22	-0.01885039
234	0xbe0a989f	-0.13534783
235	0x3bf5b57a	0.0074984403
236	0x3e1e575d	0.15463014
237	0xbcd49230	-0.025948614
238	0xbdeabf54	-0.11462274
239	0x3d06105d	0.03273045
240	0xbcad75c5	-0.021174321
241	0x3da1e8c8	0.079057276
242	0x3c342818	0.010995887
243	0xbe1faa9a	-0.15592423
244	0x3d1cfa54	0.03832467
245	0x3d110eb8	0.035414428
246	0xbdfb334b	-0.12265643
247	0xbe90e329	-0.2829831
248	0xbda7c082	-0.08191015
249	0x3d107f75	0.035277802
250	0x3e01711c	0.12640804
251	0x3c9565dd	0.018237049
252	0x3d929fcb	0.07159384
253	0xbe574357	-0.21021782
254	0x3d72a2d0	0.0592373
255	0x3d812121	0.06305147

network_body._body_endoder.seq_layers.0.bias f4 [128]
0	0x3ca78ac2	0.020451907
1	0x3b93e11d	0.0045129196
2	0xbd4b120b	-0.049577754
3	0x3c0ff3c3	0.008786145
4	0x3bdf1785	0.0068082237
5	0x3c71462b	0.014726202
6	0x3c3c18f7	0.011480561
7	0x3d00750d	0.03136163
8	0x3c2d2a60	0.010569185
9	0x3b524c39	0.003208889
10	0xbaba19f8	-0.0014198413
11	0xba3682fb	-0.00069622666
12	0xbccdf236	-0.02513991
13	0x3cb34b9e	0.021886643
14	0x3c6a06ad	0.014283818
15	0x3c9d9350	0.019235283
16	0x3c5a9967	0.013342238
17	0x3bfb7abe	0.007674544
18	0x3cb581c2	0.0221566
19	0x3c7460b6	0.014915636
20	0x3cc91d9d	0.024550254
21	0x3cc4b21d	0.024010712
22	0x3ce6f528	0.028193071
23	0xbc0d2eef	-0.008617147
24	0xbc7ec224	-0.015549216
25	0x3c5585a3	0.01303235
26	0x3d369c39	0.04458258
27	0x3cc6595b	0.02421253
28	0x3d08e2fd	0.033419598
29	0x3bed9459	0.0072503504
30	0x3c655a9c	0.013998654
31	0xbbd86cc7	-0.006604764
32	0x3c5f3d83	0.013625505
33	0x3bc23b3c	0.0059274714
34	0x3c5f18b3	0.013616729
35	0x3bd48c1d	0.0064864294
36	0xbc14f907	-0.009092576
37	0x3c96b9db	0.01839917
38	0x3ce620c5	0.028091798
39	0x3b9666bd	0.004589884
40	0x3c16cf98	0.009204768
41	0xbbc59865	-0.0060301297
42	0x3ba953ba	0.0051674517
43	0xbca69745	-0.020335803
44	0x3cc58be4	0.024114557
45	0xbbc9830f	-0.0061496566
46	0x3bdb142d	0.0066857547
47	0x3c3760c6	0.011192506
48	0xbce60857	-0.028080149
49	0xbb2c6671	-0.0026306177
50	0x3c7068b4	0.014673401
51	0xbc2cb0b8	-0.01054018
52	0x3b9489dc	0.0045330357
53	0xbc9d1650	-0.019175678
54	0x3b930943	0.004487188
55	0x3c9f56be	0.019450542
56	0xbc9862ce	-0.018601801
57	0x3a72c384	0.00092607015
58	0x3aba4d72	0.0014213754
59	0xbcbba107	-0.022903932
60	0x3cec962b	0.0288802
61	0xbbc9a6a1	-0.006153897
62	0xbd2827c6	-0.041053556
63	0xbbbbd1f6	-0.0057318164
64	0xbbd07df1	-0.0063626696
65	0x3ba26aa5	0.0049565607
66	0x3d28c5a4	0.04120411
67	0x3c1ec604	0.009690765
68	0x3c803037	0.01564799
69	0x3ba066a1	0.004895047
70	0x3c925ae7	0.017865611
71	0xb9a3b75b	-0.00031226393
72	0x3c1c2ad6	0.009531697
73	0x3bb33bba	0.0054697664
74	0xbb77b9b7	-0.0037799904
75	0x3d233dc1	0.039853815
76	0xbc9da1e7	-0.01924224
77	0x3c9692de	0.018380579
78	0x3be9e1b0	0.0071374997
79	0x3ce339e2	0.027737562
80	0xbcf2aadc	-0.029622488
81	0x3c8f8ce5	0.017523238
82	0xbc96918f	-0.018379955
83	0x3c6d7f18	0.014495634
84	0x3c4d49fc	0.012529846
85	0xbcb0a3b3	-0.021562433
86	0x3c8eb191	0.017418655
87	0x3c55c641	0.013047756
88	0x3a3e5fc3	0.00072621944
89	0x3c529ebc	0.012855228
90	0xbc091877	-0.008367649
91	0xbc561c4e	-0.013068272
92	0xbae32ac4	-0.0017331471
93	0x3c88fe6d	0.016722882
94	0x3d1ab315	0.037768442
95	0x3ccf3e48	0.025298253
96	0x3c60df35	0.013725092
97	0x3ced7fc3	0.028991586
98	0x3d10015a	0.03515754
99	0xbc0338cb	-0.008009146
100	0x3b3a9e3c	0.0028475663
101	0x3badab68	0.0052999742
102	0x3d05c5c4	0.032659307
103	0xbc84758a	-0.016169328
104	0xbb920a43	-0.0044567897
105	0xbb75676a	-0.0037445673
106	0xbcb58faa	-0.02216323
107	0xbbbc77c6	-0.005751583
108	0x3c035bef	0.008017524
109	0x3c781347	0.015141315
110	0x3cc8e66b	0.024523934
111	0xbbccc669	-0.0062492383
112	0xbc55c68b	-0.013047825
113	0xb8aec79c	-8.334147e-05
114	0x3d0a8914	0.033822134
115	0x3b510178	0.0031891745
116	0x3cae8b01	0.021306517
117	0x3c75807d	0.014984247
118	0x3ba7fbd2	0.005126455
119	0x3ca20623	0.019778317
120	0x3bf54e7e	0.0074861636
121	0xbbaf6f91	-0.005353876
122	0x3c0bc0f4	0.00852989
123	0xbb33e4d8	-0.0027449634
124	0xb9d908e2	-0.00041396084
125	0x3c6b1a29	0.014349499
126	0x3d5d1342	0.053973444
127	0x3b8ac8eb	0.004235377

network_body._body_endoder.seq_layers.2.weight f4 [128, 128]
0	0xbd887dff	-0.06664657
1	0xbe2d15a8	-0.16902792
2	0xbd37e039	-0.04489157
3	0x3d2308bb	0.039803248
4	0x3d012937	0.031533446
5	0xbd8a2793	-0.067458294
6	0x3e543535	0.20723422
7	0xbccbf27c	-0.024895899
8	0xbdbafbdb	-0.09130069
9	0xbdd8db6a	-0.10588725
10	0x3bce5c01	0.006297589
11	0xbd9b4b04	-0.075826675
12	0xbc823f18	-0.015899226
13	0xbe32e263	-0.17469172
14	0x3ddee2b0	0.10883081
15	0xbd4c99bc	-0.0499513
16	0xbd71a235	-0.058992583
17	0x3d278849	0.040901456
18	0xbd95d368	-0.07315713
19	0x3e0207b3	0.1269825
20	0x3e0a6a6e	0.13517162
21	0xbcfbe9b0	-0.03075108
22	0xbe6ab020	-0.22918749
23	0xbd8ebd88	-0.06969744
24	0xbd1bb8c8	-0.038018018
25	0x3d9f0843	0.07765248
26	0x3d190a9a	0.037363626
27	0x3c495759	0.012288892
28	0xbdad13b4	-0.08451024
29	0xbd08f303	-0.03343488
30	0xbca3061a	-0.01990037
31	0xbcff262e	-0.031146135
32	0xbc7ac87f	-0.015306591
33	0x3c8af441	0.016962172
34	0xbcf95d6f	-0.03044006
35	0xbdc7b1a8	-0.09750682
36	0x3e836055	0.25659433
37	0xbd823a5b	-0.06358787
38	0x3cfaa3b2	0.030595634
39	0x3e1ded67	0.15422593
40	0x3d5c86a0	0.053839326
41	0xbe04e4d9	-0.12977923
42	0xbc1d9b57	-0.009619555
43	0xbe2c29c3	-0.16812806
44	0x3d93ef0d	0.0722333
45	0xbd64ad00	-0.05582905
46	0xbd539eaa	-0.051664986
47	0xbe0a83d7	-0.13526855
48	0x3d72905a	0.059219696
49	0x3d45289c	0.04813443
50	0x3d2f79bf	0.042840715
51	0x3db984ee	0.090585575
52	0x3e453fc0	0.192626
53	0x3e0acf6b	0.13555686
54	0x3d81b227	0.06332808
55	0x3de6fbb4	0.11278477
56	0x3d31f4a6	0.043446206
57	0xbda184b8	-0.07886642
58	0xbbd1d280	-0.0064032674
59	0xbd88069b	-0.06641885
60	0x3bd651d7	0.006540518
61	0x3c9e482a	0.01932152
62	0xbd23cde9	-0.039991293
63	0x3de60b48	0.112326205
64	0xbce1c30b	-0.027558824
65	0x3d52c773	0.05145974
66	0x3d669365	0.05629291
67	0xbe5adf87	-0.21374331
68	0x3d419677	0.047262635
69	0xbe26ecaf	-0.16301225
70	0xbde9f6dd	-0.114240386
71	0xbe00985a	-0.12558118
72	0xbd84f997	-0.06492918
73	0xbe185cbf	-0.1487913
74	0x3bf373dc	0.007429583
75	0x3c5fec89	0.013667234
76	0x3d3a0c56	0.04542192
77	0x3cee78ef	0.0291104
78	0xbca3ddbd	-0.020003194
79	0x3cd2d058	0.025734112
80	0xbdf6bdff	-0.12047958
81	0xbd7b461a	-0.06134615
82	0x3cd950fb	0.026527872
83	0xbdd21972	-0.102587596
84	0x3dfd9383	0.12381651
85	0xbb7f95f1	-0.0038999284
86	0xbc8ae282	-0.01695371
87	0x3d1dfe98	0.038572878
88	0xbda8c5da	-0.08240862
89	0xbde655ae	-0.11246811
90	0xbb03fdbf	-0.0020140258
91	0xbd19d5a2	-0.03755725
92	0xbe41abde	-0.18913218
93	0xbddd6cf2	-0.10811795
94	0xbc12b02c	-0.008953135
95	0xbd26ddc8	-0.04073885
96	0x3e144740	0.14480305
97	0xbdf05a84	-0.117360145
98	0xbd90d925	-0.07072667
99	0xbd8657f4	-0.065597445
100	0xbd03681c	-0.03208171
101	0x3d5c17e2	0.053733714
102	0xbd3daa7e	-0.046305172
103	0xbda5bf8e	-0.08093177
104	0x3d36ffd8	0.044677585
105	0x3d71d87f	0.059044357
106	0x3d1965db	0.037450653
107	0xbdbd9d47	-0.09258514
108	0xbe2608d4	-0.16214305
109	0xbe051b8f	-0.12998794
110	0x3e8e3332	0.27773434
111	0x3bc41c65	0.00598483
112	0xbd0b1cc1	-0.03396297
113	0x3e11a8f3	0.14224605
114	0xbd26b462	-0.04069937
115	0xbc85323e	-0.016259309
116	0x3e0f342c	0.13984746
117	0xbdaf8910	-0.085710645
118	0x3add2df9	0.0016874663
119	0x3e636aaa	0.22208658
120	0x3ca544c0	0.020174384
121	0x3cb34a3a	0.02188598
122	0xb896a502	-7.1832925e-05
123	0x3c06f8ad	0.008238
124	0xbdddb9d8	-0.108264625
125	0xb8310a1b	-4.22095e-05
126	0xbdcd4ebe	-0.100247845
127	0x3e0b71a8	0.13617575
128	0x3c328572	0.010896074
129	0xbdb7aced	-0.0896853
130	0x3dac9c1c	0.08428213
131	0x3e0da8ba	0.13833895
132	0xbcc84b4b	-0.024449965
133	0xbbab5475	-0.005228574
134	0x3dca6a53	0.09883561
135	0x3e5c09e2	0.21488145
136	0xbe39f806	-0.1816102
137	0xbe5011cd	-0.2031929
138	0xbd0f26c8	-0.034949094
139	0xbdaeea0e	-0.08540736
140	0xbd45171c	-0.048117742
141	0xbdd0c8de	-0.101945624
142	0xbd687c9e	-0.05675947
143	0xbe8f13e5	-0.27944866
144	0x3cc6b79c	0.024257474
145	0xbe2ce6cc	-0.16884917
146	0x3d24bc95	0.04021891
147	0x3e07e79a	0.13271943
148	0x3d5bff9c	0.053710565
149	0xbd75434f	-0.059878644
150	0x39fd743c	0.00048342522
151	0xbd7d9dda	-0.061918117
152	0x3ba766ee	0.0051087057
153	0x3cfa1e00	0.030531883
154	0x3b227ebb	0.0024794776
155	0xbd1122c5	-0.03543355
156	0xbbae098d	-0.005311197
157	0x3dd509be	0.10402249
158	0xbd3724ad	-0.04471271
159	0x3cf7aabc	0.03023278
160	0xbc21f494	-0.009884972
161	0x3e374cad	0.17900343
162	0xbd1bcec0	-0.03803897
163	0xbd065782	-0.032798298
164	0xbdf7c3a5	-0.12097863
165	0xbdd994c2	-0.106240764
166	0x3c946e88	0.018119112
167	0x3d732e1e	0.059370153
168	0x3d9e9b78	0.07744497
169	0x3df7b85c	0.12095711
170	0xbda019fe	-0.078174576
171	0xbd9f845f	-0.0778892
172	0x3dd1f312	0.1025144
173	0x3cb88d59	0.022528337
174	0xbe410219	-0.18848456
175	0x3d5d0556	0.053960167
176	0xbd21ae52	-0.039472885
177	0xbc82cb8b	-0.015966197
178	0xbd8293a2	-0.06375815
179	0x3e0c27a4	0.13686997
180	0xbd8bfacb	-0.06834944
181	0x3d850d6b	0.064967
182	0xbd8971d0	-0.06711161
183	0x3d367c0b	0.04455189
184	0xbe496273	-0.19666462
185	0xbe361ee4	-0.17785221
186	0x3d288e3f	0.04115128
187	0x3d76ce47	0.060255315
188	0xbd2e4ea9	-0.042555485
189	0x3e113c43	0.14183144
190	0xbe3f4780	-0.18679619
191	0xbc847b69	-0.016172128
192	0xbbc54a6a	-0.0060208337
193	0x3e437d10	0.19090676
194	0xbdc4a6bb	-0.09602114
195	0xbe12b697	-0.14327465
196	0x3dee7f59	0.116453834
197	0xbc32f066	-0.010921573
198	0x3d2d6780	0.042335033
199	0x3e093fe6	0.13403282
200	0x3dd11dbf	0.10210752
201	0x3c3b41cd	0.011429262
202	0x3d12527e	0.035723202
203	0xbcc35a1c	-0.023846678
204	0xbe078d34	-0.13237458
205	0x3ca28e7c	0.019843332
206	0xbd1dfecd	-0.038573075
207	0xbe087024	-0.13324028
208	0xbd785107	-0.06062415
209	0xbd866622	-0.06562449
210	0x3d830116	0.063966915
211	0x3d6b3287	0.057421234
212	0xbd11cb31	-0.03559417
213	0x3d8286f3	0.06373396
214	0x3e87ecf2	0.26547962
215	0xb9a702f8	-0.00031854934
216	0x3de27980	0.110583305
217	0x3d2de3bb	0.04245351
218	0x3e2d7923	0.16940741
219	0xbe091eaa	-0.13390604
220	0xbcf927cc	-0.030414484
221	0x3db9c9fa	0.09071727
222	0xbdb91488	-0.09037119
223	0x3d917ece	0.07104264
224	0x3e2ed26f	0.17072462
225	0x3c955cbd	0.018232698
226	0xbd307245	-0.043077726
227	0x3ccc47f2	0.02493665
228	0x3d5011bc	0.050798163
229	0x3e1a70e0	0.15082121
230	0xbd7e9835	-0.062156875
231	0x3c838870	0.01605627
232	0x3e193f9c	0.14965671
233	0x3d844d45	0.064600505
234	0xbdefc9b4	-0.11708394
235	0xbca7df6d	-0.02049228
236	0xbda85d4b	-0.08220919
237	0xbd5c37ce	-0.053764157
238	0x3c62d81d	0.013845471
239	0x3cad07fb	0.02112197
240	0xbd08d33b	-0.03340457
241	0x3ccb1c1f	0.024793683
242	0x3d8ecd6f	0.06972777
243	0x3cb4528e	0.022012021
244	0x3d9fdaf4	0.07805434
245	0x3de0f48a	0.10984142
246	0x3db8d43c	0.090248555
247	0x3d06d67e	0.0329194
248	0xbe1928a8	-0.14956915
249	0x3d2f08a9	0.04273287
250	0x3ded8144	0.11596921
251	0x3cd07f65	0.025451371
252	0xbd5aa9a2	-0.05338443
253	0x3da19d7c	0.07891366
254	0x3d55a24a	0.052156724
255	0xbac4eb4a	-0.0015023735

network_body._body_endoder.seq_layers.2.bias f4 [128]
0	0x3c5a5944	0.013326947
1	0x3c1640e3	0.009170744
2	0x3c005c4a	0.007834503
3	0x3c5e20a9	0.0135575915
4	0x3c31bdb7	0.010848454
5	0x3c76baa4	0.015059147
6	0x3d448979	0.047982667
7	0x3cbdbb12	0.023160491
8	0x3d04dd30	0.032437503
9	0x3ca2f069	0.019890027
10	0x3bf56465	0.0074887746
11	0x3c502710	0.012704626
12	0x3acb4254	0.0015507438
13	0x3c6d2d9a	0.014476204
14	0x3c75161d	0.0149588855
15	0x3d04b61a	0.032400228
16	0x3d2ba1f2	0.04190249
17	0x3c8eba67	0.017422868
18	0x3cc1de26	0.023665499
19	0x3c8c4780	0.017123938
20	0x3d0786e4	0.033087626
21	0x3cae27a6	0.02125914
22	0x3c86d8af	0.016460745
23	0x3cd06b48	0.02544178
24	0xb98e16a7	-0.00027101228
25	0x3c06cd20	0.008227617
26	0x3d241dc7	0.04006746
27	0x3ca073cc	0.019586466
28	0x3ca90c08	0.02063562
29	0x3c8097b0	0.01569733
30	0x3c109152	0.00882371
31	0x3cc5d47f	0.024149178
32	0x3d146dba	0.036237456
33	0x3bd0de1a	0.006374133
34	0x3d1bbcdc	0.038021907
35	0x3c8f4153	0.017487204
36	0x3cae10f5	0.02124832
37	0x3caea13e	0.02131712
38	0x3c8b727e	0.017022368
39	0x3c283138	0.010265641
40	0x3cc1bc72	0.023649428
41	0x3c25e450	0.010125235
42	0x3d233dbc	0.039853796
43	0x3c3c3468	0.011487104
44	0xbaa26cc2	-0.0012392031
45	0x3bd9d16d	0.00664728
46	0x3cb301c8	0.021851435
47	0x3d1f8410	0.038944304
48	0x3d04c9d2	0.032419033
49	0x3c8c5865	0.017131994
50	0x3d3fa814	0.04679115
51	0x3c16ed24	0.009211812
52	0x3c609719	0.0137078995
53	0x3c99cf28	0.018775538
54	0x3d18eef7	0.03733727
55	0x3b535eca	0.0032252544
56	0x3ce751c1	0.028237225
57	0x3ceb39f8	0.028714165
58	0x3d1795c2	0.037008055
59	0x3c593cd6	0.013259133
60	0x3d33efc4	0.04392983
61	0xbc37586b	-0.011190514
62	0x3cc874ad	0.024469698
63	0x3ca721af	0.020401804
64	0x3c8b2f33	0.01699028
65	0x3cf4ae77	0.029868348
66	0x3cdc46b4	0.026889183
67	0x3cddb1fb	0.027062407
68	0x3cb1f92c	0.02172526
69	0x3c8f443e	0.017488595
70	0x3cccaf02	0.024985794
71	0x3ccbb981	0.024868729
72	0x3ae77593	0.0017658941
73	0x3c9e2a3c	0.019307248
74	0x3c8c8c35	0.0171567
75	0x3ca36b39	0.019948589
76	0x3cf86c59	0.030325102
77	0xbc76b1d0	-0.015057042
78	0x3b3d0b8c	0.0028845994
79	0x3cfa0810	0.030521423
80	0x3c898965	0.016789148
81	0x3b0f8c44	0.0021903673
82	0x3d048e5f	0.03236234
83	0x3cacc35d	0.02108925
84	0x3c60614e	0.013695074
85	0x3cbc441d	0.022981698
86	0x3cee8d5a	0.029120136
87	0x3d0bd1da	0.034135677
88	0x3b59062d	0.0033115253
89	0x3ccd9bbe	0.025098678
90	0x3b67ca71	0.0035368467
91	0x3ce40f4b	0.027839324
92	0x3ce7a18a	0.02827527
93	0x3bbb96c3	0.0057247593
94	0x3c4d4c9f	0.012530475
95	0xbb06d02b	-0.0020570855
96	0x3c229898	0.0099240765
97	0x3b807ae2	0.003920899
98	0x3ca28c39	0.019842254
99	0xb76bc8ee	-1.4053874e-05
100	0x3c9699fa	0.018383969
101	0x3c956b9c	0.018239789
102	0x3a961232	0.0011449514
103	0x3cbb6030	0.022873014
104	0x3c503622	0.012708219
105	0x3d249d59	0.04018912
106	0x3cde15fb	0.02711009
107	0x3c503c7a	0.012709731
108	0x3cf6192a	0.030041296
109	0x3b98bd10	0.00466121
110	0x3cfeec8f	0.03111866
111	0x3b0ca29f	0.0021459234
112	0x3b8c3770	0.0042790696
113	0x3d07e691	0.03317887
114	0x3c886de2	0.016653959
115	0x3c7c5cea	0.015403012
116	0x3cfa4bd5	0.030553738
117	0x3c2f675a	0.010705793
118	0x3cdeb90c	0.027187847
119	0xbc1bbf7d	-0.009506104
120	0x3cb7bbac	0.022428356
121	0x3ccdbf83	0.025115734
122	0x3d39b917	0.04534253
123	0x3c7e88f8	0.015535586
124	0x3c88fd87	0.016722454
125	0x3cd70779	0.02624868
126	0x3c4d6e5c	0.012538519
127	0x3ca35d17	0.01994185

action_model._continuous_distribution.mu.weight f4 [1, 128]
0	0xbd77a581	-0.06046057
1	0xbd87ef2d	-0.06637416
2	0x3d7b036c	0.06128256
3	0xbd3e65bc	-0.04648374
4	0x3d80ef5e	0.06295656
5	0x3de9c3d4	0.114143044
6	0x3dc839fd	0.097766854
7	0xbd86a725	-0.06574849
8	0x3e14511e	0.14484069
9	0xbdba5130	-0.090975165
10	0xbd86a687	-0.06574731
11	0x3d9ae946	0.075640246
12	0xbd4beddb	-0.049787384
13	0x3d3f1927	0.046654847
14	0xbdb26d43	-0.08712246
15	0xbe0cb8d6	-0.13742384
16	0x3e17f7a5	0.14840563
17	0x3dc119c9	0.09428746
18	0x3da62aeb	0.08113655
19	0xbd85f087	-0.065400176
20	0xbdc9a87e	-0.098465905
21	0x3dc1d4c4	0.0946441
22	0xbd650e33	-0.055921745
23	0x3d9170aa	0.07101567
24	0xbd2f37df	-0.042777892
25	0x3d6daeba	0.05802796
26	0x3df9c224	0.121952325
27	0xbce895b5	-0.028391698
28	0x3db5a9b7	0.08870261
29	0x3d7d3617	0.061819162
30	0xbd93b011	-0.072113164
31	0x3ab604fa	0.0013886981
32	0x3e16f45f	0.14741658
33	0xbbbce460	-0.005764529
34	0x3e282a3f	0.16422366
35	0x3d2f1ee8	0.042754084
36	0xbdc8b1f8	-0.0979957
37	0xbd3a6c20	-0.045513272
38	0xbd8344ed	-0.06409631
39	0xbd623a23	-0.055231225
40	0x3da709f2	0.08156194
41	0x3d08bb41	0.033381704
42	0x3dde39bb	0.10850855
43	0x3d834cbd	0.06411121
44	0xbd03adb1	-0.032148067
45	0xbd2b362f	-0.04179972
46	0xbdf8dbed	-0.121513225
47	0x3df28494	0.118416935
48	0x3dd40ecf	0.10354387
49	0x3da9a963	0.08284261
50	0xbdc332bc	-0.09531161
51	0xbd675ff9	-0.05648801
52	0xbce33de4	-0.027739473
53	0x3d9ebb2b	0.07750543
54	0x3da2b112	0.0794393
55	0xbd23998c	-0.039941356
56	0xbdae11e4	-0.08499506
57	0x3e1be59b	0.15224306
58	0xbe02985b	-0.12753431
59	0xbd7cc8b5	-0.061714847
60	0x3e160f08	0.14654171
61	0x3cba2188	0.022721067
62	0x3d90f854	0.07078615
63	0x3da902c3	0.0825248
64	0xbddf7605	-0.10911182
65	0x3db77389	0.089575835
66	0xbd719897	-0.05898341
67	0xbdf6526b	-0.12027439
68	0xbca26969	-0.019825654
69	0xbd6403e3	-0.05566777
70	0x3d96ab60	0.07356906
71	0x3df32774	0.118727595
72	0xbce4c71e	-0.027926978
73	0xbdd6c194	-0.10486141
74	0xbdb0a489	-0.086251326
75	0x3dc0e0a8	0.0941785
76	0x3dcb0333	0.099127196
77	0xbc80d581	-0.015726807
78	0xbd92c618	-0.0716669
79	0x3d7048ee	0.0586633
80	0x3dde0666	0.10841064
81	0x3c5e9624	0.013585601
82	0x3da02449	0.07819421
83	0xbd8e6e66	-0.069546506
84	0xbd87bd8d	-0.06627951
85	0x3d3ffbed	0.046871115
86	0xbdb6bb44	-0.08922437
87	0xbdc074e2	-0.093972936
88	0xbd37e374	-0.04489465
89	0xbde94d8c	-0.11391744
90	0xbaeeb323	-0.0018211346
91	0x3da438d9	0.08018655
92	0xbdd2e922	-0.10298373
93	0xbd6b2279	-0.057405923
94	0x3d75975a	0.059958793
95	0xbcc60a1c	-0.024174742
96	0x3d4d487e	0.050117962
97	0xbcdc7e2d	-0.026915634
98	0xbdb05682	-0.0861025
99	0xbd2215e2	-0.03957165
100	0x3daf31fa	0.08554454
101	0x3d87fd98	0.06640166
102	0xbd1f6e52	-0.03892357
103	0xbd8104d9	-0.06299753
104	0x3c7df744	0.015500847
105	0xbe0ed0b2	-0.13946798
106	0x3e156ea2	0.14592984
107	0xbd8d23c6	-0.06891589
108	0x3d8d6976	0.06904881
109	0xbd3e2c6d	-0.046429086
110	0x3db54a03	0.08852007
111	0xbcb1f431	-0.021722885
112	0xbd07a4e5	-0.03311624
113	0x3de6e878	0.11274809
114	0xbd8109ba	-0.06300683
115	0x3d742835	0.059608657
116	0x3dab0732	0.08350982
117	0xbd3e2352	-0.046420403
118	0x3d7962c8	0.06088522
119	0x3d2fd23f	0.042925116
120	0x3d9ee8f3	0.07759275
121	0x3da92b58	0.0826022
122	0x3e1907b9	0.14944352
123	0x3d98dd64	0.07464102
124	0x3d91f81f	0.071274035
125	0x3d884a9d	0.06654856
126	0xbd787770	-0.06066078
127	0x3dbf5102	0.09341623

exp_avg f4 [128, 111]
0	0x3a7bd9a4	0.0009607321
1	0xb94a59ad	-0.00019297628
2	0xb8f73b70	-0.00011788949
3	0x80000004	-6e-45
4	0x3a355ae8	0.0006918148
5	0xb8f21fcd	-0.000115453826
6	0x39c44fec	0.0003744358
7	0x3997b333	0.00028934478
8	0x3af662bf	0.0018797739
9	0x3a427035	0.0007417233
10	0xb92ac68c	-0.00016286428
11	0x00000004	6e-45
12	0x3980a3d3	0.0002453612
13	0xb9a45816	-0.00031346147
14	0xba4f0f49	-0.0007898701
15	0xb9e745f9	-0.00044111887
16	0x3a543fe9	0.00080966816
17	0xb8d4e95d	-0.00010152415
18	0x39be6662	0.00036315905
19	0x80000004	-6e-45
20	0x39574dbd	0.00020532958
21	0x39d4d8a7	0.0004059721
22	0xb8abd80b	-8.1941565e-05
23	0x3aa8f54e	0.0012890489
24	0x37b88ee0	2.200104e-05
25	0x391036b2	0.00013753286
26	0x39ebae4c	0.00044952554
27	0x33275b2f	3.896565e-08
28	0x38fa367f	0.0001193108
29	0xb86f3fc5	-5.704143e-05
30	0x3a739bf8	0.00092929555
31	0xb75f0251	-1.3292375e-05
32	0x3abecb4a	0.0014556434
33	0xb9594623	-0.0002072086
34	0xb98d5577	-0.00026957292
35	0x80000004	-6e-45
36	0x3919fe17	0.00014685873
37	0x39401342	0.00018317721
38	0x3998f7ff	0.0002917647
39	0x3abef3a9	0.0014568466
40	0x3ae1f4e4	0.0017239121
41	0x3a8b2d7c	0.0010618414
42	0xba58f977	-0.0008276919
43	0xb3a180c6	-7.5205705e-08
44	0xb9661beb	-0.0002194491
45	0x37615689	1.3431193e-05
46	0xb91ea7ce	-0.00015130566
47	0xb9110301	-0.00013829397
48	0x3a8ae1e7	0.0010595889
49	0xba22c9d3	-0.0006209884
50	0x381fabfa	3.806872e-05
51	0x00000004	6e-45
52	0x39842d21	0.00025210626
53	0x384c98f2	4.877983e-05
54	0x3a57c5cd	0.0008231074
55	0x3a072648	0.00051555457
56	0x392dafa9	0.00016564004
57	0x3a487318	0.0007646545
58	0xba52d893	-0.00080431363
59	0xb3aebda9	-8.1370054e-08
60	0x3a94140e	0.0011297481
61	0x3a2902cd	0.0006447256
62	0xb99d2275	-0.00029971046
63	0x3a7bdb26	0.0009607546
64	0x3983b364	0.00025119924
65	0xba25d8c9	-0.0006326554
66	0x37078a45	8.07882e-06
67	0x00000004	6e-45
68	0x3a1d5049	0.0006001038
69	0x3988830b	0.00026037576
70	0x3a91f4e8	0.001113561
71	0xb8ce03d4	-9.8235585e-05
72	0xb9c8824e	-0.00038244057
73	0xb928c396	-0.0001609459
74	0x396b24d4	0.00022425066
75	0x00000004	6e-45
76	0x399084d7	0.00027564794
77	0x3a12453f	0.00055797765
78	0x3a8e5de8	0.0010861726
79	0x3aa1aa7d	0.0012334135
80	0x3aa7ac21	0.0012792387
81	0xb98760b7	-0.00025821265
82	0xb87269d2	-5.779585e-05
83	0x00000004	6e-45
84	0xb92e17ee	-0.00016602848
85	0xb9f909c5	-0.0004750026
86	0x3aa79218	0.0012784628
87	0x3a15c17f	0.0005712732
88	0x3a80bfa7	0.0009822742
89	0x399a313c	0.0002940985
90	0xba95c83e	-0.0011427475
91	0x00000004	6e-45
92	0x394cdca5	0.00019537153
93	0x3ab35848	0.0013682926
94	0xb8caa41f	-9.6626805e-05
95	0x3a79ac45	0.00095242664
96	0x39371873	0.00017461348
97	0x39d257e7	0.00040119814
98	0x38434cfe	4.6563327e-05
99	0x00000004	6e-45
100	0xb9bf7966	-0.00036520808
101	0x3905f5af	0.00012775393
102	0x3a9f5986	0.0012157417
103	0x3a1515c4	0.0005687142
104	0xba61f5c2	-0.00086196896
105	0xb82b6607	-4.0864597e-05
106	0xba134a8f	-0.0005618715
107	0xb9d05f69	-0.00039743938
108	0x39669005	0.00021988161
109	0x3c235dbc	0.0099710785
110	0xba2340ff	-0.0006227642
111	0x38d60c65	0.00010206624
112	0xb8ac7b24	-8.224536e-05
113	0xb6f2b503	-7.2332346e-06
114	0x80000004	-6e-45
115	0x3647dcb3	2.9781775e-06
116	0x36c4e9d4	5.8684764e-06
117	0xb815dd93	-3.5730725e-05
118	0x37faf4a1	2.9916237e-05
119	0xb767c89b	-1.381538e-05
120	0xb7c09880	-2.2959197e-05
121	0x3697dc13	4.5257707e-06
122	0x80000004	-6e-45
123	0x352a503e	6.34467e-07
124	0x3717229b	9.008359e-06
125	0x370b6978	8.309602e-06
126	0xb78927ff	-1.6350297e-05
127	0xb82d3439	-4.129505e-05
128	0xb8d19959	-9.99446e-05
129	0xb7961f41	-1.7895947e-05
130	0x00000004	6e-45
131	0xb644e9df	-2.9342407e-06
132	0x370d8f5d	8.437634e-06
133	0x39121aa9	0.00013933577
134	0x38dec712	0.00010622865
135	0x385668a9	5.111905e-05
136	0xb84130ff	-4.6060417e-05
137	0xb7199d3d	-9.1561205e-06
138	0xb0d67b79	-1.5605642e-09
139	0x34b0500c	3.2840796e-07
140	0x35252885	6.1526254e-07
141	0xb73aea63	-1.1141036e-05
142	0xb756b469	-1.2797399e-05
143	0x37605c17	1.3372882e-05
144	0xb6c0bd36	-5.744073e-06
145	0x373a1766	1.1091912e-05
146	0x00000004	6e-45
147	0xb47088f9	-2.2401572e-07
148	0x378cb855	1.6775137e-05
149	0xb84fe77a	-4.9568225e-05
150	0xb64311a0	-2.9067523e-06
151	0x371980a7	9.149465e-06
152	0x36d50823	6.348842e-06
153	0x3813f4d8	3.527556e-05
154	0x318441d3	3.849189e-09
155	0x370ae6df	8.279195e-06
156	0x355f382b	8.315571e-07
157	0xb89b93b2	-7.418486e-05
158	0xb8333296	-4.2724037e-05
159	0x373b4c84	1.1163884e-05
160	0xb8168104	-3.5882942e-05
161	0xb606abed	-2.006763e-06
162	0x80000004	-6e-45
163	0x36c4a870	5.860864e-06
164	0x374a1a4c	1.2046261e-05
165	0xb6b7cd82	-5.4777493e-06
166	0x37e4c1fa	2.7270045e-05
167	0xb81e9aba	-3.7814236e-05
168	0x3832d8d5	4.2640448e-05
169	0x36e64f07	6.863734e-06
170	0x30d67234	1.5603008e-09
171	0x363777d3	2.7338872e-06
172	0xb70ca320	-8.382631e-06
173	0xb7aa9e16	-2.0339194e-05
174	0xb7a2476c	-1.9345163e-05
175	0x3879ad8f	5.9527865e-05
176	0x3742b204	1.1604749e-05
177	0x358d7a03	1.0540829e-06
178	0x80000004	-6e-45
179	0x36515ec8	3.1198597e-06
180	0x36e6685e	6.866684e-06
181	0xb8ca4fbf	-9.6469645e-05
182	0xb82dcb36	-4.143567e-05
183	0xb7c39b08	-2.3318004e-05
184	0x3698b608	4.5511442e-06
185	0x37cf87bc	2.473953e-05
186	0x80000004	-6e-45
187	0xb58ccb69	-1.0490013e-06
188	0x378c3342	1.671317e-05
189	0xb816b70a	-3.5933255e-05
190	0xb735d792	-1.0838632e-05
191	0xb892738d	-6.9833455e-05
192	0x37c9e26a	2.40665e-05
193	0x3616c952	2.2468926e-06
194	0x80000004	-6e-45
195	0x3586ef65	1.0053451e-06
196	0x36773dc2	3.6841816e-06
197	0x37cdce92	2.4534096e-05
198	0x37e31973	2.707236e-05
199	0xb8300ad3	-4.197175e-05
200	0xb7017c45	-7.717933e-06
201	0xb6b1d0ee	-5.2993337e-06
202	0x80000004	-6e-45
203	0x34a4f331	3.0724325e-07
204	0x375c0bc2	1.3115759e-05
205	0x37e4c117	2.7269632e-05
206	0x37940bb8	1.7648432e-05
207	0xb8296a33	-4.0391646e-05
208	0x37825958	1.5538812e-05
209	0xb58a6a12	-1.0312672e-06
210	0x80000004	-6e-45
211	0x35e948b0	1.7381008e-06
212	0x36a175c5	4.811884e-06
213	0x36a90969	5.037688e-06
214	0x3775b993	1.4646345e-05
215	0x3999840d	0.0002928082
216	0x37095917	8.186579e-06
217	0x390ec42f	0.0001361526
218	0x39a81789	0.00032060992
219	0xb875722d	-5.8518886e-05
220	0x38bd46b1	9.0253896e-05
221	0x36975139	4.5096062e-06
222	0x38b504a6	8.6316184e-05
223	0xb845010a	-4.6969428e-05
224	0xb48f2e83	-2.6669667e-07
225	0x00000004	6e-45
226	0xb88aa1a8	-6.6104636e-05
227	0xb783d52d	-1.5715685e-05
228	0xb78cf1f7	-1.6801974e-05
229	0xb6fc9475	-7.527468e-06
230	0xb8761287	-5.8668225e-05
231	0xb7162cad	-8.951099e-06
232	0x3805f476	3.1937343e-05
233	0x00000004	6e-45
234	0xb6aaa881	-5.0860112e-06
235	0x37505c81	1.2419304e-05
236	0xb802d5ca	-3.1193522e-05
237	0xb707d1bb	-8.095459e-06
238	0xb881acac	-6.183362e-05
239	0x37add0ad	2.072038e-05
240	0xb79ff37b	-1.9067656e-05
241	0x00000004	6e-45
242	0x376d92ff	1.4160526e-05
243	0xb78074ff	-1.531327e-05
244	0x35f070fa	1.7914274e-06
245	0xb89366fc	-7.0286886e-05
246	0xb737d225	-1.0956578e-05
247	0x372a2392	1.01410715e-05
248	0xb73a20c7	-1.10940955e-05
249	0x310ccc62	2.048886e-09
250	0xb7a5ba1c	-1.9756197e-05
251	0xb5d49cf1	-1.5840907e-06
252	0xb7dc92a9	-2.6294338e-05
253	0x382379fc	3.8975835e-05
254	0xb90be6cd	-0.00013342053
255	0x374e269f	1.2287549e-05

exp_avg_sq f4 [128, 111]
0	0x3966004a	0.00021934617
1	0x37ad4bc6	2.0658492e-05
2	0x358142c1	9.630677e-07
3	0x2dabe142	1.9540484e-11
4	0x35bc1e79	1.401596e-06
5	0x3739cb02	1.1074126e-05
6	0x38dc4822	0.00010503853
7	0x398bd504	0.00026670855
8	0x394dbd0a	0.00019620746
9	0x3799a391	1.8315188e-05
10	0x36b892d9	5.5007226e-06
11	0x2cf3f456	6.933602e-12
12	0x35ef7564	1.7841053e-06
13	0x3636b0ef	2.7223102e-06
14	0x390d2438	0.000134603
15	0x399d9854	0.00030058867
16	0x3923189a	0.00015554056
17	0x37845f55	1.5780019e-05
18	0x362522fc	2.460728e-06
19	0x2c346fe2	2.5641646e-12
20	0x3564898b	8.513677e-07
21	0x37e9dfe7	2.7880027e-05
22	0x3920b559	0.00015326346
23	0x398a3027	0.00026357287
24	0x391a3c25	0.0001470899
25	0x3780df84	1.5362872e-05
26	0x37b1fd56	2.1218013e-05
27	0x311df4c6	2.2985644e-09
28	0x333c01bc	4.377374e-08
29	0x350b18ac	5.181744e-07
30	0x392f064c	0.00016691646
31	0x398c8721	0.0002680356
32	0x39117d90	0.00013875053
33	0x37901623	1.7176446e-05
34	0x34d4901e	3.9592936e-07
35	0x2974cea9	5.4358133e-14
36	0x3500cd84	4.798278e-07
37	0x385ef5f7	5.3157997e-05
38	0x390c4560	0.00013377285
39	0x396a5d88	0.00022350822
40	0x3916f1c6	0.00014395182
41	0x3777e320	1.4775229e-05
42	0x378e7eb8	1.6986727e-05
43	0x31a10ee3	4.687409e-09
44	0x34e9d7ce	4.355665e-07
45	0x36381a66	2.7433503e-06
46	0x393b3055	0.00017851715
47	0x397fe577	0.00024404177
48	0x3910c844	0.00013807515
49	0x37796f7d	1.4867514e-05
50	0x3393c3f1	6.8808625e-08
51	0x2b5c6634	7.8301536e-13
52	0x3535e3b4	6.7759106e-07
53	0x38520b7d	5.00786e-05
54	0x39165c66	0.00014339536
55	0x3966a41a	0.00021995642
56	0x390fc6c2	0.00013711586
57	0x37245bbd	9.796521e-06
58	0x37a2f178	1.9424348e-05
59	0x310ad5ad	2.0203104e-09
60	0x3662e9a3	3.3812619e-06
61	0x378b1091	1.6577806e-05
62	0x392e9f93	0.00016653379
63	0x39792ec9	0.0002376392
64	0x38df73e2	0.000106550535
65	0x376d631e	1.4149378e-05
66	0x3344ec82	4.584991e-08
67	0x2a3a1315	1.6526739e-13
68	0x35bbca57	1.3991474e-06
69	0x38181df7	3.626753e-05
70	0x3957e92c	0.00020590861
71	0x398a2a74	0.0002635304
72	0x39042b08	0.00012604531
73	0x36f6f428	7.359795e-06
74	0x378b75c3	1.6624928e-05
75	0x2fc7c75b	3.633954e-10
76	0x361055e5	2.150767e-06
77	0x3782a5ba	1.557438e-05
78	0x39514801	0.00019958617
79	0x3987787d	0.00025838977
80	0x38c5a96a	9.425248e-05
81	0x3733e9d7	1.07236765e-05
82	0x331af0db	3.6074976e-08
83	0x2a38e52f	1.6421997e-13
84	0x35a18523	1.2034183e-06
85	0x3781a8c8	1.5456593e-05
86	0x3990e2ad	0.00027634707
87	0x39a50ec2	0.00031482248
88	0x38f79d27	0.0001180715
89	0x36ac6731	5.1380125e-06
90	0x3724fc5e	9.833921e-06
91	0x30040ae4	4.8036797e-10
92	0x3597ead8	1.1318725e-06
93	0x37878548	1.6155318e-05
94	0x39766c10	0.00023500645
95	0x39987c17	0.00029084153
96	0x38aeb43a	8.3305364e-05
97	0x371efd23	9.476472e-06
98	0x33016dca	3.0135006e-08
99	0x2e10f468	3.2958886e-11
100	0x35c365e4	1.4558286e-06
101	0x3771ec20	1.44196965e-05
102	0x399adbfd	0.00029537073
103	0x39ac21be	0.00032831536
104	0x38902b2d	6.874497e-05
105	0x36bdba13	5.654301e-06
106	0x38a35569	7.7883546e-05
107	0x39a8086e	0.00032049738
108	0x3520dd4f	5.992669e-07
109	0x3c8a03ec	0.016847573
110	0x36f60712	7.3321944e-06
111	0x33fc991f	1.1762517e-07
112	0x33a0b72d	7.4839e-08
113	0x3062b22e	8.247153e-10
114	0x2a41fab1	1.722882e-13
115	0x2e094b45	3.1217046e-11
116	0x308e70f2	1.0363961e-09
117	0x34e7264a	4.3054962e-07
118	0x352b3ef9	6.37941e-07
119	0x339083b2	6.729478e-08
120	0x339a8ba2	7.196583e-08
121	0x320132a3	7.520302e-09
122	0x29893540	6.0932596e-14
123	0x2d459406	1.1231021e-11
124	0x30bf761c	1.3930648e-09
125	0x3506e4b4	5.0251697e-07
126	0x35334ead	6.6797185e-07
127	0x33e42e1c	1.06254646e-07
128	0x33720f48	5.6358914e-08
129	0x31b76ed4	5.3386007e-09
130	0x2a5571bc	1.895766e-13
131	0x2d186087	8.661633e-12
132	0x31e77df1	6.7373027e-09
133	0x34f4c622	4.5592702e-07
134	0x3520fecc	5.9975423e-07
135	0x3397df70	7.0721285e-08
136	0x338d32d2	6.575068e-08
137	0x328a0496	1.60674e-08
138	0x2c20c103	2.284451e-12
139	0x2c941485	4.208691e-12
140	0x2fc266c5	3.5361417e-10
141	0x350149a9	4.8163434e-07
142	0x35251a88	6.15059e-07
143	0x34c38da9	3.6424652e-07
144	0x3349953f	4.6934698e-08
145	0x3094770c	1.0802252e-09
146	0x277fb512	3.5486517e-15
147	0x2d795344	1.41725e-11
148	0x32049cb3	7.7190405e-09
149	0x344c1640	1.9007075e-07
150	0x34bde023	3.5367074e-07
151	0x33acfd86	8.05549e-08
152	0x332ef6ee	4.0737113e-08
153	0x328673a9	1.565225e-08
154	0x2ce4b84d	6.5006112e-12
155	0x2fcaa310	3.685945e-10
156	0x305a6d2e	7.946309e-10
157	0x350c54c3	5.227741e-07
158	0x3524ad16	6.1346634e-07
159	0x34af69d0	3.267328e-07
160	0x3399e033	7.165399e-08
161	0x2f1e6712	1.4406634e-10
162	0x277d3dc2	3.5144282e-15
163	0x2e273d96	3.8026103e-11
164	0x31ce2333	5.9993908e-09
165	0x34793b85	2.3211585e-07
166	0x34c2a76b	3.6257128e-07
167	0x33767bd7	5.738897e-08
168	0x32dfa61f	2.603616e-08
169	0x3122729b	2.3639248e-09
170	0x2b168f98	5.348998e-13
171	0x2d8dd569	1.6124617e-11
172	0x30e266cd	1.6472882e-09
173	0x35296fd0	6.3120115e-07
174	0x35399f59	6.914975e-07
175	0x34112182	1.3516367e-07
176	0x3381f896	6.052248e-08
177	0x2ec7147c	9.053111e-11
178	0x24c63dcf	8.597352e-17
179	0x2d82bb66	1.486251e-11
180	0x309852f1	1.1083029e-09
181	0x34fbc8b8	4.6898435e-07
182	0x3510339d	5.371929e-07
183	0x3313ea0e	3.4438976e-08
184	0x32868e9a	1.56645e-08
185	0x3102a8a4	1.901335e-09
186	0x2995dc68	6.6551636e-14
187	0x2dd19c3f	2.3829936e-11
188	0x3193c6e9	4.3008765e-09
189	0x353a3e60	6.9381167e-07
190	0x354656aa	7.388686e-07
191	0x3389f924	6.424878e-08
192	0x331856cb	3.5469196e-08
193	0x2e90e0a4	6.588266e-11
194	0x2499e6e6	6.674433e-17
195	0x2e24de6c	3.7486833e-11
196	0x2f92c8ec	2.670001e-10
197	0x352861ad	6.2727014e-07
198	0x35321f84	6.635603e-07
199	0x32f7539f	2.8792611e-08
200	0x328a4906	1.6098522e-08
201	0x310fc8a4	2.092329e-09
202	0x2a49cd9b	1.792372e-13
203	0x2ee2fac7	1.0321837e-10
204	0x2f9d2797	2.8586264e-10
205	0x35453ada	7.347386e-07
206	0x354afeff	7.562193e-07
207	0x32cb6f4e	2.3682926e-08
208	0x32a669d0	1.9373061e-08
209	0x2dd3a573	2.4061397e-11
210	0x29eb05b3	1.0437085e-13
211	0x2db56d4b	2.0625853e-11
212	0x2f7244e9	2.2034254e-10
213	0x3545049b	7.339492e-07
214	0x354a3f64	7.534311e-07
215	0x34ea314e	4.362177e-07
216	0x32ca5eeb	2.3559059e-08
217	0x34d10330	3.8931603e-07
218	0x35ca65d5	1.507981e-06
219	0x320e5421	8.2846165e-09
220	0x361805e1	2.2653187e-06
221	0x3280c763	1.4991832e-08
222	0x354f3dd3	7.7203475e-07
223	0x33da548f	1.0166797e-07
224	0x308666d4	9.779009e-10
225	0x295765f8	4.7828034e-14
226	0x3275f1b4	1.4315834e-08
227	0x319f26a9	4.631904e-09
228	0x34389347	1.7189915e-07
229	0x350b60ed	5.192258e-07
230	0x353c7dbe	7.0218437e-07
231	0x335adc7a	5.0957603e-08
232	0x3215c975	8.7187475e-09
233	0x28edff8a	2.6423108e-14
234	0x327c8272	1.469799e-08
235	0x30cc18c0	1.4849988e-09
236	0x349d50fa	2.9302447e-07
237	0x354aaa57	7.549874e-07
238	0x3546d5c9	7.4071846e-07
239	0x339f9389	7.430851e-08
240	0x31adf7af	5.063121e-09
241	0x29120e1b	3.2430747e-14
242	0x3210c259	8.426093e-09
243	0x32c5690d	2.298159e-08
244	0x34550e46	1.9842363e-07
245	0x34dd9399	4.127185e-07
246	0x351f7a1c	5.940981e-07
247	0x333a32bb	4.335264e-08
248	0x33030ea9	3.0514148e-08
249	0x2e69a9cc	5.3128876e-11
250	0x30776240	8.99977e-10
251	0x30b3be71	1.3078091e-09
252	0x34cb0ee3	3.7822528e-07
253	0x351b44fa	5.7842374e-07
254	0x3564d8df	8.525221e-07
255	0x3385e9d4	6.235828e-08

exp_avg f4 [128]
0	0x3ad1cd50	0.0016006622
1	0xb76fdaa9	-1.4296421e-05
2	0xb879bcef	-5.9542184e-05
3	0xba579571	-0.00082238676
4	0xbaec4e2a	-0.0018028666
5	0xb90eef97	-0.0001363143
6	0x374757ab	1.1881736e-05
7	0x36391632	2.7580068e-06
8	0x3a83f1ea	0.0010066603
9	0x3ac8432f	0.0015278811
10	0xba1405f3	-0.00056466385
11	0x3a4d831b	0.00078396656
12	0xb9dd83ba	-0.0004225055
13	0x39a384ba	0.00031188672
14	0xba375af8	-0.00069944514
15	0x39e02757	0.0004275392
16	0xb91cc65a	-0.00014951211
17	0x3ab68f9b	0.0013928296
18	0x3acdd0d6	0.0015702497
19	0xba8cafc7	-0.0010733538
20	0xbacb860d	-0.0015527621
21	0xba0cc26a	-0.0005369546
22	0x3b1a569d	0.002355016
23	0x39ebb2b5	0.0004495584
24	0xb8f6f724	-0.000117762276
25	0x371218af	8.708025e-06
26	0x3b02fbeb	0.001998658
27	0x3a28a27e	0.00064329046
28	0x398a6cf5	0.0002640259
29	0xba7be292	-0.0009608652
30	0xba4163e7	-0.00073772523
31	0x3a820ddd	0.0009922344
32	0xb9b8cbaf	-0.0003524697
33	0xba27f669	-0.00064072624
34	0x3a6a8f6f	0.0008947765
35	0xba565f96	-0.00081776956
36	0xb9d98561	-0.0004148884
37	0x3aff4ae2	0.0019477273
38	0x3a141959	0.0005649529
39	0xb97ce122	-0.00024116461
40	0xba8f0a5b	-0.001091312
41	0xb9a6321d	-0.00031699325
42	0x3af6a685	0.0018817937
43	0x39b611af	0.0003472692
44	0xb9429a70	-0.00018558814
45	0x390794c5	0.00012930024
46	0x38a2dfda	7.7664576e-05
47	0x3a1ef47b	0.0006063652
48	0xb7d6d905	-2.5611846e-05
49	0x39f825d7	0.0004733044
50	0x3a381670	0.00070223864
51	0xb7bb16f5	-2.2302827e-05
52	0x3a384b50	0.00070302654
53	0xba096336	-0.0005240919
54	0xba0dd5eb	-0.00054105994
55	0xb8c1a86e	-9.2343296e-05
56	0xb836284d	-4.3429714e-05
57	0x37a22071	1.9327012e-05
58	0x39f6b9ba	0.00047059153
59	0xb8918284	-6.938449e-05
60	0xb8fbb291	-0.00012001873
61	0xb99fd6df	-0.00030486935
62	0xb98493a5	-0.00025287006
63	0xb9da9bc7	-0.00041696263
64	0xb9445b33	-0.00018725991
65	0xba352ee8	-0.00069115916
66	0x3a84194c	0.001007834
67	0x3ac0b20f	0.0014701503
68	0xba14f2bd	-0.0005681923
69	0xb8f1bfa0	-0.000115274685
70	0x388292fd	6.226262e-05
71	0xba456999	-0.0007530689
72	0x39e254e7	0.00043169336
73	0xb9908f8d	-0.00027572774
74	0xb97a9c49	-0.00023900079
75	0xba997ee1	-0.0011710786
76	0xb91a6257	-0.00014723219
77	0xba123e1f	-0.0005578715
78	0xba628817	-0.0008641495
79	0x3aa55e73	0.0012616649
80	0xb78c25ea	-1.6706956e-05
81	0xb973b536	-0.00023241792
82	0xb920fd6f	-0.000153532
83	0xb9ba9fa6	-0.00035595632
84	0x39eda858	0.00045329588
85	0xb8391d44	-4.4134693e-05
86	0xbab0df76	-0.0013494331
87	0xb9124128	-0.00013947918
88	0xbac658fe	-0.0015132723
89	0x3ab0c73b	0.001348711
90	0x390a05ca	0.00013162862
91	0xb918b870	-0.00014564558
92	0x39c02053	0.00036645177
93	0xb8c0aa4d	-9.1869944e-05
94	0x3a6db756	0.00090681517
95	0x37e7a1fa	2.7612772e-05
96	0xba05eb18	-0.0005108579
97	0x39806bc5	0.00024494357
98	0x3a5dfcce	0.0008468152
99	0x3aa38e0d	0.0012478248
100	0x3aa15780	0.0012309402
101	0xb933de9a	-0.00017153696
102	0x3a397a08	0.0007075374
103	0x3986f622	0.00025741855
104	0x38159923	3.5666988e-05
105	0xb9dd09a2	-0.00042159582
106	0x38cf71fb	9.89176e-05
107	0xb9441c78	-0.00018702622
108	0xba0be020	-0.00053358264
109	0x3783e5e4	1.5723468e-05
110	0xba9b1ba8	-0.0011833804
111	0x38995ed8	7.3132745e-05
112	0xb88af7eb	-6.626531e-05
113	0xb950aa8f	-0.00019899964
114	0x3a164f52	0.00057338655
115	0xb9ea0744	-0.0004463737
116	0xba99e705	-0.0011741823
117	0xba7259f3	-0.0009244971
118	0xba047414	-0.00050526974
119	0xbaea5eda	-0.0017881051
120	0x3a237dce	0.0006236703
121	0x393c0476	0.00017930739
122	0x391e5de4	0.00015103031
123	0x3aa1926d	0.0012326963
124	0xba8eaf47	-0.0010885977
125	0xb7da387d	-2.601393e-05
126	0xb91d04a1	-0.00014974411
127	0xb92a1648	-0.00016220764

exp_avg_sq f4 [128]
0	0x3a0c7697	0.00053582474
1	0x35694fd0	8.6915406e-07
2	0x35ab3fef	1.27591e-06
3	0x399bcd3a	0.0002971681
4	0x3a01e8ba	0.00049556384
5	0x3663d607	3.3950216e-06
6	0x36541d6a	3.1607583e-06
7	0x386bed97	5.624964e-05
8	0x3958307c	0.00020617427
9	0x3995e271	0.00028588207
10	0x389ede4b	7.5754324e-05
11	0x39145108	0.00014144566
12	0x382bf9e1	4.1002295e-05
13	0x39590bcf	0.00020699132
14	0x3928fbed	0.00016115578
15	0x39984040	0.0002903957
16	0x38a9472f	8.071807e-05
17	0x39ae69c8	0.0003326668
18	0x39a9cca0	0.0003238665
19	0x39c3b057	0.00037324682
20	0x3a1079ec	0.0005511332
21	0x38f926b3	0.000118804535
22	0x3a4535b8	0.00075229583
23	0x38a11355	7.680679e-05
24	0x37477cfb	1.1890424e-05
25	0x36219f56	2.4083615e-06
26	0x3a3d166e	0.000721312
27	0x38f8dce5	0.00011866706
28	0x3774d9bf	1.4594231e-05
29	0x3999360f	0.0002922271
30	0x391594f0	0.00014265231
31	0x391b8df9	0.00014834841
32	0x392b663a	0.00016345913
33	0x396c687f	0.00022545642
34	0x38cb598e	9.696475e-05
35	0x392f573e	0.00016721801
36	0x3845f56c	4.7197027e-05
37	0x3a886705	0.0010406679
38	0x38990098	7.295719e-05
39	0x3725afa6	9.875663e-06
40	0x39c1ee12	0.00036989205
41	0x37eb4946	2.8048304e-05
42	0x3a005617	0.0004895641
43	0x3786d56c	1.6073427e-05
44	0x388d55a0	6.739353e-05
45	0x36a52723	4.9219393e-06
46	0x39506e6e	0.00019877564
47	0x38ec6474	0.00011272068
48	0x35871159	1.0063333e-06
49	0x373109c1	1.0552293e-05
50	0x39802168	0.00024438952
51	0x394d01ee	0.00019551042
52	0x38bfcb77	9.145488e-05
53	0x390784d0	0.0001292408
54	0x38c9b16b	9.6174736e-05
55	0x38e730c4	0.00011024022
56	0x355b0925	8.1597165e-07
57	0x37bddf33	2.2634491e-05
58	0x38d2f602	0.00010059403
59	0x35462141	7.380914e-07
60	0x3807e578	3.2400218e-05
61	0x37f83c8d	2.95921e-05
62	0x371d83df	9.388633e-06
63	0x385b50f5	5.2289066e-05
64	0x362f1504	2.6089265e-06
65	0x393a1bda	0.00017748718
66	0x39f0b69f	0.0004591243
67	0x3917d861	0.0001448109
68	0x393aacb0	0.00017802673
69	0x3499590f	2.856327e-07
70	0x37121edc	8.709463e-06
71	0x3972bb1f	0.00023148626
72	0x38141702	3.5307377e-05
73	0x389bbf75	7.4266376e-05
74	0x37c75058	2.3760062e-05
75	0x38e81220	0.00011065998
76	0x365bf2af	3.2774803e-06
77	0x39526c02	0.00020067397
78	0x399b7a58	0.00029655057
79	0x39946d55	0.00028310218
80	0x349962df	2.857041e-07
81	0x38a36186	7.790611e-05
82	0x36c203a8	5.782076e-06
83	0x381fd231	3.810431e-05
84	0x384c32e7	4.8684797e-05
85	0x3547c512	7.442005e-07
86	0x3a016764	0.0004936366
87	0x386425b4	5.439455e-05
88	0x39b90d34	0.00035295787
89	0x39f6ccac	0.0004707327
90	0x36080399	2.0267673e-06
91	0x37f65c23	2.936839e-05
92	0x37a4c1d6	1.9640585e-05
93	0x381c305c	3.7238337e-05
94	0x3a0e7ed7	0.0005435771
95	0x38c4b305	9.379353e-05
96	0x39ad567e	0.00033061573
97	0x3801cb0b	3.0945095e-05
98	0x39b1a70b	0.00033884528
99	0x3918525f	0.00014526535
100	0x39e53c6a	0.00043723296
101	0x37b3152f	2.1348327e-05
102	0x3913416d	0.00014043385
103	0x371aec93	9.234197e-06
104	0x364377be	2.9126963e-06
105	0x388d37a1	6.7337656e-05
106	0x351e3726	5.893984e-07
107	0x371f0fee	9.480847e-06
108	0x383a1f10	4.4374785e-05
109	0x3515fc03	5.587355e-07
110	0x3a544019	0.00080967095
111	0x38a2263b	7.731883e-05
112	0x35f1f526	1.8027247e-06
113	0x36167bda	2.2423833e-06
114	0x3926004f	0.00015831109
115	0x38c39906	9.3268274e-05
116	0x3a1fd798	0.00060974946
117	0x39b5b8cf	0.00034660703
118	0x3887e472	6.479853e-05
119	0x3a8a0811	0.0010530968
120	0x384b929b	4.853551e-05
121	0x37857647	1.5909913e-05
122	0x366611d2	3.4283044e-06
123	0x398ba412	0.00026634388
124	0x397f94d9	0.00024374145
125	0x361b298d	2.3120986e-06
126	0x37b941b5	2.2084316e-05
127	0x36ef1fdd	7.1264644e-06
