results/opponentL/OpponentL/OpponentL-3096949.pt (torch, 760415 bytes, 30 tensors)

network_body._body_endoder.seq_layers.0.weight f4 [128, 111]
-0.0042422814 0.11462414 -0.33900774 0.18622883 -0.01894963 0.24070105 0.016876992 0.038406894
0.08756083 0.072364025 -0.15159564 -0.08962793 -0.11339409 0.09808135 -0.17291045 0.05319736
-0.17565861 0.042563807 0.1252809 -0.104488574 -0.061335772 0.11181572 0.14121288 -0.1293052
-0.09590197 -0.024242865 0.0826346 -0.018651238 0.105025515 -0.040229507 -0.1531367 0.22721548
0.03899465 0.05545699 0.08348845 0.03799004 -0.13264048 -0.17450655 -0.041545957 -0.071377985
0.22230196 0.04703918 0.14724971 -0.09557825 0.08497834 0.059256498 -0.03394096 -0.026997289
0.12357148 0.004033793 -0.061697565 0.19871907 -0.077015236 -0.005793201 -0.07221022 -0.09478504
0.071493015 -0.012681398 0.06650251 0.19099648 0.06208128 0.04692918 0.005080351 0.0043726834
0.028471246 0.1725699 -0.16522814 -0.08226145 0.0392355 -0.018364638 -0.012492868 0.20199741
0.07966422 0.014021283 -0.0063631153 0.12920785 -0.22270994 0.035961375 -0.008445161 0.048424557
0.12766722 -0.040760804 -0.08920738 0.0030869597 -0.009854333 0.051750578 -0.012547759 0.17351833
0.06534827 -0.04688797 -0.04693475 -0.028098403 -0.14741772 0.06964469 -0.0016815496 0.3016406
-0.17599429 0.10766786 -0.20274182 -0.061048858 0.16646253 -0.13924791 0.26255596 0.04769781
0.10899689 0.13008024 0.15728956 -0.20051034 0.055476535 0.06838121 -0.18701567 -0.10298386
-0.05870599 0.09018235 0.057145532 -0.19978334 -0.09266416 0.11691746 0.031967174 -0.20197642
0.020477867 -0.12968038 -0.12656868 0.02469849 0.038654078 0.114704534 -0.065923244 -0.020151464
0.025995284 -0.12224469 -0.009335308 0.0026298657 0.031862073 0.14774413 0.028050404 0.018121632
0.15632369 -0.029723324 0.024473818 -0.04256685 -0.07029623 -0.05747962 0.0014950072 0.11788465
0.0009053405 0.19911541 0.042816978 0.0014109963 -0.030467782 -0.20534949 0.08935518 0.0031218964
-0.14881422 -0.024951337 -0.0046026832 0.07705451 0.13607869 0.04121273 -0.17242387 0.034208175
0.075068675 0.10987163 0.29731402 0.14444502 0.068960436 -0.16255473 -0.027750604 0.022456063
0.06127425 -0.1733836 -0.20364115 -0.16123156 -0.03361885 -0.037360523 0.074689046 0.085899085
0.08274026 0.12687601 0.13223659 0.01540045 0.03972285 -0.06780531 0.140737 -0.10631397
-0.1338108 -0.028710496 -0.0020692751 0.04334875 0.24848777 -0.033299636 0.11598455 0.07265176
-0.1232733 0.020083632 -0.013867775 0.098143585 -0.05241849 -0.039896484 -0.21252334 -0.08241492
-0.012944295 0.027690308 0.041852478 0.08990008 -0.06875614 0.08561963 -0.030047461 -0.09759977
-0.059128817 -0.05863805 0.03713092 -0.07247297 -0.01862045 0.00014095684 0.09602049 -0.08324864
0.057887685 -0.027363129 -0.003870122 -0.10878602 -0.12138073 0.070363425 0.0021118254 0.044593368
0.017004352 -0.14055832 -0.11311202 -0.16166537 -0.059146255 -0.17015791 -0.117259614 -0.08660561
0.13802463 -0.01885039 -0.12590005 0.002305992 0.15196325 -0.02728897 -0.11441805 0.025914261
-0.018167714 0.079057276 0.0095915925 -0.1498625 0.037459422 0.03494554 -0.12102907 -0.28083113
-0.09171182 0.035277262 0.13086613 0.015190871 0.06990967 -0.21245722 0.062039662 0.054630507
00000000: d602 8bbb 10c0 ea3d 6c92 adbe c5b2 3e3e
00000010: 413c 9bbc 567a 763e 9e41 8a3c 8c50 1d3d
00000020: 1853 b33d 9733 943d e33b 1bbe d98e b7bd
00000030: 293b e8bd e0de c83d 700f 31be 7ae5 593d
00000040: dadf 33be 6357 2e3d a349 003e 1bfe d5bd
00000050: 383b 7bbd a4ff e43d 1c9a 103e 9568 04be
00000060: 4168 c4bd f998 c6bc 543c a93d 7bca 98bc
00000070: 9e17 d73d b2c7 24bd decf 1cbe 2dab 683e
00000080: dbb8 1f3d de26 633d fefb aa3d 729b 1b3d
00000090: e8d2 07be d8b1 32be 182c 2abd 9f2e 92bd
000000a0: 20a3 633e 28ac 403d a1c8 163e 88be c3bd
000000b0: 2009 ae3d f1b6 723d ad05 0bbd 6b29 ddbc
000000c0: 0b13 fd3d e92d 843b 96b6 7cbd 037d 4b3e
000000d0: 2aba 9dbd e4d4 bdbb f4e2 93bd a91e c2bd
000000e0: ee6a 923d a3c5 4fbc 7832 883d 9594 433e
000000f0: f148 7e3d d038 403d 1379 a63b ba48 8f3b
00000100: 883c e93c 2ab6 303e 9131 29be b178 a8bd
00000110: 67b5 203d 7071 96bc e3ae 4cbc 69d8 4e3e
00000120: ff26 a33d 86b9 653c ae81 d0bb 104f 043e
00000130: 130e 64be 3c4c 133d 935d 0abc d458 463d
00000140: 32bb 023e cdf4 26bd 5cb2 b6bd 974e 4a3b
00000150: 1174 21bc 6af8 533d 1e95 4dbc caae 313e
00000160: 50d5 853d 9a0d 40bd a73e 40bd 9f2e e6bc
00000170: acf4 16be e0a1 8e3d 7167 dcba a370 9a3e
00000180: d937 34be f880 dc3d 8d9b 4fbe 5e0e 7abd
00000190: 2775 2a3e 0197 0ebe bc6d 863e c75e 433d
000001a0: c339 df3d c133 053e 8410 213e 9552 4dbe
000001b0: 5d3b 633d 730b 8c3d 0981 3fbe 34e9 d2bd
000001c0: b175 70bd 86b1 b83d 6f11 6a3d 0194 4cbe
000001d0: b5c6 bdbd 6c72 ef3d 03f0 023d e8d2 4ebe
000001e0: 33c1 a73c efca 04be 389b 01be 7d54 ca3c
000001f0: bd53 1e3d 36ea ea3d c402 87bd af14 a5bc
00000200: 10f4 d43c 6d5b fabd 1ff3 18bc d359 2c3b
00000210: ce81 023d 3d4a 173e f6c9 e53c d173 943c
00000220: 5113 203e 547e f3bc 517d c83c 945a 2ebd
00000230: 78f7 8fbd c06f 6bbd 1ef4 c33a 826d f13d
00000240: 5f54 6d3a e9e4 4b3e db60 2f3d 2ef1 b83a
00000250: 9297 f9bc 2347 52be d9ff b63d bb98 4c3b
00000260: c162 18be bf66 ccbc 1bd2 96bb c1ce 9d3d
00000270: 3658 0b3e aece 283d e28f 30be df1d 0c3d
00000280: 9bbd 993d 6104 e13d 8b39 983e 65e9 133e
00000290: 213b 8d3d bf74 26be 3c55 e3bc c7f5 b73c
000002a0: b5fa 7a3d 788b 31be 4e87 50be e319 25be
000002b0: ebb3 09bd 5907 19bd 92f6 983d dceb af3d
000002c0: ba73 a93d c9eb 013e 0769 073e 2b52 7c3c
000002d0: 6db4 223d 83dd 8abd 5c1d 103e 24bb d9bd
000002e0: b305 09be 4632 ebbc ad9c 07bb 758e 313d
000002f0: 9473 7e3e 3365 08bd 4f89 ed3d 72ca 943d
00000300: b676 fcbd 6e86 a43c aa35 63bc 81ff c83d
00000310: c5b4 56bd 7f6a 23bd b89f 59be 27c9 a8bd
00000320: 4f14 54bc c9d6 e23c 816d 2b3d 881d b83d
00000330: 05d0 8cbd 5859 af3d 1826 f6bc 63e2 c7bd
00000340: 0f31 72bd 742e 70bd 9716 183d b56c 94bd
00000350: ea89 98bc d0cd 1339 64a6 c43d 437e aabd
00000360: a31b 6d3d a428 e0bc dfa1 7dbb 34cb debd
00000370: 7696 f8bd b31a 903d 8d66 0a3b 89a7 363d
00000380: b64c 8b3c 85ee 0fbe 46a7 e7bd 9b8b 25be
00000390: 5843 72bd e03d 2ebe cf25 f0bd 485e b1bd
000003a0: 5456 0d3e 226c 9abc f1eb 00be 2020 173b
000003b0: 419c 1b3e 1e8d dfbc 0354 eabd 254a d43c
000003c0: 75d4 94bc c8e8 a13d 0e26 1d3c 8e75 19be
000003d0: 0d6f 193d 0e23 0f3d 17de f7bd 19c9 8fbe
000003e0: 68d3 bbbd e47e 103d c501 063e 22e3 783c
000003f0: cd2c 8f3d 638e 59be 4d1d 7e3d 3dc4 5f3d

network_body._body_endoder.seq_layers.0.bias f4 [128]
0.020564796 0.0039369953 -0.050457712 0.008793433 0.0070069623 0.015763786 0.010994744 0.032003883
0.009949529 0.0040698946 -0.000998327 0.00019838118 -0.025479399 0.021857258 0.014283219 0.018932818
0.013983743 0.007824784 0.02219416 0.014879319 0.02434924 0.024020078 0.0284986 -0.007905055
-0.015142861 0.013586445 0.04455272 0.024415601 0.034004297 0.007294584 0.013368856 -0.0064733024
0.01376531 0.0056723156 0.013619792 0.006291128 -0.0091344565 0.018812148 0.028248057 0.004712735
0.009019616 -0.0058921413 0.005955829 -0.019757535 0.024137557 -0.005710389 0.0069154957 0.010844898
-0.027431546 -0.0014164726 0.015460965 -0.010654068 0.0047942298 -0.019453304 0.005295707 0.019001415
-0.021199157 0.00036766747 0.0014397294 -0.021524347 0.029596038 -0.0070367716 -0.040614557 -0.005559811
-0.005934882 0.0049834265 0.041114576 0.010976357 0.015753573 0.005697668 0.017951721 -0.00035379935
0.009633271 0.0058356095 -0.0033275937 0.04011493 -0.019588713 0.018359343 0.0067878817 0.027645824
-0.029792208 0.0166236 -0.016803958 0.014409452 0.013091826 -0.021911243 0.017728457 0.0130275
0.000458739 0.012857637 -0.009173539 -0.012863483 -4.806616e-05 0.01718884 0.03758042 0.025524521
0.013532242 0.029178973 0.03594935 -0.007370351 0.002899158 0.0052726166 0.032269605 -0.016410371
-0.00448239 -0.00314327 -0.02221229 -0.0073274197 0.008586971 0.013293862 0.023889644 -0.0063527944
-0.013843987 0.0030499287 0.033886958 0.002898321 0.021153754 0.014733471 0.0051910663 0.019704374
0.0076513602 -0.0057629826 0.008216089 -0.0023187925 -0.0011880293 0.014504066 0.05421436 0.003689439
00000000: 8177 a83c e901 813b bfac 4ebd 5512 103c
00000010: a99a e53b 0e23 813c 4c23 343c 8116 033d
00000020: 5903 233c c05c 853b 4cda 82ba 8b04 5039
00000030: 2cba d0bc fe0d b33c 2a04 6a3c ff18 9b3c
00000040: 121c 653c 8633 003c 87d0 b53c 63c8 733c
00000050: 0f78 c73c c1c5 c43c e575 e93c 3484 01bc
00000060: c319 78bc ae99 5e3c ea7c 363d 3a03 c83c
00000070: 1748 0b3d 6807 ef3b 0c09 5b3c ff1d d4bb
00000080: e587 613c d5de b93b 8c25 5f3c cf25 ce3b
00000090: b0a8 15bc ef1b 9a3c 7868 e73c 496d 9a3b
000000a0: 03c7 133c dd12 c1bb 1d29 c33b 8eda a1bc
000000b0: 20bc c53c 371e bbbb 629b e23b cdae 313c
000000c0: 1fb8 e0bc efa8 b9ba fd4f 7d3c 668e 2ebc
000000d0: ea18 9d3b 895c 9fbc 9c87 ad3b dba8 9b3c
000000e0: dba9 adbc 7ec3 c039 4db5 bc3a d453 b0bc
000000f0: 6473 f23c b894 e6bb 735b 26bd 132f b6bb
00000100: 6679 c2bb 034c a33b c267 283d 2ed6 333c
00000110: a30d 813c 81b3 ba3b 7d0f 933c 257e b9b9
00000120: ded4 1d3c a438 bf3b c213 5abb 8e4f 243d
00000130: 8278 a0bc 5566 963c e16c de3b 7f79 e23c
00000140: ca0e f4bc 372e 883c 74a8 89bc 9f15 6c3c
00000150: 197f 563c 357f b3bc 453b 913c 4c71 553c
00000160: e882 f039 d7a8 523c 9c4c 16bc 5cc1 52bc
00000170: a59a 49b8 9ccf 8c3c eded 193d cd18 d13c
00000180: 56b6 5d3c be08 ef3c a03f 133d fc82 f1bb
00000190: cdff 3d3b eac5 ac3b 222d 043d 0b6f 86bc
000001a0: 03e1 92bb 52ff 4dbb 8cf6 b5bc da1a f0bb
000001b0: 5eb0 0c3c 80ce 593c 37b4 c33c 1a2b d0bb
000001c0: e4d1 62bc 50e1 473b 0dcd 0a3d c2f1 3d3b
000001d0: a34a ad3c a864 713c d219 aa3b 116b a13c
000001e0: 43b8 fa3b 67d7 bcbb c69c 063c e2f6 17bb
000001f0: a6b7 9bba 76a2 6d3c e00f 5e3d 84ca 713b

network_body._body_endoder.seq_layers.2.weight f4 [128, 128]
-0.06632156 -0.16955356 -0.045319792 0.040335935 0.034759678 -0.06839324 0.20541987 -0.024508057
-0.08615088 -0.10918552 0.00625365 -0.079080276 -0.016436245 -0.17435072 0.10845162 -0.04910718
-0.05843471 0.040276505 -0.07250153 0.12735106 0.13381855 -0.030616064 -0.2296828 -0.073709905
-0.034093533 0.07518291 0.036576033 0.01286957 -0.08618728 -0.03233046 -0.019679151 -0.0315293
-0.014499168 0.015811358 -0.029923175 -0.09834069 0.25599456 -0.06327404 0.030999057 0.15405467
0.053344052 -0.12880969 -0.010888303 -0.16996248 0.073175855 -0.05615988 -0.053085264 -0.13584298
0.060920723 0.04780435 0.039733127 0.09196145 0.1923379 0.13530813 0.06427415 0.11098251
0.04090391 -0.07791396 -0.0062523223 -0.06603352 0.008254826 0.017098246 -0.033789165 0.11281842
-0.027270978 0.052467085 0.056306742 -0.21872462 0.04798622 -0.16271049 -0.115465075 -0.12526788
-0.06552631 -0.14786 0.009759443 0.014389869 0.050169606 0.02992264 -0.018755915 0.02624483
-0.120225206 -0.060789578 0.027650189 -0.10382069 0.12293971 -0.0042649545 -0.015120374 0.037484437
-0.08321867 -0.11325682 -0.0013665047 -0.037408 -0.19481273 -0.10802091 -0.007403466 -0.040568557
0.14386043 -0.1179919 -0.07267491 -0.06677258 -0.03173427 0.052604962 -0.045080323 -0.080000535
0.045021553 0.061150543 0.037372544 -0.09417145 -0.16021307 -0.13213335 0.2785064 0.0038181185
-0.033552654 0.14433962 -0.04055085 -0.016755832 0.14020348 -0.08501969 0.0026115533 0.2223754
0.01927728 0.023907173 0.0011001418 0.008125904 -0.11169461 -0.0016716446 -0.10047431 0.13692713
0.010905477 -0.08931564 0.084075354 0.1391227 -0.0213967 -0.005677857 0.09795743 0.21587372
-0.1775059 -0.20745334 -0.034221325 -0.08767555 -0.049457572 -0.10018388 -0.05666233 -0.27895594
0.026028521 -0.16965532 0.040664226 0.13343316 0.052796394 -0.0587947 -0.0015629025 -0.06410848
0.007840033 0.027739502 0.0013047736 -0.035913087 -0.0056096227 0.10469435 -0.045292202 0.029576283
-0.008442892 0.17803861 -0.03792146 -0.03330119 -0.12152244 -0.10718986 0.018196713 0.058941085
0.07663304 0.12187069 -0.08024 -0.08068847 0.104623616 0.022695975 -0.18983118 0.0546097
-0.038246628 -0.015429647 -0.06632196 0.13884662 -0.068797894 0.06419742 -0.0641647 0.043141536
-0.19892074 -0.17788874 0.041717257 0.060579833 -0.04055645 0.13828713 -0.1840504 -0.016296808
-0.00543734 0.19263384 -0.096021004 -0.14775495 0.11729193 -0.009856941 0.04204155 0.13427778
0.10213606 0.013240901 0.03644828 -0.023527995 -0.12822635 0.020674584 -0.037865315 -0.13309993
-0.060830213 -0.06437967 0.06554281 0.05805612 -0.03698281 0.06333475 0.26674986 -0.0006884327
0.1105845 0.041366007 0.1699946 -0.13285989 -0.035675813 0.091016226 -0.08914532 0.072910726
0.17107785 0.018080072 -0.043364223 0.022564458 0.050430432 0.14957137 -0.061213363 0.017189942
0.15103078 0.06764497 -0.11855319 -0.021887299 -0.08053593 -0.05487161 0.013535028 0.020878462
-0.03262615 0.025598867 0.07047905 0.021802427 0.078000754 0.11190889 0.091879636 0.03349707
-0.15154359 0.044851437 0.115451194 0.024975793 -0.055946313 0.079137996 0.052403178 -0.0008450052
00000000: 99d3 87bd 739f 2dbe 3fa1 39bd 4b37 253d
00000010: 2a60 0e3d c111 8cbd 9659 523e 1fc5 c8bc
00000020: df6f b0bd a89c dfbd 6beb cc3b d7f4 a1bd
00000030: 4ea5 86bc ff88 32be e21b de3d 9c24 49bd
00000040: 3c59 6fbd faf8 243d af7b 94bd 5168 023e
00000050: bb07 093e 8ace fabc f831 6bbe 38f5 96bd
00000060: a9a5 0bbd 7ff9 993d c0d0 153d e4da 523c
00000070: f582 b0bd f26c 04bd 2c36 a1bc de24 01bd
00000080: eb8d 6dbc d286 813c 7221 f5bc d866 c9bd
00000090: b811 833e d295 81bd bcf1 fd3c 82c0 1d3e
000000a0: 4b7f 5a3d b0e6 03be da64 32bc a50a 2ebe
000000b0: 39dd 953d e707 66bd ef6f 59bd 6c1a 0bbe
000000c0: 0288 793d 7ece 433d 34bf 223d 4956 bc3d
000000d0: 3af4 443e 378e 0a3e 2aa2 833d cc4a e33d
000000e0: dc8a 273d 5b91 9fbd 48e0 ccbb 953c 87bd
000000f0: 403f 073c 9f11 8c3c 8266 0abd 580d e73d
00000100: 6367 dfbc bae7 563d e6a1 663d 59f9 5fbe
00000110: 338d 443d 949d 26be f478 ecbd 3946 00be
00000120: a832 86bd 9d68 17be 12e6 1f3c 7cc3 6b3c
00000130: a57e 4d3d 5320 f53c 01a6 99bc 66ff d63c
00000140: a238 f6bd 7efe 78bd a682 e23c f19f d4bd
00000150: d1c7 fb3d 08c1 8bbb 72bb 77bc 4889 193d
00000160: 8d6e aabd 31f3 e7bd 4a1c b3ba 2239 19bd
00000170: fd7c 47be 113a ddbd c698 f2bb 372b 26bd
00000180: 2650 133e bda5 f1bd 95d6 94bd 10c0 88bd
00000190: cbfb 01bd 4d78 573d 25a6 38bd 52d7 a3bd
000001a0: 8568 383d fe78 7a3d f413 193d f6dc c0bd
000001b0: e50e 24be f74d 07be 6498 8e3e 6639 7a3b
000001c0: 826e 09bd c4cd 133e a618 26bd 8743 89bc
000001d0: 8091 0f3e ce1e aebd 9826 2b3b 60b6 633e
000001e0: 63eb 9d3c fad8 c33c a232 903a 8322 053c
000001f0: 25c0 e4bd 161b dbba 7ac5 cdbd a036 0c3e
00000200: e3ac 323c 1eeb b6bd b32f ac3d 2e76 0e3e
00000210: 2248 afbc 510d babb e89d c83d 000e 5d3e
00000220: 1bc4 35be a66e 54be a92b 0cbd 3d8f b3bd
00000230: 0694 4abd 352d cdbd c216 68bd 50d3 8ebe
00000240: c439 d53c 20ba 2dbe 888f 263d b4a2 083e
00000250: 0841 583d b6d2 70bd 4eda ccba 4f4b 83bd
00000260: 7b73 003c f43d e33c f004 ab3a 9a19 13bd
00000270: edd0 b7bb fe69 d63d 5184 39bd f649 f23c
00000280: 0e54 0abc c14f 363e 8853 1bbd d466 08bd
00000290: c2e0 f8bd 5b86 dbbd 4611 953c 356c 713d
000002a0: c9f1 9c3d 5797 f93d de54 a4bd ff3f a5bd
000002b0: e844 d63d e9ec b93c 1b63 42be 6cae 5f3d
000002c0: 7fa8 1cbd a1cc 7cbc cfd3 87bd cf2d 0e3e
000002d0: e9e5 8cbd f079 833d c868 83bd 2eb5 303d
000002e0: e1b1 4bbe 7728 36be b7df 2a3d 8f22 783d
000002f0: 851e 26bd 249b 0d3e b577 3cbe e280 85bc
00000300: b72b b2bb ce41 453e a9a6 c4bd 134d 17be
00000310: c036 f03d 027f 21bc c333 2c3d 1d80 093e
00000320: b62c d13d 5df0 583c cb4a 153d c8bd c0bc
00000330: c54d 03be bf5d a93c a918 1bbd 594b 08be
00000340: 1a29 79bd 7dd9 83bd 4f3b 863d 41cc 6d3d
00000350: 497b 17bd a6b5 813d 7093 883e f077 34ba
00000360: 207a e23d 676f 293d 1013 2e3e 6c0c 08be
00000370: cd20 12bd b766 ba3d d291 b6bd 3852 953d
00000380: 082f 2f3e a91c 943c af9e 31bd 19d9 b83c
00000390: 2490 4e3d 3d29 193e ddba 7abd ecd1 8c3c
000003a0: d0a7 1a3e 7289 8a3d 04cc f2bd fe4c b3bc
000003b0: 06f0 a4bd 0ec1 60bd 06c2 5d3c 4f09 ab3c
000003c0: ffa2 05bd b7b4 d13c 5257 903d 019b b23c
000003d0: dcbe 9f3d 7d30 e53d 642b bc3d 3934 093d
000003e0: 3e2e 1bbe 24b6 373d ad71 ec3d 099a cc3c
000003f0: f627 65bd 1a13 a23d b7a4 563d 5783 5dba

network_body._body_endoder.seq_layers.2.bias f4 [128]
0.013245744 0.009132026 0.0082591 0.013792259 0.011156603 0.0148280375 0.048110556 0.02313217
0.033039685 0.0197569 0.007495217 0.013141384 0.0016353294 0.014464817 0.015287379 0.032300018
0.042290363 0.017692411 0.024217797 0.017430322 0.032864608 0.021512147 0.016760746 0.025695052
-0.0005725445 0.008883789 0.040196776 0.019836355 0.020238962 0.015284544 0.008951008 0.02491635
0.037136253 0.006715991 0.03805349 0.018396974 0.021348473 0.020863984 0.016994981 0.01015559
0.023213517 0.009956349 0.0401543 0.011623768 -0.0010027111 0.0064374115 0.021706734 0.039508857
0.03282986 0.016951613 0.046620063 0.009717893 0.013646919 0.018964699 0.03707796 0.0032081672
0.028098837 0.028600257 0.03705566 0.013597757 0.044437077 -0.0111789 0.024735583 0.020762421
0.01703603 0.03026608 0.026859567 0.026920097 0.022018231 0.017634675 0.025004677 0.025083872
0.0017400221 0.019652206 0.017442135 0.0207065 0.03055653 -0.015275496 0.002827313 0.030789206
0.017108478 0.0021732599 0.032817725 0.020961985 0.013717121 0.02298044 0.029339325 0.033964477
0.003145321 0.025151258 0.0035006446 0.028179236 0.0282515 0.0056535266 0.012095799 -0.0018045566
0.010178106 0.003325154 0.02014323 -4.5122847e-06 0.019133737 0.018743975 0.0010880338 0.022494204
0.013100159 0.040047575 0.027879154 0.012950044 0.030349351 0.0045270487 0.0314692 0.0019939065
0.0035785565 0.033574134 0.017513394 0.01568745 0.03102793 0.011087949 0.027004687 -0.009470893
0.022147378 0.02543595 0.04568657 0.016317796 0.017426858 0.02605896 0.013017922 0.01977928
00000000: ad04 593c 7e9e 153c 2d51 073c edf8 613c
00000010: 2fca 363c 4cf1 723c 930f 453d ad7f bd3c
00000020: 9f54 073d 39d9 a13c 709a f53b f64e 573c
00000030: 8d58 d63a d7fd 6c3c ea77 7a3c 064d 043d
00000040: a938 2d3d adef 903c 6764 c63c 09ca 8e3c
00000050: 0a9d 063d 3e3a b03c d54d 893c 6e7e d23c
00000060: d016 16ba 508d 113c 60a5 243d da7f a23c
00000070: 2ecc a53c 066c 7a3c 40a7 123c 601d cc3c
00000080: 2f1c 183d d111 dc3b fadd 1b3d 40b5 963c
00000090: fee2 ae3c f2ea aa3c 0f39 8b3c a263 263c
000000a0: 462a be3c f41f 233c d678 243d 9e71 3e3c
000000b0: 676d 83ba ecf0 d23b 52d2 b13c 0ad4 213d
000000c0: 9a78 063d 1cde 8a3c aef4 3e3d cc37 1f3c
000000d0: 5497 5f3c db5b 9b3c 0fdf 173d 1d40 523b
000000e0: 882f e63c 164b ea3c adc7 173d 20c9 5e3c
000000f0: a703 363d b427 37bc 47a2 ca3c f415 aa3c
00000100: 258f 8b3c 92f0 f73c 9808 dc3c 8987 dc3c
00000110: 945f b43c 9876 903c 9cd6 cc3c b17c cd3c
00000120: 7411 e43a aafd a03c cfe2 8e3c aea0 a93c
00000130: b051 fa3c 1346 7abc 714a 393b a539 fc3c
00000140: 1427 8c3c 406d 0e3b e16b 063d 78b8 ab3c
00000150: c7bd 603c 7a41 bc3c 0659 f03c 561e 0b3d
00000160: bb21 4e3b 030a ce3c 126b 653b 24d8 e63c
00000170: b16f e73c 3841 b93b 752d 463c df86 ecba
00000180: 12c2 263c d4ea 593b 6a03 a53c 3b68 97b6
00000190: 5bbe 9c3c f78c 993c 5b9c 8e3a c445 b83c
000001a0: 0da2 563c ed08 243d d362 e43c 6c2c 543c
000001b0: 349f f83c a357 943b d9e5 003d 33ac 023b
000001c0: 3786 6a3b 0885 093d 4078 8f3c f882 803c
000001d0: 492e fe3c 3baa 353c ef38 dd3c ce2b 1bbc
000001e0: 6b6e b53c 0e5f d03c d721 3b3d e6ac 853c
000001f0: c5c2 8e3c 9a79 d53c 1f49 553c 2808 a23c

action_model._continuous_distribution.mu.weight f4 [1, 128]
-0.06075206 -0.067143045 0.062775455 -0.04782016 0.063658826 0.11402263 0.09796945 -0.06634545
0.14682211 -0.09182112 -0.06660575 0.07638731 -0.050182316 0.04636833 -0.08866656 -0.13805333
0.15056635 0.09364159 0.08257737 -0.06679158 -0.09863344 0.09574768 -0.0568986 0.07155104
-0.04221624 0.059034437 0.123032875 -0.02943706 0.088324636 0.060664773 -0.07308413 0.0012372391
0.14819433 -0.0059393477 0.16438739 0.045084782 -0.098901525 -0.04514151 -0.06454889 -0.055347923
0.07913343 0.03236739 0.108694196 0.06407753 -0.03363927 -0.041988824 -0.122336134 0.119350396
0.10377423 0.08347316 -0.096149504 -0.05834782 -0.028326923 0.07817622 0.07937481 -0.040604625
-0.08555051 0.15250567 -0.12896058 -0.0624032 0.14734411 0.02213052 0.07149661 0.08284262
-0.10985113 0.09058044 -0.059582043 -0.12039143 -0.022326414 -0.057060163 0.07350094 0.11899649
-0.028542548 -0.10625505 -0.08763043 0.09577817 0.09962612 -0.015025198 -0.07197812 0.059489004
0.1089572 0.011829144 0.078258626 -0.0704321 -0.06644831 0.04613386 -0.090189494 -0.094212
-0.044657733 -0.11504941 -0.0012724322 0.08095683 -0.10365003 -0.058049902 0.057851713 -0.024812717
0.05084075 -0.025728371 -0.087927155 -0.039953955 0.08689079 0.06779098 -0.039007194 -0.062614955
0.01584665 -0.14084299 0.14741266 -0.07009114 0.06918299 -0.045745473 0.08969963 -0.02164696
-0.031041322 0.11363431 -0.0642907 0.060503975 0.084928095 -0.04908056 0.060181633 0.042409264
0.07587682 0.08425216 0.14958626 0.07569975 0.073683076 0.066472314 -0.061592467 0.09293958
00000000: 27d7 78bd 4b82 89bd 6b90 803d 12df 43bd
00000010: 8f5f 823d b284 e93d 35a4 c83d 20e0 87bd
00000020: 8958 163e b60c bcbd 9868 88bd f370 9c3d
00000030: f98b 4dbd b8ec 3d3d d096 b5bd da5d 0dbe
00000040: 112e 1a3e 29c7 bf3d 531e a93d 06ca 88bd
00000050: 5400 cabd 5c17 c43d 820e 69bd 5a89 923d
00000060: f0ea 2cbd 18ce 713d a9f8 fb3d fd25 f1bc
00000070: 8ce3 b43d a07b 783d 22ad 95bd db2a a23a
00000080: 41c0 173e dc9e c2bb 2b55 283e d2aa 383d
00000090: e28c cabd 4ee6 38bd 3532 84bd 81b4 62bd
000000a0: b510 a23d ab93 043d 109b de3d 143b 833d
000000b0: 55c9 09bd 79fc 2bbd 5e8b fabd fb6d f43d
000000c0: 9587 d43d faf3 aa3d 08ea c4bd 20fe 6ebd
000000d0: dd0d e8bc db1a a03d 438f a23d 0951 26bd
000000e0: 1b35 afbd 722a 1c3e 3e0e 04be 7f9a 7fbd
000000f0: 60e1 163e 104b b53c d16c 923d 64a9 a93d
00000100: a1f9 e0bd 3d82 b93d 4d0c 74bd c88f f6bd
00000110: e2e5 b6bc ebb7 69bd a987 963d 6fb4 f33d
00000120: 10d2 e9bc 3f9c d9bd 9577 b3bd 5827 c43d
00000130: c708 cc3d 402c 76bc 4469 93bd beaa 733d
00000140: f424 df3d 07cf 413c 0f46 a03d b43e 90bd
00000150: 0d16 88bd dcf6 3c3d 45b5 b8bd 39f2 c0bd
00000160: 07eb 36bd 069f ebbd bdc7 a6ba b2cc a53d
00000170: 7846 d4bd bcc5 6dbd ebf5 6c3d 0a44 cbbc
00000180: 643e 503d 4ec4 d2bc 2713 b4bd c2a6 23bd
00000190: ccf3 b13d ffd5 8a3d 02c6 1fbd 453c 80bd
000001a0: d5d0 813c 2539 10be 58f3 163e f28b 8fbd
000001b0: d0af 8d3d 9b5f 3bbd 71b4 b73d f754 b1bc
000001c0: 5f4a febc 1bb9 e83d d8aa 83bd 04d3 773d
000001d0: c8ee ad3d b308 49bd 0481 763d 56b5 2d3d
000001e0: 4e65 9b3d 658c ac3d 242d 193e 7808 9b3d
000001f0: 27e7 963d a322 883d 6248 7cbd 1b57 be3d

exp_avg f4 [128, 111]
-0.00032662068 -0.00063883804 2.9033434e-05 -6e-45 -1.286731e-05 -0.0012811752 -0.0020047051 -0.0023382877
-0.002973199 -0.00016798824 -7.201185e-07 6e-45 0.00021596764 -0.00024701003 -0.0010622242 -0.003924494
-0.0018459647 -0.001096853 -9.827441e-06 -6e-45 -4.9030714e-05 7.273893e-05 -0.0013062352 -0.002987921
-0.0008100271 -0.0004399653 -0.00068978855 1.7224889e-20 -2.4357487e-06 3.999748e-06 -0.0022969556 -0.002386651
-0.0021206522 -0.0011515048 -6.7312e-06 -6e-45 2.2082982e-05 0.000332194 -0.0013105612 -0.0022235955
-0.003018074 0.0009338629 -0.0010304404 -3.3244915e-20 -2.91424e-05 0.00025520314 -0.0013465825 -0.0027471546
-0.0031660812 -0.000245427 4.678127e-05 6e-45 -6.0207236e-05 3.763244e-05 -0.00084787124 -0.0019368252
-0.002811015 0.00054819934 -0.0010090511 -3.596988e-20 0.00017460258 0.00039071805 -0.0015286262 -0.0019426406
-0.0008962233 -0.0013908272 5.310087e-06 6e-45 -0.00030965309 -0.00023752719 -0.0014062522 -0.0018394467
-0.00029126593 -0.00090824533 0.0012276388 6e-45 -0.0005711863 -0.0002704785 -0.003421636 -0.004029961
-0.0019327383 0.00042776632 -9.174963e-06 6e-45 -0.00043596217 -0.00037635482 -0.0019087094 -0.0024226452
-0.0011553016 -0.00022520834 -0.00031912277 6e-45 -0.00026203087 -0.00032050614 -0.0019530042 -0.003301478
-0.0016442005 7.634321e-05 1.444373e-05 6e-45 7.484668e-05 -0.00091346964 -0.0018431367 -0.0022346126
4.1117415e-05 -2.1617245e-05 6.7804634e-05 -0.0016439781 -3.1027233e-05 -0.023986654 0.00035075162 -7.664784e-05
-1.1344429e-05 4.8342217e-06 -6e-45 6.0454005e-07 3.444542e-06 0.00020273287 0.00014001504 -1.9023702e-05
0.000119755256 2.1440039e-05 -6e-45 1.1496985e-08 4.318899e-06 -2.8781094e-06 4.601808e-05 -0.00010763956
0.000121975514 -4.3825967e-06 6e-45 -1.8601376e-07 2.5948084e-06 0.00011126172 0.00012682009 5.2780793e-05
9.025037e-05 2.2781262e-05 -6.8985263e-22 -1.335401e-08 3.7324508e-06 -4.5907647e-05 -1.24081e-05 8.648398e-05
-3.2507633e-05 3.544144e-06 6e-45 2.304141e-06 -4.078636e-06 6.7877925e-05 0.00010113312 0.000113641596
-8.7621515e-07 7.749018e-06 1.7015467e-21 5.132965e-07 1.4682639e-06 1.1279527e-06 5.4821336e-05 0.00017788167
-3.1640917e-05 9.991682e-07 -6e-45 -1.4793285e-06 -5.3351328e-06 -1.6801574e-05 6.416418e-05 1.5752432e-05
3.783882e-05 -1.9990184e-05 6.8973575e-22 -4.985314e-07 4.426703e-06 8.609464e-05 8.942355e-05 -2.6089292e-05
3.2495096e-05 -4.4166657e-07 -6e-45 -1.0526655e-07 5.1134284e-06 0.000112651585 0.0001110732 -1.1757412e-06
6.9935195e-05 -6.1473943e-06 -6e-45 7.087842e-08 2.7553715e-06 5.818559e-05 7.5319214e-05 5.1675164e-05
1.4740448e-05 8.9607227e-07 -6e-45 7.312465e-08 -9.934031e-08 5.633841e-05 9.5063944e-05 3.835677e-05
3.961274e-05 -1.0443672e-06 -6e-45 2.870001e-06 2.6125265e-06 4.1216248e-05 6.298183e-05 2.5805024e-05
3.6995985e-05 6.570663e-08 -6e-45 4.4013757e-07 -9.536967e-07 6.1270715e-05 7.3916926e-05 6.6411744e-06
6.2289496e-06 -4.6868758e-05 0.00014154719 -2.4303188e-06 0.00045206092 -2.6542526e-05 1.8603476e-05 -1.1942155e-05
1.4109714e-06 6e-45 9.827507e-07 -8.4834055e-06 8.573968e-05 3.9365466e-05 6.6297325e-05 -2.2748332e-05
-1.541173e-06 6e-45 -1.019572e-05 5.6985655e-06 4.880062e-05 0.00011001937 1.7577457e-05 3.953907e-05
4.3241e-06 6e-45 7.166362e-06 -5.2456828e-05 7.016114e-05 0.00010657444 4.7329963e-06 -5.633804e-05
6.632273e-05 9.057163e-22 4.401557e-07 8.359484e-06 6.2793966e-05 5.5480814e-05 -5.0767918e-05 0.00010534551
00000000: 493e abb9 b277 27ba d38c f337 0400 0080
00000010: ade0 57b7 1bed a7ba 5f61 03bb f53d 19bb
00000020: 00da 42bb 0026 30b9 2b4e 41b5 0400 0000
00000030: 5f75 6239 2081 81b9 543a 8bba 0b99 80bb
00000040: 4cf4 f1ba 48c4 8fba 8ae0 24b7 0400 0080
00000050: 54a6 4db8 6a8b 9838 fb35 abba ffd0 43bb
00000060: 0058 54ba 25ab e6b9 edd2 34ba 3aaf a21e
00000070: d875 23b6 9335 8636 8588 16bb 5c69 1cbb
00000080: a4fa 0abb 17ee 96ba 91dc e1b6 0400 0080
00000090: d83e b937 532a ae39 23c7 abba beb9 11bb
000000a0: e1ca 45bb 7ace 743a d80f 87ba a3fe 1c9f
000000b0: d476 f4b7 c9cc 8539 d07f b0ba 9b09 34bb
000000c0: 077e 4fbb a8ac 80b9 0237 4438 0400 0000
000000d0: 0787 7cb8 86d7 1d38 ad43 5eba 12dd fdba
000000e0: 0139 38bb 09b5 0f3a 2342 84ba ebdc 299f
000000f0: 8615 3739 4ad9 cc39 2f5c c8ba 34a0 feba
00000100: 87f0 6aba 6b4c b6ba 4d2d b236 0400 0000
00000110: ef58 a2b9 b810 79b9 fe51 b8ba 9719 f1ba
00000120: 0db5 98b9 5017 6eba b9e8 a03a 0400 0000
00000130: aabb 15ba 02cf 8db9 873d 60bb c30d 84bb
00000140: f053 fdba d345 e039 2bee 19b7 0400 0000
00000150: da91 e4b9 7d51 c5b9 a92d faba 3ec5 1ebb
00000160: 7d6d 97ba e725 6cb9 ef4f a7b9 0400 0000
00000170: 3061 89b9 9b09 a8b9 f2fb ffba 9c5d 58bb
00000180: 3782 d7ba 731a a038 5953 7237 0400 0000
00000190: 01f7 9c38 e975 6fba 6895 f1ba 9472 12bb
000001a0: 7d75 2c38 ae56 b5b7 5632 8e38 c07a d7ba
000001b0: 3d23 02b8 a97f c4bc 16e5 b739 ffbd a0b8
000001c0: f453 3eb7 a635 a236 0400 0080 ad47 2235
000001d0: c828 6736 b194 5439 00d1 1239 1795 9fb7
000001e0: 1d25 fb38 22da b337 0400 0080 4684 4532
000001f0: 0feb 9036 8b25 41b6 8a03 4138 8cbc e1b8
00000200: 1bcd ff38 380e 93b6 0400 0000 13bb 47b4
00000210: 7822 2e36 2e55 e938 02fb 0439 f260 5d38
00000220: cc44 bd38 631a bf37 c37e 509c 8f6b 65b2
00000230: 047b 7a36 f68c 40b8 622c 50b7 bc5e b538
00000240: ce58 08b8 eed7 6d36 0400 0000 d7a0 1a36
00000250: 37db 88b6 af59 8e38 6e17 d438 de52 ee38
00000260: 0c35 6bb5 c701 0237 b390 001d 78c9 0935
00000270: 2a11 c535 2964 9735 f6ef 6538 bf85 3a39
00000280: 2db6 04b8 281b 8635 0400 0080 578d c6b5
00000290: 7104 b3b6 1bf1 8cb7 e28f 8638 1724 8437
000002a0: 20b5 1e38 98b0 a7b7 b875 501c d1d2 05b5
000002b0: 1789 9436 b58d b438 e788 bb38 54da dab7
000002c0: 584b 0838 311e edb4 0400 0080 e60e e2b3
000002d0: 0494 ab36 5c3f ec38 f8ef e838 29ce 9db5
000002e0: 2caa 9238 b745 ceb6 0400 0080 d335 9833
000002f0: ece8 3836 4d0c 7438 b2f4 9d38 c9bd 5838
00000300: be4d 7737 9e89 7035 0400 0080 b408 9d33
00000310: ea54 d5b3 e84c 6c38 115d c738 45e1 2038
00000320: db25 2638 2f2c 8cb5 0400 0080 3e9a 4036
00000330: dd52 2f36 9cdf 2c38 1d15 8438 de77 d837
00000340: 232c 1b38 9a1a 8d33 0400 0080 0c4c ec34
00000350: c500 80b5 777e 8038 d903 9b38 41d7 de36
00000360: 4502 d136 f294 44b8 496c 1439 8f18 23b6
00000370: 9702 ed39 a4a7 deb7 a90e 9c37 2a5b 48b7
00000380: 9c60 bd35 0400 0000 0fe7 8335 f353 0eb7
00000390: 24cf b338 591c 2538 1b09 8b38 acd3 beb7
000003a0: 4dda ceb5 0400 0000 490e 2bb7 4e36 bf36
000003b0: 44af 4c38 33ba e638 4d73 9337 c1d6 2538
000003c0: bc17 9136 0400 0000 9576 f036 1705 5cb8
000003d0: 7a23 9338 b880 df38 21d0 9e36 834c 6cb8
000003e0: bf16 8b38 34de 881c 8a4e ec34 b63f 0c37
000003f0: 41b0 8338 12b4 6838 a3ef 54b8 f1ec dc38

exp_avg_sq f4 [128, 111]
0.00023106215 2.1368154e-05 1.0514899e-06 1.4914838e-11 1.3468881e-06 1.2369453e-05 0.000107314205 0.0002666123
0.00020738022 1.8944145e-05 5.618068e-06 5.292272e-12 2.0531804e-06 3.0273684e-06 0.00013081897 0.00029771207
0.00016389656 1.6556973e-05 2.6567277e-06 1.9571736e-12 8.288849e-07 2.9821751e-05 0.00015402448 0.00026191244
0.00015637795 1.6698365e-05 2.070872e-05 1.7544457e-09 5.9505947e-08 5.4658045e-07 0.00016924948 0.00026942848
0.00014823682 1.743358e-05 3.7042966e-07 4.1490415e-14 5.4179964e-07 5.8638514e-05 0.00013671223 0.0002234239
0.00015232748 1.6050675e-05 1.8380413e-05 3.5778e-09 4.3993217e-07 2.6713728e-06 0.00017640353 0.0002420675
0.0001481849 1.5126524e-05 5.638068e-08 5.9765913e-13 7.412555e-07 5.7145782e-05 0.00014577531 0.00022031524
0.000144247 9.8565315e-06 2.0976813e-05 1.5420605e-09 3.4317309e-06 1.815822e-05 0.00016926015 0.00023977015
0.00011490378 1.3819901e-05 3.7118657e-08 1.261452e-13 1.5569784e-06 4.06751e-05 0.00020706013 0.00026546873
0.0001330458 8.288809e-06 1.7768361e-05 2.7737218e-10 2.324415e-06 1.6016802e-05 0.00020323353 0.00026189414
9.730449e-05 1.0348012e-05 2.9329394e-08 1.253456e-13 1.3203095e-06 1.6226213e-05 0.0002818341 0.0003209724
0.00012514522 5.0278463e-06 1.095438e-05 3.666548e-10 1.1966087e-06 1.7331524e-05 0.00023299071 0.00029095067
8.607941e-05 9.609281e-06 2.3531202e-08 2.5156818e-11 1.5187143e-06 1.5623948e-05 0.00030055526 0.00033362876
6.0885322e-05 4.64792e-06 6.922803e-05 0.00032183592 5.7528126e-07 0.017722616 7.743459e-06 1.2314145e-07
7.7183756e-08 8.0619267e-10 1.3150394e-13 2.8777316e-11 9.986798e-10 4.3900195e-07 6.351908e-07 6.8892774e-08
7.6343376e-08 7.4563475e-09 4.6508577e-14 1.0044825e-11 1.4154945e-09 4.9080217e-07 6.5075125e-07 1.1415229e-07
5.972074e-08 5.8740928e-09 1.4469989e-13 8.640611e-12 7.257175e-09 4.4443723e-07 5.888039e-07 7.298746e-08
7.076545e-08 1.5609583e-08 1.7436726e-12 4.555011e-12 3.779061e-10 4.7658514e-07 6.051708e-07 3.681477e-07
4.786711e-08 1.0004123e-09 2.7086125e-15 2.5204228e-11 8.315411e-09 1.9396987e-07 3.4820889e-07 8.022768e-08
4.48976e-08 1.6166457e-08 4.9617827e-12 3.7856746e-10 7.637207e-10 5.1873053e-07 6.0491107e-07 3.3850813e-07
7.426952e-08 1.1986558e-10 2.68249e-15 4.107004e-11 6.630359e-09 2.278997e-07 3.529492e-07 5.6981104e-08
2.5651845e-08 2.4977753e-09 4.0827782e-13 1.6381826e-11 1.6241627e-09 6.3823194e-07 6.9199655e-07 1.4334681e-07
6.078184e-08 7.1369625e-11 6.562177e-17 1.5954734e-11 1.1404174e-09 4.632479e-07 5.29503e-07 3.581562e-08
1.7609876e-08 1.8109005e-09 5.079746e-14 2.3767564e-11 4.6754205e-09 6.888567e-07 7.3227e-07 6.750959e-08
3.6237093e-08 5.242334e-11 5.0944515e-17 4.66536e-11 2.843604e-10 6.125462e-07 6.5078007e-07 3.120719e-08
1.6367233e-08 2.4061044e-09 1.3680795e-13 1.1136142e-10 2.918341e-10 7.24072e-07 7.4624734e-07 2.4075572e-08
2.0801016e-08 1.8462277e-11 7.9664065e-14 2.0148732e-11 2.3788987e-10 7.267756e-07 7.4610745e-07 3.7934294e-07
2.2384928e-08 3.432079e-07 1.4489619e-06 6.8364465e-09 2.2377417e-06 1.5249553e-08 7.771025e-07 1.0025795e-07
9.204858e-10 3.6506148e-14 1.3278835e-08 4.930302e-09 1.6400051e-07 5.081087e-07 7.051118e-07 4.9447433e-08
7.985205e-09 2.0168197e-14 1.5605899e-08 1.4177332e-09 2.8722454e-07 7.412466e-07 7.4921684e-07 7.55849e-08
5.3806017e-09 2.4753716e-14 7.89643e-09 2.6705985e-08 1.8933201e-07 4.0747773e-07 6.1178065e-07 4.3860247e-08
2.855416e-08 4.055214e-11 1.0252796e-09 1.1864758e-09 3.7243777e-07 5.598266e-07 8.651113e-07 6.2418735e-08
00000000: 4649 7239 c33f b337 eb20 8d35 3b31 832d
00000010: b9c6 b435 6586 4f37 e00d e138 19c8 8b39
00000020: 3474 5939 3eea 9e37 d682 bc36 8c34 ba2c
00000030: 5fc9 0936 cb29 4b36 732c 0939 3d16 9c39
00000040: a6db 2b39 d4e3 8a37 3c4a 3236 4eb9 092c
00000050: 8980 5e35 b929 fa37 a281 2139 4b51 8939
00000060: 63f9 2339 7713 8c37 a3b7 ad37 1221 f130
00000070: 7b93 7f33 b9b8 1235 9078 3139 1442 8d39
00000080: 0570 1b39 543e 9237 77df c634 31db 3a29
00000090: 3070 1135 a0f2 7538 695a 0f39 e546 6a39
000000a0: 19ba 1f39 90a4 8637 a32f 9a37 53dd 7531
000000b0: d12f ec34 d645 3336 f6f8 3839 80d3 7d39
000000c0: 1562 1b39 edc7 7d37 3727 7233 e139 282b
000000d0: b1fa 4635 d1af 6f38 43db 1839 6c04 6739
000000e0: 0241 1739 7b5d 2537 5df7 af37 6ef0 d330
000000f0: b04c 6636 7b52 9837 6d7b 3139 cf6a 7b39
00000100: 7ff8 f038 06dc 6737 656c 1f33 e106 0e2a
00000110: 5ff9 d035 8e9a 2a38 481e 5939 9c2e 8b39
00000120: 3682 0b39 2a10 0b37 440d 9537 aa7c 982f
00000130: 25fd 1b36 d25b 8637 161b 5539 d64e 8939
00000140: f30f cc38 609c 2d37 05f0 fb32 6920 0d2a
00000150: 7d35 b135 871d 8837 22c3 9339 3048 a839
00000160: 6a39 0339 dfb4 a836 b4c8 3737 1392 c92f
00000170: 299b a035 2a63 9137 f84e 7439 bd8a 9839
00000180: 8885 b438 8c37 2137 a921 ca32 1e48 dd2d
00000190: a0d6 cb35 2c10 8337 d893 9d39 e5ea ae39
000001a0: 1e5f 7f38 54f5 9b36 842e 9138 16bc a839
000001b0: 076d 1a35 052f 913c e7e9 0137 dd38 0434
000001c0: 38c0 a533 c49a 5d30 6e0f 142a c120 fd2d
000001d0: ec41 8930 f8af eb34 fb81 2a35 34f2 9333
000001e0: 37f2 a333 5d19 0032 bd74 5129 dfb5 302d
000001f0: 498b c230 abbf 0335 49af 2e35 e323 f533
00000200: d33f 8033 11d5 c931 e7ea 222a da01 182d
00000210: c95a f931 fd9a ee34 4c0e 1e35 48bd 9c33
00000220: b8f7 9733 d615 8632 6d66 f52b e443 a02c
00000230: 8ec1 cf2f 5ddd ff34 0573 2235 d6a5 c534
00000240: 7296 4d33 e17e 8930 152d 4327 e0b2 dd2d
00000250: 90db 0e32 0846 5034 77f1 ba34 a249 ac33
00000260: 6fd5 4033 6ade 8a32 c493 ae2c a21e d02f
00000270: 11ee 5130 e43e 0b35 2c61 2235 34bc b534
00000280: 1a7e 9f33 29cb 032f 354b 4127 c1a0 342e
00000290: 41d1 e331 98b4 7434 f87c bd34 63bb 7433
000002a0: 0159 dc32 54a5 2b31 09d7 e52a 9818 902d
000002b0: 2539 df30 f752 2b35 a4c1 3935 dfea 1934
000002c0: 2b87 8233 87f1 9c2e 4250 9724 de56 8c2d
000002d0: dfbc 9c30 4eb4 f834 2b23 0e35 b1d3 1933
000002e0: 8744 9732 66e3 f830 7cc5 6429 cc0f d12d
000002f0: 6fa5 a031 dfe9 3835 3691 4435 caf9 9033
00000300: 1ba3 1b33 6f8f 662e abf0 6a24 492f 4d2e
00000310: 2b54 9c2f db6d 2435 44b1 2e35 ab08 0633
00000320: ed97 8c32 a358 2531 3508 1a2a e8e2 f42e
00000330: 0070 a02f d95d 4235 ba51 4835 bece ce32
00000340: ebad b232 5a65 a22d 3563 b329 e93a b12d
00000350: 06c8 822f a417 4335 1d48 4835 7fa8 cb34
00000360: fa48 c032 2242 b834 f479 c235 05e6 ea31
00000370: 1c2c 1636 1ffe 8232 149a 5035 644d d733
00000380: 6e05 7d30 b968 2429 ef20 6432 6567 a931
00000390: 1e18 3034 f764 0835 ea46 3d35 0760 5433
000003a0: 4e2f 0932 b2a8 b528 bc0d 8632 0dda c230
000003b0: d733 9a34 14fa 4635 ca1d 4935 3d51 a233
000003c0: 46e0 b831 2ff6 de28 dea8 0732 1567 e532
000003d0: 304b 4b34 50c3 da34 3f39 2435 da60 3c33
000003e0: 4347 f532 a759 322e d2e9 8c30 6811 a330
000003f0: 75f3 c734 fe46 1635 ff39 6835 100b 8633

exp_avg f4 [128]
-0.004235173 0.00012362386 8.631129e-05 0.003133159 0.0039225095 0.00013351833 0.00028486218 0.0011124972
-0.002037742 -0.004625309 0.0011186567 -0.0023359829 0.0013823417 -0.0018463759 0.0024059773 -0.0016735401
0.0014904616 -0.0032374212 -0.0030552705 0.0035470363 0.003853233 0.0021437318 -0.0054219216 -0.0014117475
0.00074945856 -0.00011280837 -0.0047762385 -0.0017238228 -0.00047091636 0.0032035566 0.00229466 -0.0023019284
0.0021745975 0.0026225552 -0.0017772459 0.0021782327 0.0012774771 -0.0060381196 -0.0012696107 0.00059045106
0.0034106257 0.0009872767 -0.005399923 -0.00094409974 0.0013601884 -3.635075e-05 -0.0009644466 -0.0014631801
3.2280586e-05 -9.953129e-06 -0.002235103 0.0023502058 -0.0017277597 0.0020965722 0.001581661 0.0017017554
2.6631158e-05 -0.0006078459 -0.0019480857 -8.338359e-06 0.0009462902 0.0010278681 0.00083223474 0.0014506001
0.00024300955 0.0021880872 -0.0032779197 -0.0026677293 0.0026212821 -7.017597e-05 -0.00068593444 0.0033380485
-0.0011796213 0.0013105847 0.0007977637 0.0018940595 0.00047464672 0.0020526373 0.0036012095 -0.0027730805
-9.958868e-05 -0.00075004355 9.398889e-05 0.0009557267 -0.0012927498 1.6106877e-05 0.0031112412 0.001179794
0.0041007544 -0.0047397865 -0.0003160517 0.0009047742 -0.0012372227 0.0009265272 -0.003547629 -0.00087526866
0.0030926834 -0.0007239732 -0.0019876438 -0.0023943176 -0.0036850702 0.0007694352 -0.0018530667 -0.00043577093
0.00030228138 0.0012574 -7.6128184e-05 0.00035293103 0.0013881506 -0.00010229091 0.0038517807 0.0010304372
0.00023835729 6.297717e-05 -0.0017118665 0.0016934203 0.004169305 0.002761238 0.0015211744 0.0059672263
-0.0012278634 -0.00047059718 -0.00032656261 -0.0038495604 0.0027804063 0.00026238392 0.0009935879 0.0003267796
00000000: 35c7 8abb 07a1 0139 0502 b538 af55 4d3b
00000010: 6588 803b 0e01 0c39 8e59 9539 36d1 913a
00000020: a38b 05bb e78f 97bb e49f 923a 4a17 19bb
00000030: b12f b53a 1802 f2ba 9aad 1d3b b05a dbba
00000040: 985b c33a ea2a 54bb ef3a 48bb 6575 683b
00000050: 8686 7c3b da7d 0c3b 60aa b1bb 630a b9ba
00000060: 5077 443a 8893 ecb8 fe81 9cbb e5f1 e1ba
00000070: 53e5 f6b9 c3f2 513b 0262 163b f3db 16bb
00000080: b183 0e3b 2ddf 2b3b 7af2 e8ba aec0 0e3b
00000090: 0571 a73a 6bdb c5bb 1169 a6ba 80c8 1a3a
000000a0: ce84 5f3b 8267 813a d6f1 b0bb 767d 77ba
000000b0: 5948 b23a 5277 18b8 ead2 7cba 2dc8 bfba
000000c0: 0465 0738 5dfc 26b7 ce7a 12bb e905 1a3b
000000d0: ff75 e2ba a566 093b bd4f cf3a 700d df3a
000000e0: fa65 df37 d957 1fba e956 ffba fbe4 0bb7
000000f0: 7610 783a 88b9 863a 542a 5a3a 1022 be3a
00000100: 61d0 7e39 0366 0f3b 5ed2 56bb 12d5 2ebb
00000110: d1c9 2b3b 702b 93b8 48d0 33ba 29c3 5a3b
00000120: 869d 9aba edc7 ab3a 0421 513a 1742 f83a
00000130: 01da f839 8a85 063b 4502 6c3b 92bc 35bb
00000140: 44da d0b8 929e 44ba e71b c538 bc89 7a3a
00000150: 7c71 a9ba 411d 8737 f7e5 4b3b 51a3 9a3a
00000160: 9f5f 863b 3650 9bbb beb3 a5b9 5e2e 6d3a
00000170: 4e2a a2ba 30e2 723a 577f 68bb 4972 65ba
00000180: 9eae 4a3b 05c9 3dba 2143 02bb fce9 1cbb
00000190: 3881 71bb ecb3 493a 9ae2 f2ba 2f78 e4b9
000001a0: 857b 9e39 58cf a43a 02a7 9fb8 9a09 b939
000001b0: 9bf2 b53a 0485 d6b8 286e 7c3b bc0f 873a
000001c0: 8cef 7939 9c12 8438 b560 e0ba c2f5 dd3a
000001d0: aa9e 883b e3f5 343b 2562 c73a b988 c33b
000001e0: 42f0 a0ba 7cba f6b9 7e36 abb9 e848 7cbb
000001f0: 7a37 363b 9390 8939 473b 823a 9e53 ab39

exp_avg_sq f4 [128]
0.0005437509 8.6221877e-07 1.2703878e-06 0.00030519083 0.000510039 3.1347772e-06 3.35191e-06 5.7600777e-05
0.00021140996 0.0003243734 7.5938275e-05 0.00014565303 4.4051038e-05 0.00020906351 0.00016571252 0.00029392197
8.56422e-05 0.000347397 0.00032801923 0.0003857031 0.0005646787 0.000115209856 0.0007877411 7.7544704e-05
1.1134976e-05 2.1644416e-06 0.00074629165 0.000121337966 1.6342889e-05 0.00030504036 0.00014648886 0.00015087026
0.00016544558 0.00022445682 0.000103884755 0.00016837414 5.077074e-05 0.0010838126 7.448785e-05 1.0674995e-05
0.00037753113 2.9685765e-05 0.0005265068 1.8365155e-05 6.8528854e-05 4.893944e-06 0.00021156408 0.00011097678
1.0853497e-06 1.0643183e-05 0.0002532382 0.00019821957 9.4318966e-05 0.00013116075 9.740013e-05 0.00011202964
8.410978e-07 2.2371016e-05 0.00010431661 8.310453e-07 3.371469e-05 2.9432864e-05 1.0987271e-05 5.427534e-05
3.176911e-06 0.00018275292 0.00046953998 0.00015185184 0.00018395901 2.8122435e-07 8.84932e-06 0.00024124792
3.6656835e-05 7.5431984e-05 2.5228812e-05 0.000117496376 4.262611e-06 0.00019553758 0.00031422477 0.0002851856
2.5955842e-07 8.222281e-05 6.0532207e-06 3.8144124e-05 5.0584837e-05 6.039905e-07 0.0005091843 5.343289e-05
0.00035246796 0.0004990824 2.477634e-06 2.9045026e-05 2.2260972e-05 3.8634626e-05 0.00054862647 9.4652954e-05
0.00032844313 3.3056323e-05 0.00033812242 0.00015122721 0.0004586794 2.1071139e-05 0.00014136224 9.417836e-06
2.8553989e-06 6.517242e-05 5.154845e-07 8.890839e-06 4.6748166e-05 6.511838e-07 0.0008383956 7.640136e-05
1.6333153e-06 2.66154e-06 0.00016004604 9.3280345e-05 0.0006176186 0.000342432 6.232037e-05 0.0010863888
4.7247166e-05 1.5047523e-05 3.6720612e-06 0.00028350146 0.00025136332 2.3215337e-06 2.3342349e-05 7.770891e-06
00000000: 818a 0e3a 3973 6735 3182 aa35 0502 a039
00000010: 23b4 053a 105f 5236 60f1 6036 5d98 7138
00000020: eead 5d39 a910 aa39 0d41 9f38 70ba 1839
00000030: 71c3 3838 0f38 5b39 1ec3 2d39 8a19 9a39
00000040: ce9a b338 d622 b639 fff9 ab39 3238 ca39
00000050: f206 143a d29c f138 6980 4e3a 7f9f a238
00000060: 5cd0 3a37 d340 1136 c9a2 433a d376 fe38
00000070: 1618 8937 d3ed 9f39 ce9a 1939 ed32 1e39
00000080: 767b 2d39 2b5c 6b39 b4dc d938 978d 3039
00000090: abf2 5438 b70e 8e3a 5c36 9c38 c118 3337
000000a0: 5fef c539 b205 f937 4605 0a3a df0e 9a37
000000b0: 26b7 8f38 a936 a436 4dd7 5d39 35bc e838
000000c0: 55ac 9135 1f90 3237 0ec5 8439 29d9 4f39
000000d0: 1ccd c538 3288 0939 4c43 cc38 74f1 ea38
000000e0: cdc7 6135 64a9 bb37 8ec4 da38 0015 5f35
000000f0: df68 0d38 98e6 f637 f855 3837 b4a5 6338
00000100: ea32 5536 5da1 3f39 972c f639 6b3a 1f39
00000110: 1fe5 4039 2efb 9634 8a77 1437 7ff7 7c39
00000120: fabf 1938 3d31 9e38 76a2 d337 6368 f638
00000130: 8d07 8f36 3809 4d39 89be a439 f784 9539
00000140: 7059 8b34 096f ac38 c51c cb36 f1fc 1f38
00000150: 0e2b 5438 e921 2235 c87a 053a 211d 6038
00000160: 73cb b839 dad4 023a 6e45 2636 b8a5 f337
00000170: 13bd ba37 9d0b 2238 b3d1 0f3a 6b80 c638
00000180: e432 ac39 f5a5 0a38 0646 b139 bf92 1e39
00000190: e87a f039 edc1 b037 a33a 1439 4c01 1e37
000001a0: 619f 3f36 2dad 8838 d35f 0a35 dd29 1537
000001b0: 7613 4438 03cd 2e35 c7c7 5b3a ab39 a038
000001c0: 4938 db35 e99c 3236 08d2 2739 819f c338
000001d0: afe7 213a 7288 b339 feb1 8238 2965 8e3a
000001e0: 422b 4638 9f74 7c37 886d 7636 eca2 9439
000001f0: 6ac9 8339 a5cb 1b36 50cf c337 b95f 0237

exp_avg f4 [128, 128]
0.0004706297 -7.271119e-05 -0.00013571164 0.00014639682 -2.9036466e-06 0.000345427 2.5892564e-06 2.9331737e-05
-3.406019e-05 0.00014357883 -7.9188925e-05 6.992835e-05 0.00041118 -2.7608543e-05 0.00030270233 -8.801584e-05
7.082309e-05 0.00038498407 6.600956e-05 0.0005385492 0.00052038557 6.169105e-05 0.00014609577 3.775743e-05
-3.459307e-05 0.0002777505 0.0003155545 1.4821699e-05 1.31156185e-05 0.0001580029 0.00050724257 3.1055504e-05
0.00016788792 0.00037897218 0.000107332926 0.00023716415 0.00024930385 0.00020500255 0.0005623686 0.00043425677
0.0006897444 0.00019550044 0.00031250418 9.451755e-05 1.9301991e-05 -0.000118212054 -7.610188e-05 -2.2106797e-05
-0.00015834083 -6.586525e-05 -4.276974e-05 3.736458e-05 0.0004343602 0.00033087915 -6.014406e-05 1.9649704e-07
-6.277408e-05 -4.8274425e-05 6.554515e-05 -0.00013910106 7.224648e-05 0.000116693984 -7.085e-05 0.00019424538
-0.0001087378 8.440617e-05 6.946931e-05 3.995789e-05 0.0001125036 -8.317953e-05 -5.0539005e-05 0.00018674854
0.00034934483 7.594239e-05 -6.7031506e-05 -1.2057084e-05 -0.0001058607 9.5966636e-05 0.00015122752 0.00029649897
-0.00011356484 -9.818056e-05 -0.00014579017 -3.0478226e-05 0.0003580065 -0.00010395921 -1.0596625e-06 0.00042163825
0.00015188902 0.00019216654 -6.7030414e-05 -6.0267994e-05 0.00025343438 3.780724e-05 0.00012010124 -9.6386066e-05
0.00020684703 -2.2756543e-05 -5.4230928e-05 0.000339436 0.00013590239 0.00070112385 0.00012795663 0.00027538164
0.00010408264 -9.672506e-05 -6.7177876e-05 -7.9336e-05 -2.5005003e-05 -1.899886e-05 -7.063895e-05 8.841067e-06
-0.000100048135 -0.00014455333 0.00016057513 0.00024800585 0.00026248378 -1.4539884e-05 7.609105e-05 0.00044017305
0.0002825019 7.2891315e-05 4.932303e-05 0.0002033463 1.9970512e-05 -3.099901e-06 0.00044716953 -5.676913e-05
0.0005157824 -6.894115e-05 -0.00014993183 0.00021330375 3.509529e-05 0.00038628964 -1.3940077e-07 5.7944573e-05
-2.2668715e-05 0.00018289656 -6.705109e-05 5.53435e-05 0.00040484816 -6.765571e-05 0.00033752646 -0.00011420541
9.091724e-05 0.0003956598 0.000101495934 0.00055486517 0.0004898398 8.199412e-05 0.00016644536 4.6665584e-05
-3.0697684e-05 0.00030188894 0.00033796497 1.6869108e-05 2.095629e-05 0.00018883524 0.0005500809 4.5529472e-05
0.00018150311 0.00041677916 0.00011179461 0.00026418018 0.00032796242 0.00023519833 0.00061590126 0.0004217167
0.0007052891 0.00020964365 0.00031643212 9.4141695e-05 -2.3922954e-05 -0.00013239564 -0.000110407025 -5.4717613e-05
-0.00017186876 -8.049603e-05 -5.16129e-05 2.733527e-05 0.00042587877 0.00037755634 -5.442454e-05 2.4876874e-05
-8.261075e-05 -7.738791e-05 9.8706754e-05 -0.00016587191 6.961991e-05 0.00010143793 -7.456174e-05 0.00020732248
-0.00014499633 0.00010384069 5.9316797e-05 1.4105629e-05 0.00017528335 -6.852339e-05 -3.7322505e-05 0.0002121725
0.00039828586 7.317691e-05 -6.7872235e-05 -2.5419118e-05 -0.00011336615 0.0001152649 0.00019236663 0.0003231601
-0.00012772411 -0.000104708044 -0.00016912838 -3.0810137e-05 0.00040631593 -0.00013072521 -9.342685e-06 0.0004450694
0.00017403813 0.00023095122 -7.61132e-05 -5.0400286e-05 0.0002679743 -1.8087634e-05 0.00013103588 -0.00015992257
0.00027244797 -2.5472562e-05 -0.00011426491 0.00035707792 0.00018769818 0.0007652201 9.248925e-05 0.00030822432
9.546026e-05 -0.000106696694 -5.6351044e-05 -8.775257e-05 -1.1857752e-05 -4.769941e-05 -0.00012743543 1.5628802e-05
-0.000104958424 -0.00016227861 0.00013127159 0.00029356778 0.00027067342 -4.7908605e-05 0.00013085052 0.00047685215
0.0003188265 6.434507e-05 6.355152e-05 0.0002177275 3.7158425e-05 -3.6872185e-05 0.0004576106 -3.7432706e-05
00000000: d9be f639 867c 98b8 d14d 0eb9 1982 1939
00000010: 45dc 42b6 6d1a b539 16c3 2d36 6d0d f637
00000020: dadb 0eb8 a68d 1639 3b12 a6b8 7fa6 9238
00000030: a593 d739 e598 e7b7 05b4 9e39 2595 b8b8
00000040: db86 9438 b0d7 c939 9d6e 8a38 6d2d 0d3a
00000050: 7c6a 083a 2160 8138 4931 1939 bb5d 1e38
00000060: 0718 11b8 0b9f 9139 0271 a539 b6aa 7837
00000070: 270b 5c37 95ad 2539 79f8 043a 9841 0238
00000080: 120b 3039 c9b0 c639 ed17 e138 44af 7839
00000090: ffb4 8239 f4f5 5639 eb6b 133a f5ac e339
000000a0: f7cf 343a 40ff 4c39 9ad7 a339 b937 c638
000000b0: b6ea a137 9de8 f7b8 e398 9fb8 fc71 b9b7
000000c0: 4b08 26b9 2321 8ab8 a963 33b8 eab7 1c38
000000d0: d7ba e339 d979 ad39 3143 7cb8 b2fc 5234
000000e0: 94a5 83b8 457a 4ab8 4975 8938 a8db 11b9
000000f0: 0983 9738 9bb9 f438 4e95 94b8 59ae 4b39
00000100: 290a e4b8 3803 b138 0db0 9138 7598 2738
00000110: e9ef eb38 ac70 aeb8 d8f9 53b8 eed1 4339
00000120: 4528 b739 4343 9f38 4493 8cb8 c848 4ab7
00000130: 8801 deb8 b241 c938 d492 1e39 6b73 9b39
00000140: a929 eeb8 49e6 cdb8 40df 18b9 7eab ffb7
00000150: d2b2 bb39 ad04 dab8 ba39 8eb5 540f dd39
00000160: 6644 1f39 5080 4939 ae92 8cb8 44c8 7cb8
00000170: 63df 8439 3793 1e38 ddde fb38 e022 cab8
00000180: 14e5 5839 4ee5 beb7 0476 63b8 54f6 b139
00000190: 0581 0e39 a0cb 373a 192c 0639 1961 9039
000001a0: f146 da38 dfd8 cab8 d9e1 8cb8 3161 a6b8
000001b0: d6c1 d1b7 be5f 9fb7 ff23 94b8 1854 1437
000001c0: efd0 d1b8 3d93 17b9 0f60 2839 c806 8239
000001d0: fa9d 8939 54f0 73b7 1293 9f38 07c7 e639
000001e0: c31c 9439 3add 9838 33e0 4e38 5b39 5539
000001f0: 5986 a737 e507 50b6 1472 ea39 641b 6eb8
00000200: 9235 073a 8094 90b8 0537 1db9 4aaa 5f39
00000210: 4833 1338 eb86 ca39 31ae 15b4 8309 7338
00000220: b228 beb7 ecc7 3f39 c89d 8cb8 a120 6838
00000230: cd41 d439 62e2 8db8 09f6 b039 9081 efb8
00000240: d2aa be38 8f70 cf39 37da d438 5f74 113a
00000250: 9868 003a 42f4 ab38 d687 2e39 caba 4338
00000260: 63c1 00b8 d946 9e39 e430 b139 2282 8d37
00000270: 4acb af37 1302 4639 4e33 103a e6f6 3e38
00000280: df51 3e39 2783 da39 4673 ea38 aa81 8a39
00000290: 5ff2 ab39 929f 7639 6f74 213a db19 dd39
000002a0: 26e3 383a cad3 5b39 cde6 a539 f06d c538
000002b0: 27ae c8b7 afd3 0ab9 528a e7b8 9780 65b8
000002c0: ab37 34b9 facf a8b8 ee7a 58b8 0c4e e537
000002d0: 7b48 df39 c1f2 c539 e845 64b8 aeae d037
000002e0: 4f3f adb8 514b a2b8 c900 cf38 e7ed 2db9
000002f0: e800 9238 13bb d438 085e 9cb8 b464 5939
00000300: 280a 18b9 0cc5 d938 edca 7838 37a7 6c37
00000310: 44cc 3739 37b4 8fb8 bc8a 1cb8 9f7a 5e39
00000320: 06d1 d039 8e76 9938 a156 8eb8 243b d5b7
00000330: fdbe edb8 5fba f138 06b6 4939 d06d a939
00000340: aeed 05b9 b496 dbb8 0e58 31b9 223a 01b8
00000350: cd06 d539 4813 09b9 87be 1cb7 3458 e939
00000360: 017e 3639 7f2b 7239 f79e 9fb8 e564 53b8
00000370: e77e 8c39 e6ba 97b7 ad66 0939 e3b0 27b9
00000380: 59d7 8e39 e9ad d5b7 82a1 efb8 3036 bb39
00000390: d9d0 4439 0d99 483a caf6 c138 2b99 a139
000003a0: d631 c838 5ac2 dfb8 795a 6cb8 cd07 b8b8
000003b0: a8f0 46b7 da10 48b8 30a0 05b9 991a 8337
000003c0: 201d dcb8 5529 2ab9 f3a5 0939 00ea 9939
000003d0: 2ce9 8d39 79f1 48b8 eb34 0939 0302 fa39
000003e0: 2b28 a739 fff0 8638 f646 8538 c84d 6439
000003f0: 8eda 1b38 35a7 1ab8 74eb ef39 1001 1db8
