results/opponentL/OpponentL/OpponentL-3499939.pt (torch, 760415 bytes, 30 tensors)

network_body._body_endoder.seq_layers.0.weight f4 [128, 111]
00000000: d484 e9bb 0781 053e 1807 adbe c5b2 3e3e
00000010: 6938 0fbd 57c4 6d3e 0c71 9a3c 3d85 153d
00000020: cfa5 b53d 199d 8a3d 1158 21be d98e b7bd
00000030: 5062 e9bd 4271 f83d c39f 31be 9743 633d
00000040: 5159 30be 3798 403d 1df9 093e 1bfe d5bd
00000050: e46a 48bd 050d d23d 944b 0e3e 43f1 06be
00000060: 84fd c0bd a2a8 edbc 3c3d a93d c97d c6bc
00000070: 88a2 ec3d 9d33 fbbc 8fe1 1cbe 90a5 693e
00000080: b896 253d cbed 783d 48e2 ab3d 729b 1b3d
00000090: 2768 0dbe bf70 36be dde6 29bd a1da 95bd
000000a0: 7ed0 653e 16fa 453d 3551 1a3e 6d90 cebd
000000b0: b240 bc3d 53c3 613d 2b97 13bd e098 debc
000000c0: 8c66 fe3d abe0 353c 09e6 77bd 037d 4b3e
000000d0: 0ad2 8dbd 9635 08bc ef16 96bd 14fb c2bd
000000e0: c57d 943d de76 56bc 218b 8b3d cc14 4d3e
000000f0: 0515 613d 3c71 443d 0a74 a13b b733 993b
00000100: e86b d23c f0b3 343e 5fe0 2abe b178 a8bd
00000110: 9b40 e23c d91e 99bc 730a 20bc 4c0b 503e
00000120: f289 b13d 6e00 b83b fa3c fbbb 1377 fd3d
00000130: 594f 5cbe 1e43 013d 9b2e 24bc 2e4b 483d
00000140: 2223 053e c9d7 f0bc f71c 9ebd 974e 4a3b
00000150: 1fd9 dc3a 6291 373d 5e2e 6dbc b86b 303e
00000160: 4f72 873d 70d3 4ebd 2576 5cbd 341f e8bc
00000170: b35e 08be 459b 8b3d 21c9 64b9 378e 9a3e
00000180: 9b83 32be c4a0 e43d cafe 45be e9f7 64bd
00000190: 4abb 2b3e 48ad 0dbe 0ad2 853e 66f4 413d
000001a0: 7433 e03d 34f2 0c3e 5e04 1c3e 5290 4bbe
000001b0: 8162 523d 4355 8a3d d627 40be b7b5 d6bd
000001c0: 3e5a 83bd 408e 943d 6f11 6a3d 7e74 5fbe
000001d0: 3b6b d7bd 80d1 fa3d cc22 133d 9625 55be
000001e0: eddc d23c 8558 fbbd 389b 01be 5d0c 8c3c
000001f0: a669 3a3c dbf4 ee3d 8f4e 87bd 66b0 683b
00000200: 4cf3 a93c 55dc 07be 1ff3 18bc d660 853c
00000210: 6990 033d 280f 0e3e 67b7 da3c 78a3 223c
00000220: 6555 243e 49f3 09bd a882 023d 52f0 6dbd
00000230: 89a0 b8bd 2331 5abd c59f 493b 11a6 f23d
00000240: b8ba 01bb c3a0 443e db60 2f3d 93ce c13a
00000250: a770 f1bc 4fe0 4fbe 6fda bb3d 844e b339
00000260: b553 1abe 6a4c b3bc ffb9 aa3a 2ed3 913d
00000270: b3a0 093e 4cd2 313d 144f 2fbe 9739 f33c
00000280: 597a 993d d4f7 ea3d 8b39 983e dbf2 053e
00000290: 9a1c 933d 23a0 1fbe 0926 c2bc e687 043d
000002a0: 54ed 4b3d 2ec3 4dbe 85c3 59be 2f9e 1ebe
000002b0: 711c 30bd 63cd 0ebd 048a 9d3d 3480 a63d
000002c0: 73be ba3d 3fff 0a3e 0769 073e d3a4 14bc
000002d0: 28eb 593d c57a 8bbd 9c5a 123e 7fbb 02be
000002e0: d2ab 01be b5b8 1cbd b7f6 d63b 8f9b 1f3d
000002f0: 07f9 813e a1a2 f1bc 2763 f33d d83f 633d
00000300: d7da 09be aa8b 723b aa35 63bc c752 d93d
00000310: b704 babc 5af6 00bd 5404 52be a55c bebd
00000320: 3d04 9bbc 65e4 ef3c dea5 2e3d 7a8f 993d
00000330: bb4a 89bd a25e b63d abf7 dabc 8f3d d2bd
00000340: 2e3c 8abd 61a9 8fbd 19e9 0b3d 3d73 c3bd
00000350: bd65 e3bc 2ef4 673b 7c2a ca3d 77cc abbd
00000360: a207 613d 8f35 52bd 1c35 6eba 6374 e4bd
00000370: b125 05be 962d 7d3d 8a86 cc3b d5a3 a53c
00000380: f3d0 a53c 85ee 0fbe ef68 c7bd 0784 26be
00000390: 04af 8bbd c015 34be 2282 ecbd 4de0 c3bd
000003a0: 0207 0b3e 226c 9abc 57c7 04be c846 4f3a
000003b0: f997 123e 8c2f 19bd 96cb d4bd 08b7 083c
000003c0: cd56 e7bc c8e8 a13d ab11 faba 41e2 0bbe
000003d0: ea83 5f3c dbdc ce3c 422c f3bd 8028 8fbe
000003e0: a897 bebd d8ba 413d b71f fe3d 9f40 8c3b
000003f0: 5404 703d e355 64be dd37 793d 926c 1d3d
-0.00712643 0.13037501 -0.33794475 0.18622883 -0.034965906 0.23219429 0.018852733 0.03650402
0.08869516 0.06768245 -0.15756251 -0.08962793 -0.11395705 0.12130977 -0.173461 0.05548438
-0.17221572 0.047020163 0.13473935 -0.104488574 -0.048930064 0.102563895 0.13896018 -0.13177972
-0.09423354 -0.029011074 0.08263633 -0.0242299 0.11554438 -0.03066426 -0.15320419 0.22817063
0.04042694 0.060773652 0.08392769 0.03799004 -0.13809262 -0.17816447 -0.041479934 -0.07317091
0.22442815 0.048334204 0.1507004 -0.10086141 0.09192027 0.055117916 -0.036032837 -0.027172506
0.12421903 0.011100928 -0.060522113 0.19871907 -0.069248274 -0.008313557 -0.07328593 -0.095205456
0.07250551 -0.013089864 0.06813646 0.20027465 0.054951686 0.04795955 0.004927163 0.0046753543
0.02568622 0.17646766 -0.16687153 -0.08226145 0.027618697 -0.018691467 -0.009768116 0.2031681
0.08668889 0.0056152856 -0.007667181 0.12376227 -0.21514644 0.03155815 -0.010020877 0.048899822
0.13001683 -0.02939977 -0.07720368 0.0030869597 0.0016849375 0.044816382 -0.014476387 0.17228591
0.066135995 -0.05049461 -0.05382361 -0.028335191 -0.13317375 0.06816725 -0.00021818701 0.30186626
-0.17433016 0.11163476 -0.19335476 -0.055900488 0.16770664 -0.13835633 0.2613681 0.047352217
0.10947314 0.13764268 0.15236041 -0.19879273 0.051363472 0.06754544 -0.18765196 -0.10483878
-0.06413697 0.072536945 0.057145532 -0.21821782 -0.105184995 0.1224699 0.035921857 -0.20815119
0.025740111 -0.12272743 -0.12656868 0.017095739 0.011377728 0.11667796 -0.06606781 0.0035505532
0.020745896 -0.13267644 -0.009335308 0.016281527 0.032120142 0.13872969 0.026698781 0.009926669
0.160482 -0.03367928 0.031862885 -0.058090515 -0.09014995 -0.053269517 0.0030765396 0.11848081
-0.001979513 0.1920195 0.042816978 0.0014786295 -0.029472662 -0.2030041 0.09172522 0.0003420004
-0.15070994 -0.021887023 0.0013025402 0.071203575 0.13440208 0.043413445 -0.1712001 0.029690547
0.07494039 0.11473051 0.29731402 0.13080923 0.0718319 -0.15588431 -0.023699777 0.032356165
0.04978688 -0.20093986 -0.21265991 -0.1549003 -0.042995874 -0.03486384 0.0769234 0.081299216
0.091183566 0.13573931 0.13223659 -0.0090725 0.053202778 -0.06810526 0.14292377 -0.12766837
-0.126632 -0.038262088 0.0065601724 0.03896671 0.25385305 -0.029496493 0.11884146 0.055480808
-0.13462387 0.0037009516 -0.013867775 0.10611492 -0.022707326 -0.03148494 -0.20509464 -0.09295014
-0.01892292 0.029283712 0.042638652 0.07498069 -0.06703707 0.089047685 -0.026729425 -0.102656476
-0.067497596 -0.07014728 0.034157846 -0.09543464 -0.027758474 0.0035393345 0.098713845 -0.08388608
0.05493892 -0.05132061 -0.00090868934 -0.111550115 -0.1300266 0.061811052 0.0062416242 0.020219723
0.020241236 -0.14055832 -0.09736811 -0.16261302 -0.06820491 -0.17586422 -0.11548258 -0.09564266
0.13576892 -0.01885039 -0.12966667 0.00079069706 0.14315785 -0.03739886 -0.103903934 0.008344419
-0.028239632 0.079057276 -0.0019078752 -0.13660528 0.013642291 0.025251796 -0.11873676 -0.27960587
-0.0930627 0.04729733 0.12408393 0.0042801644 0.058597878 -0.22298388 0.06084429 0.03843362

network_body._body_endoder.seq_layers.0.bias f4 [128]
00000000: bc8b ac3c 4597 9a3b 7bda 66bd 3996 063c
00000010: a10e fa3b d68f 523c 88f2 293c f8a0 023d
00000020: 13d6 223c 4f3f 8f3b e97e ddb8 3bad 843a
00000030: c411 e6bc e93e b43c 7a59 653c fbe1 9d3c
00000040: b0a2 5c3c b8b0 043c 22fb bc3c cbb6 6a3c
00000050: df2b c43c b2be c63c f4e8 f23c ba64 08bc
00000060: 5996 77bc fd62 333c 7dd7 393d 64b4 ca3c
00000070: dfcc 0c3d 93ac d53b 43e7 3b3c 8b62 ebbb
00000080: ecdc 553c 6c3e b73b 6478 693c 2634 c83b
00000090: fe33 10bc 1933 a13c 1dc9 e73c 56f9 2e3b
000000a0: 45c3 0c3c 5746 f4bb 3b87 c73b 6a6b 9bbc
000000b0: 0427 bc3c 1157 8cbb 6740 e93b 829c 493c
000000c0: 0e9c e8bc 9f35 b83a 5604 853c b6ee 2dbc
000000d0: 626a a73b 0c19 a5bc 4246 a63b 1cdf a13c
000000e0: 83ad 99bc 64de 123a fa39 ed3a 0ecf b6bc
000000f0: 9544 f23c 6406 edbb 4b17 2fbd 2b64 d5bb
00000100: 6398 e1bb 436d 913b d709 2a3d 7310 253c
00000110: f06e 843c 7b51 093c 68e2 873c 0734 33ba
00000120: afdb 1e3c d3c6 b83b 08bd 73bb ce02 243d
00000130: f110 95bc 677b 913c e83b d23b 0b38 e43c
00000140: b40a 02bd 7734 8a3c 4b2c 8ebc a2f9 773c
00000150: c0b0 593c 7017 aebc 775e 8c3c e956 4d3c
00000160: faa2 9439 4a68 5c3c a8ff 19bc fe7d 7cbc
00000170: 5cb1 87ba cf52 8a3c f11d 1a3d 97d0 dd3c
00000180: de0e 663c dbe0 ed3c d70e 143d 0035 efbb
00000190: 1910 2d3b 6fa2 573b 5ef4 073d 3127 8cbc
000001a0: 8820 debb 0fab a5bb 1ed0 a9bc 7e7d a4bb
000001b0: bc6a d63b c999 b03c f416 c53c e77b a2bb
000001c0: beca 4bbc 8686 50ba eed7 0a3d eaee 413b
000001d0: 6620 ab3c 0554 773c 641f a13b d184 9b3c
000001e0: 29ac 003c df02 c7bb dd65 083c 0917 b8ba
000001f0: ba54 d8ba be79 583c 6663 5b3d 26e6 573b
0.021062724 0.0047177398 -0.056360703 0.008214527 0.0076311384 0.012851676 0.010372765 0.031891793
0.009938735 0.0043715606 -0.0001056174 0.0010122427 -0.028084643 0.022002654 0.013998384 0.019272795
0.013466522 0.008098774 0.023068968 0.014325808 0.0239467 0.024260852 0.029652096 -0.008324796
-0.015111529 0.010948894 0.04537152 0.02474422 0.034375068 0.0065208166 0.011468711 -0.007183378
0.01305316 0.005592158 0.014249895 0.006109732 -0.008801458 0.019677686 0.02829414 0.0026698909
0.008591478 -0.007454674 0.006089119 -0.018972117 0.022967823 -0.00428284 0.007118273 0.012305381
-0.028394725 0.0014054066 0.01623742 -0.010615995 0.0051091174 -0.020153545 0.0050742934 0.019759707
-0.018759495 0.0005602597 0.0018098943 -0.022315528 0.029573718 -0.007233428 -0.042746823 -0.006512185
-0.006884621 0.004438074 0.04151329 0.010074723 0.01616618 0.008381243 0.016587451 -0.0006836061
0.009695931 0.005638936 -0.0037191529 0.040041737 -0.018196555 0.017759038 0.006415833 0.027858755
-0.03174849 0.01687072 -0.017355105 0.015135201 0.013286769 -0.02125141 0.017134888 0.012532928
0.00028350187 0.013452599 -0.009399332 -0.015410898 -0.001035254 0.01688519 0.03762621 0.027077002
0.014041631 0.029037884 0.036146965 -0.0073000193 0.00264073 0.0032903214 0.03319203 -0.017108532
-0.0067787804 -0.005055792 -0.02072912 -0.0050198426 0.0065434854 0.021557705 0.024058796 -0.004958618
-0.012438474 -0.0007954616 0.033897333 0.0029591867 0.020889472 0.015095715 0.004917072 0.01898423
0.007853546 -0.0060733403 0.008325067 -0.0014044951 -0.0016504743 0.013212619 0.05356159 0.0032943576

network_body._body_endoder.seq_layers.2.weight f4 [128, 128]
00000000: 9ad7 85bd 3ce7 2cbe 188f 3bbd ecf4 303d
00000010: 8b29 203d 36b0 89bd 6c60 523e c3fe c2bc
00000020: c817 abbd 9ed3 dcbd 0518 3f3c 6f32 aabd
00000030: fc58 7cbc 2411 33be 947c dc3d c134 50bd
00000040: c88e 75bd f166 2b3d 2a73 93bd 852a 013e
00000050: daf6 073e dc4a d4bc 9c60 71be 6735 8bbd
00000060: 304b 0abd 43e2 953d 012b 173d 7bfb 5a3c
00000070: cdb4 a9bd be04 fdbc 6a6a 9abc 6f79 e1bc
00000080: 51b3 5fbc 01ee 8e3c 108f 02bd 4262 c7bd
00000090: 3760 843e 624b 84bd 00c4 013d 57f1 1c3e
000000a0: 661b 583d ae4a 05be fe11 39bc c155 2dbe
000000b0: b6a0 8b3d 8d76 61bd b609 73bd 791f 0ebe
000000c0: 8a16 743d f145 4d3d 0a7a 233d 2e34 c03d
000000d0: de29 453e 3aa6 0a3e cc33 8e3d e2e6 ed3d
000000e0: a597 193d 6416 a5bd 600f 393a d2cc 81bd
000000f0: 0b53 143c bdce 933c 3015 34bd 8636 ea3d
00000100: 555a c3bc ddc1 563d 2d08 593d b605 59be
00000110: e715 4b3d 4833 27be f174 e4bd 657f fabd
00000120: c9c1 86bd 9fa1 13be 8cbf e63b 6146 4d3c
00000130: 2364 613d f736 da3c 8421 89bc 41f3 cb3c
00000140: be9e f8bd 9aee 7dbd f593 df3c 19aa d3bd
00000150: 5cfb fb3d 3576 81bb 092e 9abc e8f4 1b3d
00000160: cde1 a8bd 3b6e e7bd e028 8bbb a67a 29bd
00000170: 9c62 44be e10d debd 82be fbbb cac1 2fbd
00000180: 73dc 193e dd61 f2bd e685 9abd 6c05 87bd
00000190: bfbf 02bd da5a 5c3d 6f1d 42bd bcd6 a4bd
000001a0: 5b5f 3f3d 0953 6e3d de34 243d 4e26 b8bd
000001b0: 821a 21be fa79 07be d0a9 903e 2204 123c
000001c0: 702e e5bc 52ef 113e e78b 27bd fa3e 5fbc
000001d0: e43d 0c3e 68bc adbd 7adf 093c cd38 673e
000001e0: 3c3a a43c 67ed bf3c 8b39 4abb 3865 1e3c
000001f0: 13ba ecbd a92d 07bb c3b1 d0bd f344 123e
00000200: 9056 543c 8518 b5bd 2647 ab3d 8d04 113e
00000210: 9590 a0bc b68a c4bb 1063 c63d 8e8e 5d3e
00000220: e47b 32be fc52 55be 646d dfbc e591 bcbd
00000230: 17df 40bd c7c9 cebd 36f3 6ebd 154d 8dbe
00000240: 9ca9 cd3c b105 2cbe a08e 2e3d 5344 073e
00000250: 9779 573d 879f 62bd 808a 8dbb a62a 7ebd
00000260: d877 2b3c a056 d23c d812 bc3a 2aa8 1bbd
00000270: f317 e5bb 7d9f dc3d a52e 33bd 03df f93c
00000280: 2958 00bc 9cc4 373e a3f3 1ebd d185 0abd
00000290: 4959 f5bd ca53 e1bd caf0 a03c ebcd 713d
000002a0: 2ed5 9c3d 476f f83d 0d3b a5bd 766b aabd
000002b0: bc88 ca3d 07eb c63c 8ae7 43be c429 5e3d
000002c0: ba7c 14bd 9fc7 60bc 5360 8ebd 304c 123e
000002d0: c79b 8cbd 1202 833d 6d39 81bd 5bbf 4b3d
000002e0: 531b 4bbe 6225 35be 7dc9 3f3d 2224 813d
000002f0: aa3e 24bd b676 0f3e 50ea 3ebe dba7 61bc
00000300: 0496 6cbb e4aa 423e 1c86 c7bd b25a 13be
00000310: 3d57 ef3d 6e06 41bc 10ed 353d ba34 0b3e
00000320: df51 d13d 4030 873c fcdd 123d c268 cabc
00000330: 3660 fabd 03f8 a33c e67e 0dbd b90f 09be
00000340: 4126 7abd f0d9 85bd 8e10 853d 9017 673d
00000350: 5ba7 16bd 7600 8e3d 1ba5 883e 0755 9039
00000360: 9c16 e33d aff3 2e3d 0d91 2d3e f652 0dbe
00000370: 2c1f 08bd 7823 be3d f14e b6bd f87d 903d
00000380: e7fe 303e b5e4 a43c 7969 3fbd 267e c43c
00000390: b464 4d3d 4728 1a3e 5bbd 75bd a078 8a3c
000003a0: 8791 1b3e ee9d 803d d862 e9bd 7ac6 8dbc
000003b0: 8a73 9dbd 8964 5abd d0aa a03c 003b b73c
000003c0: 6650 ccbc f366 d53c 5997 903d 726f d13c
000003d0: b0f9 993d 5631 e63d 906d c13d 4bed 143d
000003e0: 1ec2 18be 3b2c 413d 8122 e63d c652 e23c
000003f0: e5ba 77bd 1f67 a63d 75a5 523d ede1 dd3b
-0.06535263 -0.16885084 -0.04579076 0.043202326 0.03910212 -0.06723063 0.20544595 -0.02380312
-0.08354145 -0.1078255 0.011663442 -0.08310401 -0.015402075 -0.17487007 0.10765949 -0.05083156
-0.05995062 0.04184622 -0.071997 0.12613876 0.1327776 -0.025914602 -0.2357201 -0.06797295
-0.03376311 0.073185466 0.036906246 0.013365622 -0.08286438 -0.03088605 -0.01884957 -0.027523724
-0.013653592 0.017447473 -0.031874716 -0.09735538 0.25854656 -0.06459691 0.03168106 0.15326439
0.052760504 -0.1301677 -0.011295794 -0.16927244 0.068177626 -0.0550447 -0.059335433 -0.13879193
0.059591807 0.05011553 0.039911307 0.093849525 0.19254252 0.13539973 0.06943473 0.11616303
0.037498135 -0.08060911 0.0007059481 -0.063378945 0.009053002 0.018042916 -0.04396552 0.11436181
-0.023846785 0.052430976 0.052986313 -0.21193585 0.049581435 -0.16328156 -0.11155117 -0.1223133
-0.0657993 -0.14417122 0.007041877 0.012528987 0.05502714 0.026637537 -0.016739614 0.024896266
-0.12139653 -0.061995126 0.027292231 -0.10335178 0.12303802 -0.003950859 -0.01882078 0.038075358
-0.08246193 -0.11300322 -0.004246816 -0.041376732 -0.19178241 -0.10842491 -0.0076826224 -0.04290942
0.15025501 -0.11835072 -0.0754507 -0.06592831 -0.031921145 0.05379758 -0.04739135 -0.0804877
0.046721797 0.058184657 0.04008948 -0.08991681 -0.15732768 -0.13230124 0.28254557 0.008912118
-0.027976245 0.1425145 -0.040904906 -0.013625855 0.13695484 -0.08483201 0.008415097 0.22580262
0.0200473 0.023428632 -0.0030857052 0.009667687 -0.11558928 -0.002062658 -0.10190155 0.14284115
0.012960091 -0.08842567 0.0836318 0.14161892 -0.019600192 -0.005997981 0.096868634 0.21636412
-0.17430073 -0.20832437 -0.027273841 -0.09207515 -0.047087755 -0.1009708 -0.058337413 -0.2759787
0.02510529 -0.16799046 0.042616487 0.13209657 0.05260619 -0.05532792 -0.004319489 -0.06205239
0.010465585 0.025676072 0.0014348878 -0.03800217 -0.0069913804 0.107726075 -0.043745656 0.030501848
-0.007833519 0.17946094 -0.03880657 -0.033819024 -0.119799204 -0.110023096 0.019646067 0.05903427
0.07657848 0.121305995 -0.08067904 -0.08321278 0.09889361 0.024281992 -0.19131294 0.05423905
-0.03625176 -0.013719468 -0.06951966 0.14286876 -0.0686565 0.06396879 -0.06309781 0.049743038
-0.19834642 -0.17690042 0.046823014 0.0630572 -0.040098824 0.14010128 -0.1864407 -0.01377293
-0.0036100158 0.19010502 -0.09742376 -0.14390066 0.11686561 -0.011781318 0.044415534 0.13594332
0.10220694 0.0165025 0.035856232 -0.024708156 -0.12225382 0.020015722 -0.034544848 -0.13384904
-0.061071638 -0.06535709 0.06497298 0.056418955 -0.036780696 0.06933682 0.26688465 0.0002752917
0.11088297 0.042712864 0.16949864 -0.13801178 -0.033232853 0.09284109 -0.08901776 0.07055277
0.17284738 0.020128587 -0.046731446 0.023985934 0.050144866 0.15054427 -0.059995037 0.016903222
0.15192233 0.06280123 -0.11395806 -0.017306555 -0.07688053 -0.053318534 0.0196127 0.022367
-0.02494068 0.026050067 0.07060117 0.025565837 0.07518327 0.11239879 0.094447255 0.036359113
-0.149178 0.047161322 0.1123705 0.02762736 -0.06048097 0.081251375 0.051427323 0.006771317

network_body._body_endoder.seq_layers.2.bias f4 [128]
00000000: 2fa1 573c 65c7 083c 4bf3 023c 147b 5c3c
00000010: 32ad 3c3c 64f5 753c 153c 433d 9bd3 bc3c
00000020: 153b 083d b806 9c3c 4035 f43b 898f 613c
00000030: 3760 e33a 5f1c 7f3c c928 783c d8b6 ff3c
00000040: 2e5d 2d3d e1d1 8d3c 68f5 c53c e81e 8b3c
00000050: 264d 073d c0a0 ad3c 8dc5 853c 2c61 d43c
00000060: e1b7 98ba 35fe 0c3c d1ac 233d db16 9d3c
00000070: fdc7 a63c eb6e 7e3c 8102 013c 7875 d13c
00000080: 15cf 193d e360 0e3c 476f 1d3d 983d 913c
00000090: c97e ab3c fbfe a53c 7eeb 8d3c 5ed8 293c
000000a0: ce97 bb3c 195d 283c b944 263d 78a3 403c
000000b0: b366 00bb cec7 c33b 50a8 b03c 9312 233d
000000c0: 777e 093d f675 903c 7f0e 3b3d d214 103c
000000d0: b469 563c b83d a13c 02f4 163d 2df5 2c3b
000000e0: 2ead e33c 6fd6 e83c 4af3 173d 997b 5e3c
000000f0: 0848 373d a1cb 46bc d929 cc3c f0fb ae3c
00000100: 73aa 863c 37b1 fb3c 2b72 dd3c 944e dc3c
00000110: 8dd6 ba3c d285 913c d93f cb3c ea9f d23c
00000120: 675f d13a c502 9b3c b4c7 913c a2bc ad3c
00000130: 4e30 fa3c 5057 82bc d439 243b 5776 fd3c
00000140: 5dd5 8d3c 5d71 103b c629 093d e9e9 ad3c
00000150: 1955 633c a05d be3c d5ad ee3c 2c2b 093d
00000160: 1783 693b 5eee cc3c f53c 0f3c a3bc eb3c
00000170: 1cb1 e73c 2c6b a73b 9c90 473c e190 1ebb
00000180: 0624 323c fff3 583b aeb3 a53c 9c3e 06ba
00000190: 18c3 9e3c 716e 9a3c 3efe 2f3a 6c9e b23c
000001a0: 2da5 5b3c 35ec 243d be00 e83c 809b 4e3c
000001b0: 822d f93c eb3b a43b eee9 033d e0f2 bd3a
000001c0: 7597 883b 6dc9 083d ec0b 963c 4c3a 833c
000001d0: 05fd fe3c 7bce 2c3c 32f4 dd3c 4717 1bbc
000001e0: 65bf ba3c 573f cd3c 034b 3c3d f0d7 8a3c
000001f0: 9378 993c bb27 d63c b2f1 5b3c 560d aa3c
0.013160988 0.008348321 0.007992576 0.0134570785 0.011515902 0.015012119 0.04766472 0.02305012
0.03325947 0.019046172 0.007452637 0.013767132 0.00173474 0.015570729 0.015146443 0.031215116
0.04232519 0.017311992 0.02416487 0.01698251 0.03303256 0.021194816 0.016329551 0.025925241
-0.001165148 0.00860553 0.039959732 0.019175937 0.020359034 0.015529375 0.007874132 0.025568709
0.037551004 0.008690092 0.0384362 0.017729566 0.02093448 0.020263186 0.017324205 0.010366527
0.022899535 0.010276102 0.040592883 0.011757724 -0.0019592464 0.0059747463 0.021564633 0.039812636
0.033567872 0.017634373 0.04566812 0.008794026 0.013086725 0.01968275 0.036853798 0.0026391253
0.02779254 0.028422562 0.037097253 0.013579273 0.04474643 -0.01213351 0.024922298 0.021360368
0.016438698 0.030724151 0.027031979 0.026892938 0.022807384 0.017764006 0.024810718 0.025711019
0.0015973867 0.018922219 0.017795421 0.021208111 0.030540612 -0.015910774 0.0025058882 0.030940218
0.017313654 0.0022040226 0.033487104 0.021229701 0.013875269 0.023238003 0.029135624 0.033488438
0.0035631114 0.025016006 0.008742561 0.028776472 0.028282695 0.0051092114 0.012180474 -0.0024195241
0.0108728465 0.0033104417 0.02022728 -0.0005121024 0.019380137 0.01885149 0.0006713605 0.021804057
0.01340608 0.040264327 0.028320666 0.012610316 0.030417208 0.0050120256 0.032205515 0.0014491938
0.0041684457 0.03339522 0.018316232 0.016019009 0.031126508 0.010547276 0.02709398 -0.009465999
0.022796342 0.025054617 0.045969974 0.01694867 0.018734252 0.026141992 0.013424324 0.020758312

action_model._continuous_distribution.mu.weight f4 [1, 128]
00000000: 4797 7abd 231d 89bd a6c2 7c3d 966d 54bd
00000010: cfa5 823d 380e f13d eb27 c03d 72b0 8abd
00000020: 974c 163e 87fd bcbd a976 8bbd 8d4f 9a3d
00000030: 0b7b 52bd c838 383d 51ea b8bd be1d 0ebe
00000040: 0a0c 1c3e fd27 bd3d 2a7c a63d c064 89bd
00000050: 6201 ccbd 7d14 c63d 98ef 6dbd c266 903d
00000060: 327a 2cbd c2b4 6a3d eabf ff3d 4546 f8bc
00000070: 9605 ba3d 2208 6a3d 151f 98bd 2a38 4c3a
00000080: 1b21 173e f1a4 f5bb 4c26 2b3e 93d0 343d
00000090: d02a cabd 889b 3dbd 4535 87bd 9234 69bd
000000a0: ea16 a13d 547f 043d 69aa df3d 898e 7c3d
000000b0: 124c 02bd 02ec 2dbd 343c fcbd a00f f63d
000000c0: 259b d23d 55ba ac3d 8ea5 c4bd 4118 72bd
000000d0: 86e7 edbc 6061 9e3d f63a a13d 1671 29bd
000000e0: 8a62 b0bd c641 1c3e 5e13 06be 28d1 81bd
000000f0: 57ef 173e 7877 923c 6a4a 913d b50f a63d
00000100: c941 e1bd 31da b43d c576 7fbd a68c f8bd
00000110: f6f5 f8bc 973e 68bd 4448 933d a764 ee3d
00000120: 932e f0bc 65fb dabd cf2c b3bd 8816 c73d
00000130: c4ea cd3d d817 52bc 5d5a 94bd f248 723d
00000140: 8608 dc3d 938b c83b 72a5 9a3d 2623 96bd
00000150: c513 8cbd 0afa 293d a79a bbbd a80a c1bd
00000160: d0b1 49bd d65c ecbd 27f9 ebb9 68a7 a33d
00000170: 9227 d9bd 4a21 71bd b91f 6b3d bfb7 f0bc
00000180: 54a2 493d ac28 f4bc 71bf babd f5e6 2abd
00000190: 14de b23d aa9e 853d d18d 24bd 9d22 79bd
000001a0: 0c65 873c 2bb7 10be ce8c 173e 2cc4 90bd
000001b0: a954 903d c4b5 46bd ccd3 b43d 058a c7bc
000001c0: 6174 1bbd 294a e63d 2dd3 8cbd 62db 7c3d
000001d0: a9b8 aa3d d20f 58bd 9023 7e3d cc6f 2b3d
000001e0: 2c6b 9d3d 4c2b ad3d a3c1 173e f94b 963d
000001f0: fb9a 9d3d dd32 863d e17b 82bd dc50 bd3d
-0.061179426 -0.066950105 0.06170907 -0.05186232 0.06379282 0.1177029 0.09382614 -0.067719355
0.14677654 -0.09228044 -0.06809742 0.07534704 -0.051386874 0.044976026 -0.09029067 -0.13878533
0.15238968 0.09236143 0.08129151 -0.0670867 -0.09961201 0.096718766 -0.058089823 0.070508495
-0.042108722 0.05730129 0.124877766 -0.030306945 0.09083097 0.057136662 -0.074278034 0.00077903515
0.14758722 -0.007496469 0.16713828 0.044144224 -0.09871447 -0.046290904 -0.06601957 -0.0569349
0.07865699 0.032347992 0.10921175 0.06165937 -0.031810828 -0.042461403 -0.1231617 0.12014699
0.10283498 0.084339775 -0.096018896 -0.05910516 -0.029041063 0.077334166 0.07872574 -0.041367613
-0.08612545 0.15259466 -0.13093325 -0.063387215 0.14837395 0.017879233 0.070942715 0.08108465
-0.10998876 0.08830679 -0.062369127 -0.121362016 -0.03039072 -0.056700315 0.07191518 0.11640292
-0.029319083 -0.10692481 -0.08748781 0.09721094 0.100545436 -0.012823068 -0.07243798 0.059151597
0.10743813 0.006120154 0.075510874 -0.07330923 -0.06839708 0.04149822 -0.09160357 -0.09425861
-0.04924184 -0.115411445 -0.00045008326 0.079909146 -0.106032506 -0.058869638 0.0574033 -0.029384492
0.049227074 -0.02980455 -0.09118546 -0.041724164 0.08733764 0.065244034 -0.04017431 -0.060824025
0.016527675 -0.14132373 0.14799806 -0.07068667 0.07047398 -0.04851319 0.088294595 -0.024357805
-0.037952784 0.11244614 -0.06876216 0.061732657 0.083360024 -0.052749462 0.062045634 0.041854665
0.07686457 0.08455524 0.1481996 0.073387094 0.07695576 0.0655267 -0.06371284 0.09243938

exp_avg f4 [128, 111]
00000000: adb4 aab8 fb3a ff36 4ef4 21b9 0400 0080
00000010: a8b5 97b8 e546 b8b9 ddc9 ed39 919e f6b9
00000020: dabd 98b9 4739 793a 7f08 013a 0400 0000
00000030: 0413 203a b7bb 47ba 4822 9dba e0c6 fbba
00000040: 3801 04bb d781 16b9 136b f139 0400 0080
00000050: 5322 23b9 2abf edba 124b 633b 5df7 d33a
00000060: 53a0 d5ba b1cd 373a 25f0 643a c8d1 3c09
00000070: d453 deb6 6b09 f4b7 1d55 e1b8 52d8 11ba
00000080: 9891 99b9 bbee 26b9 0b7d 34b9 0400 0080
00000090: 0bc1 2039 94d6 57bb d8b0 693b f827 ad3a
000000a0: dd85 8739 1c7a 813a 53f8 98ba c8d1 3c09
000000b0: 84f3 e1b8 feb1 42b9 5242 8337 998e 1eba
000000c0: 7a61 89ba 3632 033a 38f7 cc36 0400 0000
000000d0: 113e c8b8 375e 05bb 411b 223b f065 ff39
000000e0: 67d2 7db7 02e8 40ba 133d 9fb8 af78 2388
000000f0: 1856 adb9 4670 beb9 d84f ad3a 27d5 d739
00000100: 1b17 63ba d21b fe38 9008 2fb7 0400 0000
00000110: 70ae f0b9 fdc7 50b9 4b47 9f3a ff16 323a
00000120: 41cb bfba f320 693a 4af0 34ba 0400 0000
00000130: 3e50 4f3a d984 f538 396a 2539 1865 003a
00000140: 8778 f037 d917 dc37 40b3 a534 0400 0000
00000150: 6798 9db8 1838 393a b908 68ba bd86 8fba
00000160: 7204 4bba c6d4 5a3a c174 85ba 0400 0000
00000170: 4c6e 26ba 6aa7 d639 b114 813a 7d99 e93a
00000180: 4eb6 c0b9 e801 793a c3fe 2635 0400 0080
00000190: fe8e cb39 6b22 2eba 0980 04ba b8a0 75ba
000001a0: 1625 d537 2a4b 38b8 025b 2c39 7570 8a3b
000001b0: 3d5b 99b5 0ffa 67bc a131 fbb9 02fe d8b8
000001c0: 2f07 3d37 f3a5 0037 0400 0080 be7d 12b4
000001d0: e7ed 57b7 bd52 3239 b459 c238 06d0 edb8
000001e0: 776d 4636 82b4 00b8 0400 0080 bc17 9932
000001f0: ee66 b037 d9f4 4939 fc6a d538 8d27 5eb7
00000200: f171 00b8 87a0 eab6 0400 0000 befc 61b5
00000210: bd29 9b37 9bb7 dd38 56e2 7338 4ada cbb7
00000220: 2c61 5eb8 fe26 d8b7 c592 6b86 8dbf 3734
00000230: 9e2e ac35 399d 3639 7225 1d39 ec00 d638
00000240: e38b 4f37 f6c9 4d36 0400 0000 7b69 5235
00000250: 3b88 5c38 8a33 ceb8 8317 3cb7 4b45 10b8
00000260: f0b9 b7b8 fd65 4238 c592 6b86 a5b3 f135
00000270: 2827 2234 e953 1939 f9a9 1f39 115a e538
00000280: b028 3f38 b6b8 4ab5 0400 0080 1365 b035
00000290: 862b d037 4b0f e2b8 c1c4 0336 f908 1fb7
000002a0: 0ea2 7438 1714 07b7 14bd 1f05 5997 1436
000002b0: 43a0 f9b4 7976 fb37 04ca 9f38 e4bf 63b7
000002c0: 82b9 bd37 b847 3035 0400 0080 bb95 67b5
000002d0: c446 b0b6 c292 9038 9403 9938 c426 04b7
000002e0: 1298 b2b7 9775 beb6 0400 0080 d5f9 21b6
000002f0: 199e 2037 5c24 d238 a0e6 e138 d5b2 07b8
00000300: fc4e 9fb7 e57e 8f33 0400 0080 1061 0a36
00000310: f0ee 5cb6 ed19 0339 0e6f e038 7dda 11b8
00000320: ae8b a4b7 561c 0c37 0400 0080 0604 0537
00000330: 2d3b 1636 6050 e338 7f2d ba38 df90 0fb8
00000340: 7917 13b8 275e da31 0400 0000 27df b935
00000350: b025 06b5 d7c5 1339 456b 0d39 9eef 3eb8
00000360: 00fa df35 71bf 8837 9edb 4438 03f3 f835
00000370: 40fa a236 c83e 9c38 6ea7 5c38 ba10 4738
00000380: 18a1 ee36 0400 0000 c365 8435 7ea9 75b6
00000390: d0b5 9ab6 d756 e038 aaa4 7339 be46 d3b8
000003a0: df70 04b8 0400 0000 c9d8 3fb8 86e8 5fb7
000003b0: c83c 7738 3563 4b39 ba80 7738 7b28 14b7
000003c0: c41f dd36 0400 0000 4f4b 4837 cb39 b337
000003d0: 80cf 2437 ee09 bc38 208e b338 166f 4438
000003e0: 85c7 54b7 bcba a887 ddbd 20b1 f7d6 22b6
000003f0: ba56 92b7 92ce f937 1346 2139 ac01 27b8
-8.139885e-05 7.6064584e-06 -0.00015445167 -6e-45 -7.234077e-05 -0.00035148035 0.00045354562 -0.00047038918
-0.0002913315 0.0009507131 0.00049222255 6e-45 0.0006106349 -0.0007619219 -0.0011988366 -0.001920905
-0.0020142328 -0.00014353484 0.0004604688 -6e-45 -0.00015557678 -0.0018138636 0.0034682197 0.0016171742
-0.0016298391 0.00070115464 0.0008733294 2.2728316e-33 -6.6258744e-06 -2.9091452e-05 -0.0001074469 -0.0005563545
-0.0002929091 -0.00015919928 -0.0001721272 -6e-45 0.00015330703 -0.0032934295 0.0035658386 0.0013210764
0.00025848942 0.000987831 -0.0011670686 2.2728316e-33 -0.000107741944 -0.00018567589 1.56473e-05 -0.00060484704
-0.0010481321 0.00050047354 6.108454e-06 6e-45 -9.548304e-05 -0.0020350346 0.0024735483 0.0004871334
-1.5128963e-05 -0.00073587906 -7.593087e-05 -4.919289e-34 -0.00033061276 -0.00036323274 0.0013222648 0.00041166806
-0.0008662806 0.00012116846 -1.0432806e-05 6e-45 -0.00045906333 -0.00019910927 0.0012151984 0.0006793588
-0.0014632718 0.00088931544 -0.0006902261 6e-45 0.00079083804 0.00011707255 0.00015775197 0.00048978766
2.8666354e-05 2.6237149e-05 3.0864067e-07 6e-45 -7.5147305e-05 0.00070655486 -0.00088513974 -0.0010950189
-0.0007744498 0.0008347746 -0.001018189 6e-45 -0.0006348833 0.00040941994 0.0009848085 0.0017822232
-0.0003675692 0.000949888 6.2210546e-07 -6e-45 0.00038825715 -0.0006642702 -0.0005054479 -0.0009369957
2.5408848e-05 -4.393902e-05 0.00016437101 0.0042248317 -1.1425942e-06 -0.01415874 -0.00047911427 -0.00010346995
1.126695e-05 7.668033e-06 -6e-45 -1.3643054e-07 -1.287039e-05 0.00017006225 9.2673494e-05 -0.00011339788
2.9568016e-06 -3.068569e-05 -6e-45 1.7822337e-08 2.1028765e-05 0.00019260067 0.00010176559 -1.324144e-05
-3.0623694e-05 -6.9924313e-06 6e-45 -8.418682e-07 1.8496876e-05 0.000105723004 5.8146506e-05 -2.4301135e-05
-5.3019423e-05 -2.5767364e-05 -4.4306417e-35 1.7112889e-07 1.2828566e-06 0.00017415443 0.00014986636 0.00010204487
1.2370731e-05 3.0664937e-06 6e-45 7.838459e-07 5.2578962e-05 -9.832445e-05 -1.12111475e-05 -3.439681e-05
-8.7607536e-05 4.634819e-05 -4.4306417e-35 1.8008183e-06 1.510167e-07 0.00014622476 0.00015226741 0.00010936347
4.557584e-05 -7.5519654e-07 -6e-45 1.3142438e-06 2.48158e-05 -0.00010779368 1.9635047e-06 -9.479228e-06
5.832506e-05 -8.051305e-06 7.510872e-36 2.2141814e-06 -4.649647e-07 2.99767e-05 7.619339e-05 -1.3574932e-05
2.261694e-05 6.5669474e-07 -6e-45 -8.627209e-07 -5.253447e-06 6.893791e-05 7.296275e-05 -7.876839e-06
-2.1290067e-05 -5.6761305e-06 -6e-45 -2.413629e-06 9.573553e-06 0.00010020353 0.00010771793 -3.235306e-05
-1.8991057e-05 6.6820384e-08 -6e-45 2.06201e-06 -3.2921635e-06 0.00012502792 0.00010701838 -3.4774177e-05
-1.9615367e-05 8.351248e-06 -6e-45 7.9283545e-06 2.2386187e-06 0.000108391745 8.8776455e-05 -3.422878e-05
-3.506939e-05 6.355339e-09 6e-45 1.384852e-06 -4.997373e-07 0.00014092714 0.00013486769 -4.552269e-05
1.6687554e-06 1.630161e-05 4.6934576e-05 1.8548166e-06 4.857109e-06 7.4503536e-05 5.260802e-05 4.7460875e-05
7.1117065e-06 6e-45 9.864383e-07 -3.6606502e-06 -4.6107234e-06 0.000106973275 0.00023235628 -0.00010074441
-3.1576372e-05 6e-45 -4.5739846e-05 -1.3345974e-05 5.8945996e-05 0.00019396546 5.9009275e-05 -8.8309125e-06
6.5900113e-06 6e-45 1.1938463e-05 2.1365375e-05 9.823474e-06 8.966388e-05 8.561858e-05 4.68335e-05
-1.2682639e-05 -2.5387583e-34 -2.339099e-09 -2.4265007e-06 -1.7444941e-05 2.9779305e-05 0.00015380261 -3.981746e-05

exp_avg_sq f4 [128, 111]
00000000: 5e82 7b39 002d cd37 bbc4 6f35 f0bc a72c
00000010: 2a5c bf35 d146 4d37 20d1 0539 9937 a339
00000020: c271 6439 f074 b637 6977 a736 5813 ee2b
00000030: b3b8 1336 c691 4836 8fd4 2639 b768 b139
00000040: 0b5c 2a39 c882 a137 77e8 3c36 c216 302b
00000050: 097b 0a35 3db3 1438 0b2a 3539 1694 9d39
00000060: 005b 1e39 a320 9237 bd13 a637 1f71 9f31
00000070: caf5 ee33 4d81 7e35 07de 6739 4d9c aa39
00000080: 2ffe 2339 ddfa a237 964f c234 7ce8 6e28
00000090: dcae ea34 123d 8038 6d66 2039 ddb0 8539
000000a0: 007d 1839 ab6a 8c37 20c5 b737 b877 b331
000000b0: 5fda 1735 e21e 5136 7c3b 6b39 f2dc 9939
000000c0: 8875 2539 f953 8f37 92b4 7533 8c16 572a
000000d0: 41f8 0835 2588 7938 1ae0 2e39 e32f 8339
000000e0: 4f60 1339 d15a 5437 3bfc ab37 612c 2b31
000000f0: 3a99 8936 4fa4 ac37 70d6 5939 2f0b 9739
00000100: 19ee f238 ef0e 8237 d0c4 1133 2c97 3529
00000110: 236b b135 3130 2a38 0710 7839 f596 9e39
00000120: d913 0e39 cd4c 1837 86f8 ac37 da80 352f
00000130: 8e75 2f36 f726 9b37 6bec 7739 66a8 9c39
00000140: 2e15 c638 d75f 4c37 eb98 ed32 7a70 3429
00000150: bb6a 9035 bcf7 8837 541d a939 aaf9 be39
00000160: 802a 0339 b0e5 c236 ae95 4c37 dcab 012f
00000170: 70c8 8835 a29a 8f37 c44d 9139 64bf b039
00000180: 5c79 b438 1735 2537 4baa aa32 705f 462d
00000190: d9ee a735 d3ec 8037 9f4e b739 45d9 c939
000001a0: 794b f138 9f48 9037 a8e2 c639 0812 083a
000001b0: 6fce 3c37 929e 9a3c 1415 1037 4dd0 5b34
000001c0: 48fc 1434 b261 a830 fe4d 3d29 b1c5 6b2e
000001d0: a55e 9a30 e9ff 5735 f1fd a035 472e 0234
000001e0: 6b7a 0334 ad33 2632 d0e6 8528 34fc 012e
000001f0: 707b f630 32cb 7735 9762 a535 b165 7634
00000200: 84a9 df33 7aec 0232 fe4c 5029 b530 232d
00000210: 6da8 5a32 c68e 5435 6288 9135 c347 e933
00000220: 18db dd33 c877 be32 7b61 0e2c c4b3 cf2e
00000230: 20dc b430 bccf 8335 23cb a035 0d78 3d35
00000240: abbf b633 143d ab30 b68b 7926 e415 b02d
00000250: f8ab 7b32 4f41 a634 be06 2735 a3c8 0034
00000260: 1a52 8733 121d fa32 e3c3 562c 0fbc 5630
00000270: d8bd e330 032e 8d35 887e a035 af0c 1a35
00000280: 6b67 0e34 a0a0 472f 7e23 7726 cc27 6a2e
00000290: 0324 5532 443e dc34 49c4 2e35 3f4a b533
000002a0: 7974 4c33 f6e9 6131 8d7a 262b 4ffa 822e
000002b0: 5828 3b31 e19c a335 fcd9 af35 8418 7334
000002c0: 1580 ef33 1d1c cb2e e476 c123 a9a1 8f2d
000002d0: f68c 1a31 1ef6 6635 10be 8435 15d1 5133
000002e0: 80db f632 c44c 2431 f152 842b 455e 812e
000002f0: c20a 4732 1331 b035 68b2 b935 294b e533
00000300: f44b 8433 e172 022f 7031 9623 3531 492e
00000310: fefa 2d30 9c04 9d35 a19d a535 17db 2e33
00000320: 2b10 e332 b131 4631 6886 5b29 6846 3b2f
00000330: d56b 2e30 4cf9 b835 378e be35 6a79 3133
00000340: 8274 0e33 8f58 9f2d c3cc ff28 a2a5 2b2e
00000350: eb3d d82f 60ca b435 8684 b935 fae0 7635
00000360: c091 b433 14c8 7e35 5c24 4436 4783 6a32
00000370: c2f3 7f36 eaa8 eb32 2a77 3d35 c486 c933
00000380: bc9f 2630 2835 5228 06fe 5f32 3279 b131
00000390: 14d0 1734 caa0 e834 2792 2135 5a32 3933
000003a0: bed5 b031 5043 e827 78c9 7d32 4acf a330
000003b0: d73a 9234 f7d6 2635 22a0 2c35 f804 9033
000003c0: d21e 8931 0d89 0e28 e4ad 9b31 29b3 0533
000003d0: 9bc9 3534 6009 be34 71e1 1135 928e 1b33
000003e0: b673 d832 dc12 1f2e 70f3 9130 f94d cd31
000003f0: a860 b334 e514 0235 b210 4e35 0a50 5d33
0.00023985791 2.445886e-05 8.932072e-07 4.7674018e-12 1.4257432e-06 1.223544e-05 0.00012761774 0.00031131206
0.00021786153 2.1750544e-05 4.990889e-06 1.6916286e-12 2.2012216e-06 2.9887174e-06 0.00015910178 0.0003383809
0.00016246752 1.9253595e-05 2.8149495e-06 6.2559344e-13 5.1588046e-07 3.545288e-05 0.00017277167 0.00030055706
0.00015101954 1.7419754e-05 1.9797933e-05 4.6403694e-09 1.11274474e-07 9.481053e-07 0.00022112588 0.0003254138
0.00015639582 1.9428722e-05 3.6193222e-07 1.3262066e-14 4.3713123e-07 6.114891e-05 0.00015296946 0.0002549951
0.00014542416 1.6738972e-05 2.1907093e-05 5.223196e-09 5.6569655e-07 3.1161403e-06 0.00022433506 0.0002934705
0.0001577941 1.7086031e-05 5.7207735e-08 1.9103659e-13 5.1025205e-07 5.949302e-05 0.00016677417 0.00025021945
0.0001405489 1.26573295e-05 2.0502242e-05 2.4909002e-09 4.100756e-06 2.058051e-05 0.00020774617 0.00028809297
0.000115838084 1.5504162e-05 3.3939443e-08 4.0321194e-14 1.3218709e-06 4.057604e-05 0.00023657094 0.0003024858
0.00013549569 9.077788e-06 2.0619726e-05 1.6507631e-10 2.6145458e-06 1.8495584e-05 0.00023643828 0.00029880105
9.445321e-05 1.2181662e-05 2.765997e-08 4.0065587e-14 1.0759899e-06 1.6327824e-05 0.00032256043 0.00036425638
0.00012508966 5.8083897e-06 1.2194198e-05 1.1793538e-10 1.0191125e-06 1.7118935e-05 0.00027714495 0.00033711933
8.605674e-05 9.847127e-06 1.9868045e-08 1.1276188e-11 1.2511983e-06 1.5369069e-05 0.00034963057 0.00038499586
0.000115058334 1.7199955e-05 0.00037934375 0.0005190675 1.1253737e-05 0.01887444 8.5879765e-06 2.0471744e-07
1.3875353e-07 1.2251375e-09 4.2034078e-14 5.36084e-11 1.1231874e-09 8.046614e-07 1.1994836e-06 1.2124029e-07
1.2244861e-07 9.674221e-09 1.4866065e-14 2.9555206e-11 1.7933939e-09 9.231036e-07 1.2322151e-06 2.294753e-07
1.04150814e-07 7.6207645e-09 4.6252058e-14 9.276292e-12 1.2727566e-08 7.9183917e-07 1.0843034e-06 1.08629614e-07
1.03309674e-07 2.2173381e-08 2.0233526e-12 9.445203e-11 1.3159287e-09 9.820719e-07 1.198005e-06 7.0582684e-07
8.5098996e-08 1.2459247e-09 8.6578573e-16 2.0018605e-11 1.4649224e-08 3.0967428e-07 6.222216e-07 1.199392e-07
6.3013616e-08 2.911705e-08 3.0519968e-12 7.8119994e-10 1.6570381e-09 1.051871e-06 1.1957754e-06 5.738793e-07
1.3262404e-07 1.815601e-10 8.574344e-16 5.3240787e-11 1.240642e-08 4.1023497e-07 6.5105684e-07 8.4419746e-08
4.7603383e-08 3.28748e-09 5.914512e-13 5.956179e-11 2.7235014e-09 1.2190104e-06 1.3101958e-06 2.2640057e-07
1.1152603e-07 9.236365e-11 2.0975454e-17 1.632901e-11 2.2490076e-09 8.6039825e-07 9.890082e-07 4.8851764e-08
2.8737986e-08 2.3908777e-09 9.402185e-13 5.8829865e-11 1.1585771e-08 1.3127304e-06 1.3835497e-06 1.0677315e-07
6.160545e-08 1.1864244e-10 1.628397e-17 4.5745813e-11 6.3293715e-10 1.1698753e-06 1.2339334e-06 4.0711793e-08
2.643363e-08 2.8841038e-09 4.8744347e-14 1.7032564e-10 6.345407e-10 1.3781623e-06 1.4197493e-06 4.132145e-08
3.3167915e-08 1.8115535e-11 2.8399488e-14 3.902801e-11 3.9334166e-10 1.3469944e-06 1.3822144e-06 9.1969525e-07
8.408415e-08 9.4913526e-07 2.922744e-06 1.3650442e-08 3.8139847e-06 2.7434414e-08 7.0581393e-07 9.3843056e-08
6.0617444e-10 1.1668868e-14 1.3038067e-08 5.1651563e-09 1.4138669e-07 4.3330357e-07 6.0189853e-07 4.3119464e-08
5.146574e-09 6.4465916e-15 1.4772347e-08 1.1918726e-09 2.723743e-07 6.2152634e-07 6.4308017e-07 6.706426e-08
3.9907286e-09 7.912302e-15 4.530863e-09 3.112942e-08 1.6930282e-07 3.539708e-07 5.434477e-07 3.6218417e-08
2.5198329e-08 3.6169165e-11 1.0619328e-09 5.9751497e-09 3.3411675e-07 4.845918e-07 7.6765275e-07 5.1528367e-08

exp_avg f4 [128]
00000000: 9529 50b9 2416 9838 107f d138 76d9 f2b8
00000010: 03b2 a43a ffb6 12b9 064d a838 9504 b438
00000020: 6a18 0eba f352 c7ba e904 9fba fbef 35b9
00000030: 3b95 d139 9918 643a 4bb4 eeb8 535f 003b
00000040: 449f b9b9 7780 19ba b4a5 be38 f12e 54b9
00000050: e0c1 5fb9 f285 3f3a 8ab7 87ba 3c1c 3e3a
00000060: 21bd 9739 6d55 48b8 0063 afba a59a 6539
00000070: 37bc 553a 8be8 bc3a b37c b039 a0fa 9e39
00000080: 9f03 83b9 1b1f 2539 5b32 03ba 2129 ffb8
00000090: 9a69 0fb7 a969 9aba cf9a 94b9 1096 d238
000000a0: 902d ab39 f757 4239 eada 9aba 96a5 0cba
000000b0: d8c2 153a 5c37 08ba 4f2d a83a 7708 163a
000000c0: 9774 a438 9cf8 25ba eff0 a03a 7c1a b8ba
000000d0: 1f2e 43b9 6ea3 443a d6b8 b5ba 785c c3ba
000000e0: 1205 9d38 7d49 9339 51a6 933a ab4d 8039
000000f0: cfaf 44b9 5d97 4639 b447 e437 9d36 f539
00000100: e3f4 8839 bedc 49ba d5d8 103a d012 94ba
00000110: 2d34 3b3a 479d 33b8 e91e 0f39 5058 86b8
00000120: 2b94 5d39 5e40 4337 9260 5739 51cd f139
00000130: 365f 7d39 1218 6bb9 8875 a03a e701 4239
00000140: 7df1 9cb8 5fdf ac3a 7196 a9b9 b194 33b8
00000150: dee9 c4b9 8c6c fbb7 be5d 353a 7379 8bb9
00000160: e390 40ba c527 03ba 2e43 c0b9 64ac 0039
00000170: 3435 e5b9 12ad 9cb9 7b2e 9439 a2eb b33a
00000180: dfbe 95ba 4597 3a3a 2f25 953a 7deb 32ba
00000190: 04cb a5ba 9fac afb8 b8df 5339 1f2c 1db9
000001a0: 8b65 43b6 91f9 0e39 6bf5 1039 74e1 6ab8
000001b0: 11b4 a8b9 60b6 c9b9 0db8 faba 7494 44ba
000001c0: dce4 23b8 b774 7d39 69d8 bd39 7b3e 9a39
000001d0: 8bf2 d039 4d94 a9ba d74e 92b9 e89c deb9
000001e0: c059 cab7 e6ea 9139 9b32 c9b8 9426 3fba
000001f0: 0a8c a637 2ca9 9d38 75b1 ffb7 ba45 b638
-0.00019851916 7.252049e-05 9.989564e-05 -0.000115799645 0.0012565259 -0.00013991816 8.025211e-05 8.583922e-05
-0.0005420508 -0.0015207216 -0.0012132201 -0.00017350905 0.00039974772 0.0008701175 -0.000113823065 0.0019588068
-0.00035404612 -0.00058556296 9.0907706e-05 -0.00020235383 -0.00021339161 0.0007306031 -0.0010354382 0.0007252132
0.00028941876 -4.7763275e-05 -0.0013380945 0.00021896751 0.00081533514 0.0014412565 0.00033662244 0.0003032284
-0.00024988965 0.00015747214 -0.0005004757 -0.000121670084 -8.5480515e-06 -0.0011780757 -0.000283441 0.00010041532
0.00032649608 0.00018534051 -0.0011814509 -0.00053652504 0.0005712933 -0.00051962375 0.0012830886 0.0005723307
7.841846e-05 -0.0006331296 0.0012278835 -0.0014045979 -0.0001861383 0.00075011596 -0.001386429 -0.0014904877
7.487288e-05 0.00028092778 0.0011264776 0.0002447193 -0.0001875751 0.00018939139 2.7213107e-05 0.00046770732
0.00026122396 -0.00077004347 0.00055254746 -0.001129711 0.00071412587 -4.28234e-05 0.00013649058 -6.4060674e-05
0.00021131399 1.1637892e-05 0.00020539973 0.00046120075 0.00024163429 -0.00022420313 0.0012242058 0.0001850199
-7.4836404e-05 0.0013189128 -0.0003234628 -4.2815405e-05 -0.00037558278 -2.9972078e-05 0.0006918571 -0.00026602633
-0.00073458086 -0.00050031795 -0.00036671147 0.00012271252 -0.00043717923 -0.00029883586 0.0002826339 0.001372684
-0.0011424682 0.0007117878 0.001137888 -0.00068252516 -0.0012649004 -8.3768035e-05 0.0002020587 -0.00014989123
-2.911637e-06 0.00013635146 0.00013824335 -5.5999917e-05 -0.00032177617 -0.00038473587 -0.0019128338 -0.0007498928
-3.907537e-05 0.0002417144 0.00036210127 0.0002941972 0.0003985356 -0.0012937874 -0.0002790603 -0.00042460044
-2.412207e-05 0.00027831568 -9.593853e-05 -0.00072918204 1.9853953e-05 7.517854e-05 -3.0481004e-05 8.691424e-05

exp_avg_sq f4 [128]
00000000: 833b 1c3a 0d57 d635 745b 9035 7092 cd39
00000010: 7677 3c3a 4ab4 1a36 729d 3536 1b43 a138
00000020: 68aa 5f39 40b4 d639 1cef c938 6082 5839
00000030: 0b2a 6838 043d 9039 8541 4239 18e5 be39
00000040: e02e 0039 621f cc39 6d3c c039 bb71 f139
00000050: 598b 243a d9bb 1939 7bf8 823a b2a2 d838
00000060: 3150 5937 c1f9 5636 c32d 6b3a 50a1 1739
00000070: 9c79 f637 b689 c639 e44a 2a39 0d68 3439
00000080: 3f4d 6439 dafb 8339 501e 0c39 7741 4439
00000090: f1a2 a038 bbb0 ab3a 7f66 9a38 e380 4137
000000a0: ad1e df39 1728 1938 deed 1f3a 7584 ba37
000000b0: 7423 9c38 f9f2 f036 7ded ab39 4b78 1a39
000000c0: 7f81 9835 a16b 8c37 9705 c539 d322 7239
000000d0: ecce dd38 7041 1639 c70e 0839 5c46 2339
000000e0: 15f6 4635 5267 e337 b54b fc38 0dcd 9a35
000000f0: e3d2 5e38 55c7 0138 c1e8 6737 d79f 9338
00000100: 86e2 8936 2a99 6539 a17a 173a 3894 3739
00000110: 0d49 8539 0991 b934 3e51 1b37 e244 9f39
00000120: d7dc 3838 7443 ea38 5e5d e837 f0e0 fd38
00000130: 3e16 4137 a2ce 4539 8ab7 d839 9837 a839
00000140: 852b 9734 4e1e e638 6e70 1337 5311 4238
00000150: 6308 6338 98ef 8235 0004 173a c11d 8338
00000160: e700 cd39 3846 133a 4993 6936 7aa9 1038
00000170: 3e32 e037 e985 4c38 1a93 2a3a f9af 0d39
00000180: 50ec d139 e4bc 3b38 98b8 e939 53d6 2e39
00000190: d0dc 033a aa8c c437 39b3 3039 2602 f836
000001a0: ce9f 8736 772c 9438 c696 e534 9a68 1e37
000001b0: 7782 5e38 1af9 8b35 76a1 813a f986 d738
000001c0: 615b 3436 0e49 4936 1ae6 4a39 71e3 f238
000001d0: fbf5 2a3a 80c4 df39 9392 a538 68a9 a93a
000001e0: c59a 2c38 e4c5 6e37 4fca a236 0525 a239
000001f0: a453 9d39 993b 5236 392e ca37 93bb 6e37
0.00059597957 1.5969578e-06 1.0755452e-06 0.0003920975 0.0007189432 2.305273e-06 2.7062747e-06 7.6895776e-05
0.00021330419 0.00040951557 9.6289645e-05 0.00020647934 5.5352266e-05 0.0002751128 0.0001852569 0.00036410312
0.00012224494 0.00038933294 0.00036666114 0.00046051838 0.0006276868 0.00014661196 0.0009992266 0.00010329987
1.2952879e-05 3.203386e-06 0.00089713576 0.00014460576 2.9382114e-05 0.00037868106 0.00016240362 0.000172049
0.00021772551 0.0002517391 0.00013362733 0.00018716404 7.659745e-05 0.0013098934 7.3623836e-05 1.1533705e-05
0.0004255673 3.651538e-05 0.00061008136 2.2234608e-05 7.445263e-05 7.180843e-06 0.00032792604 0.00014731397
1.1362571e-06 1.673942e-05 0.00037578933 0.00023091891 0.000105766434 0.00014329492 0.00012975476 0.00015571102
7.4118844e-07 2.7108621e-05 0.00012030398 1.1533572e-06 5.3125328e-05 3.094164e-05 1.3822865e-05 7.039279e-05
4.109289e-06 0.000218962 0.0005778466 0.00017507456 0.00025422164 3.4564462e-07 9.257636e-06 0.00030378165
4.407469e-05 0.000111705536 2.7700033e-05 0.00012105878 1.1508875e-05 0.00018864361 0.00041335478 0.00032084878
2.8157606e-07 0.00010972899 8.78806e-06 4.626934e-05 5.412883e-05 9.755486e-07 0.0005760789 6.252109e-05
0.0003910132 0.00056180684 3.4805437e-06 3.4490113e-05 2.6726277e-05 4.8762104e-05 0.0006506905 0.00013512363
0.00040039653 4.4760192e-05 0.00044578756 0.00016673775 0.0005030157 2.3430523e-05 0.00016851434 7.391226e-06
4.0419172e-06 7.065472e-05 4.2764276e-07 9.441888e-06 5.305043e-05 1.0428805e-06 0.0009890038 0.000102771395
2.687528e-06 2.9993857e-06 0.0001934994 0.000115818235 0.00065216393 0.00042680278 7.895115e-05 0.0012944164
4.1152136e-05 1.42319805e-05 4.851528e-06 0.0003092663 0.0003000769 3.132713e-06 2.41018e-05 1.42295785e-05

exp_avg f4 [128, 128]
00000000: f91b a938 6550 59b7 f765 70b6 a09b 76b8
00000010: 0f78 0739 69e5 b2b8 58bb 26b8 9728 6ab8
00000020: c2cb c638 8d1f c338 3967 11b9 90a5 de37
00000030: eaf3 6239 64d8 6cb9 dae1 0339 ba3f 2db9
00000040: a626 6cb8 29e3 a039 14d7 4a38 6c92 8a37
00000050: 25bd fb38 1f7f 9e38 0941 2639 7988 1ab9
00000060: eb48 e738 bfd9 8db8 b5cb d639 8f0d 8fb8
00000070: f314 98b9 8590 d339 cfbd 1f3a 7406 85b8
00000080: 8b39 2db8 7425 9838 02cd 1039 381a 54b8
00000090: 4025 e1b8 2595 3439 62f7 d139 303a f038
000000a0: 6c53 7e39 a175 1439 5190 9439 21c2 ed38
000000b0: 1b55 bb38 c995 2bb8 ca77 8ab8 ce1c a3b8
000000c0: 4eba 5236 35b3 f4b7 e81b fdb8 df1f 29b9
000000d0: c5e1 4d39 fcc5 ff39 44a9 0ab9 ef05 1fb9
000000e0: 543c 37b7 b6d7 a1b8 f257 dcb8 9dfc b738
000000f0: 34f9 a0b8 c0a5 dc38 fa7d 98b8 5523 7539
00000100: d153 7c38 371b e8b8 509e 51b7 24e7 4837
00000110: 4895 eb38 a829 e5b7 dbe8 0fb8 d135 bab8
00000120: 921d 9eb7 1846 8f35 fde9 b938 1772 ef38
00000130: 0a97 83b6 bd6a 1138 63c8 5739 4945 e138
00000140: daf3 2e38 5815 06b9 f437 53b8 6fe7 a4b7
00000150: 6eae a939 5b44 9ab6 76ac 1a39 20b4 5637
00000160: dd41 10b9 a9ce 9339 9c59 0a39 b698 b7b7
00000170: 19cb da38 f7a5 99b8 f093 a637 2675 21b9
00000180: aa05 55b9 f20e 1fb9 9716 39b9 19b9 6b39
00000190: 3b28 8939 51ed a739 55f8 d9b8 14fb ea38
000001a0: eff5 33b9 3aa8 2636 1496 5239 7993 35b7
000001b0: cb93 bfb6 b906 6839 bac1 91b8 1064 feb8
000001c0: c8f4 3ab8 86c9 de37 871d 85b7 3673 2639
000001d0: 7e93 3e39 2ea4 e8b8 7056 4cb8 af67 9837
000001e0: a0ab 1039 f964 06b9 684b 1d38 1da5 8539
000001f0: 7047 03b8 d28d 03b8 c348 f7b8 4303 05b8
00000200: 84f1 3db7 b877 3638 cb56 43b6 50a6 40b8
00000210: 3e28 3339 038d a6b8 88db 96b8 40b1 1ab6
00000220: 06cb e938 b6cf c438 7d64 feb8 467e 5d38
00000230: ee24 fc38 5031 69b9 05c7 e038 9125 3bb9
00000240: fd97 9437 21e8 3739 8ebc fd37 4ac1 0cb8
00000250: 1f95 2f38 e9c1 ba38 b69e 0f39 bbc9 25b9
00000260: 2e39 c138 1f43 93b8 918a aa39 1830 30b8
00000270: 3801 8db9 a1c9 b839 2e32 053a 8b9f 2fb8
00000280: d557 6a38 4ac3 3038 dd05 e438 eb08 a7b8
00000290: 7279 03b8 82ea 0139 89f1 6c39 a094 3038
000002a0: 4043 2339 7d84 2139 7b4e 5139 a4a4 0739
000002b0: 0045 0f39 a346 adb7 fe2e 5fb8 1f0e 03b8
000002c0: 8c54 96b6 e517 cab7 592f d7b8 63cb 27b9
000002d0: c66a 1a39 675b de39 cc87 deb8 4df2 1ab9
000002e0: a05b e336 8e35 99b8 cb7b 3db9 41f7 a338
000002f0: 4a19 ae36 f619 b938 be5b d7b8 976f 2f39
00000300: e79c 5638 16eb a6b8 c7ec 68b8 13a2 8ab6
00000310: 44db 2339 51db 2237 7cc4 f0b7 ed9e a2b8
00000320: e545 76b6 4f89 9238 d200 a138 4b9e 8e38
00000330: 5444 9537 d1b9 4136 d186 5f39 5f69 0538
00000340: 017b 2538 3046 0bb9 b627 33b8 ec80 9837
00000350: e2db d139 11c4 5b37 1f07 e738 0340 0e37
00000360: 0b80 16b9 8f60 1b39 157d 1339 4467 aa37
00000370: f767 b838 556d 65b8 d3e0 4537 cb60 f0b8
00000380: 851b 4eb9 f004 1bb9 fc9b 13b9 ef27 1a39
00000390: ec00 4939 9ae5 4d39 cdaa 6ab9 868f 9238
000003a0: 4f54 d9b8 c7ab 2c38 0f0b 4639 5aa3 60b6
000003b0: f351 2cb8 0a01 8739 11ec beb8 5a51 51b8
000003c0: d7f2 2db8 8bf2 ae37 a815 b5b5 ae9a 0139
000003d0: 879a 4339 8a34 94b8 eee2 17b7 2d34 f4b8
000003e0: 5e5a a036 55d2 25b9 5d9e 1238 f3a9 1a39
000003f0: 9ed9 b336 fa57 e4b7 5a0c 18b9 b14f 86b7
8.063758e-05 -1.2952926e-05 -3.5822138e-06 -5.8795908e-05 0.00012919329 -8.5304324e-05 -3.975196e-05 -5.582775e-05
9.4793286e-05 9.3042014e-05 -0.00013866731 2.6541558e-05 0.00021643905 -0.00022587326 0.0001257727 -0.00016522306
-5.630278e-05 0.00030686826 4.836086e-05 1.6519065e-05 0.000120038436 7.557705e-05 0.00015855221 -0.00014737424
0.000110285204 -6.763962e-05 0.00040969034 -6.821297e-05 -0.00029007308 0.00040352732 0.00060936523 -6.343136e-05
-4.1300005e-05 7.254901e-05 0.00013809282 -5.0569157e-05 -0.000107357744 0.00017221698 0.000400479 0.0001145493
0.00024254405 0.000141582 0.00028336284 0.000113372 8.932707e-05 -4.0909075e-05 -6.602665e-05 -7.777811e-05
3.1400882e-06 -2.9170516e-05 -0.00012069178 -0.00016128969 0.00019634429 0.000487849 -0.00013223762 -0.00015165632
-1.0921696e-05 -7.7172575e-05 -0.000105067986 8.773173e-05 -7.675812e-05 0.00010521291 -7.27139e-05 0.00023378183
6.0159542e-05 -0.00011067691 -1.2494231e-05 1.1974746e-05 0.00011233479 -2.7318325e-05 -3.431072e-05 -8.879195e-05
-1.8848837e-05 1.067473e-06 8.865071e-05 0.00011417659 -3.9216875e-06 3.46701e-05 0.00020578648 0.000107417414
4.1711937e-05 -0.00012787187 -5.035843e-05 -1.9658093e-05 0.00032364152 -4.5975153e-06 0.00014750831 1.2797333e-05
-0.00013757446 0.00028192 0.00013194088 -2.1886412e-05 0.0001043288 -7.326522e-05 1.985763e-05 -0.00015397798
-0.00020315373 -0.00015168989 -0.0001765139 0.000224803 0.0002616065 0.00032029537 -0.00010393622 0.000112047564
-0.00017162388 2.4833848e-06 0.00020083069 -1.0822777e-05 -5.709449e-06 0.00022127749 -6.950223e-05 -0.00012130302
-4.4573826e-05 2.6558304e-05 -1.5868585e-05 0.00015873913 0.00018174757 -0.00011093203 -4.871789e-05 1.8168093e-05
0.00013796845 -0.00012816851 3.7501944e-05 0.00025490756 -3.1299365e-05 -3.1364914e-05 -0.00011791431 -3.171271e-05
-1.132151e-05 4.3503678e-05 -2.9107784e-06 -4.5931258e-05 0.00017085762 -7.941762e-05 -7.193448e-05 -2.3050961e-06
0.00011148122 9.3846975e-05 -0.00012130381 5.2808107e-05 0.00012023175 -0.00022238982 0.000107182226 -0.00017847704
1.771375e-05 0.00017538715 3.0247753e-05 -3.3558616e-05 4.186213e-05 8.90529e-05 0.00013696667 -0.00015810777
9.213608e-05 -7.0220085e-05 0.00032528167 -4.200646e-05 -0.00026894524 0.0003524544 0.0005081025 -4.1871837e-05
5.5871747e-05 4.2143547e-05 0.00010872979 -7.964842e-05 -3.134594e-05 0.0001238976 0.00022596693 4.2100088e-05
0.00015569944 0.00015403512 0.0001996103 0.00012935937 0.00013663247 -2.06561e-05 -5.3211108e-05 -3.1245985e-05
-4.480191e-06 -2.4091403e-05 -0.00010260818 -0.00016002129 0.0001472636 0.0004241124 -0.00010611079 -0.00014776849
6.7757937e-06 -7.305584e-05 -0.00018070561 7.8185e-05 5.188548e-06 8.826323e-05 -0.00010269087 0.00016730871
5.1167703e-05 -7.959285e-05 -5.5533626e-05 -4.1315884e-06 0.00015626574 9.707016e-06 -2.8701725e-05 -7.754364e-05
-3.669754e-06 6.987398e-05 7.677231e-05 6.800572e-05 1.7794002e-05 2.88674e-06 0.0002131716 3.1807805e-05
3.9453622e-05 -0.0001328222 -4.271391e-05 1.8179846e-05 0.00040027412 1.30990675e-05 0.00011016265 8.478763e-06
-0.00014352814 0.00014817923 0.00014065609 2.0313666e-05 8.793169e-05 -5.4699678e-05 1.1794461e-05 -0.00011462121
-0.00019655943 -0.00014783791 -0.00014077121 0.00014701461 0.00019169197 0.00019635857 -0.00022379607 6.988556e-05
-0.0001036307 4.1167976e-05 0.00018886871 -3.3473684e-06 -4.1084317e-05 0.0002574998 -9.103877e-05 -4.9905248e-05
-4.1472576e-05 2.085536e-05 -1.3491854e-06 0.00012360021 0.00018654215 -7.066976e-05 -9.053138e-06 -0.00011644545
4.7788917e-06 -0.00015813981 3.49566e-05 0.00014749895 5.3599497e-06 -2.7220685e-05 -0.00014500451 -1.6011154e-05
