results/opponentL/OpponentL/OpponentL-3096949.onnx (onnx, 125740 bytes, 5 tensors)

action_model._continuous_distribution.mu.weight f4 [1, 128]
0	0xbd78d727	-0.06075206
1	0xbd89824b	-0.067143045
2	0x3d80906b	0.062775455
3	0xbd43df12	-0.04782016
4	0x3d825f8f	0.063658826
5	0x3de984b2	0.11402263
6	0x3dc8a435	0.09796945
7	0xbd87e020	-0.06634545
8	0x3e165889	0.14682211
9	0xbdbc0cb6	-0.09182112
10	0xbd886898	-0.06660575
11	0x3d9c70f3	0.07638731
12	0xbd4d8bf9	-0.050182316
13	0x3d3decb8	0.04636833
14	0xbdb596d0	-0.08866656
15	0xbe0d5dda	-0.13805333
16	0x3e1a2e11	0.15056635
17	0x3dbfc729	0.09364159
18	0x3da91e53	0.08257737
19	0xbd88ca06	-0.06679158
20	0xbdca0054	-0.09863344
21	0x3dc4175c	0.09574768
22	0xbd690e82	-0.0568986
23	0x3d92895a	0.07155104
24	0xbd2ceaf0	-0.04221624
25	0x3d71ce18	0.059034437
26	0x3dfbf8a9	0.123032875
27	0xbcf125fd	-0.02943706
28	0x3db4e38c	0.088324636
29	0x3d787ba0	0.060664773
30	0xbd95ad22	-0.07308413
31	0x3aa22adb	0.0012372391
32	0x3e17c041	0.14819433
33	0xbbc29edc	-0.0059393477
34	0x3e28552b	0.16438739
35	0x3d38aad2	0.045084782
36	0xbdca8ce2	-0.098901525
37	0xbd38e64e	-0.04514151
38	0xbd843235	-0.06454889
39	0xbd62b481	-0.055347923
40	0x3da210b5	0.07913343
41	0x3d0493ab	0.03236739
42	0x3dde9b10	0.108694196
43	0x3d833b14	0.06407753
44	0xbd09c955	-0.03363927
45	0xbd2bfc79	-0.041988824
46	0xbdfa8b5e	-0.122336134
47	0x3df46dfb	0.119350396
48	0x3dd48795	0.10377423
49	0x3daaf3fa	0.08347316
50	0xbdc4ea08	-0.096149504
51	0xbd6efe20	-0.05834782
52	0xbce80ddd	-0.028326923
53	0x3da01adb	0.07817622
54	0x3da28f43	0.07937481
55	0xbd265109	-0.040604625
56	0xbdaf351b	-0.08555051
57	0x3e1c2a72	0.15250567
58	0xbe040e3e	-0.12896058
59	0xbd7f9a7f	-0.0624032
60	0x3e16e160	0.14734411
61	0x3cb54b10	0.02213052
62	0x3d926cd1	0.07149661
63	0x3da9a964	0.08284262
64	0xbde0f9a1	-0.10985113
65	0x3db9823d	0.09058044
66	0xbd740c4d	-0.059582043
67	0xbdf68fc8	-0.12039143
68	0xbcb6e5e2	-0.022326414
69	0xbd69b7eb	-0.057060163
70	0x3d9687a9	0.07350094
71	0x3df3b46f	0.11899649
72	0xbce9d210	-0.028542548
73	0xbdd99c3f	-0.10625505
74	0xbdb37795	-0.08763043
75	0x3dc42758	0.09577817
76	0x3dcc08c7	0.09962612
77	0xbc762c40	-0.015025198
78	0xbd936944	-0.07197812
79	0x3d73aabe	0.059489004
80	0x3ddf24f4	0.1089572
81	0x3c41cf07	0.011829144
82	0x3da0460f	0.078258626
83	0xbd903eb4	-0.0704321
84	0xbd88160d	-0.06644831
85	0x3d3cf6dc	0.04613386
86	0xbdb8b545	-0.090189494
87	0xbdc0f239	-0.094212
88	0xbd36eb07	-0.044657733
89	0xbdeb9f06	-0.11504941
90	0xbaa6c7bd	-0.0012724322
91	0x3da5ccb2	0.08095683
92	0xbdd44678	-0.10365003
93	0xbd6dc5bc	-0.058049902
94	0x3d6cf5eb	0.057851713
95	0xbccb440a	-0.024812717
96	0x3d503e64	0.05084075
97	0xbcd2c44e	-0.025728371
98	0xbdb41327	-0.087927155
99	0xbd23a6c2	-0.039953955
100	0x3db1f3cc	0.08689079
101	0x3d8ad5ff	0.06779098
102	0xbd1fc602	-0.039007194
103	0xbd803c45	-0.062614955
104	0x3c81d0d5	0.01584665
105	0xbe103925	-0.14084299
106	0x3e16f358	0.14741266
107	0xbd8f8bf2	-0.07009114
108	0x3d8dafd0	0.06918299
109	0xbd3b5f9b	-0.045745473
110	0x3db7b471	0.08969963
111	0xbcb154f7	-0.02164696
112	0xbcfe4a5f	-0.031041322
113	0x3de8b91b	0.11363431
114	0xbd83aad8	-0.0642907
115	0x3d77d304	0.060503975
116	0x3dadeec8	0.084928095
117	0xbd4908b3	-0.04908056
118	0x3d768104	0.060181633
119	0x3d2db556	0.042409264
120	0x3d9b654e	0.07587682
121	0x3dac8c65	0.08425216
122	0x3e192d24	0.14958626
123	0x3d9b0878	0.07569975
124	0x3d96e727	0.073683076
125	0x3d8822a3	0.066472314
126	0xbd7c4862	-0.061592467
127	0x3dbe571b	0.09293958

network_body._body_endoder.seq_layers.0.bias f4 [128]
0	0x3ca87781	0.020564796
1	0x3b8101e9	0.0039369953
2	0xbd4eacbf	-0.050457712
3	0x3c101255	0.008793433
4	0x3be59aa9	0.0070069623
5	0x3c81230e	0.015763786
6	0x3c34234c	0.010994744
7	0x3d031681	0.032003883
8	0x3c230359	0.009949529
9	0x3b855cc0	0.0040698946
10	0xba82da4c	-0.000998327
11	0x3950048b	0.00019838118
12	0xbcd0ba2c	-0.025479399
13	0x3cb30dfe	0.021857258
14	0x3c6a042a	0.014283219
15	0x3c9b18ff	0.018932818
16	0x3c651c12	0.013983743
17	0x3c003386	0.007824784
18	0x3cb5d087	0.02219416
19	0x3c73c863	0.014879319
20	0x3cc7780f	0.02434924
21	0x3cc4c5c1	0.024020078
22	0x3ce975e5	0.0284986
23	0xbc018434	-0.007905055
24	0xbc7819c3	-0.015142861
25	0x3c5e99ae	0.013586445
26	0x3d367cea	0.04455272
27	0x3cc8033a	0.024415601
28	0x3d0b4817	0.034004297
29	0x3bef0768	0.007294584
30	0x3c5b090c	0.013368856
31	0xbbd41dff	-0.0064733024
32	0x3c6187e5	0.01376531
33	0x3bb9ded5	0.0056723156
34	0x3c5f258c	0.013619792
35	0x3bce25cf	0.006291128
36	0xbc15a8b0	-0.0091344565
37	0x3c9a1bef	0.018812148
38	0x3ce76878	0.028248057
39	0x3b9a6d49	0.004712735
40	0x3c13c703	0.009019616
41	0xbbc112dd	-0.0058921413
42	0x3bc3291d	0.005955829
43	0xbca1da8e	-0.019757535
44	0x3cc5bc20	0.024137557
45	0xbbbb1e37	-0.005710389
46	0x3be29b62	0.0069154957
47	0x3c31aecd	0.010844898
48	0xbce0b81f	-0.027431546
49	0xbab9a8ef	-0.0014164726
50	0x3c7d4ffd	0.015460965
51	0xbc2e8e66	-0.010654068
52	0x3b9d18ea	0.0047942298
53	0xbc9f5c89	-0.019453304
54	0x3bad879c	0.005295707
55	0x3c9ba8db	0.019001415
56	0xbcada9db	-0.021199157
57	0x39c0c37e	0.00036766747
58	0x3abcb54d	0.0014397294
59	0xbcb053d4	-0.021524347
60	0x3cf27364	0.029596038
61	0xbbe694b8	-0.0070367716
62	0xbd265b73	-0.040614557
63	0xbbb62f13	-0.005559811
64	0xbbc27966	-0.005934882
65	0x3ba34c03	0.0049834265
66	0x3d2867c2	0.041114576
67	0x3c33d62e	0.010976357
68	0x3c810da3	0.015753573
69	0x3bbab381	0.005697668
70	0x3c930f7d	0.017951721
71	0xb9b97e25	-0.00035379935
72	0x3c1dd4de	0.009633271
73	0x3bbf38a4	0.0058356095
74	0xbb5a13c2	-0.0033275937
75	0x3d244f8e	0.04011493
76	0xbca07882	-0.019588713
77	0x3c966655	0.018359343
78	0x3bde6ce1	0.0067878817
79	0x3ce2797f	0.027645824
80	0xbcf40eca	-0.029792208
81	0x3c882e37	0.0166236
82	0xbc89a874	-0.016803958
83	0x3c6c159f	0.014409452
84	0x3c567f19	0.013091826
85	0xbcb37f35	-0.021911243
86	0x3c913b45	0.017728457
87	0x3c55714c	0.0130275
88	0x39f082e8	0.000458739
89	0x3c52a8d7	0.012857637
90	0xbc164c9c	-0.009173539
91	0xbc52c15c	-0.012863483
92	0xb8499aa5	-4.806616e-05
93	0x3c8ccf9c	0.01718884
94	0x3d19eded	0.03758042
95	0x3cd118cd	0.025524521
96	0x3c5db656	0.013532242
97	0x3cef08be	0.029178973
98	0x3d133fa0	0.03594935
99	0xbbf182fc	-0.007370351
100	0x3b3dffcd	0.002899158
101	0x3bacc5ea	0.0052726166
102	0x3d042d22	0.032269605
103	0xbc866f0b	-0.016410371
104	0xbb92e103	-0.00448239
105	0xbb4dff52	-0.00314327
106	0xbcb5f68c	-0.02221229
107	0xbbf01ada	-0.0073274197
108	0x3c0cb05e	0.008586971
109	0x3c59ce80	0.013293862
110	0x3cc3b437	0.023889644
111	0xbbd02b1a	-0.0063527944
112	0xbc62d1e4	-0.013843987
113	0x3b47e150	0.0030499287
114	0x3d0acd0d	0.033886958
115	0x3b3df1c2	0.002898321
116	0x3cad4aa3	0.021153754
117	0x3c7164a8	0.014733471
118	0x3baa19d2	0.0051910663
119	0x3ca16b11	0.019704374
120	0x3bfab843	0.0076513602
121	0xbbbcd767	-0.0057629826
122	0x3c069cc6	0.008216089
123	0xbb17f6e2	-0.0023187925
124	0xba9bb7a6	-0.0011880293
125	0x3c6da276	0.014504066
126	0x3d5e0fe0	0.05421436
127	0x3b71ca84	0.003689439

network_body._body_endoder.seq_layers.0.weight f4 [128, 111]
0	0xbb8b02d6	-0.0042422814
1	0x3deac010	0.11462414
2	0xbead926c	-0.33900774
3	0x3e3eb2c5	0.18622883
4	0xbc9b3c41	-0.01894963
5	0x3e767a56	0.24070105
6	0x3c8a419e	0.016876992
7	0x3d1d508c	0.038406894
8	0x3db35318	0.08756083
9	0x3d943397	0.072364025
10	0xbe1b3be3	-0.15159564
11	0xbdb78ed9	-0.08962793
12	0xbde83b29	-0.11339409
13	0x3dc8dee0	0.09808135
14	0xbe310f70	-0.17291045
15	0x3d59e57a	0.05319736
16	0xbe33dfda	-0.17565861
17	0x3d2e5763	0.042563807
18	0x3e0049a3	0.1252809
19	0xbdd5fe1b	-0.104488574
20	0xbd7b3b38	-0.061335772
21	0x3de4ffa4	0.11181572
22	0x3e109a1c	0.14121288
23	0xbe046895	-0.1293052
24	0xbdc46841	-0.09590197
25	0xbcc698f9	-0.024242865
26	0x3da93c54	0.0826346
27	0xbc98ca7b	-0.018651238
28	0x3dd7179e	0.105025515
29	0xbd24c7b2	-0.040229507
30	0xbe1ccfde	-0.1531367
31	0x3e68ab2d	0.22721548
32	0x3d1fb8db	0.03899465
33	0x3d6326de	0.05545699
34	0x3daafbfe	0.08348845
35	0x3d1b9b72	0.03799004
36	0xbe07d2e8	-0.13264048
37	0xbe32b1d8	-0.17450655
38	0xbd2a2c18	-0.041545957
39	0xbd922e9f	-0.071377985
40	0x3e63a320	0.22230196
41	0x3d40ac28	0.04703918
42	0x3e16c8a1	0.14724971
43	0xbdc3be88	-0.09557825
44	0x3dae0920	0.08497834
45	0x3d72b6f1	0.059256498
46	0xbd0b05ad	-0.03394096
47	0xbcdd296b	-0.026997289
48	0x3dfd130b	0.12357148
49	0x3b842de9	0.004033793
50	0xbd7cb696	-0.061697565
51	0x3e4b7d03	0.19871907
52	0xbd9dba2a	-0.077015236
53	0xbbbdd4e4	-0.005793201
54	0xbd93e2f4	-0.07221022
55	0xbdc21ea9	-0.09478504
56	0x3d926aee	0.071493015
57	0xbc4fc5a3	-0.012681398
58	0x3d883278	0.06650251
59	0x3e439495	0.19099648
60	0x3d7e48f1	0.06208128
61	0x3d4038d0	0.04692918
62	0x3ba67913	0.005080351
63	0x3b8f48ba	0.0043726834
64	0x3ce93c88	0.028471246
65	0x3e30b62a	0.1725699
66	0xbe293191	-0.16522814
67	0xbda878b1	-0.08226145
68	0x3d20b567	0.0392355
69	0xbc967170	-0.018364638
70	0xbc4caee3	-0.012492868
71	0x3e4ed869	0.20199741
72	0x3da326ff	0.07966422
73	0x3c65b986	0.014021283
74	0xbbd081ae	-0.0063631153
75	0x3e044f10	0.12920785
76	0xbe640e13	-0.22270994
77	0x3d134c3c	0.035961375
78	0xbc0a5d93	-0.008445161
79	0x3d4658d4	0.048424557
80	0x3e02bb32	0.12766722
81	0xbd26f4cd	-0.040760804
82	0xbdb6b25c	-0.08920738
83	0x3b4a4e97	0.0030869597
84	0xbc217411	-0.009854333
85	0x3d53f86a	0.051750578
86	0xbc4d951e	-0.012547759
87	0x3e31aeca	0.17351833
88	0x3d85d550	0.06534827
89	0xbd400d9a	-0.04688797
90	0xbd403ea7	-0.04693475
91	0xbce62e9f	-0.028098403
92	0xbe16f4ac	-0.14741772
93	0x3d8ea1e0	0.06964469
94	0xbadc6771	-0.0016815496
95	0x3e9a70a3	0.3016406
96	0xbe3437d9	-0.17599429
97	0x3ddc80f8	0.10766786
98	0xbe4f9b8d	-0.20274182
99	0xbd7a0e5e	-0.061048858
100	0x3e2a7527	0.16646253
101	0xbe0e9701	-0.13924791
102	0x3e866dbc	0.26255596
103	0x3d435ec7	0.04769781
104	0x3ddf39c3	0.10899689
105	0x3e0533c1	0.13008024
106	0x3e211084	0.15728956
107	0xbe4d5295	-0.20051034
108	0x3d633b5d	0.055476535
109	0x3d8c0b73	0.06838121
110	0xbe3f8109	-0.18701567
111	0xbdd2e934	-0.10298386
112	0xbd7075b1	-0.05870599
113	0x3db8b186	0.09018235
114	0x3d6a116f	0.057145532
115	0xbe4c9401	-0.19978334
116	0xbdbdc6b5	-0.09266416
117	0x3def726c	0.11691746
118	0x3d02f003	0.031967174
119	0xbe4ed2e8	-0.20197642
120	0x3ca7c133	0.020477867
121	0xbe04caef	-0.12968038
122	0xbe019b38	-0.12656868
123	0x3cca547d	0.02469849
124	0x3d1e53bd	0.038654078
125	0x3deaea36	0.114704534
126	0xbd8702c4	-0.065923244
127	0xbca514af	-0.020151464
128	0x3cd4f410	0.025995284
129	0xbdfa5b6d	-0.12224469
130	0xbc18f31f	-0.009335308
131	0x3b2c59d3	0.0026298657
132	0x3d0281ce	0.031862073
133	0x3e174a3d	0.14774413
134	0x3ce5c9f6	0.028050404
135	0x3c9473d1	0.018121632
136	0x3e201351	0.15632369
137	0xbcf37e54	-0.029723324
138	0x3cc87d51	0.024473818
139	0xbd2e5a94	-0.04256685
140	0xbd8ff778	-0.07029623
141	0xbd6b6fc0	-0.05747962
142	0x3ac3f41e	0.0014950072
143	0x3df16d82	0.11788465
144	0x3a6d545f	0.0009053405
145	0x3e4be4e9	0.19911541
146	0x3d2f60db	0.042816978
147	0x3ab8f12e	0.0014109963
148	0xbcf99792	-0.030467782
149	0xbe524723	-0.20534949
150	0x3db6ffd9	0.08935518
151	0x3b4c98bb	0.0031218964
152	0xbe1862c1	-0.14881422
153	0xbccc66bf	-0.024951337
154	0xbb96d21b	-0.0046026832
155	0x3d9dcec1	0.07705451
156	0x3e0b5836	0.13607869
157	0x3d28ceae	0.04121273
158	0xbe308fe2	-0.17242387
159	0x3d0c1ddf	0.034208175
160	0x3d99bd9b	0.075068675
161	0x3de10461	0.10987163
162	0x3e98398b	0.29731402
163	0x3e13e965	0.14444502
164	0x3d8d3b21	0.068960436
165	0xbe2674bf	-0.16255473
166	0xbce3553c	-0.027750604
167	0x3cb7f5c7	0.022456063
168	0x3d7afab5	0.06127425
169	0xbe318b78	-0.1733836
170	0xbe50874e	-0.20364115
171	0xbe2519e3	-0.16123156
172	0xbd09b3eb	-0.03361885
173	0xbd190759	-0.037360523
174	0x3d98f692	0.074689046
175	0x3dafebdc	0.085899085
176	0x3da973ba	0.08274026
177	0x3e01ebc9	0.12687601
178	0x3e076907	0.13223659
179	0x3c7c522b	0.01540045
180	0x3d22b46d	0.03972285
181	0xbd8add83	-0.06780531
182	0x3e101d5c	0.140737
183	0xbdd9bb24	-0.10631397
184	0xbe0905b3	-0.1338108
185	0xbceb3246	-0.028710496
186	0xbb079cad	-0.0020692751
187	0x3d318e75	0.04334875
188	0x3e7e7394	0.24848777
189	0xbd086533	-0.033299636
190	0x3ded894f	0.11598455
191	0x3d94ca72	0.07265176
192	0xbdfc76b6	-0.1232733
193	0x3ca4866e	0.020083632
194	0xbc6335aa	-0.013867775
195	0x3dc8ff81	0.098143585
196	0xbd56b4c5	-0.05241849
197	0xbd236a7f	-0.039896484
198	0xbe599fb8	-0.21252334
199	0xbda8c927	-0.08241492
200	0xbc54144f	-0.012944295
201	0x3ce2d6c9	0.027690308
202	0x3d2b6d81	0.041852478
203	0x3db81d88	0.08990008
204	0xbd8cd005	-0.06875614
205	0x3daf5958	0.08561963
206	0xbcf62618	-0.030047461
207	0xbdc7e263	-0.09759977
208	0xbd72310f	-0.059128817
209	0xbd702e74	-0.05863805
210	0x3d181697	0.03713092
211	0xbd946cb5	-0.07247297
212	0xbc9889ea	-0.01862045
213	0x3913cdd0	0.00014095684
214	0x3dc4a664	0.09602049
215	0xbdaa7e43	-0.08324864
216	0x3d6d1ba3	0.057887685
217	0xbce028a4	-0.027363129
218	0xbb7da1df	-0.003870122
219	0xbddecb34	-0.10878602
220	0xbdf89676	-0.12138073
221	0x3d901ab3	0.070363425
222	0x3b0a668d	0.0021118254
223	0x3d36a789	0.044593368
224	0x3c8b4cb6	0.017004352
225	0xbe0fee85	-0.14055832
226	0xbde7a746	-0.11311202
227	0xbe258b9b	-0.16166537
228	0xbd724358	-0.059146255
229	0xbe2e3de0	-0.17015791
230	0xbdf025cf	-0.117259614
231	0xbdb15e48	-0.08660561
232	0x3e0d5654	0.13802463
233	0xbc9a6c22	-0.01885039
234	0xbe00ebf1	-0.12590005
235	0x3b172020	0.002305992
236	0x3e1b9c41	0.15196325
237	0xbcdf8d1e	-0.02728897
238	0xbdea5403	-0.11441805
239	0x3cd44a25	0.025914261
240	0xbc94d475	-0.018167714
241	0x3da1e8c8	0.079057276
242	0x3c1d260e	0.0095915925
243	0xbe19758e	-0.1498625
244	0x3d196f0d	0.037459422
245	0x3d0f230e	0.03494554
246	0xbdf7de17	-0.12102907
247	0xbe8fc919	-0.28083113
248	0xbdbbd368	-0.09171182
249	0x3d107ee4	0.035277262
250	0x3e0601c5	0.13086613
251	0x3c78e322	0.015190871
252	0x3d8f2ccd	0.06990967
253	0xbe598e63	-0.21245722
254	0x3d7e1d4d	0.062039662
255	0x3d5fc43d	0.054630507

network_body._body_endoder.seq_layers.2.bias f4 [128]
0	0x3c5904ad	0.013245744
1	0x3c159e7e	0.009132026
2	0x3c07512d	0.0082591
3	0x3c61f8ed	0.013792259
4	0x3c36ca2f	0.011156603
5	0x3c72f14c	0.0148280375
6	0x3d450f93	0.048110556
7	0x3cbd7fad	0.02313217
8	0x3d07549f	0.033039685
9	0x3ca1d939	0.0197569
10	0x3bf59a70	0.007495217
11	0x3c574ef6	0.013141384
12	0x3ad6588d	0.0016353294
13	0x3c6cfdd7	0.014464817
14	0x3c7a77ea	0.015287379
15	0x3d044d06	0.032300018
16	0x3d2d38a9	0.042290363
17	0x3c90efad	0.017692411
18	0x3cc66467	0.024217797
19	0x3c8eca09	0.017430322
20	0x3d069d0a	0.032864608
21	0x3cb03a3e	0.021512147
22	0x3c894dd5	0.016760746
23	0x3cd27e6e	0.025695052
24	0xba1616d0	-0.0005725445
25	0x3c118d50	0.008883789
26	0x3d24a560	0.040196776
27	0x3ca27fda	0.019836355
28	0x3ca5cc2e	0.020238962
29	0x3c7a6c06	0.015284544
30	0x3c12a740	0.008951008
31	0x3ccc1d60	0.02491635
32	0x3d181c2f	0.037136253
33	0x3bdc11d1	0.006715991
34	0x3d1bddfa	0.03805349
35	0x3c96b540	0.018396974
36	0x3caee2fe	0.021348473
37	0x3caaeaf2	0.020863984
38	0x3c8b390f	0.016994981
39	0x3c2663a2	0.01015559
40	0x3cbe2a46	0.023213517
41	0x3c231ff4	0.009956349
42	0x3d2478d6	0.0401543
43	0x3c3e719e	0.011623768
44	0xba836d67	-0.0010027111
45	0x3bd2f0ec	0.0064374115
46	0x3cb1d252	0.021706734
47	0x3d21d40a	0.039508857
48	0x3d06789a	0.03282986
49	0x3c8ade1c	0.016951613
50	0x3d3ef4ae	0.046620063
51	0x3c1f37cc	0.009717893
52	0x3c5f9754	0.013646919
53	0x3c9b5bdb	0.018964699
54	0x3d17df0f	0.03707796
55	0x3b52401d	0.0032081672
56	0x3ce62f88	0.028098837
57	0x3cea4b16	0.028600257
58	0x3d17c7ad	0.03705566
59	0x3c5ec920	0.013597757
60	0x3d3603a7	0.044437077
61	0xbc3727b4	-0.0111789
62	0x3ccaa247	0.024735583
63	0x3caa15f4	0.020762421
64	0x3c8b8f25	0.01703603
65	0x3cf7f092	0.03026608
66	0x3cdc0898	0.026859567
67	0x3cdc8789	0.026920097
68	0x3cb45f94	0.022018231
69	0x3c907698	0.017634675
70	0x3cccd69c	0.025004677
71	0x3ccd7cb1	0.025083872
72	0x3ae41174	0.0017400221
73	0x3ca0fdaa	0.019652206
74	0x3c8ee2cf	0.017442135
75	0x3ca9a0ae	0.0207065
76	0x3cfa51b0	0.03055653
77	0xbc7a4613	-0.015275496
78	0x3b394a71	0.002827313
79	0x3cfc39a5	0.030789206
80	0x3c8c2714	0.017108478
81	0x3b0e6d40	0.0021732599
82	0x3d066be1	0.032817725
83	0x3cabb878	0.020961985
84	0x3c60bdc7	0.013717121
85	0x3cbc417a	0.02298044
86	0x3cf05906	0.029339325
87	0x3d0b1e56	0.033964477
88	0x3b4e21bb	0.003145321
89	0x3cce0a03	0.025151258
90	0x3b656b12	0.0035006446
91	0x3ce6d824	0.028179236
92	0x3ce76fb1	0.0282515
93	0x3bb94138	0.0056535266
94	0x3c462d75	0.012095799
95	0xbaec86df	-0.0018045566
96	0x3c26c212	0.010178106
97	0x3b59ead4	0.003325154
98	0x3ca5036a	0.02014323
99	0xb697683b	-4.5122847e-06
100	0x3c9cbe5b	0.019133737
101	0x3c998cf7	0.018743975
102	0x3a8e9c5b	0.0010880338
103	0x3cb845c4	0.022494204
104	0x3c56a20d	0.013100159
105	0x3d2408ed	0.040047575
106	0x3ce462d3	0.027879154
107	0x3c542c6c	0.012950044
108	0x3cf89f34	0.030349351
109	0x3b9457a3	0.0045270487
110	0x3d00e5d9	0.0314692
111	0x3b02ac33	0.0019939065
112	0x3b6a8637	0.0035785565
113	0x3d098508	0.033574134
114	0x3c8f7840	0.017513394
115	0x3c8082f8	0.01568745
116	0x3cfe2e49	0.03102793
117	0x3c35aa3b	0.011087949
118	0x3cdd38ef	0.027004687
119	0xbc1b2bce	-0.009470893
120	0x3cb56e6b	0.022147378
121	0x3cd05f0e	0.02543595
122	0x3d3b21d7	0.04568657
123	0x3c85ace6	0.016317796
124	0x3c8ec2c5	0.017426858
125	0x3cd5799a	0.02605896
126	0x3c55491f	0.013017922
127	0x3ca20828	0.01977928

network_body._body_endoder.seq_layers.2.weight f4 [128, 128]
0	0xbd87d399	-0.06632156
1	0xbe2d9f73	-0.16955356
2	0xbd39a13f	-0.045319792
3	0x3d25374b	0.040335935
4	0x3d0e602a	0.034759678
5	0xbd8c11c1	-0.06839324
6	0x3e525996	0.20541987
7	0xbcc8c51f	-0.024508057
8	0xbdb06fdf	-0.08615088
9	0xbddf9ca8	-0.10918552
10	0x3bcceb6b	0.00625365
11	0xbda1f4d7	-0.079080276
12	0xbc86a54e	-0.016436245
13	0xbe3288ff	-0.17435072
14	0x3dde1be2	0.10845162
15	0xbd49249c	-0.04910718
16	0xbd6f593c	-0.05843471
17	0x3d24f8fa	0.040276505
18	0xbd947baf	-0.07250153
19	0x3e026851	0.12735106
20	0x3e0907bb	0.13381855
21	0xbcface8a	-0.030616064
22	0xbe6b31f8	-0.2296828
23	0xbd96f538	-0.073709905
24	0xbd0ba5a9	-0.034093533
25	0x3d99f97f	0.07518291
26	0x3d15d0c0	0.036576033
27	0x3c52dae4	0.01286957
28	0xbdb082f5	-0.08618728
29	0xbd046cf2	-0.03233046
30	0xbca1362c	-0.019679151
31	0xbd0124de	-0.0315293
32	0xbc6d8deb	-0.014499168
33	0x3c8186d2	0.015811358
34	0xbcf52172	-0.029923175
35	0xbdc966d8	-0.09834069
36	0x3e8311b8	0.25599456
37	0xbd8195d2	-0.06327404
38	0x3cfdf1bc	0.030999057
39	0x3e1dc082	0.15405467
40	0x3d5a7f4b	0.053344052
41	0xbe03e6b0	-0.12880969
42	0xbc3264da	-0.010888303
43	0xbe2e0aa5	-0.16996248
44	0x3d95dd39	0.073175855
45	0xbd6607e7	-0.05615988
46	0xbd596fef	-0.053085264
47	0xbe0b1a6c	-0.13584298
48	0x3d798802	0.060920723
49	0x3d43ce7e	0.04780435
50	0x3d22bf34	0.039733127
51	0x3dbc5649	0.09196145
52	0x3e44f43a	0.1923379
53	0x3e0a8e37	0.13530813
54	0x3d83a22a	0.06427415
55	0x3de34acc	0.11098251
56	0x3d278adc	0.04090391
57	0xbd9f915b	-0.07791396
58	0xbbcce048	-0.0062523223
59	0xbd873c95	-0.06603352
60	0x3c073f40	0.008254826
61	0x3c8c119f	0.017098246
62	0xbd0a6682	-0.033789165
63	0x3de70d58	0.11281842
64	0xbcdf6763	-0.027270978
65	0x3d56e7ba	0.052467085
66	0x3d66a1e6	0.056306742
67	0xbe5ff959	-0.21872462
68	0x3d448d33	0.04798622
69	0xbe269d94	-0.16271049
70	0xbdec78f4	-0.115465075
71	0xbe004639	-0.12526788
72	0xbd8632a8	-0.06552631
73	0xbe17689d	-0.14786
74	0x3c1fe612	0.009759443
75	0x3c6bc37c	0.014389869
76	0x3d4d7ea5	0.050169606
77	0x3cf52053	0.02992264
78	0xbc99a601	-0.018755915
79	0x3cd6ff66	0.02624483
80	0xbdf638a2	-0.120225206
81	0xbd78fe7e	-0.060789578
82	0x3ce282a6	0.027650189
83	0xbdd49ff1	-0.10382069
84	0x3dfbc7d1	0.12293971
85	0xbb8bc108	-0.0042649545
86	0xbc77bb72	-0.015120374
87	0x3d198948	0.037484437
88	0xbdaa6e8d	-0.08321867
89	0xbde7f331	-0.11325682
90	0xbab31c4a	-0.0013665047
91	0xbd193922	-0.037408
92	0xbe477cfd	-0.19481273
93	0xbddd3a11	-0.10802091
94	0xbbf298c6	-0.007403466
95	0xbd262b37	-0.040568557
96	0x3e135026	0.14386043
97	0xbdf1a5bd	-0.1179919
98	0xbd94d695	-0.07267491
99	0xbd88c010	-0.06677258
100	0xbd01fbcb	-0.03173427
101	0x3d57784d	0.052604962
102	0xbd38a625	-0.045080323
103	0xbda3d752	-0.080000535
104	0x3d386885	0.045021553
105	0x3d7a78fe	0.061150543
106	0x3d1913f4	0.037372544
107	0xbdc0dcf6	-0.09417145
108	0xbe240ee5	-0.16021307
109	0xbe074df7	-0.13213335
110	0x3e8e9864	0.2785064
111	0x3b7a3966	0.0038181185
112	0xbd096e82	-0.033552654
113	0x3e13cdc4	0.14433962
114	0xbd2618a6	-0.04055085
115	0xbc894387	-0.016755832
116	0x3e0f9180	0.14020348
117	0xbdae1ece	-0.08501969
118	0x3b2b2698	0.0026115533
119	0x3e63b660	0.2223754
120	0x3c9deb63	0.01927728
121	0x3cc3d8fa	0.023907173
122	0x3a9032a2	0.0011001418
123	0x3c052283	0.008125904
124	0xbde4c025	-0.11169461
125	0xbadb1b16	-0.0016716446
126	0xbdcdc57a	-0.10047431
127	0x3e0c36a0	0.13692713
128	0x3c32ace3	0.010905477
129	0xbdb6eb1e	-0.08931564
130	0x3dac2fb3	0.084075354
131	0x3e0e762e	0.1391227
132	0xbcaf4822	-0.0213967
133	0xbbba0d51	-0.005677857
134	0x3dc89de8	0.09795743
135	0x3e5d0e00	0.21587372
136	0xbe35c41b	-0.1775059
137	0xbe546ea6	-0.20745334
138	0xbd0c2ba9	-0.034221325
139	0xbdb38f3d	-0.08767555
140	0xbd4a9406	-0.049457572
141	0xbdcd2d35	-0.10018388
142	0xbd6816c2	-0.05666233
143	0xbe8ed350	-0.27895594
144	0x3cd539c4	0.026028521
145	0xbe2dba20	-0.16965532
146	0x3d268f88	0.040664226
147	0x3e08a2b4	0.13343316
148	0x3d584108	0.052796394
149	0xbd70d2b6	-0.0587947
150	0xbaccda4e	-0.0015629025
151	0xbd834b4f	-0.06410848
152	0x3c00737b	0.007840033
153	0x3ce33df4	0.027739502
154	0x3aab04f0	0.0013047736
155	0xbd13199a	-0.035913087
156	0xbbb7d0ed	-0.0056096227
157	0x3dd669fe	0.10469435
158	0xbd398451	-0.045292202
159	0x3cf249f6	0.029576283
160	0xbc0a540e	-0.008442892
161	0x3e364fc1	0.17803861
162	0xbd1b5388	-0.03792146
163	0xbd0866d4	-0.03330119
164	0xbdf8e0c2	-0.12152244
165	0xbddb865b	-0.10718986
166	0x3c951146	0.018196713
167	0x3d716c35	0.058941085
168	0x3d9cf1c9	0.07663304
169	0x3df99757	0.12187069
170	0xbda454de	-0.08024
171	0xbda53fff	-0.08068847
172	0x3dd644e8	0.104623616
173	0x3cb9ece9	0.022695975
174	0xbe42631b	-0.18983118
175	0x3d5fae6c	0.0546097
176	0xbd1ca87f	-0.038246628
177	0xbc7ccca1	-0.015429647
178	0xbd87d3cf	-0.06632196
179	0x3e0e2dcf	0.13884662
180	0xbd8ce5e9	-0.068797894
181	0x3d8379f0	0.06419742
182	0xbd8368c8	-0.0641647
183	0x3d30b52e	0.043141536
184	0xbe4bb1e1	-0.19892074
185	0xbe362877	-0.17788874
186	0x3d2adfb7	0.041717257
187	0x3d78228f	0.060579833
188	0xbd261e85	-0.04055645
189	0x3e0d9b24	0.13828713
190	0xbe3c77b5	-0.1840504
191	0xbc8580e2	-0.016296808
192	0xbbb22bb7	-0.00543734
193	0x3e4541ce	0.19263384
194	0xbdc4a6a9	-0.096021004
195	0xbe174d13	-0.14775495
196	0x3df036c0	0.11729193
197	0xbc217f02	-0.009856941
198	0x3d2c33c3	0.04204155
199	0x3e09801d	0.13427778
200	0x3dd12cb6	0.10213606
201	0x3c58f05d	0.013240901
202	0x3d154acb	0.03644828
203	0xbcc0bdc8	-0.023527995
204	0xbe034dc5	-0.12822635
205	0x3ca95dbf	0.020674584
206	0xbd1b18a9	-0.037865315
207	0xbe084b59	-0.13309993
208	0xbd79291a	-0.060830213
209	0xbd83d97d	-0.06437967
210	0x3d863b4f	0.06554281
211	0x3d6dcc41	0.05805612
212	0xbd177b49	-0.03698281
213	0x3d81b5a6	0.06333475
214	0x3e889370	0.26674986
215	0xba3477f0	-0.0006884327
216	0x3de27a20	0.1105845
217	0x3d296f67	0.041366007
218	0x3e2e1310	0.1699946
219	0xbe080c6c	-0.13285989
220	0xbd1220cd	-0.035675813
221	0x3dba66b7	0.091016226
222	0xbdb691d2	-0.08914532
223	0x3d955238	0.072910726
224	0x3e2f2f08	0.17107785
225	0x3c941ca9	0.018080072
226	0xbd319eaf	-0.043364223
227	0x3cb8d919	0.022564458
228	0x3d4e9024	0.050430432
229	0x3e19293d	0.14957137
230	0xbd7abadd	-0.061213363
231	0x3c8cd1ec	0.017189942
232	0x3e1aa7d0	0.15103078
233	0x3d8a8972	0.06764497
234	0xbdf2cc04	-0.11855319
235	0xbcb34cfe	-0.021887299
236	0xbda4f006	-0.08053593
237	0xbd60c10e	-0.05487161
238	0x3c5dc206	0.013535028
239	0x3cab094f	0.020878462
240	0xbd05a2ff	-0.03262615
241	0x3cd1b4b7	0.025598867
242	0x3d905752	0.07047905
243	0x3cb29b01	0.021802427
244	0x3d9fbedc	0.078000754
245	0x3de5307d	0.11190889
246	0x3dbc2b64	0.091879636
247	0x3d093439	0.03349707
248	0xbe1b2e3e	-0.15154359
249	0x3d37b624	0.044851437
250	0x3dec71ad	0.115451194
251	0x3ccc9a09	0.024975793
252	0xbd6527f6	-0.055946313
253	0x3da2131a	0.079137996
254	0x3d56a4b7	0.052403178
255	0xba5d8357	-0.0008450052
