results/opponentL/OpponentL/OpponentL-3134184.pt (torch, 760415 bytes, 30 tensors)

network_body._body_endoder.seq_layers.0.weight f4 [128, 111]
00000000: 205a 79bb 8522 ee3d 12db adbe c5b2 3e3e
00000010: 74ea 9bbc 6372 763e f9ee 803c 67cc 1a3d
00000020: d81a b43d 967a 943d 4a5a 1dbe d98e b7bd
00000030: 103c e8bd 2b4f c93d d914 31be 1149 583d
00000040: 0d8e 33be 0084 2e3d 0e07 fe3d 1bfe d5bd
00000050: 71e9 78bd 6a7f e43d 0099 103e ae41 04be
00000060: e4d9 c5bd f423 b9bc 464f a93d 7bca 98bc
00000070: 8b02 e63d 43b4 1bbd 0edd 1cbe 2e6a 683e
00000080: 42a4 233d 4dcc 643d 1856 a73d 729b 1b3d
00000090: 74f7 07be 4645 32be 57dd 2ebd b6a2 93bd
000000a0: 0c78 633e 0b30 3f3d 858f 173e 88be c3bd
000000b0: 6150 a63d f14a 753d 862b 0abd 0c85 ddbc
000000c0: 7f82 fd3d fde0 b63b 3bfa 75bd 037d 4b3e
000000d0: fea0 9dbd fa36 d2bb ab69 94bd 1004 c3bd
000000e0: e8de 933d 7b91 4ebc a168 8a3d 9594 433e
000000f0: 012f 803d 2fb7 3f3d 9955 873b 2f46 7c3b
00000100: 6469 e33c 6f64 353e 70ee 2bbe b178 a8bd
00000110: 377d 223d 89c6 93bc 9302 58bc 7868 4e3e
00000120: 130f a33d e7db 6e3c b587 e5bb 104f 043e
00000130: 80f7 62be f8e9 153d 57a7 0bbc ad12 473d
00000140: 6ea5 023e e8db 18bd 7980 b7bd 974e 4a3b
00000150: a870 11bc f768 543d 0ea6 57bc 1627 313e
00000160: 49ac 863d 47db 43bd e0f3 3bbd 9f2e e6bc
00000170: 0e22 16be 7275 8e3d 53d1 02bb 935c 9a3e
00000180: 80e3 32be 954e de3d cc80 4dbe 5e0e 7abd
00000190: 132d 2a3e e24a 0ebe 8e03 863e 6c1d 413d
000001a0: 185e e13d 468a 073e ff15 1f3e 34f2 4cbe
000001b0: 4da6 603d b691 8b3d 174b 40be 768f dcbd
000001c0: cc51 72bd be9e b43d 6f11 6a3d 0e7e 4dbe
000001d0: b3db bcbd 4d7c f53d 31ef 063d 7d83 4dbe
000001e0: 024a 923c 7caa 01be 389b 01be 1969 b83c
000001f0: b84b 1d3d f6e3 eb3d 070e 85bd a53a 87bc
00000200: c122 d03c 6a9c f8bd 1ff3 18bc e2e2 543b
00000210: c4e0 023d 31c5 153e 5687 de3c fc83 a13c
00000220: 5ca8 1c3e ee60 00bd 517d c83c 26c0 5abd
00000230: c32c 9bbd e270 65bd f5ca 343b 46c3 f03d
00000240: dcd0 863b 89c3 4d3e db60 2f3d f924 083a
00000250: 8477 fabc f914 53be 2907 b73d 7dc6 513b
00000260: 5356 17be 521d eabc 1bd2 96bb 87cc a43d
00000270: 95b3 063e 8b71 2b3d cdf3 2fbe a2b9 0c3d
00000280: f677 983d 4eb5 de3d 8b39 983e 9ba2 143e
00000290: 683e 903d e214 26be 67fb ddbc c317 a63c
000002a0: c04c 753d 65ac 33be 4e87 50be 3615 27be
000002b0: 400d 16bd e24a 13bd e000 9b3d d846 b23d
000002c0: 4f47 a73d 2884 073e 0769 073e 4824 7b3c
000002d0: f604 1d3d 33d3 8abd 7f4f 103e 8a57 dbbd
000002e0: 3b6c 09be 49a1 f2bc ad9c 07bb 804a 3e3d
000002f0: 6abb 7d3e 1d38 06bd 0703 ee3d ef10 983d
00000300: 9062 02be 5886 a03c aa35 63bc 9259 ca3d
00000310: 481c 4fbd 80b6 20bd 220c 59be 316d acbd
00000320: 28f3 4dbc 893b d93c 816d 2b3d 7381 b93d
00000330: f97d 91bd 7797 b03d c6b0 f1bc 2e42 c6bd
00000340: 831b 80bd a765 7abd 9716 183d 3d65 97bd
00000350: 4281 b3bc 7a6e 5f3a f0c5 c53d 1dac a9bd
00000360: c189 773d 811e 0fbd 4940 10bb 0c2d d5bd
00000370: 42c9 fabd c3f0 963d 3171 933a 4e70 383d
00000380: 3319 813c 85ee 0fbe 098e e7bd fa1c 25be
00000390: feb2 76bd 79e6 2fbe dd6c f0bd 9439 b1bd
000003a0: 6929 0a3e 226c 9abc ffc4 00be bf23 14ba
000003b0: d152 1a3e 139c e9bc 5688 e8bd 3334 cf3c
000003c0: 27f9 9dbc c8e8 a13d 1473 1c3c d0e0 18be
000003d0: 3983 093d 628a 023d 34d8 f7bd c2e8 8fbe
000003e0: c29b bebd e47e 103d cfc5 013e 837d 5f3c
000003f0: 259f 8c3d de9a 5abe 0dcc 793d a4c8 673d
-0.0038048103 0.11627678 -0.339562 0.18622883 -0.019032694 0.24067073 0.015738951 0.03779259
0.087941825 0.07249944 -0.15366474 -0.08962793 -0.11339581 0.09829553 -0.17293109 0.052804057
-0.17534657 0.042606354 0.12403689 -0.104488574 -0.060769502 0.11157115 0.14120865 -0.1291568
-0.096607 -0.022600152 0.08267073 -0.018651238 0.11230954 -0.038013708 -0.153187 0.22696754
0.03995157 0.0558589 0.08170718 0.03799004 -0.1327799 -0.17409238 -0.042691555 -0.07208769
0.22213763 0.046676677 0.14800842 -0.09557825 0.081208 0.059885923 -0.033732913 -0.02704098
0.12378406 0.00558102 -0.06005309 0.19871907 -0.076967224 -0.006415245 -0.07246717 -0.09522259
0.0722025 -0.012607927 0.06758238 0.19099648 0.06258965 0.046805557 0.004130077 0.003849398
0.027760215 0.17714094 -0.16790175 -0.08226145 0.039670195 -0.018039005 -0.0131842075 0.20157039
0.079618596 0.014578796 -0.007004703 0.12920785 -0.22164726 0.036600083 -0.008523784 0.048601795
0.12758419 -0.037319094 -0.08960051 0.0030869597 -0.008876957 0.051857915 -0.013162149 0.17300066
0.065758295 -0.04781654 -0.045886874 -0.028098403 -0.14661428 0.06955995 -0.0019961193 0.30148754
-0.17469597 0.10854832 -0.20068663 -0.061048858 0.16618757 -0.13895753 0.26174587 0.0471472
0.11004275 0.13236341 0.15535735 -0.20014268 0.054846097 0.068149015 -0.18778645 -0.107695505
-0.05916004 0.0881934 0.057145532 -0.20067617 -0.09221592 0.11986599 0.032942954 -0.2006969
0.017857555 -0.12662691 -0.12656868 0.022511052 0.03840229 0.115180895 -0.06496816 -0.016507456
0.025407197 -0.121392086 -0.009335308 0.0032483866 0.031952634 0.14626004 0.027164143 0.019716255
0.15298599 -0.03134244 0.024473818 -0.053405903 -0.07576897 -0.056015857 0.0027586792 0.117559955
0.0041142534 0.20094122 0.042816978 0.00051934976 -0.030574568 -0.20613469 0.089369126 0.0032009177
-0.14779024 -0.028578434 -0.0046026832 0.08046823 0.13154443 0.04185633 -0.17182846 0.03435672
0.07444756 0.10874425 0.29731402 0.14515154 0.07043153 -0.16218904 -0.027097417 0.020275002
0.059887648 -0.17546232 -0.20364115 -0.16316685 -0.03663373 -0.035960086 0.07568526 0.087049186
0.08167898 0.13234007 0.13223659 0.015328474 0.03833481 -0.06778564 0.14092825 -0.10710056
-0.13420193 -0.029617922 -0.0020692751 0.046457767 0.24778524 -0.032768358 0.11621671 0.07425105
-0.12732911 0.01959531 -0.013867775 0.098803654 -0.05056408 -0.039236546 -0.21196035 -0.08419264
-0.01257018 0.026517646 0.041852478 0.090578936 -0.071041055 0.086226396 -0.029503237 -0.096805915
-0.062552474 -0.0611321 0.03713092 -0.073923565 -0.02191222 0.0008523237 0.09656894 -0.08284781
0.060434107 -0.0349412 -0.0022010973 -0.10408983 -0.12245418 0.073701404 0.0011248944 0.045028977
0.015759086 -0.14055832 -0.11306388 -0.16124335 -0.060229294 -0.17177762 -0.11739514 -0.0865356
0.13492359 -0.01885039 -0.12575148 -0.00056510785 0.15070654 -0.028516805 -0.11354129 0.025293445
-0.019283844 0.079057276 0.009548921 -0.14929509 0.03357241 0.031870253 -0.12101784 -0.28107268
-0.09307052 0.035277262 0.12673114 0.013640764 0.06866292 -0.2134814 0.060985614 0.05658783

network_body._body_endoder.seq_layers.0.bias f4 [128]
00000000: b9f0 a83c e3a4 873b 61f1 52bd adba 0f3c
00000010: a86c e73b 7be9 813c 06a7 353c 183c 033d
00000020: b774 213c 0adf 8e3b 8617 8bba 0027 e139
00000030: 36d5 d0bc 99b1 b33c ce04 683c f70b 9a3c
00000040: 5430 633c 7053 023c 570e b73c dd35 723c
00000050: 07df c53c 5a08 c63c b7fb e83c 6f3b 00bc
00000060: f0e3 74bc 1c99 633c a24d 373d c6bb c73c
00000070: 35ca 0b3d c687 ea3b 81cf 5c3c 80bc cbbb
00000080: 9f69 5f3c c2e2 bb3b c2b6 613c 29d2 c73b
00000090: 5ddd 13bc c8be 9c3c e20a ea3c 401e 9b3b
000000a0: 3b6f 133c 6ed4 c0bb 40b0 cf3b d005 a0bc
000000b0: 76f2 c33c 8d56 d1bb a94b da3b eced 343c
000000c0: ca7c e8bc b92a 09bb 2083 813c 789a 32bc
000000d0: c201 a43b 5a06 9fbc bd6b b23b ba7d 993c
000000e0: 3df6 b0bc 3eaa 153a 2760 fe3a 260a afbc
000000f0: d469 f33c 9556 e1bb 2b1c 26bd d337 b0bb
00000100: 9d2c cfbb 8947 a13b 8c04 293d debc 393c
00000110: b69d 7f3c 40eb cc3b 16fc 983c 5b09 c6b9
00000120: 8812 223c bb77 be3b f1b0 6ebb 1434 233d
00000130: d424 a6bc 2fcc 953c 4af1 da3b ae6c e23c
00000140: ff6e fbbc e017 883c 39c6 8ebc 3f75 633c
00000150: 688e 593c 38e9 adbc f25e 8e3c 1788 523c
00000160: 7a06 c839 b4dc 5b3c 52c6 14bc 7d20 50bc
00000170: 0083 adb9 8dad 8c3c 63e2 1a3d 2e09 d13c
00000180: 025d 5d3c 1400 ef3c 1da1 133d c63c e8bb
00000190: eed4 453b 8b2e ad3b 2e78 053d aeb9 84bc
000001a0: 72e7 8dbb 4c04 56bb 936d b6bc cf22 f7bb
000001b0: 4b36 0c3c 7aee 573c 852f c53c d050 d9bb
000001c0: ef7c 5cbc 8146 543b 3c0e 0b3d 2196 2c3b
000001d0: 0a97 ac3c 4dce 6c3c 233c b03b f5c1 9f3c
000001e0: 1290 003c 3bab b5bb 4bd0 0b3c a833 daba
000001f0: ac1c 94ba 30a3 6b3c ba6a 5e3d ffb4 7a3b
0.020622598 0.004139529 -0.051499728 0.008772534 0.0070625134 0.015858402 0.011087185 0.03203973
0.009854487 0.0043600844 -0.0010611869 0.00042944402 -0.025492292 0.021935271 0.014161302 0.018804533
0.013866503 0.007954463 0.022345705 0.01478335 0.0241542 0.024173904 0.02844034 -0.00782667
-0.014946923 0.013891485 0.04475177 0.02438153 0.034128387 0.0071572987 0.013477207 -0.0062175393
0.013636022 0.0057338187 0.013776483 0.006098051 -0.009024945 0.01913394 0.028569642 0.0047338307
0.008998687 -0.0058846986 0.0063381493 -0.019534022 0.023919325 -0.0063884915 0.0066618514 0.011043053
-0.028379817 -0.0020930006 0.015809596 -0.010901086 0.0050050924 -0.019412208 0.0054449723 0.018736709
-0.02160179 0.0005709267 0.0019407318 -0.021367144 0.029713549 -0.0068767765 -0.040554207 -0.0053777485
-0.006322457 0.0049218577 0.041264102 0.011336533 0.015601566 0.00625363 0.018674891 -0.00037772473
0.0098921135 0.005812613 -0.0036421383 0.039844587 -0.020281233 0.018285839 0.006681596 0.027639713
-0.030692575 0.016612947 -0.017428504 0.013882934 0.013278581 -0.021229371 0.017379258 0.012849829
0.00038151798 0.013419319 -0.009080486 -0.012703058 -0.00033094734 0.0171726 0.037813555 0.025517073
0.013510944 0.029174842 0.03604232 -0.007087323 0.003018673 0.0052850894 0.032585315 -0.01620182
-0.004330569 -0.003265637 -0.022269046 -0.0075419913 0.008557866 0.013179416 0.02407051 -0.006631948
-0.013457521 0.0032390656 0.03394912 0.00263346 0.021068115 0.014453483 0.0053782626 0.019501666
0.007846849 -0.005544094 0.008533548 -0.0016647475 -0.0011300049 0.014382169 0.054301 0.0038254855

network_body._body_endoder.seq_layers.2.weight f4 [128, 128]
00000000: 74ba 87bd 5b04 2ebe 8c0c 3bbd cd2e 253d
00000010: 2217 123d 1310 8dbd f586 533e 3a5c c7bc
00000020: 9f0d aebd 7de3 e0bd c57e b33b c8b9 a4bd
00000030: 2594 87bc 59bb 32be 1d10 de3d e565 43bd
00000040: 19d0 70bd 64ad 243d 3ec2 94bd fd38 023e
00000050: 4bb0 083e c53a f7bc 76ef 6abe 7019 98bd
00000060: 33d1 09bd 7d36 983d ef1c 143d 183b 583c
00000070: 7f4b b0bd bd87 04bd 91a0 a0bc 7de9 02bd
00000080: 8aba 67bc c16c 813c 2ff5 f8bc b512 cabd
00000090: d31a 833e 4806 83bd 5138 fd3c a795 1d3e
000000a0: 6303 593d 3d19 04be 2607 3cbc f2a2 2ebe
000000b0: ece3 953d dc58 68bd 4daa 5abd 3917 0cbe
000000c0: dd38 793d f59b 423d c5eb 1f3d 84c7 bb3d
000000d0: ccdd 443e bb6f 0a3e 324e 833d e948 e33d
000000e0: 91d4 213d 315c a0bd 0644 eebb ef98 86bd
000000f0: b7ea 0b3c 3cfa 8b3c 2827 05bd 6c11 e73d
00000100: 18d6 dbbc e821 573d 8b39 653d 4911 61be
00000110: d397 413d 72d0 26be bbfd edbd e6a3 00be
00000120: 21e3 85bd e549 17be 4593 173c 410a 743c
00000130: 19f8 4e3d ce48 f13c b1b9 9abc d249 da3c
00000140: f684 f6bd 35dc 77bd ea2b df3c eb1e d7bd
00000150: d257 fb3d 4578 9abb 499b 78bc 6f91 173d
00000160: c00c abbd 152d e9bd 6246 c6ba c9b1 18bd
00000170: cff6 47be 184c ddbd 345e eabb e7cf 25bd
00000180: a7e1 123e 9799 f0bd 9c7f 95bd 6068 89bd
00000190: e471 03bd 5656 553d 4269 37bd 980d a5bd
000001a0: 2003 393d 4bf1 793d c715 193d 0690 c1bd
000001b0: 877e 24be e8b7 07be 56c9 8e3e 9f5d 503b
000001c0: cad9 06bd aacb 133e 75ab 23bd 3dd2 8cbc
000001d0: 5fac 0f3e 1bff afbd d588 293b 4b9c 633e
000001e0: 4f70 9d3c c922 c53c d2b4 c33a a67a f23b
000001f0: d02d e3bd 41a1 cdba 3ad8 cdbd 17c9 0d3e
00000200: c038 403c fb3c b7bd 07d3 ab3d a07c 0f3e
00000210: 2ccb a4bc 3926 cdbb 32c7 ca3d b34a 5d3e
00000220: 2dc1 34be 7221 54be f48f 0dbd 99a0 b4bd
00000230: 4654 48bd d8cb cdbd f496 68bd 0714 8ebe
00000240: a8e1 d33c 6532 2dbe bf6f 2b3d 4292 083e
00000250: 0a76 583d cd13 6abd 30e7 35ba e73f 84bd
00000260: a25d 163c 2e2a d83c fd92 a63a 8309 11bd
00000270: 3a01 c5bb d065 d83d 45ff 36bd d8f2 f33c
00000280: 9256 02bc bf5b 363e 2620 1dbd f392 0abd
00000290: 9962 f8bd fba2 ddbd 4a2a 983c c703 733d
000002a0: 13e3 9c3d e272 fa3d 7c46 a4bd 0c79 a6bd
000002b0: 07be d63d 06e8 b33c c2f7 41be 82bf 5f3d
000002c0: e74e 1abd 543b 83bc 9a2b 8bbd 6891 0d3e
000002d0: 81c3 8cbd 9634 833d 6f84 84bd a863 313d
000002e0: 5107 4cbe 1123 37be 34cc 293d 9d30 7a3d
000002f0: 1db5 24bd f7c9 0d3e cc8e 3abe 8b71 7dbc
00000300: 61bc a3bb 1042 453e 939f c4bd 2f2c 17be
00000310: 4ed9 ee3d ec46 23bc 474e 283d d855 093e
00000320: ca50 d23d 82c9 613c 822f 133d 6f2f bfbc
00000330: dc03 01be 817b a53c 3bf8 16bd 81a9 07be
00000340: 6bb7 78bd fad1 83bd 44f3 853d edd4 663d
00000350: 8a44 17bd 6f63 823d f2dd 883e 5f28 3bba
00000360: dd87 e13d 3be5 293d 4b59 2e3e e375 07be
00000370: 1370 0fbd 1ce1 b93d 90d3 b6bd e2af 953d
00000380: ad70 2e3e 25c8 973c 3eab 33bd 3ade b73c
00000390: 6559 4e3d f0d6 183e c55d 78bd 5cdf 8d3c
000003a0: 89dc 1a3e f5fd 8a3d bdcf f0bd a579 b6bc
000003b0: 9ad3 a4bd 2062 5bbd 804e 5c3c 6b6a a53c
000003c0: 21cf fcbc ed2e d53c d81f 913d 21c3 b53c
000003d0: e27f 9f3d a6fe e23d a84a bc3d 4e37 0a3d
000003e0: c6c5 1abe 691b 393d d1ab ed3d 49da d13c
000003f0: a526 62bd 2988 a33d 7d1d 563d 8474 613a
-0.0662736 -0.16993849 -0.045666263 0.040327836 0.035666592 -0.068878315 0.20656951 -0.02433597
-0.08498692 -0.1098089 0.0054777586 -0.080432475 -0.016550133 -0.1745428 0.10842917 -0.047704596
-0.058792207 0.04020442 -0.07263611 0.12717052 0.133485 -0.03017939 -0.2294291 -0.07426727
-0.033646774 0.07432268 0.036160406 0.013197683 -0.0860815 -0.032356013 -0.019607814 -0.031960953
-0.0141435955 0.015798928 -0.03039035 -0.09866849 0.25606403 -0.063976824 0.030910643 0.15389119
0.052981745 -0.12900253 -0.011476314 -0.17054346 0.07318863 -0.056725368 -0.053385068 -0.13680734
0.060845245 0.047512013 0.039043207 0.09168914 0.19225234 0.13519184 0.06411399 0.11097891
0.03950936 -0.07830084 -0.0072712926 -0.065721385 0.008539847 0.017087094 -0.032508045 0.1128262
-0.026835486 0.05252257 0.05596308 -0.2197925 0.04726393 -0.16290453 -0.11620661 -0.12562522
-0.06537462 -0.14774282 0.00925142 0.014895023 0.050529573 0.029453661 -0.018887373 0.026646528
-0.12037079 -0.06051274 0.02724262 -0.10503944 0.1227261 -0.0047140443 -0.015173742 0.03700393
-0.08352041 -0.11385552 -0.0015127177 -0.037278924 -0.19527744 -0.10805529 -0.007152343 -0.040481474
0.14343892 -0.11748045 -0.0729973 -0.06709361 -0.032091036 0.05208429 -0.044778116 -0.080592334
0.045168996 0.06102113 0.037374284 -0.094512984 -0.16063891 -0.13253748 0.27887982 0.0031794084
-0.032922544 0.1443316 -0.039958436 -0.017190093 0.14030598 -0.085935794 0.0025868912 0.2222759
0.019218592 0.024064438 0.0014931208 0.0073998747 -0.110927224 -0.0015688316 -0.100510076 0.13846241
0.01173228 -0.08947178 0.0838986 0.14012384 -0.020116411 -0.00626066 0.09901275 0.21610527
-0.17651816 -0.20715883 -0.034561113 -0.08819694 -0.048908494 -0.10048646 -0.056784585 -0.27749655
0.025864437 -0.16913755 0.041854616 0.13337043 0.052846946 -0.05714779 -0.00069390517 -0.06457501
0.009177597 0.0263873 0.0012708601 -0.03540946 -0.006012109 0.10566294 -0.044677038 0.029778883
-0.00795521 0.17808436 -0.038360737 -0.033831548 -0.12128181 -0.10822102 0.018574852 0.059329774
0.076604985 0.122289434 -0.08021256 -0.081285566 0.104854636 0.021961223 -0.18942168 0.054625995
-0.037672903 -0.0160195 -0.06795426 0.13825 -0.06873227 0.06406514 -0.06470572 0.04330793
-0.19924666 -0.1788447 0.04145451 0.061081517 -0.040211786 0.13846575 -0.18218535 -0.015468965
-0.0049968217 0.19263482 -0.09600749 -0.14762948 0.11662541 -0.00996564 0.041090276 0.13411653
0.102693155 0.013780953 0.03593398 -0.023338048 -0.12599128 0.020200493 -0.036857825 -0.13248254
-0.060721796 -0.06436534 0.0654054 0.056355406 -0.0369306 0.06366622 0.2673183 -0.00071394996
0.11012242 0.041478377 0.1702625 -0.13228564 -0.03501899 0.09076139 -0.08927071 0.073089376
0.1703517 0.018528054 -0.04386448 0.022444833 0.050378222 0.14925742 -0.0606363 0.01731842
0.1512319 0.0678672 -0.11758373 -0.022274802 -0.08048172 -0.053560376 0.01344645 0.020192346
-0.030860486 0.026023353 0.07086152 0.022187771 0.077880636 0.110837266 0.09193927 0.03374415
-0.15114507 0.045192156 0.11605037 0.025616782 -0.055212636 0.07984955 0.052274216 0.0008600431

network_body._body_endoder.seq_layers.2.bias f4 [128]
00000000: f644 573c 6004 123c 9d40 0c3c c98f 613c
00000010: b029 3b3c e083 763c 1478 453d 681f bd3c
00000020: 9a52 083d 7a75 a13c b2f2 f13b 9203 5c3c
00000030: d32f cd3a 3f52 723c 0806 7b3c 8f4e 033d
00000040: 036b 2e3d e0bd 933c 2335 c93c c947 8e3c
00000050: c776 063d 8c5c b23c aafa 883c 58f9 d33c
00000060: badb 56ba bd47 153c 6b07 253d a293 a13c
00000070: 6d18 a63c 8a6a 7e3c 90e8 0f3c 4633 ce3c
00000080: f85d 193d 8639 d23b fbb7 1c3d e93a 9b3c
00000090: 21b6 ad3c 6b66 aa3c 0baf 8b3c 2456 233c
000000a0: 832c bf3c 41f9 293c b938 253d 1692 443c
000000b0: 5900 9bba cf03 cf3b 385f b03c e1dd 223d
000000c0: bbd1 073d 49b5 8d3c 7e39 3e3d 7d64 1f3c
000000d0: 8855 5e3c eeac 9c3c 72d2 173d 8217 4e3b
000000e0: 02c3 e53c fe3a eb3c 7695 173d 1c90 5e3c
000000f0: a4dd 363d 3b88 33bc 97ff cc3c 653a ac3c
00000100: 334e 8a3c ebb7 fb3c 1daa da3c 11f1 db3c
00000110: 8058 b23c 0524 903c d233 cf3c e7e8 cf3c
00000120: 285a e33a cd44 a03c 282a 8e3c 2d03 ab3c
00000130: 1b39 fc3c c7b8 7dbc eeff 2b3b 1c7f fd3c
00000140: f7c3 8e3c b93c 303b 84bb 073d 9aa1 ab3c
00000150: fff2 5e3c 0f49 bd3c 46a8 f03c 730c 0b3d
00000160: 88c4 483b f383 cd3c 3b86 7a3b e618 e93c
00000170: dabb e63c 7d24 b53b c23b 493c 42a4 11bb
00000180: 41ea 2a3c 8bfe 483b 4d83 a53c 5896 29b9
00000190: e398 9f3c d39e 9c3c 948d 573a 5b04 b73c
000001a0: 8439 5d3c bcbe 233d 0aa2 e43c d382 513c
000001b0: 25ef f83c 1a06 943b d2ed 013d 7683 f23a
000001c0: 265f 573b f306 0a3d 0555 8f3c fc0d 823c
000001d0: 3721 ff3c 8351 383c 4fd2 df3c 3efc 14bc
000001e0: d726 b93c 893c d33c 623c 3c3d 72c6 853c
000001f0: 77c4 913c 91a3 d83c db00 593c 52d6 a23c
0.013139 0.008912176 0.008560327 0.013767191 0.011423513 0.01504609 0.04821022 0.023086265
0.0332819 0.019709338 0.007383668 0.013428586 0.0015654512 0.014790117 0.015321262 0.03205734
0.042582523 0.018034875 0.02456147 0.017368214 0.03282812 0.021772645 0.016721088 0.025875732
-0.0008196194 0.009111342 0.040290277 0.019723717 0.020275319 0.015528331 0.008783475 0.025170933
0.03744313 0.0064155487 0.038261395 0.018948989 0.02120501 0.02080079 0.01705124 0.009969268
0.023336655 0.010374368 0.040337298 0.01199772 -0.0011825665 0.0063175927 0.021529779 0.03976238
0.033159 0.017298358 0.046441548 0.009728548 0.013570197 0.019125428 0.03706593 0.0031447117
0.028047089 0.028714653 0.03700777 0.013584163 0.044644967 -0.010957773 0.025024218 0.021023938
0.016882991 0.030727347 0.026692444 0.026848348 0.021770716 0.0175953 0.025293265 0.025379611
0.0017345594 0.019564057 0.017354086 0.020875538 0.030788949 -0.015485949 0.0026245075 0.0309444
0.017427428 0.0026891662 0.033137813 0.020951081 0.0136077395 0.023106126 0.029377114 0.03394742
0.003063472 0.025087332 0.003822698 0.028454255 0.028165746 0.0055280314 0.012282314 -0.002222315
0.010431827 0.0030669298 0.02020421 -0.00016173103 0.019482082 0.019118702 0.0008222696 0.022340944
0.013502482 0.03997682 0.027909297 0.012787539 0.03038747 0.004517329 0.031720944 0.0018502313
0.003286311 0.033698034 0.017496595 0.015875809 0.031143768 0.011249903 0.027321963 -0.009093342
0.022601528 0.025785701 0.045956023 0.016329978 0.017793877 0.026445182 0.013244833 0.019877587

action_model._continuous_distribution.mu.weight f4 [1, 128]
00000000: 3141 79bd 74a2 88bd c1a4 803d e1cc 43bd
00000010: 4368 833d b534 ea3d 38bd c73d c7e0 88bd
00000020: f137 173e a40c bdbd 45a1 88bd 92bf 9c3d
00000030: 3eef 4dbd 5fcf 3c3d 3a63 b6bd 2df4 0cbe
00000040: a37c 1b3e 44b8 c03d 6444 ab3d c269 89bd
00000050: fa2a cabd 6dfd c53d 9450 6abd d99b 923d
00000060: 6ad7 2abd 382a 733d a379 fd3d 169a f5bc
00000070: 65bf b63d 9521 763d 4ad0 94bd a0d7 d93a
00000080: 7c64 183e 68b8 c0bb 87b1 293e 1f64 3c3d
00000090: 1d37 cabd 3adc 37bd d67f 84bd 7cd9 61bd
000000a0: b368 a13d dc33 063d d868 de3d fc29 853d
000000b0: ff28 0abd 9763 2cbd 6fed fabd 086c f53d
000000c0: 478a d43d a8f9 ad3d 756b c5bd d899 71bd
000000d0: 8dde e8bc b175 9f3d 4bfa a13d 79f8 27bd
000000e0: c5e2 afbd c430 1d3e 401f 04be 81bb 80bd
000000f0: b51e 173e d968 b23c 5a00 933d f36f a93d
00000100: dd44 e0bd 9b2b ba3d 6303 74bd cacb f6bd
00000110: f609 b5bc 59b5 6bbd 435a 973d bd68 f33d
00000120: f5ac eebc e082 d9bd 5cac b3bd 0c45 c53d
00000130: 6d62 cd3d d81b 71bc c03e 93bd ad9a 733d
00000140: 4e95 df3d 4b50 3e3c 86b6 9f3d 56e4 90bd
00000150: 1484 88bd 5989 373d fbab b8bd d869 c1bd
00000160: 5eaf 3bbd 92a3 ebbd db43 e7ba ad71 a63d
00000170: 1def d3bd 55e2 70bd d9d8 6b3d a1f8 d1bc
00000180: f66b 4f3d 6f83 cfbc a22f b5bd 69d1 23bd
00000190: 0d0d b43d ff41 8b3d 0335 1ebd cdd5 7fbd
000001a0: f0f5 833c 4773 10be d61e 183e d9d1 8fbd
000001b0: 3641 8e3d b4b2 3cbd 87ae b73d 235a b4bc
000001c0: c468 ffbc 8c50 ea3d 7c0e 85bd c866 7c3d
000001d0: ee68 ad3d 821e 4dbd d5c4 7c3d 2b41 333d
000001e0: 7305 9e3d 518e ae3d 331b 193e 2feb 993d
000001f0: 33fe 983d e008 8b3d 3d81 7fbd 923f bd3d
-0.060853187 -0.066716105 0.06281424 -0.04780281 0.06416371 0.11435834 0.097528875 -0.06683498
0.14767434 -0.09230927 -0.06671385 0.07653727 -0.050276987 0.046096202 -0.08905645 -0.1376502
0.15184264 0.09410146 0.08362654 -0.06709625 -0.098714784 0.09667478 -0.05720575 0.07158632
-0.04170934 0.059366435 0.12376716 -0.0299807 0.08923224 0.06009062 -0.072662905 0.0016620047
0.14882082 -0.005881358 0.16571628 0.04599392 -0.09873793 -0.04488776 -0.06469695 -0.05513905
0.07881298 0.0327643 0.10859841 0.065021485 -0.033730503 -0.042087164 -0.12252318 0.11983496
0.10377937 0.08494884 -0.096396364 -0.058984607 -0.028426433 0.0778612 0.07909068 -0.041008446
-0.08588175 0.15350634 -0.12902546 -0.062857635 0.14757808 0.02177851 0.071778014 0.08273306
-0.10950635 0.09090348 -0.059573542 -0.120505884 -0.022099476 -0.057545993 0.07390263 0.118852116
-0.029135207 -0.106206656 -0.08773109 0.0963231 0.10028539 -0.014716111 -0.07189703 0.059473682
0.109171495 0.011615823 0.077984855 -0.070748016 -0.06665817 0.04480872 -0.09017178 -0.09444016
-0.04582154 -0.11505808 -0.0017644124 0.08127151 -0.103483416 -0.058809597 0.05757985 -0.02563125
0.05064007 -0.025331227 -0.08846976 -0.03999463 0.08791552 0.06799697 -0.038624775 -0.062459756
0.016108483 -0.14106475 0.14855513 -0.07022447 0.06946032 -0.046068862 0.08968835 -0.022015637
-0.031177886 0.11441144 -0.06496903 0.061621457 0.084672794 -0.050077923 0.06171115 0.04376332
0.07715883 0.085232385 0.14951782 0.07515561 0.0747036 0.06788802 -0.06237911 0.09240641

exp_avg f4 [128, 111]
00000000: c447 3e3a c70c 5cba 55b6 0d39 0400 0080
00000010: 1ca0 d4b1 953a 78b5 a25e d53a 119f e33a
00000020: 99c6 f639 f0be 4b3a 7e03 3a3a 0400 0000
00000030: 249f 88b3 2730 7039 2606 0dba 303b 043a
00000040: 2c2f 97b8 3d68 1139 7d58 193a 0400 0080
00000050: b138 14b4 94c0 3a3a cc46 9539 9dec e13a
00000060: 2af6 90b8 0fbc 2d3a 1104 74ba 5a0b cb17
00000070: 88d5 b3b8 d174 8fb8 e03d 0c3b 52b7 c53a
00000080: 1e0a a53a d0a1 313a e70c e937 0400 0080
00000090: 468c 6d32 a61b 8239 e1e5 13ba 6545 7a3a
000000a0: 6139 c0b9 1166 373a ca4e baba 66f1 4398
000000b0: fb51 9439 4cb5 7039 4fc9 113b c671 073b
000000c0: 84f0 4239 884f 543a da0c 2539 0400 0000
000000d0: cfa4 5032 fd92 a839 9e38 3639 972b 853a
000000e0: cd1f 3bba 41f2 c2b9 76c4 14b9 f200 5498
000000f0: 535e 21b9 a0f4 80b9 d4b0 563b 9c6b 423b
00000100: b40d 6e3a 9fd7 a8b9 3ec9 7c38 0400 0000
00000110: b52f 5cb2 a806 78b9 be5d a23a 21ac 863a
00000120: 4ee3 c9b9 9c88 13ba 8644 6bb9 0400 0000
00000130: 428f b2b8 f742 78ba ea81 7c3b 30d2 263b
00000140: 58e0 c53a 5592 04ba 4bee 8638 0400 0000
00000150: 7201 06b4 bbc3 14ba ad73 963a 86e3 a73a
00000160: a36e 8dba 472e cc38 e9b1 aa39 0400 0000
00000170: 0298 2538 d424 05b9 68c5 1c3b 397a 003b
00000180: 9829 b339 08f7 98b9 39d2 6d36 0400 0000
00000190: ff79 4a33 1cf2 a637 c772 ce3a 8b80 ce3a
000001a0: eba7 9439 b578 beb9 44ae 95ba ffdb 893b
000001b0: 2176 5638 e866 a6ba 4610 4637 4f5c c437
000001c0: 1c74 fbb6 7ca0 9437 0400 0080 be71 c230
000001d0: ab74 59b3 0da1 a8b9 dae6 97b9 a1d0 35b9
000001e0: 71b5 8038 ebb4 4eb8 0400 0080 f743 bd30
000001f0: 2c02 a0b7 9cd0 e1b8 5f07 82b9 4560 3bb9
00000200: 7b15 84b8 0abd fdb7 0400 0000 0f1a 07b0
00000210: 6076 9c32 a36b 87b7 1b44 49b9 444a d238
00000220: 0c58 48b7 b309 5e38 2c1c 8295 c1d4 7a36
00000230: 3e8c 8cb6 2ada e0b9 405c acb9 35f6 6fb9
00000240: 87a4 ceb8 4a47 4fb6 0400 0000 fb93 532f
00000250: 47ae 33b6 ad23 3d38 bcc9 01b9 8f85 fd37
00000260: 25ec 51b8 5573 a537 e675 2016 a5fe 84b7
00000270: 9a4f 2fb7 4b2d 89b9 9337 99b9 df8b 27b9
00000280: 39a1 2db9 68b8 90b6 0400 0080 577b 10b0
00000290: ef4e 22b6 93c3 3838 ccfa d2b8 2f69 4838
000002a0: e3dd a438 7510 1c37 8116 8215 e699 f6b4
000002b0: f69d fd36 9ae3 e1b9 bc68 d4b9 b99b fcb8
000002c0: c4aa d7b7 24b7 48b6 0400 0080 367a dd2e
000002d0: 8b50 dd35 ed5f 13b9 ae91 1cb9 32b6 2d38
000002e0: 21f5 8a38 af28 63b5 0400 0080 82b3 1ab5
000002f0: 9ea2 6736 108a d0b9 416b c5b9 0350 46b9
00000300: 1df6 8d38 3f02 a433 0400 0080 c219 cbb0
00000310: 42b8 1037 01d6 37b9 f31d 69b9 774c d338
00000320: b744 6b38 fc84 8eb7 0400 0080 787a 12b6
00000330: a194 a336 6cc2 e1b9 3a51 d0b9 198e 75b8
00000340: 75af af38 7538 8d36 0400 0080 6f83 ab30
00000350: 21a6 3a35 24d2 a6b9 bf41 a0b9 73f9 ea38
00000360: c2b1 1d39 6bdc 59b8 0072 dfb9 8abc 32b7
00000370: a3df feb8 3ba2 6fb7 f967 9438 7d82 33b7
00000380: f4ba 5b37 0400 0000 2b27 d7b0 bf1c 4bb6
00000390: 86da 9ab7 943a a338 a55f 0f36 4a0c 2b38
000003a0: b017 d536 0400 0000 e924 23b0 0003 afb6
000003b0: d1c8 ff36 569b e537 f6d7 99b8 4b6a f5b7
000003c0: f91a b5b6 0400 0000 df8c 2ab1 7fcc f135
000003d0: 818e 2539 fe2f f038 d131 8f36 e2ee ac37
000003e0: 2454 5838 bad2 aa15 a862 8836 f7a0 23b8
000003f0: 7d80 2a37 7ae5 9535 394d ebb7 7778 fdb7
0.0007258619 -0.0008394238 0.00013514732 -6e-45 -6.1882144e-09 -9.247245e-07 0.0016278813 0.0017366131
0.00047068743 0.00077722874 0.0007095857 6e-45 -6.361941e-08 0.00022906122 -0.00053796393 0.000504422
-7.2090275e-05 0.0001386711 0.00058496726 -6e-45 -1.3804198e-07 0.0007124033 0.00028472242 0.0017236654
-6.912307e-05 0.0006627449 -0.0009308467 1.3121433e-24 -8.5751584e-05 -6.84053e-05 0.0021399185 0.0015084541
0.0012591516 0.0006776126 2.7781773e-05 -6e-45 1.382711e-08 0.00024816132 -0.00056418596 0.0009547084
-0.00036663844 0.0006996105 -0.0014214155 -2.5325034e-24 0.0002828984 0.00022955722 0.0022245233 0.002066718
0.00018590881 0.0008099009 0.00015740414 6e-45 1.2144667e-08 0.00032152972 0.00017377964 0.0010160086
-0.00071382226 -0.00037183057 -0.00014187567 -2.7400835e-24 -0.00015389295 -0.00024596322 0.0032759206 0.002966619
0.00090810214 -0.00032204107 6.0268903e-05 6e-45 -1.2816533e-08 -0.00023653603 0.0012387556 0.0010274687
-0.00038507063 -0.00056279614 -0.00022436873 6e-45 -8.514385e-05 -0.0009470428 0.0038529583 0.0025454871
0.0015096767 -0.00050572056 6.4340034e-05 6e-45 -1.2480248e-07 -0.0005674918 0.0011478566 0.0012808896
-0.0010790419 9.736098e-05 0.0003255748 6e-45 3.9480634e-05 -0.00012697588 0.0023921374 0.00196041
0.0003417253 -0.00029175752 3.5438118e-06 6e-45 4.7142745e-08 1.9901483e-05 0.0015750759 0.0015754862
0.00028353868 -0.00036329558 -0.0011419733 0.004207134 5.1131592e-05 -0.0012695463 1.1805509e-05 2.3408005e-05
-7.4939e-06 1.7717706e-05 -6e-45 1.4147685e-09 -5.063036e-08 -0.0003216345 -0.00028972962 -0.00017339225
6.137312e-05 -4.928272e-05 -6e-45 1.3770877e-09 -1.9074498e-05 -0.000107676926 -0.00024801024 -0.00017869573
-6.2982515e-05 -3.0247978e-05 6e-45 -4.9149745e-10 1.8214621e-08 -1.6143376e-05 -0.00019194225 0.000100274134
-1.1941429e-05 5.2937958e-05 -5.255103e-26 3.7376742e-06 -4.1886515e-06 -0.00042887154 -0.00032875128 -0.00022884535
-9.853491e-05 -3.08869e-06 6e-45 1.9242911e-10 -2.6774521e-06 4.5094337e-05 -0.0001237755 3.0222143e-05
-5.004941e-05 1.9723238e-05 1.2961899e-25 -1.5854204e-05 -1.04493465e-05 -0.00026164422 -0.0002922384 -0.00015978467
-0.00016558626 -4.313002e-06 -6e-45 -5.256217e-10 -2.4185827e-06 4.405116e-05 -0.00010060295 4.7781676e-05
7.861459e-05 9.302156e-06 5.2542087e-26 -4.5933047e-07 7.5583766e-06 -0.0004308492 -0.00040513824 -0.00012045302
-2.5709516e-05 -2.9908924e-06 -6e-45 1.00716255e-10 1.6489224e-06 -0.00014054748 -0.00014931589 4.1416097e-05
6.6260116e-05 -8.462329e-07 -6e-45 -5.763069e-07 3.4516338e-06 -0.00039775716 -0.00037654678 -0.00018912558
6.769246e-05 7.637254e-08 -6e-45 -1.4777515e-09 8.62597e-06 -0.00017531963 -0.00022231769 0.00010075507
5.609236e-05 -1.6989645e-05 -6e-45 -2.1826982e-06 4.8750812e-06 -0.000430602 -0.0003973337 -5.854489e-05
8.377332e-05 4.2087e-06 -6e-45 1.2479243e-09 6.953215e-07 -0.00031818554 -0.00030566563 0.00011204453
0.00015038907 -5.1942112e-05 -0.0004261881 -1.0653524e-05 -0.000121533194 -1.4283282e-05 7.076556e-05 -1.0699613e-05
1.3096946e-05 6e-45 -1.5654441e-09 -3.026609e-06 -1.8459988e-05 7.783357e-05 2.1364333e-06 4.0781022e-05
6.3506523e-06 6e-45 -5.9351507e-10 -5.2157557e-06 7.6229703e-06 2.7371261e-05 -7.3358344e-05 -2.9255772e-05
-5.3973604e-06 6e-45 -2.4818332e-09 1.8015415e-06 0.00015788713 0.00011453031 4.2675315e-06 2.0615236e-05
5.1576775e-05 6.899492e-26 4.064601e-06 -3.901214e-05 1.0162706e-05 1.1168152e-06 -2.8050143e-05 -3.0216046e-05

exp_avg_sq f4 [128, 111]
00000000: d854 6b39 a532 b937 3014 8c35 7cca 6f2d
00000010: 9a60 a535 dd6f 3e37 8221 f838 d1c8 9339
00000020: 2d89 5439 46a7 a437 a086 c036 db2b aa2c
00000030: af00 fc35 3f04 3f36 6f49 1339 20ed a239
00000040: a584 2439 ff62 9137 5b27 3b36 abba fb2b
00000050: 8aac 4b35 4786 e637 6a45 2f39 9410 9139
00000060: 0556 1c39 711a 9037 abfe a737 a85d dc30
00000070: 8ff5 df33 11e5 7135 fd07 3d39 aef6 9439
00000080: 6430 1b39 60f8 9937 1057 cc34 2ac4 2a29
00000090: dfeb 0435 1568 6238 f859 1d39 17eb 7939
000000a0: c543 1739 732a 8937 871e a937 86b1 6031
000000b0: b59d f634 8238 3536 5f8a 4639 1c0c 8739
000000c0: 2939 1a39 bf1e 8137 2083 8133 84bd 192b
000000d0: 91d9 3535 2d73 5b38 2e07 2839 d8f6 7639
000000e0: 26cc 0d39 5774 2d37 3334 ae37 77b0 c130
000000f0: 4c45 5836 5c41 8e37 ebb6 4739 e186 8839
00000100: 6bba e838 7309 6b37 1ddc 2233 0ecc 012a
00000110: 58fb be35 670c 1c38 b57d 6e39 d036 9539
00000120: 8c41 0239 ef38 0e37 5fa4 9237 455b 8b2f
00000130: 6eda 0f36 e554 8637 a8ef 6f39 c0a3 9539
00000140: 5eb0 c038 bd2c 2f37 380b 0f33 72f9 002a
00000150: 9c10 a235 a383 7937 51f5 9c39 f63f b139
00000160: 6357 f338 2a49 b636 8b79 3137 af36 b82f
00000170: 1720 9435 8ed5 8937 4bed 8539 6306 a439
00000180: 7d14 a938 18bd 2137 8c05 ef32 333a ca2d
00000190: 2f52 ba35 5cb6 6f37 f8b7 a839 618b b939
000001a0: 1f8d c538 ed14 e536 1ff2 ed38 ae5f cd39
000001b0: 57d6 6c35 8271 873c 6e4e 0b37 67f5 1534
000001c0: d0f7 b533 00c7 6a30 9a4f 072a e6ce e92d
000001d0: e5c9 7b30 bcc6 0e35 7234 5035 2033 a933
000001e0: cf4b b933 c289 0832 846b 3f29 b53e 272d
000001f0: 9298 c130 739c 2035 1647 5635 dbf3 1734
00000200: 4448 8f33 6e42 cc31 8de3 142a 3a3b 0b2d
00000210: 05e9 e331 58af 0d35 314f 3c35 4bf3 a833
00000220: 092d a133 73e8 8632 da44 e02b b7f2 b92e
00000230: ae43 8e30 376f 1f35 80d1 4935 268f f634
00000240: 790a 6d33 51bc 8430 a15e 3227 e29b ca2d
00000250: 1002 0332 e4b0 6c34 539c df34 2ec0 bf33
00000260: 3158 4c33 632b 9532 6b8b 9f2c 27f5 0830
00000270: fa9f 9030 ab8f 2e35 291e 4a35 063b d534
00000280: 342d b033 d34f 062f 45a6 3027 d71f 252e
00000290: 6dab d231 df7b 9234 fd25 e734 cd2a 7d33
000002a0: 7ef3 fb32 6331 2a31 790c d22a 99f8 e32d
000002b0: ab0e 0131 9aa9 5435 222f 6635 e4ad 3234
000002c0: 3374 8f33 cdfa 962e ba48 8a24 f044 802d
000002d0: b53e 9330 fe4e 1b35 64fb 3035 6e49 1f33
000002e0: 9add a732 f97c fc30 7312 5129 cb63 f62d
000002f0: d513 b631 13b9 6935 1e5e 7535 acc2 a333
00000300: 7ffd 3133 c378 822e acb5 5624 787d 3c2e
00000310: d15c a12f f498 4835 b4e1 5535 893a 0c33
00000320: c669 a132 6ca6 3e31 c1c4 0c2a a2d9 eb2e
00000330: 3192 c92f 34d1 7335 9969 7935 97b9 ff32
00000340: 683d c532 d40b b52d d1f0 a329 82ea a32d
00000350: 1847 792f 55a8 6d35 6997 7435 f464 5835
00000360: c662 4c33 1dcc 3135 22b6 fc35 9fbc 7e32
00000370: c8cc 2936 eb6d ae32 5f9a 4235 d5e4 d033
00000380: 056b 7b30 7e40 1629 197e 5032 c036 9b31
00000390: 0435 3c34 6aee 0735 7710 2e35 fca1 4c33
000003a0: 9278 0d32 3d04 a628 6105 7532 4764 d530
000003b0: 58f4 a534 ac66 4435 b38d 3a35 5fdc 9d33
000003c0: 5f4d b931 3cc3 cb28 49fb f731 4b02 d232
000003d0: 5493 5b34 7b6d de34 5d82 1635 bbdf 3233
000003e0: 8c5c f232 22fe 222e 348c 9230 c5de b131
000003f0: e1b7 cb34 569f 1635 20b7 5e35 109d 8133
0.00022442953 2.2077302e-05 1.0436688e-06 1.3630538e-11 1.2321573e-06 1.1350928e-05 0.00011831803 0.00028187645
0.00020268997 1.9628216e-05 5.7377183e-06 4.8365595e-12 1.8775662e-06 2.846369e-06 0.00014046369 0.0003107572
0.00015689673 1.7331446e-05 2.788808e-06 1.7886433e-12 7.587447e-07 2.7480664e-05 0.0001671516 0.00027668907
0.00014909364 1.717845e-05 2.002654e-05 1.6033725e-09 1.04289136e-07 9.011283e-07 0.0001802742 0.0002841255
0.00014799979 1.835468e-05 3.8061307e-07 3.7917728e-14 4.951707e-07 5.3979533e-05 0.00015006203 0.00023834068
0.00014425728 1.635144e-05 2.0160585e-05 3.26972e-09 4.5935818e-07 2.7003994e-06 0.00018934299 0.0002575823
0.00014707878 1.5392316e-05 6.030882e-08 5.4619525e-13 6.7744355e-07 5.2320935e-05 0.00016024403 0.00023552345
0.00013522859 1.0338691e-05 2.0766724e-05 1.4092753e-09 3.2226844e-06 1.6958154e-05 0.00019046261 0.00026040434
0.00011097345 1.4009292e-05 3.7918756e-08 1.1528297e-13 1.4229254e-06 3.720485e-05 0.00022744278 0.00028460333
0.00012422184 8.477115e-06 1.7481098e-05 2.5348804e-10 2.1435803e-06 1.6013577e-05 0.00022882095 0.00028541498
9.1881244e-05 1.0441229e-05 3.3304985e-08 1.1455228e-13 1.2074775e-06 1.4872206e-05 0.00029937414 0.00033807725
0.0001160342 5.43254e-06 1.0578321e-05 3.350826e-10 1.1036199e-06 1.6431117e-05 0.00025544534 0.00031285276
8.062364e-05 9.640375e-06 2.7825784e-08 2.2990587e-11 1.3881998e-06 1.4287969e-05 0.00032180524 0.00035389795
9.419978e-05 6.827168e-06 0.00011346139 0.00039171934 8.8228757e-07 0.016533617 8.3033065e-06 1.3965983e-07
8.473546e-08 8.54115e-10 1.2018026e-13 2.6580915e-11 9.160018e-10 5.318832e-07 7.7562356e-07 7.878975e-08
8.628523e-08 7.947564e-09 4.2503774e-14 9.506775e-12 1.4085961e-09 5.983231e-07 7.9824656e-07 1.4151685e-07
6.6721014e-08 5.9447336e-09 1.3223988e-13 7.914386e-12 6.6330608e-09 5.278175e-07 7.0150696e-07 7.8673644e-08
7.5053386e-08 1.5705359e-08 1.5935267e-12 8.455941e-11 1.0351096e-09 5.9393955e-07 7.51832e-07 4.5925225e-07
5.5190387e-08 9.657787e-10 2.475376e-15 2.3033967e-11 7.6256725e-09 2.2043565e-07 4.1650728e-07 8.929088e-08
4.757766e-08 1.7365613e-08 4.5345303e-12 4.9824894e-10 1.0522847e-09 6.5029116e-07 7.529475e-07 3.9717287e-07
8.203861e-08 1.2215588e-10 2.4515041e-15 3.7544936e-11 6.1312933e-09 2.7284747e-07 4.3054743e-07 5.894508e-08
2.9330973e-08 2.476633e-09 3.7312148e-13 2.5917312e-11 1.8780308e-09 7.9222957e-07 8.5750264e-07 1.6640803e-07
6.680093e-08 6.8657614e-11 5.9971164e-17 1.458253e-11 1.071348e-09 5.785695e-07 6.593093e-07 3.7086856e-08
1.9542131e-08 1.8370933e-09 4.6423325e-14 2.8011279e-11 5.299152e-09 8.706858e-07 9.140657e-07 7.6256896e-08
4.1441577e-08 5.933167e-11 4.6557735e-17 4.285769e-11 2.935168e-10 7.472838e-07 7.9677125e-07 3.2649528e-08
1.8790967e-08 2.7743239e-09 1.250276e-13 1.0725222e-10 3.6665562e-10 9.0828985e-07 9.2913393e-07 2.9770304e-08
2.2961743e-08 2.058257e-11 7.280429e-14 1.8635097e-11 2.2671676e-10 8.8534335e-07 9.1117414e-07 8.0613177e-07
4.7587285e-08 6.623466e-07 1.8828471e-06 1.4827633e-08 2.530216e-06 2.0306251e-08 7.249527e-07 9.727379e-08
9.146535e-10 3.336263e-14 1.2135865e-08 4.517318e-09 1.7528151e-07 5.0638357e-07 6.484401e-07 4.7644775e-08
8.234695e-09 1.843154e-14 1.42621e-08 1.552629e-09 3.0911428e-07 7.3165097e-07 6.94966e-07 7.3509675e-08
5.3930047e-09 2.2622197e-14 7.217214e-09 2.444826e-08 2.0449562e-07 4.143038e-07 5.606906e-07 4.1647336e-08
2.8214593e-08 3.706025e-11 1.0662746e-09 5.176704e-09 3.7945486e-07 5.611122e-07 8.2967927e-07 6.0356e-08

exp_avg f4 [128]
00000000: ad13 d83a ad05 97b9 4dbd 5838 1a64 2fbb
00000010: 0bca 67bb ccd2 81b9 5667 97b9 7229 c2ba
00000020: 13a7 eb3a 51c1 213b 187c cfba abe1 113b
00000030: 9964 bdb8 30f1 103b 3c0b dcba 49ce 9c3a
00000040: 2677 0fbb 6da9 b93a 86cf 073b 2e65 44bb
00000050: a4ad 47bb 869c a4ba 0355 1f3b 4d6d 913a
00000060: 94ae 9eb8 35bb 7cb8 8282 3e3b 3220 c13a
00000070: d226 963a 0de9 abba ded3 07ba 16a9 0d3b
00000080: b7e1 eeba 23fd 08bb 12d3 b33a f264 edba
00000090: 5ae4 afba 637c 4e3b d261 6a39 2a97 a1b9
000000a0: cd76 3abb 5a88 32ba 75db f63a 6195 453a
000000b0: 7b75 24ba 89b6 27ba d24f 7d3b 6811 143b
000000c0: 76bd d038 c148 94ba 21f1 2c3b aabe 11bb
000000d0: 060e 9f3a 04bf 5bba 05df f6ba da39 05bb
000000e0: 45f5 df38 5b08 9639 ade4 233a 30b4 0d38
000000f0: fab1 98ba d5c7 e3b9 a240 3839 8b66 deb9
00000100: ef41 0639 d81b 06bb 9752 3e3a 9c69 593b
00000110: d500 c6ba e62e 12b8 1204 e739 3985 05bb
00000120: b3cd 9639 5fdc e4ba bcc7 c2b9 bf16 0539
00000130: 42cc d4b8 f820 dcba 3d62 a2ba 2f5f 9c3a
00000140: 8c4b 42b8 91dc 4f39 cdc2 02ba 9e19 8aba
00000150: 9d45 8f3a ce63 45b9 9539 bbba a0fd a5ba
00000160: 7ac7 34bb 83bf 9639 0fa0 8739 9020 a2ba
00000170: a274 303a d30c aaba 0722 133b a152 0a3b
00000180: 9c50 55bb 718c 263a f789 433b 6392 f039
00000190: b395 f63a 43d9 6dba 6c10 9739 1be9 b2b7
000001a0: d8d1 01ba fd8d 86ba 1251 dc38 0728 a0b9
000001b0: a1e2 62ba 2180 7d38 692f 90bb 1f4c 06bb
000001c0: 5fec 0238 3b83 8039 edbf b13a f194 98ba
000001d0: b66f 15bb 5f3b 5abb 3020 bdba 8f0f 85bb
000001e0: 14aa ac39 bbda 5d39 0269 cf37 7d57 643a
000001f0: 13ae 0dbb 38dd 8db9 f308 76ba 6769 e2b9
0.0016485356 -0.00028805193 5.1674713e-05 -0.0026762546 -0.003536823 -0.00024761853 -0.00028877956 -0.0014813377
0.0017978869 0.0024681876 -0.001582983 0.0022259753 -9.03096e-05 0.0022116415 -0.0016788016 0.0011963333
-0.0021891086 0.0014164873 0.002072306 -0.0029967534 -0.0030468488 -0.0012558855 0.0024312146 0.0011095196
-7.566545e-05 -6.0255832e-05 0.0029069488 0.0014734326 0.0011455661 -0.0013115719 -0.0005181412 0.0021615676
-0.0018225227 -0.0020902834 0.001371952 -0.0018111749 -0.0013419494 0.0031507246 0.0002235242 -0.0003082094
-0.0028452158 -0.0006810479 0.0018833714 0.0007537213 -0.00062736095 -0.00063977443 0.0038652313 0.0022593383
9.953503e-05 -0.0011313186 0.0026388841 -0.0022238889 0.0012134917 -0.00083826506 -0.0018834776 -0.0020328672
0.00010679154 0.00028616455 0.0006252032 3.3784832e-05 -0.0011649721 -0.000434457 0.00017571685 -0.0004241954
0.00012803798 -0.0020463374 0.00072602317 0.003317452 -0.0015106449 -3.485279e-05 0.00044062786 -0.0020373596
0.00028763487 -0.0017460695 -0.00037151377 0.00012692342 -0.00010146994 -0.0016794493 -0.0012388896 0.0011930222
-4.6323563e-05 0.00019823226 -0.0004988134 -0.0010536199 0.001093078 -0.00018824564 -0.0014284129 -0.0012664087
-0.0027584718 0.00028752917 0.0002586846 -0.0012369324 0.0006731247 -0.0012973793 0.0022450702 0.002110638
-0.0032549268 0.0006353325 0.0029836872 0.00045885434 0.0018812924 -0.0009073207 0.000288132 -2.1327802e-05
-0.00049522286 -0.0010265704 0.00010505518 -0.000305474 -0.0008654986 6.043923e-05 -0.004400183 -0.002049215
3.1214553e-05 0.00024511837 0.0013561227 -0.0011641068 -0.002280218 -0.0033299548 -0.0014429148 -0.0040606926
0.00032933115 0.00021157686 2.4725221e-05 0.00087105465 -0.002161865 -0.00027058437 -0.0009385489 -0.0004318461

exp_avg_sq f4 [128]
00000000: 5c23 113a ea99 8c35 53d3 a335 f24e ab39
00000010: 5af0 103a b22f 5136 b676 6c36 181e 8438
00000020: 090b 6a39 4444 ac39 629d b138 34b0 2c39
00000030: a743 3738 b4de 7639 9447 3539 038a aa39
00000040: 0d80 ce38 b306 b839 7e46 b239 794d d739
00000050: fe9b 183a e3ce fb38 a254 553a 6e62 b738
00000060: d483 3d37 1b95 0a36 1b1e 4a3a da66 0839
00000070: 233a b137 23be a139 7f22 1939 2186 2c39
00000080: 6c16 3d39 318c 7239 7611 e538 f6c6 3539
00000090: 39e1 6c38 910b 913a 3f37 9b38 56f0 2f37
000000a0: 0cdb cc39 aef8 0338 81c1 093a 0b4e 9d37
000000b0: 7b5c 9338 7ea8 c436 df1d 8b39 c269 0639
000000c0: 5a88 8c35 aa8a 5537 eb98 9739 cae3 5f39
000000d0: 954c ce38 4892 0939 0b37 e938 f9b4 0639
000000e0: cc9f 5335 6d54 c437 7c11 e738 be2e 4d35
000000f0: c015 2238 1049 f737 4ceb 3f37 3276 6538
00000100: 8a7a 4836 21b0 5239 12d4 003a 0d19 2939
00000110: db63 4a39 53ea a834 e1b3 2337 a008 8339
00000120: 88d7 2338 df52 af38 6e36 d137 5faf e938
00000130: 6f5b a236 544b 5139 44d0 a939 cae7 9a39
00000140: 3e29 9634 c22d c238 0da3 f836 0c5d 2d38
00000150: 1c21 5e38 e548 2635 fa17 093a 9a9d 6f38
00000160: 8226 c039 d359 003a 363c 2336 c2f3 0a38
00000170: bdd9 c237 6d9f 3238 18fa 183a 264b ee38
00000180: 80f5 b939 38df 2538 89b0 c939 e895 1939
00000190: 0cac ef39 672e ba37 e08d 1939 c535 1437
000001a0: 6630 4f36 74fc 9238 8b70 0335 ca1f 1537
000001b0: 77f9 4a38 7af9 2735 69a0 6c3a 3654 b638
000001c0: c8e1 e135 f5e6 2636 6268 3839 90dd ca38
000001d0: 2a7f 243a ae6e c639 0e19 8e38 9867 943a
000001e0: 877c 4038 2aee 8337 ab9e 6a36 126c 9139
000001f0: ac85 8b39 d1a8 1c36 d2bc cc37 5be7 0c37
0.000553658 1.0475608e-06 1.220595e-06 0.0003267448 0.0005528979 3.117119e-06 3.523584e-06 6.299856e-05
0.0002232009 0.00032857258 8.4693325e-05 0.00016468839 4.3693606e-05 0.00023543352 0.0001728817 0.00032527754
9.846697e-05 0.00035100206 0.00034003326 0.00041065717 0.00058215845 0.00012007148 0.00081379164 8.744454e-05
1.12959715e-05 2.0650393e-06 0.00077101745 0.00013008286 2.1127116e-05 0.00030849976 0.00014604068 0.00016453165
0.00018032797 0.00023131144 0.00010922823 0.00017335624 5.647654e-05 0.0011066069 7.401266e-05 1.048677e-05
0.00039073115 3.1464435e-05 0.00052549696 1.87522e-05 7.026732e-05 5.8608703e-06 0.00026534402 0.00012818634
1.0470496e-06 1.2728075e-05 0.00028914897 0.00021351795 9.83711e-05 0.00013119832 0.00011120558 0.00012846653
7.883616e-07 2.3404335e-05 0.00011018195 7.643647e-07 3.8644066e-05 2.9478717e-05 1.14392715e-05 5.4707933e-05
2.987365e-06 0.00020092774 0.00049144134 0.00016126428 0.0001930142 3.1462932e-07 9.757438e-06 0.00024992693
3.9062958e-05 8.360086e-05 2.4940087e-05 0.00011142971 4.8386205e-06 0.00019959855 0.00032389362 0.00029545865
2.7969685e-07 9.259164e-05 7.4099576e-06 4.133307e-05 5.295976e-05 6.1945894e-07 0.0005229708 5.712882e-05
0.00036649784 0.00048961974 2.432394e-06 3.312878e-05 2.3227994e-05 4.2586984e-05 0.0005835607 0.00011362722
0.00035468861 3.9546954e-05 0.00038469236 0.00014647061 0.00045713817 2.2194536e-05 0.0001464407 8.834007e-06
3.0873575e-06 7.0088456e-05 4.8965074e-07 8.8884935e-06 4.8392885e-05 6.2575384e-07 0.00090265885 8.694122e-05
1.6829517e-06 2.4870362e-06 0.00017586493 9.67338e-05 0.00062750524 0.00037847966 6.7757544e-05 0.0011322377
4.5892342e-05 1.572732e-05 3.4961074e-06 0.00027737074 0.0002661174 2.3344076e-06 2.4406621e-05 8.398517e-06

exp_avg f4 [128, 128]
00000000: 9b0e 7d38 59c8 d637 87ad 8638 2415 8eb8
00000010: 55dd b4b8 e7e8 38b9 6424 dab8 243d d8b8
00000020: 270d 6bb7 8fab 01b8 8836 1334 fd32 dcb7
00000030: 73ce f238 1373 eeb8 14b5 3ab9 e2ac 4838
00000040: 9daa 23b9 c506 81b6 740a b3b7 3cdd 87b9
00000050: a69a 5fb9 8e2a 13b8 3d2f 8b38 b49d 9638
00000060: 42e1 bf37 56e9 81b8 d18f 0f35 02ed ed37
00000070: 8c0f 89b9 1764 9db7 0a22 03b8 27ef 7fb8
00000080: 9891 48b9 24d3 00b9 69e6 d0b8 ea96 2db9
00000090: 2c4e fcb8 f7d9 adb5 4fbf 6cb8 e79e 3538
000000a0: 2f2b 0cb9 3f0a a4b6 dbb2 9738 5d2f afb6
000000b0: 8bee ebb7 2d16 f237 5c5f e8b8 ec2a aeb6
000000c0: aebb 1239 6d4f a537 8c67 5db8 3315 bcb8
000000d0: f6d0 1338 3efb a436 608f 5cb7 60bb 2db8
000000e0: 5845 0d39 1226 bd38 316f 2a38 2670 2738
000000f0: db11 bbb8 d275 ae37 149b d238 5c9b 3138
00000100: 3743 7b38 be0d 04b9 9a50 0839 1905 3db8
00000110: fe9e ea37 9b07 66b7 44ca da37 4ead 9036
00000120: 6bf1 3336 ea77 53b9 a111 0338 01aa 28b8
00000130: b05e 8e38 1da2 9bb7 a6aa 9238 c95b 9c37
00000140: 3d7e 8638 a585 bb38 5824 a937 b9d8 89b7
00000150: 1b50 69b8 cafe 4337 d6b5 c5b7 9e42 62b9
00000160: 9e41 90b8 71cf e138 8bf8 dd37 f292 96b6
00000170: e120 39b7 676c 5ab9 0eba e1b8 4637 f6b8
00000180: d71f 00b9 04f0 bab7 77d2 0fb9 65ab 9638
00000190: 5db1 3a38 ee6c e8b8 fe85 0739 051e dcb8
000001a0: 65e6 72b9 05f1 f437 78e6 3538 95fb c036
000001b0: 7a52 a137 5dc0 d938 757b 3fb8 f043 40b9
000001c0: ec42 1e37 7e28 9538 e33e 27b9 41aa e4b8
000001d0: db0c c6b8 08f5 89b8 3315 3cb7 a792 16b9
000001e0: 4450 55b8 5efc 8538 40da 2837 07fc ad37
000001f0: 5fd2 65b7 4f11 68b8 56af eab9 1b3e 8f37
00000200: 47a0 93b8 bdaf 40b8 4bbc 0e39 4524 39b9
00000210: bd5d 2bb9 bd09 c8b9 9c81 18b9 0be1 7bb9
00000220: be31 9fb7 26c4 cdb8 5a72 3ab8 3e01 f5b8
00000230: 119b e638 4413 5fb9 edef 8bb9 f677 4238
00000240: 2e5e a7b9 f40e 90b8 1409 81b8 96f1 1cba
00000250: 0f02 b6b9 1d9b 87b8 7f33 62b7 4901 1ab8
00000260: af40 7438 08f7 16b9 b142 b5b8 9f1c b5b7
00000270: b2c8 f3b9 a5db 0bb8 065e f6b7 d0e1 08b9
00000280: d174 f3b9 5414 85b9 1230 4bb9 b1c9 aeb9
00000290: 0997 bcb9 25b0 78b8 50c4 4db9 1b27 42b8
000002a0: 63ed c3b9 8e08 b8b8 36b3 57b6 81f7 b6b7
000002b0: 4664 11b9 4d31 7838 57f5 86b9 d22f 55b9
000002c0: 2cbb 1639 0cf8 2138 436a 91b8 25ff d2b8
000002d0: 2d26 51b9 44d9 01b8 fde5 b3b8 fec0 00b9
000002e0: 344e 1c39 4bea 1d39 daa1 9838 20f1 dd38
000002f0: 7845 7eb9 32b2 6e38 2432 fb38 ad20 4d38
00000300: e360 1939 3dbb 69b9 ba2f 0439 9ffe 16b9
00000310: 0526 1fb8 3234 ceb4 15d0 f836 6eef 55b8
00000320: 2850 11b9 fef4 d3b9 b0d0 a838 6551 0f38
00000330: 00a8 e338 75e4 c5b8 338b 0138 21bb 9bb8
00000340: 6606 fd38 5126 3139 16b0 c438 a420 5fb7
00000350: 80a9 a0b9 5a16 c1b8 0903 7337 8244 00ba
00000360: e5d0 38b9 008e 1e39 75fc 6338 9445 d0b7
00000370: 4b93 57b8 952f a9b9 2cb9 5fb9 3fd3 c3b9
00000380: 022d 81b9 158b 94b8 7893 99b9 2026 a138
00000390: c8d3 9cb7 a092 93b9 14e5 9837 741d 75b9
000003a0: c436 c4b9 e578 9237 314a a538 bd93 5b38
000003b0: 0de7 c237 bf71 fe38 661f 25b8 c8ac d4b9
000003c0: eb5f 2c38 a591 fa38 1514 d0b9 0e4d 4eb9
000003d0: 946e 21b9 e319 15b9 c6d2 7bb8 9f57 a0b9
000003e0: 345a 09b8 d9b4 c3b7 d971 1938 5253 5838
000003f0: bf69 2cb8 5f72 d9b8 ce9a 4eba 29c3 8037
6.0333503e-05 2.5604082e-05 6.42194e-05 -6.7750254e-05 -8.624295e-05 -0.0001763437 -0.00010401828 -0.00010311071
-1.4010154e-05 -3.0915773e-05 1.371028e-07 -2.6249787e-05 0.000115779134 -0.000113701586 -0.00017805799 4.7844725e-05
-0.0001560845 -3.8452877e-06 -2.134333e-05 -0.0002591404 -0.00021324548 -3.5087163e-05 6.636835e-05 7.181932e-05
2.2873868e-05 -6.1946615e-05 5.348093e-07 2.8362967e-05 -0.0002614226 -1.8762466e-05 -3.1264535e-05 -6.1019466e-05
-0.00019127724 -0.00012285687 -9.96113e-05 -0.00016554786 -0.00012030857 -1.295294e-06 -5.6444955e-05 4.3301752e-05
-0.00013367528 -4.8887737e-06 7.2335555e-05 -5.2209202e-06 -2.8125263e-05 2.8858974e-05 -0.00011080384 -5.190601e-06
0.00013993561 1.9706518e-05 -5.278694e-05 -8.968487e-05 3.524214e-05 4.9168293e-06 -1.3146404e-05 -4.142092e-05
0.0001347264 9.0193134e-05 4.0634714e-05 3.992035e-05 -8.920181e-05 2.079728e-05 0.00010042466 4.234478e-05
5.9905662e-05 -0.0001259362 0.00012999997 -4.506586e-05 2.796901e-05 -1.3710839e-05 2.6081812e-05 4.3117097e-06
2.6813602e-06 -0.000201672 3.1249252e-05 -4.021265e-05 6.7887246e-05 -1.855293e-05 6.993608e-05 1.863939e-05
6.4131316e-05 8.941748e-05 2.0163294e-05 -1.6432592e-05 -5.5626133e-05 1.1682228e-05 -2.3568904e-05 -0.00021577856
-6.878677e-05 0.00010767475 2.646099e-05 -4.487455e-06 -1.10345145e-05 -0.00020830483 -0.000107634914 -0.000117404896
-0.00012218893 -2.2284694e-05 -0.00013715947 7.184482e-05 4.4511038e-05 -0.00011082912 0.00012924519 -0.00010496009
-0.00023164747 2.91993e-05 4.3368404e-05 5.751334e-06 1.9231102e-05 0.00010383197 -4.5652927e-05 -0.00018335856
9.433115e-06 7.112416e-05 -0.00015949788 -0.000109035995 -9.44377e-05 -6.57831e-05 -1.1210609e-05 -0.00014359747
-5.085791e-05 6.388941e-05 1.0064396e-05 2.0740566e-05 -1.36984445e-05 -5.532923e-05 -0.00044762593 1.7075849e-05
-7.03936e-05 -4.5940036e-05 0.0001361232 -0.00017656486 -0.00016342751 -0.00038154228 -0.00014544133 -0.0002402106
-1.897744e-05 -9.811697e-05 -4.4452354e-05 -0.00011682742 0.00010996138 -0.00021274114 -0.00026690905 4.6364927e-05
-0.00031922892 -6.86924e-05 -6.15289e-05 -0.0005986927 -0.0003471528 -6.466194e-05 -1.348264e-05 -3.6717658e-05
5.8234375e-05 -0.00014397141 -8.643175e-05 -2.159021e-05 -0.000464981 -3.3344742e-05 -2.9369268e-05 -0.00013054092
-0.00046435607 -0.00025382882 -0.00019377496 -0.00033338138 -0.00035970684 -5.9291855e-05 -0.00019623456 -4.6289624e-05
-0.00037370165 -8.775397e-05 -3.214181e-06 -2.1811344e-05 -0.00013865632 5.9173723e-05 -0.00025741264 -0.00020331077
0.00014374842 3.8616403e-05 -6.9339316e-05 -0.00010061105 -0.00019946015 -3.095834e-05 -8.578224e-05 -0.00012278926
0.00014906452 0.00015059968 7.278072e-05 0.00010583014 -0.00024249207 5.690958e-05 0.00011977952 4.890624e-05
0.0001462731 -0.00022290363 0.0001260628 -0.00014399968 -3.7943963e-05 -3.8408467e-07 7.4152e-06 -5.1006144e-05
-0.00013858138 -0.0004042759 8.049735e-05 3.416966e-05 0.00010855496 -9.4362455e-05 3.0885636e-05 -7.4258314e-05
0.00012065172 0.0001689431 9.378807e-05 -1.32994355e-05 -0.00030643865 -9.2071205e-05 1.4484635e-05 -0.0004893021
-0.00017625427 0.00015120953 5.4356136e-05 -2.4827932e-05 -5.139717e-05 -0.00032269643 -0.00021335919 -0.0003735069
-0.0002463833 -7.083096e-05 -0.00029292307 7.6841796e-05 -1.8695267e-05 -0.0002814727 1.8226485e-05 -0.00023375993
-0.00037424837 1.7460852e-05 7.881632e-05 5.235126e-05 2.3234194e-05 0.00012132851 -3.9368308e-05 -0.00040564523
4.1097326e-05 0.00011948057 -0.00039687814 -0.00019674396 -0.0001539535 -0.00014219391 -6.003936e-05 -0.0003058286
-3.2747354e-05 -2.3330025e-05 3.658407e-05 5.157601e-05 -4.110648e-05 -0.000103686696 -0.0007881344 1.5349668e-05
