results/opponentL/OpponentL/OpponentL-2999994.onnx (onnx, 125740 bytes, 5 tensors)

action_model._continuous_distribution.mu.weight f4 [1, 128]
-0.06046057 -0.06637416 0.06128256 -0.04648374 0.06295656 0.114143044 0.097766854 -0.06574849
0.14484069 -0.090975165 -0.06574731 0.075640246 -0.049787384 0.046654847 -0.08712246 -0.13742384
0.14840563 0.09428746 0.08113655 -0.065400176 -0.098465905 0.0946441 -0.055921745 0.07101567
-0.042777892 0.05802796 0.121952325 -0.028391698 0.08870261 0.061819162 -0.072113164 0.0013886981
0.14741658 -0.005764529 0.16422366 0.042754084 -0.0979957 -0.045513272 -0.06409631 -0.055231225
0.08156194 0.033381704 0.10850855 0.06411121 -0.032148067 -0.04179972 -0.121513225 0.118416935
0.10354387 0.08284261 -0.09531161 -0.05648801 -0.027739473 0.07750543 0.0794393 -0.039941356
-0.08499506 0.15224306 -0.12753431 -0.061714847 0.14654171 0.022721067 0.07078615 0.0825248
-0.10911182 0.089575835 -0.05898341 -0.12027439 -0.019825654 -0.05566777 0.07356906 0.118727595
-0.027926978 -0.10486141 -0.086251326 0.0941785 0.099127196 -0.015726807 -0.0716669 0.0586633
0.10841064 0.013585601 0.07819421 -0.069546506 -0.06627951 0.046871115 -0.08922437 -0.093972936
-0.04489465 -0.11391744 -0.0018211346 0.08018655 -0.10298373 -0.057405923 0.059958793 -0.024174742
0.050117962 -0.026915634 -0.0861025 -0.03957165 0.08554454 0.06640166 -0.03892357 -0.06299753
0.015500847 -0.13946798 0.14592984 -0.06891589 0.06904881 -0.046429086 0.08852007 -0.021722885
-0.03311624 0.11274809 -0.06300683 0.059608657 0.08350982 -0.046420403 0.06088522 0.042925116
0.07759275 0.0826022 0.14944352 0.07464102 0.071274035 0.06654856 -0.06066078 0.09341623
00000000: 81a5 77bd 2def 87bd 6c03 7b3d bc65 3ebd
00000010: 5eef 803d d4c3 e93d fd39 c83d 25a7 86bd
00000020: 1e51 143e 3051 babd 87a6 86bd 46e9 9a3d
00000030: dbed 4bbd 2719 3f3d 436d b2bd d6b8 0cbe
00000040: a5f7 173e c919 c13d eb2a a63d 87f0 85bd
00000050: 7ea8 c9bd c4d4 c13d 330e 65bd aa70 913d
00000060: df37 2fbd baae 6d3d 24c2 f93d b595 e8bc
00000070: b7a9 b53d 1736 7d3d 11b0 93bd fa04 b63a
00000080: 5ff4 163e 60e4 bcbb 3f2a 283e e81e 2f3d
00000090: f8b1 c8bd 206c 3abd ed44 83bd 233a 62bd
000000a0: f209 a73d 41bb 083d bb39 de3d bd4c 833d
000000b0: b1ad 03bd 2f36 2bbd eddb f8bd 9484 f23d
000000c0: cf0e d43d 63a9 a93d bc32 c3bd f95f 67bd
000000d0: e43d e3bc 2bbb 9e3d 12b1 a23d 8c99 23bd
000000e0: e411 aebd 9be5 1b3e 5b98 02be b5c8 7cbd
000000f0: 080f 163e 8821 ba3c 54f8 903d c302 a93d
00000100: 0576 dfbd 8973 b73d 9798 71bd 6b52 f6bd
00000110: 6969 a2bc e303 64bd 60ab 963d 7427 f33d
00000120: 1ec7 e4bc 94c1 d6bd 89a4 b0bd a8e0 c03d
00000130: 3303 cb3d 81d5 80bc 18c6 92bd ee48 703d
00000140: 6606 de3d 2496 5e3c 4924 a03d 666e 8ebd
00000150: 8dbd 87bd edfb 3f3d 44bb b6bd e274 c0bd
00000160: 74e3 37bd 8c4d e9bd 23b3 eeba d938 a43d
00000170: 22e9 d2bd 7922 6bbd 5a97 753d 1c0a c6bc
00000180: 7e48 4d3d 2d7e dcbc 8256 b0bd e215 22bd
00000190: fa31 af3d 98fd 873d 526e 1fbd d904 81bd
000001a0: 44f7 7d3c b2d0 0ebe a26e 153e c623 8dbd
000001b0: 7669 8d3d 6d2c 3ebd 034a b53d 31f4 b1bc
000001c0: e5a4 07bd 78e8 e63d ba09 81bd 3528 743d
000001d0: 3207 ab3d 5223 3ebd c862 793d 3fd2 2f3d
000001e0: f3e8 9e3d 582b a93d b907 193e 64dd 983d
000001f0: 1ff8 913d 9d4a 883d 7077 78bd 0251 bf3d

network_body._body_endoder.seq_layers.0.bias f4 [128]
0.020451907 0.0045129196 -0.049577754 0.008786145 0.0068082237 0.014726202 0.011480561 0.03136163
0.010569185 0.003208889 -0.0014198413 -0.00069622666 -0.02513991 0.021886643 0.014283818 0.019235283
0.013342238 0.007674544 0.0221566 0.014915636 0.024550254 0.024010712 0.028193071 -0.008617147
-0.015549216 0.01303235 0.04458258 0.02421253 0.033419598 0.0072503504 0.013998654 -0.006604764
0.013625505 0.0059274714 0.013616729 0.0064864294 -0.009092576 0.01839917 0.028091798 0.004589884
0.009204768 -0.0060301297 0.0051674517 -0.020335803 0.024114557 -0.0061496566 0.0066857547 0.011192506
-0.028080149 -0.0026306177 0.014673401 -0.01054018 0.0045330357 -0.019175678 0.004487188 0.019450542
-0.018601801 0.00092607015 0.0014213754 -0.022903932 0.0288802 -0.006153897 -0.041053556 -0.0057318164
-0.0063626696 0.0049565607 0.04120411 0.009690765 0.01564799 0.004895047 0.017865611 -0.00031226393
0.009531697 0.0054697664 -0.0037799904 0.039853815 -0.01924224 0.018380579 0.0071374997 0.027737562
-0.029622488 0.017523238 -0.018379955 0.014495634 0.012529846 -0.021562433 0.017418655 0.013047756
0.00072621944 0.012855228 -0.008367649 -0.013068272 -0.0017331471 0.016722882 0.037768442 0.025298253
0.013725092 0.028991586 0.03515754 -0.008009146 0.0028475663 0.0052999742 0.032659307 -0.016169328
-0.0044567897 -0.0037445673 -0.02216323 -0.005751583 0.008017524 0.015141315 0.024523934 -0.0062492383
-0.013047825 -8.334147e-05 0.033822134 0.0031891745 0.021306517 0.014984247 0.005126455 0.019778317
0.0074861636 -0.005353876 0.00852989 -0.0027449634 -0.00041396084 0.014349499 0.053973444 0.004235377
00000000: c28a a73c 1de1 933b 0b12 4bbd c3f3 0f3c
00000010: 8517 df3b 2b46 713c f718 3c3c 0d75 003d
00000020: 602a 2d3c 394c 523b f819 baba fb82 36ba
00000030: 36f2 cdbc 9e4b b33c ad06 6a3c 5093 9d3c
00000040: 6799 5a3c be7a fb3b c281 b53c b660 743c
00000050: 9d1d c93c 1db2 c43c 28f5 e63c ef2e 0dbc
00000060: 24c2 7ebc a385 553c 399c 363d 5b59 c63c
00000070: fde2 083d 5994 ed3b 9c5a 653c c76c d8bb
00000080: 833d 5f3c 3c3b c23b b318 5f3c 1d8c d43b
00000090: 07f9 14bc dbb9 963c c520 e63c bd66 963b
000000a0: 98cf 163c 6598 c5bb ba53 a93b 4597 a6bc
000000b0: e48b c53c 0f83 c9bb 2d14 db3b c660 373c
000000c0: 5708 e6bc 7166 2cbb b468 703c b8b0 2cbc
000000d0: dc89 943b 5016 9dbc 4309 933b be56 9f3c
000000e0: ce62 98bc 84c3 723a 724d ba3a 07a1 bbbc
000000f0: 2b96 ec3c a1a6 c9bb c627 28bd f6d1 bbbb
00000100: f17d d0bb a56a a23b a4c5 283d 04c6 1e3c
00000110: 3730 803c a166 a03b e75a 923c 5bb7 a3b9
00000120: d62a 1c3c ba3b b33b b7b9 77bb c13d 233d
00000130: e7a1 9dbc de92 963c b0e1 e93b e239 e33c
00000140: dcaa f2bc e58c 8f3c 8f91 96bc 187f 6d3c
00000150: fc49 4d3c b3a3 b0bc 91b1 8e3c 41c6 553c
00000160: c35f 3e3a bc9e 523c 7718 09bc 4e1c 56bc
00000170: c42a e3ba 6dfe 883c 15b3 1a3d 483e cf3c
00000180: 35df 603c c37f ed3c 5a01 103d cb38 03bc
00000190: 3c9e 3a3b 68ab ad3b c4c5 053d 8a75 84bc
000001a0: 430a 92bb 6a67 75bb aa8f b5bc c677 bcbb
000001b0: ef5b 033c 4713 783c 6be6 c83c 69c6 ccbb
000001c0: 8bc6 55bc 9cc7 aeb8 1489 0a3d 7801 513b
000001d0: 018b ae3c 7d80 753c d2fb a73b 2306 a23c
000001e0: 7e4e f53b 916f afbb f4c0 0b3c d8e4 33bb
000001f0: e208 d9b9 291a 6b3c 4213 5d3d ebc8 8a3b

network_body._body_endoder.seq_layers.0.weight f4 [128, 111]
-0.003939414 0.11741474 -0.33604738 0.18622883 -0.022537066 0.24034245 0.015179881 0.03908459
0.08501622 0.07459665 -0.15237197 -0.08962793 -0.101543024 0.101650916 -0.17259546 0.053605016
-0.17673549 0.039267723 0.124443494 -0.104488574 -0.06294221 0.11418535 0.14236373 -0.12867118
-0.095539294 -0.019996969 0.08323397 -0.018649673 0.103830166 -0.04447013 -0.15493609 0.22590946
0.039564267 0.049728636 0.09290197 0.03799004 -0.13270444 -0.1725805 -0.042048752 -0.06927155
0.22340515 0.04832812 0.14627503 -0.09558036 0.09366147 0.06117559 -0.03588998 -0.028915893
0.12574923 0.0046702875 -0.057369567 0.19871907 -0.08008748 -0.0062109907 -0.07439889 -0.095081866
0.06947863 -0.014433309 0.06853018 0.19099306 0.06329215 0.050432194 0.00512985 0.00419938
0.028127218 0.17112866 -0.16389306 -0.08226145 0.031493332 -0.01980162 -0.01078402 0.2033998
0.080020666 0.008541532 -0.0011703669 0.12920785 -0.22255926 0.036179118 -0.009402824 0.04744719
0.12650637 -0.036586896 -0.08646926 0.0030869597 -0.024812475 0.050307583 -0.011530849 0.1745721
0.06481027 -0.040210083 -0.049858663 -0.028098403 -0.152141 0.07152401 -0.0020008124 0.30071586
-0.17610727 0.10765061 -0.20078173 -0.061048858 0.16406034 -0.14166954 0.26315835 0.04823698
0.108268455 0.1312563 0.15985894 -0.20115842 0.05812419 0.06821677 -0.18296757 -0.10379654
-0.059139937 0.09454503 0.057145532 -0.19982553 -0.09727682 0.11838081 0.031881403 -0.2056445
0.026607806 -0.12737472 -0.12656868 0.022467667 0.036164075 0.11431751 -0.06702163 -0.016704999
0.026106067 -0.12418813 -0.009335308 0.004768874 0.031412642 0.14704095 0.028797979 0.021407414
0.15767397 -0.027051533 0.024471832 -0.0397826 -0.062009268 -0.059213486 0.0006989169 0.11728212
0.0004568588 0.18937416 0.042816978 0.0064412104 -0.02871907 -0.20276013 0.090015985 0.0026820637
-0.14988847 -0.025008895 -0.0045997724 0.06880607 0.13566214 0.042680442 -0.17131473 0.035214033
0.068061054 0.10599199 0.29731402 0.14545362 0.07173755 -0.15906411 -0.025290756 0.02317245
0.06382482 -0.16943596 -0.20363708 -0.16271032 -0.035283968 -0.037558906 0.07475143 0.08856207
0.081586234 0.12625235 0.13223659 0.016361052 0.044295188 -0.06824439 0.14076982 -0.105708815
-0.131511 -0.026202943 -0.0020692751 0.038749 0.24559657 -0.033024 0.11620838 0.076472424
-0.13086495 0.01745634 -0.013867775 0.11569932 -0.053843446 -0.038733907 -0.21137492 -0.07588804
-0.017585734 0.036826316 0.041852478 0.08990064 -0.06511575 0.08501686 -0.029992864 -0.10448672
-0.05865385 -0.059574075 0.03713092 -0.06164055 -0.019534005 0.0018906755 0.097602844 -0.08216531
0.05589724 -0.030209862 -0.0027646504 -0.10971087 -0.12171557 0.06428631 0.002651414 0.041636888
0.015505981 -0.14055832 -0.11067957 -0.16116337 -0.056239728 -0.17119007 -0.11474693 -0.09564847
0.14256221 -0.01885039 -0.13534783 0.0074984403 0.15463014 -0.025948614 -0.11462274 0.03273045
-0.021174321 0.079057276 0.010995887 -0.15592423 0.03832467 0.035414428 -0.12265643 -0.2829831
-0.08191015 0.035277802 0.12640804 0.018237049 0.07159384 -0.21021782 0.0592373 0.06305147
00000000: 3316 81bb 2477 f03d 670e acbe c5b2 3e3e
00000010: a79f b8bc 551c 763e 09b5 783c 2a17 203d
00000020: fc1c ae3d 21c6 983d 6607 1cbe d98e b7bd
00000030: caf5 cfbd 5b2e d03d ddbc 30be ef90 5b3d
00000040: 26fa 34be 31d7 203d 3bdc fe3d 1bfe d5bd
00000050: d8e7 80bd 02da e93d ccc7 113e 61c2 03be
00000060: 1baa c3bd afd0 a3bc 9276 aa3d 33c7 98bc
00000070: e9a4 d43d 5026 36bd 91a7 1ebe cf54 673e
00000080: 240e 223d 41b0 4b3d 6343 be3d 729b 1b3d
00000090: ace3 07be f1b8 30be 503b 2cbd 3ede 8dbd
000000a0: 52c4 643e b5f3 453d 1fc9 153e a3bf c3bd
000000b0: 96d1 bf3d 4193 7a3d 5f01 13bd 06e1 ecbc
000000c0: 68c4 003e 3609 993b 5afc 6abd 037d 4b3e
000000d0: e804 a4bd 9185 cbbb 725e 98bd 48ba c2bd
000000e0: d04a 8e3d b079 6cbc 8d59 8c3d af93 433e
000000f0: 519f 813d fd91 4e3d 4d18 a83b f49a 893b
00000100: 0d6b e63c 5a3c 2f3e 95d3 27be b178 a8bd
00000110: 27ff 003d 0237 a2bc 75af 30bc 0a48 503e
00000120: e0e1 a33d c8f1 0b3c ff66 99ba 104f 043e
00000130: 93e6 63be 8e30 143d 4d0e 1abc fc57 423d
00000140: e38a 013e 24dc 15bd cc16 b1bd 974e 4a3b
00000150: 8843 cbbc 530f 4e3d e3eb 3cbc 07c3 323e
00000160: 3fbb 843d 54b3 24bd 9938 4cbd 9f2e e6bc
00000170: daca 1bbe 2e7b 923d 1020 03bb 6ef7 993e
00000180: 7755 34be ec77 dc3d ba99 4dbe 5e0e 7abd
00000190: 6fff 273e d211 11be b1bc 863e 2494 453d
000001a0: dabb dd3d 0d68 063e 10b2 233e 79fc 4dbe
000001b0: a113 6e3d 3cb5 8b3d da5b 3bbe 4893 d4bd
000001c0: b83c 72bd d3a0 c13d 6f11 6a3d 109f 4cbe
000001d0: 1239 c7bd a371 f23d 1396 023d 7994 52be
000001e0: 9df8 d93c 856e 02be 389b 01be 1d0e b83c
000001f0: c820 143d 4c1f ea3d a342 89bd ecd8 88bc
00000200: 64dc d53c 5956 febd 1ff3 18bc 3744 9c3b
00000210: 8baa 003d e791 163e bde9 eb3c 9a5e af3c
00000220: 4975 213e 2d9b ddbc 2779 c83c 14f3 22bd
00000230: 6efd 7dbd d789 72bd 8537 373a 9c31 f03d
00000240: 8d86 ef39 4deb 413e db60 2f3d ca10 d33b
00000250: 4144 ebbc 5aa0 4fbe 4d5a b83d 90c5 2f3b
00000260: 5d7c 19be 74df ccbc b0b9 96bb 32ea 8c3d
00000270: 04eb 0a3e b0d1 2e3d 216d 2fbe 973c 103d
00000280: 9863 8b3d 5412 d93d 8b39 983e cbf1 143e
00000290: 23eb 923d b4e1 22be 8f2e cfbc 26d4 bd3c
000002a0: 96b6 823d 9f80 2dbe 3d86 50be 899d 26be
000002b0: ec85 10bd 5ed7 19bd 4717 993d 0860 b53d
000002c0: af16 a73d 4c48 013e 0769 073e 9d07 863c
000002d0: df6e 353d b7c3 8bbd f725 103e dd7d d8bd
000002e0: d2aa 06be 8ea7 d6bc ad9c 07bb 45b7 1e3d
000002f0: ab7d 7b3e 2c44 07bd a9fe ed3d 939d 9c3d
00000300: 7601 06be 9900 8f3c aa35 63bc c4f3 ec3d
00000310: f28a 5cbd 72a7 1ebd ab72 58be 306b 9bbd
00000320: f50f 90bc 31d7 163d 816d 2b3d d41d b83d
00000330: 685b 85bd 521d ae3d 98b3 f5bc 22fd d5bd
00000340: 053f 70bd f203 74bd 9716 183d cd7a 7cbd
00000350: c705 a0bc 8bd0 f73a 00e4 c73d 4946 a8bd
00000360: 81f4 643d ac7a f7bc 232f 35bb 18b0 e0bd
00000370: 0346 f9bd 8aa8 833d 58c3 2d3b 718b 2a3d
00000380: cc0c 7e3c 85ee 0fbe f8ab e2bd 0308 25be
00000390: a15b 66bd 734c 2fbe 7000 ebbd 58e3 c3bd
000003a0: d4fb 113e 226c 9abc 9f98 0abe 7ab5 f53b
000003b0: 5d57 1e3e 3092 d4bc 54bf eabd 5d10 063d
000003c0: c575 adbc c8e8 a13d 1828 343c 9aaa 1fbe
000003d0: 54fa 1c3d b80e 113d 4b33 fbbd 29e3 90be
000003e0: 82c0 a7bd 757f 103d 1c71 013e dd65 953c
000003f0: cb9f 923d 5743 57be d0a2 723d 2121 813d

network_body._body_endoder.seq_layers.2.bias f4 [128]
0.013326947 0.009170744 0.007834503 0.0135575915 0.010848454 0.015059147 0.047982667 0.023160491
0.032437503 0.019890027 0.0074887746 0.012704626 0.0015507438 0.014476204 0.0149588855 0.032400228
0.04190249 0.017422868 0.023665499 0.017123938 0.033087626 0.02125914 0.016460745 0.02544178
-0.00027101228 0.008227617 0.04006746 0.019586466 0.02063562 0.01569733 0.00882371 0.024149178
0.036237456 0.006374133 0.038021907 0.017487204 0.02124832 0.02131712 0.017022368 0.010265641
0.023649428 0.010125235 0.039853796 0.011487104 -0.0012392031 0.00664728 0.021851435 0.038944304
0.032419033 0.017131994 0.04679115 0.009211812 0.0137078995 0.018775538 0.03733727 0.0032252544
0.028237225 0.028714165 0.037008055 0.013259133 0.04392983 -0.011190514 0.024469698 0.020401804
0.01699028 0.029868348 0.026889183 0.027062407 0.02172526 0.017488595 0.024985794 0.024868729
0.0017658941 0.019307248 0.0171567 0.019948589 0.030325102 -0.015057042 0.0028845994 0.030521423
0.016789148 0.0021903673 0.03236234 0.02108925 0.013695074 0.022981698 0.029120136 0.034135677
0.0033115253 0.025098678 0.0035368467 0.027839324 0.02827527 0.0057247593 0.012530475 -0.0020570855
0.0099240765 0.003920899 0.019842254 -1.4053874e-05 0.018383969 0.018239789 0.0011449514 0.022873014
0.012708219 0.04018912 0.02711009 0.012709731 0.030041296 0.00466121 0.03111866 0.0021459234
0.0042790696 0.03317887 0.016653959 0.015403012 0.030553738 0.010705793 0.027187847 -0.009506104
0.022428356 0.025115734 0.04534253 0.015535586 0.016722454 0.02624868 0.012538519 0.01994185
00000000: 4459 5a3c e340 163c 4a5c 003c a920 5e3c
00000010: b7bd 313c a4ba 763c 7989 443d 12bb bd3c
00000020: 30dd 043d 69f0 a23c 6564 f53b 1027 503c
00000030: 5442 cb3a 9a2d 6d3c 1d16 753c 1ab6 043d
00000040: f2a1 2b3d 67ba 8e3c 26de c13c 8047 8c3c
00000050: e486 073d a627 ae3c afd8 863c 486b d03c
00000060: a716 8eb9 20cd 063c c71d 243d cc73 a03c
00000070: 080c a93c b097 803c 5291 103c 7fd4 c53c
00000080: ba6d 143d 1ade d03b dcbc 1b3d 5341 8f3c
00000090: f510 ae3c 3ea1 ae3c 7e72 8b3c 3831 283c
000000a0: 72bc c13c 50e4 253c bc3d 233d 6834 3c3c
000000b0: c26c a2ba 6dd1 d93b c801 b33c 1084 1f3d
000000c0: d2c9 043d 6558 8c3c 14a8 3f3d 24ed 163c
000000d0: 1997 603c 28cf 993c f7ee 183d ca5e 533b
000000e0: c151 e73c f839 eb3c c295 173d d63c 593c
000000f0: c4ef 333d 6b58 37bc ad74 c83c af21 a73c
00000100: 332f 8b3c 77ae f43c b446 dc3c fbb1 dd3c
00000110: 2cf9 b13c 3e44 8f3c 02af cc3c 81b9 cb3c
00000120: 9375 e73a 3c2a 9e3c 358c 8c3c 396b a33c
00000130: 596c f83c d0b1 76bc 8c0b 3d3b 1008 fa3c
00000140: 6589 893c 448c 0f3b 5f8e 043d 5dc3 ac3c
00000150: 4e61 603c 1d44 bc3c 5a8d ee3c dad1 0b3d
00000160: 2d06 593b be9b cd3c 71ca 673b 4b0f e43c
00000170: 8aa1 e73c c396 bb3b 9f4c 4d3c 2bd0 06bb
00000180: 9898 223c e27a 803b 398c a23c eec8 6bb7
00000190: fa99 963c 9c6b 953c 3212 963a 3060 bb3c
000001a0: 2236 503c 599d 243d fb15 de3c 7a3c 503c
000001b0: 2a19 f63c 10bd 983b 8fec fe3c 9fa2 0c3b
000001c0: 7037 8c3b 91e6 073d e26d 883c ea5c 7c3c
000001d0: d54b fa3c 5a67 2f3c 0cb9 de3c 7dbf 1bbc
000001e0: acbb b73c 83bf cd3c 17b9 393d f888 7e3c
000001f0: 87fd 883c 7907 d73c 5c6e 4d3c 175d a33c

network_body._body_endoder.seq_layers.2.weight f4 [128, 128]
-0.06664657 -0.16902792 -0.04489157 0.039803248 0.031533446 -0.067458294 0.20723422 -0.024895899
-0.09130069 -0.10588725 0.006297589 -0.075826675 -0.015899226 -0.17469172 0.10883081 -0.0499513
-0.058992583 0.040901456 -0.07315713 0.1269825 0.13517162 -0.03075108 -0.22918749 -0.06969744
-0.038018018 0.07765248 0.037363626 0.012288892 -0.08451024 -0.03343488 -0.01990037 -0.031146135
-0.015306591 0.016962172 -0.03044006 -0.09750682 0.25659433 -0.06358787 0.030595634 0.15422593
0.053839326 -0.12977923 -0.009619555 -0.16812806 0.0722333 -0.05582905 -0.051664986 -0.13526855
0.059219696 0.04813443 0.042840715 0.090585575 0.192626 0.13555686 0.06332808 0.11278477
0.043446206 -0.07886642 -0.0064032674 -0.06641885 0.006540518 0.01932152 -0.039991293 0.112326205
-0.027558824 0.05145974 0.05629291 -0.21374331 0.047262635 -0.16301225 -0.114240386 -0.12558118
-0.06492918 -0.1487913 0.007429583 0.013667234 0.04542192 0.0291104 -0.020003194 0.025734112
-0.12047958 -0.06134615 0.026527872 -0.102587596 0.12381651 -0.0038999284 -0.01695371 0.038572878
-0.08240862 -0.11246811 -0.0020140258 -0.03755725 -0.18913218 -0.10811795 -0.008953135 -0.04073885
0.14480305 -0.117360145 -0.07072667 -0.065597445 -0.03208171 0.053733714 -0.046305172 -0.08093177
0.044677585 0.059044357 0.037450653 -0.09258514 -0.16214305 -0.12998794 0.27773434 0.00598483
-0.03396297 0.14224605 -0.04069937 -0.016259309 0.13984746 -0.085710645 0.0016874663 0.22208658
0.020174384 0.02188598 -7.1832925e-05 0.008238 -0.108264625 -4.22095e-05 -0.100247845 0.13617575
0.010896074 -0.0896853 0.08428213 0.13833895 -0.024449965 -0.005228574 0.09883561 0.21488145
-0.1816102 -0.2031929 -0.034949094 -0.08540736 -0.048117742 -0.101945624 -0.05675947 -0.27944866
0.024257474 -0.16884917 0.04021891 0.13271943 0.053710565 -0.059878644 0.00048342522 -0.061918117
0.0051087057 0.030531883 0.0024794776 -0.03543355 -0.005311197 0.10402249 -0.04471271 0.03023278
-0.009884972 0.17900343 -0.03803897 -0.032798298 -0.12097863 -0.106240764 0.018119112 0.059370153
0.07744497 0.12095711 -0.078174576 -0.0778892 0.1025144 0.022528337 -0.18848456 0.053960167
-0.039472885 -0.015966197 -0.06375815 0.13686997 -0.06834944 0.064967 -0.06711161 0.04455189
-0.19666462 -0.17785221 0.04115128 0.060255315 -0.042555485 0.14183144 -0.18679619 -0.016172128
-0.0060208337 0.19090676 -0.09602114 -0.14327465 0.116453834 -0.010921573 0.042335033 0.13403282
0.10210752 0.011429262 0.035723202 -0.023846678 -0.13237458 0.019843332 -0.038573075 -0.13324028
-0.06062415 -0.06562449 0.063966915 0.057421234 -0.03559417 0.06373396 0.26547962 -0.00031854934
0.110583305 0.04245351 0.16940741 -0.13390604 -0.030414484 0.09071727 -0.09037119 0.07104264
0.17072462 0.018232698 -0.043077726 0.02493665 0.050798163 0.15082121 -0.062156875 0.01605627
0.14965671 0.064600505 -0.11708394 -0.02049228 -0.08220919 -0.053764157 0.013845471 0.02112197
-0.03340457 0.024793683 0.06972777 0.022012021 0.07805434 0.10984142 0.090248555 0.0329194
-0.14956915 0.04273287 0.11596921 0.025451371 -0.05338443 0.07891366 0.052156724 -0.0015023735
00000000: ff7d 88bd a815 2dbe 39e0 37bd bb08 233d
00000010: 3729 013d 9327 8abd 3535 543e 7cf2 cbbc
00000020: dbfb babd 6adb d8bd 015c ce3b 044b 9bbd
00000030: 183f 82bc 63e2 32be b0e2 de3d bc99 4cbd
00000040: 35a2 71bd 4988 273d 68d3 95bd b307 023e
00000050: 6e6a 0a3e b0e9 fbbc 20b0 6abe 88bd 8ebd
00000060: c8b8 1bbd 4308 9f3d 9a0a 193d 5957 493c
00000070: b413 adbd 03f3 08bd 1a06 a3bc 2e26 ffbc
00000080: 7fc8 7abc 41f4 8a3c 6f5d f9bc a8b1 c7bd
00000090: 5560 833e 5b3a 82bd b2a3 fa3c 67ed 1d3e
000000a0: a086 5c3d d9e4 04be 579b 1dbc c329 2cbe
000000b0: 0def 933d 00ad 64bd aa9e 53bd d783 0abe
000000c0: 5a90 723d 9c28 453d bf79 2f3d ee84 b93d
000000d0: c03f 453e 6bcf 0a3e 27b2 813d b4fb e63d
000000e0: a6f4 313d b884 a1bd 80d2 d1bb 9b06 88bd
000000f0: d751 d63b 2a48 9e3c e9cd 23bd 480b e63d
00000100: 0bc3 e1bc 73c7 523d 6593 663d 87df 5abe
00000110: 7796 413d afec 26be ddf6 e9bd 5a98 00be
00000120: 97f9 84bd bf5c 18be dc73 f33b 89ec 5f3c
00000130: 560c 3a3d ef78 ee3c bddd a3bc 58d0 d23c
00000140: ffbd f6bd 1a46 7bbd fb50 d93c 7219 d2bd
00000150: 8393 fd3d f195 7fbb 82e2 8abc 98fe 1d3d
00000160: dac5 a8bd ae55 e6bd bffd 03bb a2d5 19bd
00000170: deab 41be f26c ddbd 2cb0 12bc c8dd 26bd
00000180: 4047 143e 845a f0bd 25d9 90bd f457 86bd
00000190: 1c68 03bd e217 5c3d 7eaa 3dbd 8ebf a5bd
000001a0: d8ff 363d 7fd8 713d db65 193d 479d bdbd
000001b0: d408 26be 8f1b 05be 3233 8e3e 651c c43b
000001c0: c11c 0bbd f3a8 113e 62b4 26bd 3e32 85bc
000001d0: 2c34 0f3e 1089 afbd f92d dd3a aa6a 633e
000001e0: c044 a53c 3a4a b33c 02a5 96b8 adf8 063c
000001f0: d8b9 ddbd 1b0a 31b8 be4e cdbd a871 0b3e
00000200: 7285 323c edac b7bd 1c9c ac3d baa8 0d3e
00000210: 4b4b c8bc 7554 abbb 536a ca3d e209 5c3e
00000220: 06f8 39be cd11 50be c826 0fbd 0eea aebd
00000230: 1c17 45bd dec8 d0bd 9e7c 68bd e513 8fbe
00000240: 9cb7 c63c cce6 2cbe 95bc 243d 9ae7 073e
00000250: 9cff 5b3d 4f43 75bd 3c74 fd39 da9d 7dbd
00000260: ee66 a73b 001e fa3c bb7e 223b c522 11bd
00000270: 8d09 aebb be09 d53d ad24 37bd bcaa f73c
00000280: 94f4 21bc ad4c 373e c0ce 1bbd 8257 06bd
00000290: a5c3 f7bd c294 d9bd 886e 943c 1e2e 733d
000002a0: 789b 9e3d 5cb8 f73d fe19 a0bd 5f84 9fbd
000002b0: 12f3 d13d 598d b83c 1902 41be 5605 5d3d
000002c0: 52ae 21bd 8bcb 82bc a293 82bd a427 0c3e
000002d0: cbfa 8bbd 6b0d 853d d071 89bd 0b7c 363d
000002e0: 7362 49be e41e 36be 3f8e 283d 47ce 763d
000002f0: a94e 2ebd 433c 113e 8047 3fbe 697b 84bc
00000300: 6a4a c5bb 107d 433e bba6 c4bd 97b6 12be
00000310: 597f ee3d 66f0 32bc 8067 2d3d e63f 093e
00000320: bf1d d13d cd41 3b3c 7e52 123d 1c5a c3bc
00000330: 348d 07be 7c8e a23c cdfe 1dbd 2470 08be
00000340: 0751 78bd 2266 86bd 1601 833d 8732 6b3d
00000350: 31cb 11bd f386 823d f2ec 873e f802 a7b9
00000360: 8079 e23d bbe3 2d3d 2379 2d3e aa1e 09be
00000370: cc27 f9bc fac9 b93d 8814 b9bd ce7e 913d
00000380: 6fd2 2e3e bd5c 953c 4572 30bd f247 cc3c
00000390: bc11 503d e070 1a3e 3598 7ebd 7088 833c
000003a0: 9c3f 193e 454d 843d b4c9 efbd 6ddf a7bc
000003b0: 4b5d a8bd ce37 5cbd 1dd8 623c fb07 ad3c
000003c0: 3bd3 08bd 1f1c cb3c 6fcd 8e3d 8e52 b43c
000003d0: f4da 9f3d 8af4 e03d 3cd4 b83d 7ed6 063d
000003e0: a828 19be a908 2f3d 4481 ed3d 657f d03c
000003f0: a2a9 5abd 7c9d a13d 4aa2 553d 4aeb c4ba
